customTrainer/results/AgentBall10/RollerBall/checkpoint.pt (torch, 156450 bytes, 12 tensors)

fc1.weight f4 [128, 16]
000000 fe db 63 be 70 3f 69 3e 70 5f 25 bd 84 62 5e be
       -0.22251889 0.22778106 -0.04037422 -0.21717268
000010 50 fc 40 be 14 cd 40 be e4 6d ee 3d 8c 8e 4b 3e
       -0.1884625 -0.18828231 0.11642054 0.19878596
000020 96 ea 03 be 5c 57 ad 3d 44 dc 46 be 1c a8 4d 3e
       -0.12882456 0.08463928 -0.19419962 0.2008366
000030 54 d8 80 bd 4c 9d 47 be 60 aa 40 3e b0 52 34 3e
       -0.06291261 -0.19493598 0.18814993 0.17609668
000040 0c 3d cc bd 30 54 1a 3e e8 56 fe 3d 2e c6 42 be
       -0.09972581 0.15071177 0.1241892 -0.19020912
000050 40 01 c8 3d d0 49 c5 3d 66 2e 04 be 16 57 78 3e
       0.097658634 0.09633219 -0.12908325 0.2425197
000060 a8 c9 42 be 46 15 7d 3e f8 96 38 be f8 30 27 be
       -0.19022238 0.24715146 -0.1802634 -0.16327274
000070 7e 63 57 3e 50 ae b3 3d 90 a0 44 3e 10 77 b5 3c
       0.21034047 0.08773482 0.19201875 0.0221515
000080 46 0e 60 3e a0 4e d9 bc 52 9b 56 3e 10 0a 59 bd
       0.21880445 -0.02652675 0.20957687 -0.052988112
000090 0e 25 2d 3e 38 63 0c be 48 e5 56 be ba 69 74 3e
       0.16908666 -0.13709724 -0.20985901 0.23868456
0000a0 98 99 af bd 94 a0 a9 bd 80 45 7c bd c0 e5 f4 3d
       -0.085742176 -0.08282581 -0.061589718 0.11957884
0000b0 44 01 3d 3e d6 ce 64 be 40 da 40 be fc bb 4a be
       0.18457514 -0.22344527 -0.18833256 -0.19798273
0000c0 0c 4a d5 3d e8 39 d7 bd 44 35 08 3e 80 32 b1 bc
       0.10414514 -0.105090916 0.13301569 -0.021630526
0000d0 b2 70 05 3e 92 81 24 be 38 ae 69 be 08 b4 87 bd
       0.13031271 -0.16065052 -0.22820365 -0.06626135
0000e0 ac 98 2c be c0 e9 60 be 78 cf 07 3e 00 ab 4e 3e
       -0.16855115 -0.21964169 0.13262737 0.20182419
0000f0 ac 3d de bd cc c6 5b 3e 40 21 b4 bd 4a 6d 31 3e
       -0.10851607 0.21462554 -0.087954044 0.17326847
000100 da b9 1b be f6 38 0c 3e b8 42 4d 3e 40 61 32 3e
       -0.15207615 0.13693604 0.20044982 0.1741991
000110 5e 5c 49 3e fa 6d 69 be de 6a 7e be 40 0a e5 3d
       0.19664142 -0.22795859 -0.24845454 0.11183596
000120 6c 87 20 3e 90 f8 4d bd fa 1c 7b 3e 06 9f 14 3e
       0.1567666 -0.050285876 0.24522772 0.14513788
000130 ac 7f 94 3d 56 b9 3a 3e 7c 07 9d bd 38 86 0c 3d
       0.07250914 0.18234763 -0.07667443 0.03430769
000140 88 47 89 3d 8a d4 77 be 98 a0 51 be b6 ca 5c 3e
       0.06703097 -0.24202171 -0.20471418 0.21561703
000150 e0 f0 da 3d fc fe 4c be 08 60 13 be 90 3e c1 3c
       0.106904745 -0.20019144 -0.14392102 0.023589402
000160 e0 78 f6 3d 44 d7 eb 3d 32 08 55 3e 66 28 3d 3e
       0.12034774 0.11515668 0.20803908 0.18472442
000170 4a 5b 28 3e 72 1b 4a be 70 b9 af 3d 66 59 4e 3e
       0.16441074 -0.19737032 0.08580291 0.2015129
000180 d8 b3 20 3e 0c 5f d1 bd a0 c0 38 be b8 49 a7 bd
       0.15693605 -0.10223207 -0.1804223 -0.081683576
000190 70 86 17 bd ec bd 38 3e 3e 00 2b be 38 45 4d 3d
       -0.036993444 0.180412 -0.16699311 0.05011484
0001a0 48 74 dd 3d a0 c8 39 3c 78 c4 45 3e 42 82 53 be
       0.108131945 0.011339337 0.19313228 -0.20655158
0001b0 1c 4c d7 3d 98 dd 22 be e0 08 3d bc f2 2f 3d be
       0.105125636 -0.15904844 -0.0115377605 -0.18475321
0001c0 d0 7f 3d 3d 90 ff 27 3d 60 bd 7c 3c c6 19 44 be
       0.04626447 0.041015208 0.01542601 -0.19150457
0001d0 86 71 47 3e d2 9d 68 3e a0 89 a5 3d 40 41 86 bb
       0.194769 0.22716454 0.080828905 -0.004097134
0001e0 88 4d 10 3d f6 eb 01 be 00 70 da b9 3e 50 0f 3e
       0.03523019 -0.12687668 -0.00041663647 0.13995454
0001f0 00 d0 41 3e 40 37 b9 3b f0 fc 92 3d 7a b3 6d be
       0.18927002 0.0056523383 0.0717715 -0.23212996
000200 76 d7 2f 3e a6 00 53 3e 56 95 4d be 74 22 32 3e
       0.17172036 0.20605716 -0.20076498 0.17395955
000210 40 be 57 bd d0 3f 4d 3e dc 27 dc bd 04 94 f5 3d
       -0.05267167 0.20043874 -0.1074979 0.11991122
000220 00 cf 99 bd b8 02 bd bd ce 8c 6c be 88 25 90 bd
       -0.07510185 -0.09229034 -0.23100588 -0.070384085
000230 9e d1 7f be 80 5c 71 3e 98 4f 5c 3e c0 7b 21 bd
       -0.24982306 0.23570442 0.21514738 -0.039424658
000240 fa 3d 6c be 68 8a 6a bd 74 fb c6 3d 58 e8 c7 3d
       -0.23070517 -0.0572609 0.097159296 0.09761113
000250 68 4f 12 3d a6 e6 24 3e 10 d7 88 bc 40 aa fd bc
       0.03572026 0.1610361 -0.016704112 -0.03096497
000260 00 2e c8 bc 10 04 f0 bd f4 49 95 3d 0c 3b b6 3d
       -0.024435997 -0.11719525 0.07289496 0.08897981
000270 b0 6e 94 bc 4e 9f 66 3e 68 6e e5 3d be 9f 1d be
       -0.018119186 0.22521707 0.11202699 -0.15392968
000280 f0 e2 e6 3c f4 a3 d6 3d a4 20 0d 3e 9a 4a 5c be
       0.028184384 0.1048049 0.13781983 -0.21512833
000290 a4 d5 63 be 00 06 f4 3d d8 b4 09 3e 24 ca 83 3d
       -0.22249466 0.11915207 0.13447893 0.0643504
0002a0 42 ea 65 be c2 61 64 be 4c 72 92 bd e0 15 32 3e
       -0.22452644 -0.22302917 -0.07150707 0.17391157
0002b0 12 c3 6a 3e 8a c1 13 3e 4c 5e 48 be b8 c6 14 3d
       0.22925976 0.14429298 -0.19567221 0.036322325
0002c0 dc 91 5e be 88 52 fb 3d 68 bb a0 3d 2c 0c 06 be
       -0.21735328 0.12271601 0.07848245 -0.1309058
0002d0 e8 db 26 be 74 2c e1 bd a8 20 15 3d d0 45 33 3d
       -0.16294825 -0.10994807 0.036408097 0.04376775
0002e0 f0 d2 fa bd 16 7f 7b 3e e2 e2 3b be 00 f8 74 39
       -0.122472644 0.24560198 -0.18348268 0.0002336204
0002f0 e8 ec 68 3e 94 c4 3a be 02 fe 05 be c0 a0 e8 3b
       0.22746623 -0.18239051 -0.13085178 0.007099241
000300 64 ac f1 bd 66 04 38 3e d0 1f 3a 3e a0 34 41 3d
       -0.11800459 0.17970428 0.18176198 0.047169328
000310 88 01 3d bd ec 4e 91 3d 64 18 db bd b0 08 ee bc
       -0.04614404 0.07095131 -0.106980115 -0.029056877
000320 82 7d 6f be be dc 46 be 1c 9d af 3d bc 42 88 3d
       -0.23387721 -0.19420144 0.08574888 0.066533536
000330 90 0d 68 3e 56 17 2e 3e 28 ec dc 3d 58 74 1a be
       0.22661424 0.1700109 0.10787231 -0.15083444
000340 60 fb a7 3c c0 a6 43 be 1a 0c 2d 3e 64 56 63 3e
       0.020505607 -0.19106579 0.16899148 0.22200924
000350 b4 e9 39 be ba 0f 3b be 10 df 14 be 00 c7 df bb
       -0.18155557 -0.18267718 -0.14538217 -0.0068291426
000360 28 24 f5 3d 30 17 d9 bc 40 f1 54 be 2e c1 48 3e
       0.11969787 -0.026500314 -0.20795155 0.19604942
000370 92 c1 3a be a0 2c 28 3d 78 cb 1d be e6 4d 5b be
       -0.18237904 0.041058183 -0.15409648 -0.21416435
000380 c8 e3 38 bd f6 d8 0a be 14 98 9f bd d8 b3 0b 3d
       -0.045139104 -0.13559327 -0.077926785 0.03410706
000390 a0 44 96 3d c0 38 60 3d c0 09 17 3e 42 7d 60 be
       0.07337308 0.05474162 0.14749813 -0.21922782
0003a0 ae 20 2f 3e 8a 46 7f be 4c 6d e7 bd 50 36 6d 3e
       0.1710231 -0.24929252 -0.113001436 0.2316525
0003b0 8c 3a aa bd e4 28 d5 3d 64 c8 9e 3d 84 d6 7c 3e
       -0.08311948 0.1040819 0.07753065 0.24691206
0003c0 3c 3a 91 bd 14 92 8a 3d c0 72 94 bb 5a 33 2b 3e
       -0.070911855 0.067661434 -0.004530281 0.16718808
0003d0 90 12 fd 3c f4 e0 d4 bd 18 fc 64 3e c8 3b 2e 3e
       0.03089264 -0.10394469 0.22361791 0.17014992
0003e0 76 7a 5f be 00 22 2b bd be a9 1c 3e fa 95 32 be
       -0.21824059 -0.04178047 0.15299127 -0.17440024
0003f0 00 43 8a 3d f0 66 9b 3d ec 15 20 3e 54 77 c1 3d
       0.067510605 0.07587993 0.15633363 0.09446588

fc1.bias f4 [128]
000000 a8 d1 40 bd 6c 9c eb 3d 10 e8 d5 bd 3e 22 37 3e
       -0.047074944 0.115044445 -0.10444653 0.17884156
000010 20 32 8b bc f4 79 f2 3d c0 c4 a4 3b 38 4d 36 3e
       -0.016991675 0.11839667 0.0050283372 0.17802894
000020 00 23 99 bb a4 93 e8 3d 08 7b 4f 3e e2 9e 6a 3e
       -0.004673362 0.11356285 0.20261776 0.22912171
000030 f0 72 9a 3c c0 47 12 3e 18 db 1c 3e 84 94 11 3e
       0.018853635 0.14285183 0.15317953 0.1421681
000040 e0 28 3e 3e f4 94 34 3e c0 fd 6f 3d 26 bf 40 be
       0.1857028 0.17634946 0.058591604 -0.18822917
000050 90 5c 6a bd 94 a0 31 3e 4c 8a 29 3e fa d1 20 3e
       -0.05721718 0.17346412 0.16556662 0.157051
000060 00 02 c7 3a 88 ce 20 3e d8 ad 47 bd a4 cf b5 bd
       0.0015183091 0.15703785 -0.048749775 -0.08877495
000070 30 36 cf bd e0 2d 93 3c 00 06 25 ba 98 83 9c bd
       -0.10117757 0.01796621 -0.00062951446 -0.07642287
000080 74 30 3d 3e f8 ad 5c be 94 e6 ca bd e0 e0 09 be
       0.18475515 -0.21550739 -0.099072605 -0.13464689
000090 5e 26 01 3e e0 d1 40 3d cc c8 46 be 84 e3 9c bd
       0.12612292 0.047075152 -0.19412535 -0.07660583
0000a0 00 a1 c0 bb 98 b1 b3 3d 08 1d 36 be 40 b9 33 3e
       -0.0058785677 0.08774108 -0.17784512 0.17551136
0000b0 28 28 05 3e a4 2a bb bd 44 84 aa 3d 54 e9 e4 bd
       0.130036 -0.091389924 0.08326009 -0.11177316
0000c0 9c b2 99 bd a2 63 77 3e cc 9f c1 bd 60 ea 3c be
       -0.0750477 0.241591 -0.09454307 -0.18448782
0000d0 48 08 33 be c0 d2 9b 3b a4 73 1f 3e 58 32 2f 3d
       -0.17483628 0.004755348 0.15571457 0.04277262
0000e0 0c 07 61 3e 34 f4 66 3e a0 4b 5d 3d 10 3d 19 be
       0.21975344 0.22554094 0.0540272 -0.149647
0000f0 b0 6d 01 3d 0c 58 2e be ce 9a 0c be 60 88 58 be
       0.031598747 -0.17025775 -0.13730928 -0.21145773
000100 b6 dd 7b be 70 aa 43 bd 36 ef 56 be 00 22 29 3e
       -0.24596295 -0.047769964 -0.20989689 0.16516876
000110 0c 0f 7b 3e 10 32 aa bd 54 90 24 3e dc 7f 3b be
       0.24517459 -0.0831033 0.16070682 -0.18310493
000120 20 b5 ec 3c d8 00 1d be 40 b2 d3 bc 80 c3 a7 bb
       0.02889496 -0.15332353 -0.025841832 -0.005119741
000130 4e 3b 3e be 04 f1 85 bd 58 7c d5 3d 74 cb 29 be
       -0.1857731 -0.06540111 0.10424107 -0.16581517
000140 da 0a 2f be ac 37 56 3e 90 e7 5e 3e 5c 15 ea 3d
       -0.17093983 0.20919675 0.21768022 0.11429855
000150 ec 8c 39 3e a0 8a a7 bc 70 76 cd 3d c2 56 48 3e
       0.18120164 -0.020451844 0.10032356 0.19564345
000160 78 0c 3d bd d0 e2 89 3d b0 c7 60 3d 60 f0 a6 bd
       -0.04615447 0.06732714 0.054877937 -0.08151317
000170 90 64 44 3e 2c c8 39 be 78 b2 4b be 70 99 df bd
       0.19178987 -0.18142766 -0.19892299 -0.10917938
000180 84 f7 ff bd 7c cc 41 be c8 9d 1d be e6 af 41 3e
       -0.12498382 -0.18925661 -0.1539222 0.18914756
000190 38 1f 54 bd aa 83 4d 3e 78 bb 2c be 00 02 a7 bc
       -0.051787585 0.20069757 -0.16868389 -0.020386696
0001a0 64 12 af 3d e0 e7 60 be b2 32 68 3e 6e 69 38 3e
       0.085484296 -0.21963453 0.22675589 0.18008968
0001b0 40 8a f1 bc e4 49 77 3e 32 58 27 be da ef 25 3e
       -0.029484868 0.24149281 -0.16342238 0.16204777
0001c0 38 8e 3c 3e e8 5d 50 3e 0c 9b 34 3e 22 b4 4a be
       0.18413627 0.20348322 0.1763727 -0.19795278
0001d0 ba 9e 72 be dc fe f6 3d da 10 49 be 98 e6 9c 3d
       -0.23693362 0.12060329 -0.19635335 0.0766117
0001e0 20 5c b6 bd a0 ad 8b 3d 20 de 00 bc cc c5 d1 3d
       -0.0890429 0.06820226 -0.007865459 0.10242805
0001f0 f8 55 47 be c6 01 21 be 1c 81 0b 3e 8a a5 0a be
       -0.19466388 -0.15723333 0.1362347 -0.1353971

fc2.weight f4 [128, 128]
000000 db 5b af 3d 9b 7f 3a bd 18 22 b4 bc b8 de 6d bd
       0.08562442 -0.04553185 -0.021988913 -0.05807373
000010 7a e2 37 3d f6 b3 0d 3d 00 93 70 bd ec a2 b2 3c
       0.04489372 0.034595452 -0.05873394 0.021806203
000020 67 a8 a0 3d 30 91 cf 3b 22 01 1a 3d 07 d8 80 bd
       0.0784462 0.0063344464 0.037598737 -0.06291204
000030 5a ca 98 bd 3c 90 53 bd dd 48 80 3d b0 d5 29 bc
       -0.074604705 -0.051651224 0.062638976 -0.0103658885
000040 60 4f 8b bb 30 d8 dc bc 5e 04 17 bd 20 7f ae bb
       -0.0042514056 -0.026958555 -0.0368694 -0.005325213
000050 69 e5 b2 bd 80 9b 68 ba 6b 3c 4b bd b0 eb b9 3b
       -0.08735163 -0.0008873269 -0.049618166 0.005673848
000060 78 dc cd 3c bb 9c b0 3d 4a 3a 11 3d d6 b6 7b 3d
       0.025129542 0.08623644 0.03545598 0.061453663
000070 f7 ce 8e 3d 9d 84 b0 3d 98 bd eb bc 08 57 c4 3c
       0.06973069 0.08619044 -0.028776929 0.023967281
000080 e2 53 93 bd f8 72 e9 3c 6b cd a9 3d 25 8f 5f bd
       -0.07193734 0.028497204 0.082911335 -0.054579873
000090 fe b9 15 3d a0 38 23 3c 7e 3b 3c 3d b0 7b 70 bd
       0.03655433 0.009962231 0.045955174 -0.058711708
0000a0 67 3e 82 3d 40 63 b9 3a 1c 1c 24 bd 47 c5 9f bd
       0.063595586 0.0014143959 -0.04006587 -0.078012995
0000b0 b0 d0 bb 3b 70 45 e9 3c d4 f8 ee 3c 68 8d 2d bd
       0.0057316646 0.028475493 0.029171385 -0.042371184
0000c0 8c 67 f7 3c 4f f1 83 3d c4 68 06 bd e4 49 c6 3c
       0.030200742 0.0644251 -0.032814756 0.024205156
0000d0 5f 5c aa 3d 3b 62 a8 3d 62 d9 2e 3d 25 e1 87 bd
       0.083184 0.08221861 0.04268778 -0.0663474
0000e0 1c e9 96 3c 58 b9 d3 3c 1a 2d 11 3d 38 ba 44 bc
       0.018421702 0.025845215 0.035443403 -0.012007289
0000f0 f2 a6 21 3d 6a 55 4c 3d d8 8e 97 bc ae e8 42 bd
       0.039465852 0.049886145 -0.01850073 -0.047585182
000100 f7 e7 76 bd 0a c2 4f 3d 42 48 07 3d 46 25 50 3d
       -0.060279813 0.05072216 0.033027895 0.050816797
000110 89 b6 24 bd e0 07 5a bc 33 a0 a2 3d 22 f0 7d 3d
       -0.04021314 -0.013307542 0.07940712 0.061996587
000120 0a ab 3a bd fe 6a 48 bd a0 bb 1e 3b 9e 86 7b 3d
       -0.04557327 -0.04893016 0.002422072 0.061407678
000130 69 71 03 bd 40 aa a1 ba 54 82 a4 bc 16 e3 7d 3d
       -0.03209058 -0.0012334064 -0.020081677 0.061984144
000140 a0 bb 43 bc 77 c7 47 bd c0 f2 ef ba 00 4a 1c bd
       -0.011946589 -0.04877421 -0.0018306598 -0.03815651
000150 78 11 2d 3c 0a f2 25 3d 10 00 91 3c 7a 19 39 3d
       0.010563247 0.04051403 0.017700225 0.045190312
000160 28 46 00 3d db 8f a3 3d 5f 97 8d 3d 15 0b 39 bd
       0.031316906 0.07986423 0.06913637 -0.045176584
000170 c2 c6 06 3d b1 bd 1e bd c4 c2 bc bc c2 4a a2 bd
       0.032904394 -0.038755123 -0.02304209 -0.07924415
000180 ab eb b4 3d 3a 26 43 3d a0 69 78 3b 7d 00 2a bd
       0.088340126 0.047643878 0.0037904754 -0.041504372
000190 5e 6a 2a bd 64 05 93 bd a9 40 0c bd 58 8d e4 3c
       -0.041605346 -0.071787626 -0.034241352 0.02789943
0001a0 6e 67 8a bd 7a 77 ec bc 20 fc 48 bd 85 fe 62 bd
       -0.06758009 -0.028865565 -0.04906857 -0.05541851
0001b0 3f c6 b1 bd f9 ee 30 bd 57 8f 51 bd 5e ed 52 bd
       -0.086803906 -0.043196652 -0.05116209 -0.051495902
0001c0 ea 8a 83 bd c5 19 9c bd c9 60 61 bd 42 9a 87 bd
       -0.0642298 -0.07622103 -0.055023942 -0.06621219
0001d0 09 b9 83 3d 28 92 bb bc 50 8f 71 bd 1e 54 4b bd
       0.06431777 -0.022896841 -0.058974564 -0.049640767
0001e0 75 20 b4 3d a0 80 63 bb b6 bc 16 3d eb 09 90 3d
       0.08795253 -0.0034714118 0.036801063 0.07033142
0001f0 28 f3 74 bd d0 29 e2 3c d1 a4 a7 3d b3 46 5d bd
       -0.059802204 0.027607828 0.08185733 -0.054022502
000200 60 39 0f bb fe dd 4e 3d f8 9a e3 bc 02 e7 fc bc
       -0.0021854267 0.050504677 -0.027783856 -0.030871872
000210 80 ce 26 3b 00 04 8b 38 1b 6c 97 bd b0 27 9a bd
       0.0025452673 6.6287816e-05 -0.07393666 -0.07527101
000220 a0 ab 51 bd 58 82 db 3c f7 e7 35 bd 96 35 27 3d
       -0.051189065 0.026795551 -0.044410672 0.040822588
000230 da 73 4f bd 1a 5c 6a 3d e9 5c a2 3d ea 6b 54 3d
       -0.050647594 0.05721674 0.079278775 0.051860727
000240 20 d9 25 bc 82 78 5b 3d 4f c2 82 3d a5 08 2e bd
       -0.010122567 0.053581722 0.06384718 -0.042488713
000250 6c 82 a7 bc 9e 99 17 3d df 82 ad bd a6 5f 17 bd
       -0.020447932 0.037011735 -0.08472227 -0.03695645
000260 14 37 9d bc fe 1a 13 3d 04 2c b2 bd 09 59 62 bd
       -0.019191302 0.035914414 -0.086998016 -0.05526069
000270 7a 21 77 3d 92 38 92 bd 10 aa e5 3b 30 5b e0 bc
       0.06033466 -0.07139696 0.0070087984 -0.027387232
000280 f7 05 a3 3d 40 af 2e 3b 90 33 4b 3c 38 85 84 bc
       0.07960122 0.002665475 0.01240243 -0.016176805
000290 56 22 03 bd f0 76 5b 3c 29 56 a7 3d 29 d8 a1 bd
       -0.032015167 0.013395056 0.081707306 -0.079025574
0002a0 33 de 95 bd 1f 8f 48 bd b8 2d 90 3c bf 94 80 3d
       -0.07317772 -0.048964616 0.017599925 0.06278371
0002b0 f8 00 33 3c 20 2c 11 bb 49 71 a5 3d c8 71 4b bc
       0.010925524 -0.0022151545 0.08078248 -0.012417264
0002c0 18 24 54 3c 0a 7a 12 3d eb be a7 3d 5c b5 d4 3c
       0.012948059 0.035760917 0.081907116 0.025965385
0002d0 4a a4 6a bd 56 8b 74 3d 55 a3 88 3d 00 8d 01 3c
       -0.057285585 0.059703194 0.06671778 0.007907152
0002e0 90 84 2e bc 14 c1 88 bc 6d d9 56 bd a8 45 2a bc
       -0.010651723 -0.01669363 -0.052453447 -0.010392584
0002f0 34 94 70 bd b2 3a 81 bd 4c f1 a6 3c 80 f9 82 bc
       -0.058735088 -0.06310023 0.020378731 -0.015988111
000300 a1 58 b2 bd 59 0b a4 3d c0 65 9c bc 80 ea 73 ba
       -0.08708311 0.08009977 -0.019091487 -0.00093046576
000310 d8 d9 19 bc 78 00 97 3c 40 0b e7 3a 8a ef 36 bd
       -0.009390317 0.01843284 0.0017627254 -0.044662036
000320 90 ce ac 3c 48 f0 ec bc 3b 3a ae 3d f4 75 ec bc
       0.02109459 -0.028923169 0.085072 -0.028864838
000330 ae 33 1d bd ef 66 81 3d e6 92 67 3d 0e b4 55 bd
       -0.038379364 0.06318461 0.056536578 -0.052173667
000340 a6 9e 57 3d 9a b4 df bc 7d fe 3a bd 5d d8 8a 3d
       0.052641533 -0.027307797 -0.045652855 0.06779549
000350 42 f0 40 3d 8d 09 a2 bd 40 84 f2 ba 42 97 1a 3d
       0.047104128 -0.07911978 -0.0018502548 0.037741907
000360 82 72 1f 3d 89 6b 09 bd 38 ab ff 3c 92 e2 10 3d
       0.038927563 -0.03354982 0.031209573 0.035372324
000370 48 91 6f 3c 5e 15 63 bd 20 eb c2 bc 88 4f 6d bc
       0.01462204 -0.0554403 -0.023793757 -0.014484294
000380 cf 03 1a bd dd 11 9e bd 18 8d bc 3c 2c 7e 0b 3d
       -0.03760129 -0.07718251 0.023016497 0.034055874
000390 7a 03 90 bd 46 55 23 3d a0 20 13 bc c6 41 47 3d
       -0.07031913 0.039876245 -0.008979946 0.04864671
0003a0 a6 59 22 bd 26 43 5b 3d 2e e0 79 3d 4f 47 98 3d
       -0.039636277 0.053530835 0.06100481 0.07435476
0003b0 18 08 18 bc ca 9d 1d bd 08 ce 44 bc 48 89 a7 3c
       -0.009279273 -0.038480558 -0.012012012 0.020451203
0003c0 7f d0 05 bd b6 d5 4d 3d ef a5 9f 3d 41 83 b0 3d
       -0.03266954 0.05025264 0.07795321 0.08618785
0003d0 e0 79 58 3b 0f 5b b0 bd d0 cd 9c 3c 4e 63 4d 3d
       0.0033031628 -0.08611118 0.019141108 0.050143532
0003e0 bc df 9b 3c 98 f8 d7 3c 20 62 cb bc d3 21 8d bd
       0.019027583 0.026363656 -0.024827063 -0.06891217
0003f0 e2 0b 5c 3d a0 7d b5 3c 98 44 22 bc bc e2 a1 bd
       0.05372227 0.02215463 -0.009904049 -0.07904574

fc2.bias f4 [128]
000000 61 5d 91 3d ba 9f 79 bd 60 01 31 3b 14 bf a5 bd
       0.07097889 -0.060943343 0.0027008876 -0.08093086
000010 d4 a9 a5 bd b0 f2 c7 bc 6a cd 38 3d 68 ec 39 3c
       -0.08089033 -0.024407715 0.045117773 0.011347868
000020 77 2e 8e bd 00 01 b5 b9 20 f5 e2 3b 70 47 90 3b
       -0.06942456 -0.00034523755 0.006926194 0.0044030473
000030 47 18 95 3d 02 8e 20 3d a8 eb cd 3c 7c ff ba 3c
       0.07280021 0.03919793 0.025136784 0.022826903
000040 ae aa 26 3d ec bd d0 3c 5a 31 1b 3d de 82 54 3d
       0.040690117 0.025481187 0.037888862 0.051882617
000050 3f de ac 3d 6f 9e 44 bd 8a d3 a0 bd b8 f3 b3 3c
       0.084408276 -0.048002657 -0.07852848 0.0219668
000060 28 6c 2c 3c 53 ff a8 3d 03 ac 16 bd 31 a8 aa 3d
       0.010523833 0.08251824 -0.036785137 0.08332861
000070 fb 9d aa 3d e0 07 1b 3c 4a 9c 84 bd 90 13 57 3c
       0.08330914 0.009462327 -0.06475122 0.013127223
000080 fe 7b da bc 25 8e 1b bd 90 24 36 3c ef 5b 81 3d
       -0.026670452 -0.037977356 0.011117116 0.06316363
000090 1a 1d 3e 3d 0f 2d 8e 3d 78 13 3b bd b3 63 b4 3d
       0.046414472 0.06942188 -0.045672864 0.088080786
0000a0 76 cc 52 3d 43 f7 a2 bd 50 22 ec bb 37 81 a1 3d
       0.05146452 -0.07957318 -0.007206239 0.07885974
0000b0 10 33 30 bc 66 06 68 3d 4f f4 b2 bd 7a ea 1c 3d
       -0.010754362 0.056646727 -0.087380044 0.03830955
0000c0 06 ee 01 3d 14 76 87 bc d4 19 d3 bc 88 9a d0 3c
       0.031721137 -0.016535796 -0.025769152 0.025464311
0000d0 f1 06 83 3d 3b 27 a7 3d 7e 8c 84 bd 80 ba d4 3a
       0.06397808 0.081617795 -0.06472109 0.0016229898
0000e0 cf cd 92 3d 96 09 66 bd 80 b0 fa bb fa 4f 4d 3d
       0.07168161 -0.056161486 -0.007650435 0.0501251
0000f0 30 ef ad bd 60 fe 1b bb 7c 88 4c bd 91 55 af 3d
       -0.08492887 -0.0023802742 -0.04993485 0.08561242
000100 51 70 ad bd b8 bf b1 bd f2 88 1c 3d 95 26 97 3d
       -0.08468688 -0.086791456 0.03821654 0.07380406
000110 40 0e 79 bb 80 5b 57 bb b9 ca 8c bd 5e b6 b0 bd
       -0.0038002878 -0.0032860935 -0.06874604 -0.08628534
000120 b4 68 80 3c 18 a4 7e bd b1 50 93 3d b7 38 8d 3d
       0.015674926 -0.06216821 0.07193125 0.06895583
000130 97 25 9e bd 4a cf 29 bd 3e 32 3d 3d ef ce a6 3d
       -0.077220134 -0.041457452 0.046190493 0.08144938
000140 00 84 b3 39 50 b8 48 bd 17 63 9d 3d 22 4f 68 3d
       0.00034239888 -0.0490039 0.076849155 0.056716092
000150 d0 a4 a2 bb f4 a3 5a bd fc c5 ba 3c 70 5d 01 bc
       -0.004963495 -0.053379014 0.022799484 -0.007895812
000160 f8 d0 5a 3c db 6b 95 3d fe 28 83 bd f2 ef 1a 3d
       0.013355486 0.072959624 -0.06404303 0.037826486
000170 a5 25 8e 3d 02 67 75 3d ba 7e 0b bd 6e f1 f1 bc
       0.06940774 0.05991269 -0.034056403 -0.029534068
000180 75 3d 8c bd 7a f7 e9 bc 65 37 8e 3d 58 b2 9c 3c
       -0.068476595 -0.028560389 0.069441594 0.01912801
000190 80 17 5a bc 50 f4 f3 bc e0 2d cb 3c 96 54 55 bd
       -0.013311267 -0.029779583 0.024802148 -0.05208262
0001a0 7c b3 d8 3c 32 a0 9f bd 90 20 b7 bc 80 ec 1c bc
       0.026452772 -0.07794227 -0.022354394 -0.00957787
0001b0 d5 9b 91 3d 66 6a 6b bd c0 77 4a 3b 41 b5 13 bd
       0.07109801 -0.057474516 0.003089413 -0.03606153
0001c0 0b 14 a0 bd c8 e7 39 3c b4 9c 9a 3c c2 72 0f 3d
       -0.07816323 0.011346765 0.01887355 0.03502155
0001d0 59 6d 99 3d b8 b3 00 bc d4 f1 df 3c cb 9b 90 3d
       0.074915595 -0.007855348 0.027336992 0.07060965
0001e0 bb 12 a5 3d c4 ab 3a bd e2 e4 1a 3d e9 a3 8f bd
       0.08060213 -0.045573965 0.037815936 -0.07013685
0001f0 6e e7 f2 bc 1a 95 7c bd 4f 0d 92 bd ff b4 8f bd
       -0.02965137 -0.06166563 -0.07131445 -0.07016944

fc3.weight f4 [2, 128]
000000 a6 24 1f 3d 2d f0 91 3d 90 31 e7 bc a5 ae b4 bd
       0.03885331 0.07125888 -0.028221875 -0.08822373
000010 70 58 4d bd e1 f0 0f bd 31 7a af 3d 60 f7 12 bc
       -0.05013317 -0.03514183 0.08568228 -0.008970112
000020 7d 2b 17 bd b3 e4 8a 3d f4 0a bf 3c 10 67 cd 3c
       -0.036906708 0.06781902 0.023320653 0.025073558
000030 de 53 29 3d 36 1b 03 bd 40 cb 90 3b 5d 0f 21 bd
       0.041339748 -0.032008372 0.0044187605 -0.039321292
000040 60 8c f6 bb 31 2d ac bd e7 b5 94 3d ca 2f 53 3d
       -0.007524058 -0.08407057 0.072612576 0.051559247
000050 f2 c7 21 3d 92 2a 29 3d 61 a0 80 3d 29 0b 0d bd
       0.039497323 0.041300364 0.0628059 -0.03443447
000060 c6 84 38 3d b8 15 92 bd 11 15 86 3d 70 34 c9 3c
       0.045048498 -0.07133049 0.06546987 0.024561137
000070 3c d4 91 3c 23 06 1f bd 1a 1f 20 3d 46 27 fb bc
       0.017801397 -0.03882421 0.03909216 -0.030658375
000080 fd 85 06 bd f0 2d 80 bc c2 b0 96 bd 08 45 f8 3c
       -0.032842625 -0.015646905 -0.073579326 0.030306354
000090 8c 6a 3a bd 40 c2 d3 ba b9 6d 91 3d aa 76 ad bd
       -0.045511767 -0.0016155913 0.07101006 -0.08469899
0000a0 66 7e 46 3d c6 ab 0d 3d e7 29 ae 3d ee 01 87 bd
       0.048460387 0.034587644 0.08504086 -0.06592165
0000b0 14 d6 b6 3c b2 94 24 3d 0d 2e 22 bd aa b7 01 3d
       0.022318877 0.04018087 -0.0395947 0.031669296
0000c0 aa c0 39 bd 54 5f ce 3c 20 a3 07 bb c8 8b 90 3c
       -0.045349754 0.02519194 -0.0020696595 0.017644778
0000d0 fa 74 31 3d 40 e8 92 bd 02 c0 70 3d 60 5e 2e 3c
       0.04332445 -0.071732044 0.058776863 0.010642618
0000e0 0f 2c 8a 3d 61 5b 59 bd 7d a7 b3 bd d8 06 37 bc
       0.06746685 -0.05306566 -0.0877218 -0.011171065
0000f0 58 aa 01 3d 70 f0 01 3c a0 7b 42 3b f0 a8 aa 3b
       0.031656593 0.00793086 0.0029675737 0.005208127
000100 ca b3 12 bd ba d8 2a 3d f7 1c 21 bd 28 4a 5d 3c
       -0.03581599 0.041710593 -0.039334264 0.01350645
000110 48 9c 93 bd 44 3f 70 bd 79 57 8d 3d 86 a6 59 3d
       -0.07207543 -0.058654085 0.0690145 0.053137325
000120 68 bb 68 3c 34 54 e4 3c 35 6a 29 bd c2 8c 5c 3d
       0.014204837 0.027872182 -0.041361053 0.053845175
000130 80 d5 aa 3b 79 61 43 bd cb bf 28 bd 71 fb b2 3d
       0.0052134395 -0.04770038 -0.041198533 0.08739365
000140 61 a6 a9 3d a4 f2 bb bc 50 71 37 bd cc 0e 92 3c
       0.082836874 -0.022942849 -0.044785798 0.017829321
000150 0c 1d b7 bc 8a 8f ec bc 65 42 91 3d a0 4e 9d 3b
       -0.022352718 -0.028877039 0.07092742 0.0048006326
000160 c0 cd 34 bd 1d b1 a4 3d 4d f6 3e bd b8 81 33 3c
       -0.04414153 0.08041594 -0.04662161 0.01095622
000170 a9 15 85 3d ac d7 da 3c 33 1a a8 bd a0 f7 ce bb
       0.06498272 0.026714168 -0.08208122 -0.0063161403
000180 dc eb 80 3c 75 48 ad 3d e0 f2 b8 3b 88 3d b6 bc
       0.015737467 0.08461086 0.0056441873 -0.022246137
000190 5f d0 88 3d 4a a8 5e 3d 1c dc f8 3c fe 9e ef bc
       0.06680369 0.05435971 0.030378394 -0.029250618
0001a0 16 a3 9a bd 39 61 80 3d 6a c9 45 3d 4d a2 53 bd
       -0.075506374 0.06268544 0.048287787 -0.051668454
0001b0 56 a0 9e bd 5d 47 8d 3d 86 38 31 3d f8 8f 9f bc
       -0.077454254 0.06898377 0.043266796 -0.01947783
0001c0 b0 fb 7e bd 71 ac 84 bd ba 38 b4 bd 80 28 f9 3c
       -0.062251747 -0.06478203 -0.08799882 0.03041482
0001d0 40 51 19 3b 40 cb 94 3c 86 9f 69 3d d6 e5 71 bd
       0.0023394376 0.018163323 0.0570369 -0.05905708
0001e0 70 9d 0e 3d 16 ca 85 bd 72 bb 2b 3d 70 e4 51 bc
       0.034818113 -0.065326855 0.04192681 -0.012810811
0001f0 d3 4f 8f 3d 25 b9 9c bd bd 10 9d bd f8 5b 93 bc
       0.06997647 -0.07652501 -0.07669208 -0.01798819
000200 3f 77 a5 3d 15 67 87 bd b4 fa 83 bc cb b0 a9 3d
       0.08079385 -0.06611458 -0.016110756 0.08285674
000210 98 d3 fd 3c c1 7a b0 3d 89 86 88 bd e2 83 69 3d
       0.030984685 0.086171634 -0.066662855 0.05701054
000220 34 c3 b1 bc a0 0c 95 bb 50 c2 1d 3c 22 17 6d 3d
       -0.021699525 -0.004548624 0.009628847 0.05788339
000230 78 fb 2d bc 81 84 a6 3d 06 1b 67 3d 83 13 96 3d
       -0.010619037 0.08130742 0.056422256 0.0732794
000240 d6 c5 08 3d 58 c2 63 3c 9f 30 ac bd a0 5c 8c bd
       0.033391796 0.013901316 -0.08407711 -0.06853604
000250 40 2f f7 ba 4b 14 93 bd 08 06 ef 3c 63 5c 89 3d
       -0.0018858686 -0.07181605 0.02917768 0.067070745
000260 da 45 5b 3d 48 c4 96 bc 90 c9 8d 3c 4c 95 b3 3c
       0.053533413 -0.018404141 0.017308027 0.021921776
000270 f0 18 3d 3c 16 e9 01 bd 67 75 9b 3d ac f8 f1 3c
       0.01154159 -0.03171643 0.07590752 0.029537521
000280 38 f7 20 3c 72 26 9c bd 2c 40 f0 3c fc ce 0d bd
       0.009824567 -0.0762452 0.029327475 -0.034621224
000290 4a bb 34 3d b8 d3 6e bd b1 b4 ab bd de 5b 87 bd
       0.044123925 -0.05830738 -0.083840735 -0.06609319
0002a0 10 3d e3 3b 3d ad 3e bd 84 52 9e bc 59 df 98 bd
       0.0069347695 -0.04655193 -0.019326456 -0.07464475
0002b0 e0 14 85 3c a7 d8 ab 3d 99 66 9a 3d 6d 98 8d bd
       0.016245306 0.083909325 0.075391 -0.069138385
0002c0 22 94 7c 3d d0 47 98 bd 98 54 af 3c db a8 a3 bd
       0.061664708 -0.07435572 0.021402642 -0.07991191
0002d0 42 fd b2 bd 17 3e b0 3d ac 42 86 bd 20 c2 ad 3c
       -0.08739711 0.08605593 -0.065556854 0.02121073
0002e0 16 92 47 3d e8 f7 7f bc 0e 5b d4 bc 07 2b 90 3d
       0.048723303 -0.01562307 -0.025922325 0.07039457
0002f0 1c 49 88 3c f9 30 a4 bd 2c 15 a8 3c 82 b3 6d 3d
       0.016636424 -0.08017153 0.020517908 0.05803252
000300 73 3e a6 3d 10 9b 0f bc ce f3 05 bd 5a 65 ac bd
       0.0811738 -0.008764997 -0.032703213 -0.08417769
000310 c0 34 b3 3a 7c 0b 9c bd e0 6a 7e bd 9f 92 85 3d
       0.0013672337 -0.07619378 -0.062113643 0.065221064
000320 b2 1d 63 3d 02 33 03 3d 6e 07 b2 bd 82 cd a4 bd
       0.05544824 0.032031067 -0.08692823 -0.0804701
000330 ba 90 42 3d 40 e9 f6 3b 00 14 75 b9 b9 62 93 3d
       0.047501303 0.00753513 -0.00023372471 0.07196564
000340 60 1e 6b bc 1e 46 91 bd ea 1b 21 3d 50 1c 6c bc
       -0.014350504 -0.07093452 0.03933326 -0.014411047
000350 db d1 0f bd 58 90 16 bc b0 ea 9c bd 50 63 d4 3c
       -0.035112243 -0.009189688 -0.076619506 0.025926262
000360 b6 01 34 3d 10 ba c2 bb 9d 60 90 bd 88 7d 0c bc
       0.043946944 -0.0059425905 -0.070496775 -0.008574851
000370 52 51 b2 bd 21 47 46 bd 02 6d 4e 3d d0 d0 5c bd
       -0.08706917 -0.048407678 0.050396927 -0.053910077
000380 ff 6e 7c bd b0 82 64 bc bd c2 6a bd 31 0c 8a 3d
       -0.06162929 -0.013947174 -0.057314623 0.067406066
000390 12 b6 67 bd f8 9b 5d bc 60 31 2c bb 00 e4 76 b9
       -0.05657012 -0.013525955 -0.0026274547 -0.00023545325
0003a0 1c 30 b5 3c fd aa 84 3d 8c 81 9a bc bb 40 62 bd
       0.022117667 0.06477926 -0.0188606 -0.055237513
0003b0 80 c2 65 ba 0b 3f 61 bd 2e 97 7d 3d 23 4c 82 3d
       -0.00087646395 -0.054991763 0.061911754 0.06362178
0003c0 03 de a2 3d e2 7c 6d 3d a0 83 f5 3c 4d 55 a3 3d
       0.079525016 0.057980426 0.02996999 0.07975254
0003d0 73 0d 8c 3d 31 90 94 3d 70 e7 30 bc ff ab a3 3d
       0.06838503 0.07254065 -0.0107973665 0.0799179
0003e0 65 c5 8e bd 0b 4c 94 bd 32 22 33 3d 00 2d de 3c
       -0.06971244 -0.072410665 0.043733783 0.027121067
0003f0 05 e6 af 3d 32 5a 3a 3d 66 4e 21 3d 6e f0 6f 3d
       0.085887946 0.045496173 0.039381407 0.0585789

fc3.bias f4 [2]
000000 f0 09 d7 3c 46 0b 2e bd
       0.026249856 -0.04249122

fc1.weight f4 [128, 16]
000000 ca 52 3d be 0c 37 96 bd 16 99 59 3e 90 38 ae bc
       -0.18488613 -0.07334718 0.21249804 -0.021267205
000010 26 05 32 be 70 d1 5c 3d 48 ec 9a bd 82 6b 5f 3e
       -0.17384776 0.053910673 -0.07564598 0.21818355
000020 32 01 6b 3e a8 e5 66 3e 98 1f 85 bd 80 9e 79 3d
       0.22949675 0.22548544 -0.06500167 0.060942173
000030 8c 3d 56 be da 5a 22 3e 70 31 1f bd 10 bd 65 3e
       -0.20921916 0.1585497 -0.038865507 0.22435403
000040 f0 86 db bc 30 10 08 bd 98 55 42 be 24 7a 7c be
       -0.026797742 -0.033218563 -0.18977964 -0.24655968
000050 ae 94 0a be b8 76 fd bd e6 1e 0c 3e ca b6 2a 3e
       -0.1353328 -0.123761594 0.13683662 0.16671291
000060 00 1f f7 ba 30 b4 98 3d 4c 4b 1f be 5a 31 39 be
       -0.0018853843 0.07456243 -0.15556067 -0.18085232
000070 00 d0 73 3c 2c fb 12 3e 96 4c 45 3e e4 cb 88 3d
       0.014881134 0.14353627 0.19267496 0.06679514
000080 e0 6d 46 bc c0 f1 c2 bc d8 67 71 3d 78 3f 68 3e
       -0.012111157 -0.023796916 0.058936924 0.22680461
000090 c8 f7 9c bd 34 73 75 be 50 d3 59 3e c0 58 2e bd
       -0.07664448 -0.23969728 0.21272016 -0.042565107
0000a0 48 56 58 3d 08 fe 09 3d 40 72 49 be 4c 1a 4c be
       0.05281666 0.03368953 -0.19672489 -0.19931906
0000b0 90 f6 91 bc 6c 4a 94 3d 44 f4 d4 bd 50 79 e5 3d
       -0.017817765 0.07240757 -0.103981525 0.11204779
0000c0 f4 42 53 3e 9c aa 55 3e 00 b4 2d bb 9c a4 98 bd
       0.2063101 0.20865864 -0.0026504993 -0.07453272
0000d0 98 55 2f 3d 10 10 8f 3d 5a 9b 4c 3e bc 8c cb 3d
       0.042806238 0.069854856 0.19981137 0.09938952
0000e0 06 d5 20 be 60 ee 5a bc b6 51 16 3e 7e 4e 0d 3e
       -0.15706262 -0.013362497 0.14679608 0.13799474
0000f0 b2 28 66 be e8 6a 3c 3d da 41 1f be 70 62 68 be
       -0.22476462 0.04600039 -0.15552464 -0.22693801
000100 dc 56 e3 bd 44 41 8c bd b0 f4 17 3e fa c2 67 be
       -0.111005515 -0.06848386 0.14839435 -0.22632971
000110 ec 64 4e be 40 53 dd 3d 92 97 77 be 40 dc db bc
       -0.20155686 0.10806894 -0.24178913 -0.026838422
000120 60 6d 23 be 56 fa 7d 3e 2a e0 07 3e 52 3c 09 be
       -0.15959692 0.24802527 0.13269106 -0.13401917
000130 e8 90 48 3d ae 17 2e be b4 b5 9c 3d e4 08 26 3e
       0.04896632 -0.1700122 0.076518446 0.16214329
000140 68 3e b5 bd e6 6b 63 3e d4 77 bb bd 04 2d 1b 3e
       -0.08849794 0.22209129 -0.09153715 0.15153891
000150 b8 8e 5a be 32 00 18 be 00 67 44 3d 42 be 74 3e
       -0.21343505 -0.14843825 0.04794979 0.23900703
000160 76 e4 6d 3e d8 ea 37 3e d4 f5 d0 bd 56 ca 45 3e
       0.23231682 0.1796068 -0.10203138 0.19315466
000170 b8 8d 4b bd 58 5d ec bd bc a8 e0 bd c0 48 45 bd
       -0.0496957 -0.115412414 -0.109696835 -0.048165083
000180 84 56 84 3d 30 c6 c9 bd 12 a7 06 be 04 8d 17 3e
       0.06461814 -0.098522544 -0.1314967 0.14799887
000190 c0 99 af 3d e0 b8 25 bc f6 48 74 3e 8c fe 48 3e
       0.08574247 -0.010114878 0.23855957 0.19628352
0001a0 ea 8d 79 3e 74 df 75 3e 9c e1 b2 3d 10 da 18 bd
       0.24370542 0.24011022 0.08734438 -0.037317336
0001b0 c4 75 2d be 34 e5 3a be 90 ac de 3c e4 a3 77 3e
       -0.16939455 -0.18251497 0.027181894 0.24183613
0001c0 7e 57 29 be 44 01 6c 3e d0 7d e3 bc 3c e2 37 3e
       -0.16537282 0.23047358 -0.027769953 0.17957395
0001d0 e8 6a 09 3d 00 fa bf ba 5e 79 35 3e fa 8f 63 be
       0.03354922 -0.0014646649 0.17722079 -0.22222891
0001e0 10 62 0c be 8e c1 30 be 8c c5 35 3e fc c0 58 be
       -0.13709283 -0.17261335 0.1775114 -0.21167368
0001f0 c0 fa 52 bc 10 2b 41 3d 08 8b b1 bd 5a 3e 5f be
       -0.012877166 0.04716021 -0.08669096 -0.21801129
000200 8e 7d 09 3e 24 4d b1 3d 7e 09 4a 3e 44 82 e0 3d
       0.13426802 0.086572915 0.19730183 0.10962346
000210 80 52 d2 bd d8 f6 00 be c6 1f 01 3e ae 81 6c 3e
       -0.10269642 -0.12594163 0.12609777 0.23096344
000220 74 6b 43 be 20 7d 52 be 84 bd 26 3e 20 5a e0 bd
       -0.19083959 -0.20555544 0.16283232 -0.1095469
000230 de 0e 34 3e 34 60 47 3e 00 6b f9 bd 90 92 d4 3c
       0.17583796 0.19470292 -0.12178612 0.025948793
000240 bc d7 a4 bd a0 f8 a8 3c 10 7e 7b 3d b0 8f 37 3e
       -0.080489606 0.020626366 0.06139952 0.17925906
000250 60 8c 3d bc 08 e2 52 be 8e 22 0b 3e 08 78 54 bd
       -0.011569113 -0.20594037 0.135874 -0.051872283
000260 d0 2b e5 3c 16 04 14 be e8 4b 48 be 20 6d 43 3d
       0.027974993 -0.14454684 -0.19560206 0.04771149
000270 e0 a0 82 3c c0 47 99 bb 7c 5e 8e bd d4 c7 f8 bd
       0.015945852 -0.0046777427 -0.06951615 -0.12147489
000280 72 25 46 3e 60 97 82 bd 74 83 cf bd 80 e9 ae bb
       0.19350222 -0.06376529 -0.101324946 -0.005337894
000290 e0 3b 4b 3d ca 97 2e 3e e0 3a 8d 3d 80 f0 4e bd
       0.049617648 0.1705009 0.06895995 -0.050522327
0002a0 c8 70 38 3d 6c e1 6e 3e 40 cc 55 3d 18 97 ca bd
       0.04502943 0.23328179 0.05219674 -0.098921
0002b0 60 12 33 be 78 24 03 bd 20 ef be bc 68 45 af bd
       -0.17487478 -0.0320172 -0.023307383 -0.0855816
0002c0 4a 48 29 3e 3e 41 48 3e b8 dd 78 3e 06 08 6e be
       0.16531482 0.19556138 0.24303329 -0.23245248
0002d0 50 14 cf 3c c0 d0 65 bd 28 d6 44 3e 40 3f 7b bc
       0.02527824 -0.056107283 0.19222319 -0.015334904
0002e0 a0 15 92 bc ce 92 3e be c4 00 14 be 4e 1f 72 be
       -0.017832577 -0.18610689 -0.14453417 -0.23644754
0002f0 fc 11 b2 3d 32 d2 51 be d4 b1 68 be 74 b1 6d 3e
       0.086948365 -0.2049034 -0.22724086 0.23212224
000300 c4 87 11 3e 90 21 71 be 78 e2 a0 3d a0 8c c3 bd
       0.14211947 -0.2354796 0.078556955 -0.095483065
000310 30 a4 7a 3e 8e 1f 4a 3e 4c 05 c7 3d b8 20 0c bd
       0.24476695 0.197386 0.09717807 -0.03421089
000320 fe 41 21 be 20 e3 cf 3c 6e c6 2b be 3c f2 08 3e
       -0.1574783 0.025376856 -0.16774914 0.13373655
000330 74 4e 95 3d ec 50 88 bd fe 6d 63 be f4 ec 41 3e
       0.07290354 -0.066560596 -0.22209927 0.18938047
000340 9c c6 8e 3d 0e cc 79 3e 1e 70 21 3e 6c 74 76 be
       0.069714755 0.24394247 0.15765426 -0.24067849
000350 de 27 1b 3e 0c 83 1f 3e 3c 81 1d be 12 52 21 be
       0.15151927 0.15577334 -0.1538133 -0.15753964
000360 9c 4d 80 bd 2c 21 90 3d 48 53 2d 3e 02 75 0c be
       -0.06264803 0.07037577 0.169263 -0.1371651
000370 00 ed b0 bd 04 15 db bd e8 2e d7 bd a0 99 d6 bd
       -0.08638954 -0.10697368 -0.105069935 -0.104785204
000380 6e 2f 44 3e b0 21 22 be 00 9b ca bd 86 39 2a be
       0.19158718 -0.15833163 -0.09892845 -0.16623506
000390 ba 71 68 be 3c fd e1 3d 30 d8 c3 bd f8 45 1a 3d
       -0.22699633 0.11034629 -0.09562719 0.037664384
0003a0 5c af 01 be 18 9b 6a 3d 98 e0 a9 bd 00 38 d7 ba
       -0.1266455 0.057276815 -0.08294791 -0.0016419888
0003b0 74 47 4c 3e 04 5a 1d be 54 09 37 3e 9c 05 dd 3d
       0.19949132 -0.1536637 0.17874652 0.107920855
0003c0 f6 8a 1f 3e 70 5f f2 3c 38 9f 5c 3e ba 60 14 3e
       0.15580353 0.029586524 0.21545112 0.14490023
0003d0 7a 6c 18 be 7e 12 26 be 00 55 16 3c 22 24 53 3e
       -0.1488513 -0.16217992 0.009175539 0.20619252
0003e0 30 ab b3 3c 18 4b 60 3e 04 bd e9 bd c0 51 03 3e
       0.021932214 0.21903646 -0.11413005 0.12824154
0003f0 b8 ca 47 bd 08 52 60 3e e0 82 63 3e c0 c4 99 3c
       -0.048777312 0.21906292 0.22217894 0.018770576

fc1.bias f4 [128]
000000 1e 03 22 3e 48 39 c8 3d 1c df 79 be 6c a3 6b be
       0.15821502 0.097765505 -0.24401516 -0.23011559
000010 aa 35 7e be 40 4f a8 bd c8 f4 cc 3d 00 24 b7 3a
       -0.24825159 -0.08218241 0.10007626 0.0013972521
000020 9c 5e 4b be 6e 56 37 be b8 8b e7 bd a0 23 ec 3c
       -0.1986031 -0.17904064 -0.11305946 0.028825581
000030 74 dc 11 3e 08 0e 8c bd 62 68 00 be dc 7c 42 3e
       0.14244252 -0.06838614 -0.12539819 0.18992943
000040 a4 16 b6 bd 9c 04 98 3d c6 ec 17 3e 60 1b eb 3d
       -0.08891037 0.07422754 0.14836416 0.11479831
000050 04 3c f9 3d 30 03 91 3c e2 fb 4a be bc ed eb 3d
       0.1216965 0.017701715 -0.19822648 0.115199536
000060 1c 71 cc bd b6 d1 30 be 3c 63 e9 3d 80 6e 21 be
       -0.099825114 -0.17267498 0.113958806 -0.15764809
000070 70 3f 51 bd 7a de 0e be 10 b9 de bc b8 88 8b bd
       -0.05108589 -0.13952056 -0.027187854 -0.068131864
000080 5a 81 4b 3e 58 7f 81 3d e4 51 71 be 86 ff 23 be
       0.19873562 0.06323117 -0.23566395 -0.16015443
000090 90 61 04 3e ea aa 30 3e d0 54 38 bd 34 2a 68 be
       0.12927842 0.17252699 -0.04500276 -0.22672349
0000a0 c0 45 6e bd 24 b5 cc 3d 28 ab 48 be 14 ff 85 3d
       -0.058171988 0.09995487 -0.19596541 0.06542793
0000b0 b4 2b 5e 3e 10 7e 8d 3c 60 8e da 3d 0e d3 61 3e
       0.21696359 0.017272025 0.10671687 0.22053167
0000c0 18 08 53 bd e2 3e 6b be 78 ba 7e bd 3e 49 07 3e
       -0.05152139 -0.22973207 -0.06218955 0.13211533
0000d0 8e ce 59 3e e2 dd 38 3e 1c 88 22 3e b6 59 41 3e
       0.212702 0.18053392 0.15872234 0.18881878
0000e0 54 53 5d 3e 78 4d 6f be 7a 27 1e be 08 7d 90 3d
       0.21613818 -0.23369396 -0.15444747 0.07055098
0000f0 90 d0 88 3c 30 43 06 3e 7c ce 2d be 70 b2 f3 bc
       0.016701013 0.13111567 -0.16973299 -0.029748172
000100 ee 9f 36 be a8 ea e0 bd cc c8 f3 bd 06 c2 52 3e
       -0.17834446 -0.10982257 -0.11903533 0.20581827
000110 14 7d c1 bd 28 eb 1a bd fc 62 f7 bd 10 3f c7 3c
       -0.09447685 -0.03782192 -0.12079427 0.024322063
000120 f8 df 80 bd 30 c7 b3 bc e8 8b 7b bd a0 12 bb 3d
       -0.06292719 -0.021945566 -0.061412722 0.09134412
000130 44 29 76 3e a0 ee 16 3d 80 c3 08 3b 1a f5 75 3e
       0.24039179 0.036848664 0.002086848 0.2401928
000140 d0 80 9e 3d 2c 99 2a be 8e b7 6c 3e 92 22 27 3e
       0.07739413 -0.16659993 0.23116896 0.16321781
000150 10 54 6a 3d c0 66 de bc c2 93 4c be 5c 5e a2 bd
       0.057209074 -0.027148604 -0.1997824 -0.07928154
000160 6c 47 48 3e f8 61 5c bd d4 ee 95 3d 30 25 48 bd
       0.19558495 -0.053804368 0.073209435 -0.04886359
000170 7c e5 11 3e 00 52 12 bc 40 c0 26 3c 74 d8 2a 3e
       0.14247698 -0.008930683 0.010177672 0.16684133
000180 4c 96 6b be f8 e0 2a be de 67 7d 3e c6 6d 6b 3e
       -0.23006552 -0.16687381 0.24746653 0.22991094
000190 d4 f4 bc 3d f8 06 ca 3d 24 a0 0d be 06 17 30 be
       0.09226385 0.098646104 -0.1383062 -0.17196283
0001a0 64 98 cd 3d a2 7e 37 be 30 59 65 be 6e b7 73 be
       0.10038832 -0.179194 -0.22397304 -0.23800442
0001b0 70 15 10 bd 72 40 6a be f0 2c 46 3d 9e 6a 65 be
       -0.035176694 -0.22876146 0.0483827 -0.22403952
0001c0 86 5e 5b be 60 08 85 bd c6 e6 70 3e d0 9a 21 3d
       -0.21422777 -0.06495738 0.23525533 0.03945428
0001d0 4c 83 25 3e 00 ef 1f 3b 8e 38 56 be 80 7a 34 3e
       0.16163367 0.002440393 -0.20920011 0.17624855
0001e0 f8 c4 15 3d 00 ff df 3b 14 85 f2 3d 20 d5 e0 bd
       0.036564797 0.0068358183 0.11841789 -0.1097815
0001f0 30 11 af bd 00 f1 30 3e 10 57 63 3e 40 64 1e 3c
       -0.085482 0.17279434 0.2220118 0.009667456

fc2.weight f4 [128, 128]
000000 e1 ac 50 bd c0 67 5b bb 30 2f 7e 3c d1 22 13 bd
       -0.05094612 -0.0033478588 0.01551418 -0.035921875
000010 70 2d a3 bc 5c e4 ef bc 74 1d b5 3c a6 c1 ac bd
       -0.019919127 -0.029283695 0.02210877 -0.08435373
000020 b0 9a 81 bb d5 c2 2a bd 37 aa b4 bd 90 b6 d0 bc
       -0.0039552078 -0.041689713 -0.088215284 -0.025477678
000030 71 a3 0d bd 40 0a f3 3b 37 a5 98 3d b1 7c 2d bd
       -0.034579698 0.0074169934 0.07453387 -0.042355243
000040 7d ff b4 3d fe 18 d6 bc 6a 4d 16 3d 9b 92 8a 3d
       0.08837793 -0.026134964 0.03669492 0.06766244
000050 bc 7a 0c 3d 50 00 c2 bc 4a 6f 6f 3d ac af cf 3c
       0.034296736 -0.02368179 0.058455743 0.025352322
000060 70 d1 4d bc 4f e5 ad bd 44 e3 77 bd 3c cd 82 bd
       -0.012562141 -0.08491003 -0.06051947 -0.063868016
000070 70 1d 4a bc 10 02 64 bc 46 02 6b 3d 53 09 ab 3d
       -0.01233612 -0.013916507 0.057375215 0.08351388
000080 a9 6d 1f bd 71 e7 27 bd d0 92 11 3d c6 5b 66 3d
       -0.03892294 -0.040992204 0.035540402 0.056239866
000090 12 f4 6a bd e0 ec f4 3c 95 22 af 3d d2 a6 20 bd
       -0.05736167 0.029898107 0.08551518 -0.039221592
0000a0 c0 c6 3e bb 6e ca 73 3d 87 8b 88 3d f0 03 cc bb
       -0.0029110163 0.059519224 0.06667238 -0.0062260553
0000b0 38 a4 b5 3c 2a 05 35 3d 74 e2 50 bd 5e e7 1c 3d
       0.022173032 0.044194378 -0.050997213 0.038306586
0000c0 6a df 9a bd 98 6d 56 3c c4 a4 33 bd 68 cb 9c 3c
       -0.07562144 0.013087653 -0.043858305 0.01913996
0000d0 1c c3 10 3d 02 5c 28 3d a0 92 ff bb dd 69 b3 3d
       0.03534232 0.04110337 -0.0077994615 0.08760426
0000e0 b9 7f 95 3d f0 cd ab 3c 8c 81 6d bd 63 90 04 bd
       0.07299752 0.020972222 -0.057984874 -0.03236426
0000f0 3f 1b 28 bd b8 29 13 3d b0 c6 a8 bb d4 0f 53 bd
       -0.04104161 0.035928458 -0.0051506385 -0.051528767
000100 18 38 d3 bc 4e 07 69 3d 96 f7 6c 3d c6 e8 7d 3d
       -0.025783584 0.056891732 0.057853304 0.06198957
000110 dd 25 a4 3d 4b 72 89 3d ee b2 14 3d 53 3f 49 bd
       0.08015034 0.06711253 0.036303453 -0.049132656
000120 7d 07 94 bd d4 73 a6 bd 08 b0 91 bc 49 06 42 bd
       -0.07227991 -0.08127561 -0.017784134 -0.047369275
000130 f0 ee cd bb 6c ae b3 bd 8b 59 8a bd 9e 94 61 3d
       -0.006284587 -0.08773503 -0.0675536 0.055073373
000140 e1 d9 61 bd f4 23 63 bd 68 4b 50 bd ca ce 79 3d
       -0.055139426 -0.05545421 -0.050853163 0.060988225
000150 c0 66 6d 3b f6 9e 5e 3d 58 f8 77 3c c0 7d cf 3c
       0.0036224574 0.054350816 0.015134893 0.025328517
000160 56 e5 73 3d ed c9 a8 3d 5c 4d c3 bc 88 d1 54 3c
       0.059544884 0.08241639 -0.023840599 0.012989409
000170 38 98 ea 3c 95 5a 86 3d 9a f8 48 3d b2 52 5e 3d
       0.028637037 0.06560246 0.04906521 0.054278083
000180 a8 dc ca bc 58 79 bf 3c 94 46 97 3c b1 f8 89 3d
       -0.02476342 0.02337329 0.018466271 0.06736887
000190 74 aa bd 3c 7e 49 a9 bd 7d 97 8b 3d a9 d8 1a bd
       0.023152567 -0.08265971 0.068160035 -0.03780428
0001a0 f9 93 33 bd 50 b0 78 bd a7 44 1a bd 38 37 76 bd
       -0.04384229 -0.06071502 -0.03766313 -0.060111254
0001b0 6a 42 05 3d 2c 76 44 bd c8 2f 4d 3c 80 16 c9 bc
       0.03253404 -0.04796426 0.012523599 -0.024546862
0001c0 e9 7d 61 bd 50 b2 9b bd b3 00 a0 3d 06 72 32 3d
       -0.055051718 -0.0760237 0.07812633 0.043565772
0001d0 f8 fa ab bc 76 d2 6b 3d c4 c3 d4 3c f0 47 c7 bc
       -0.020993695 0.057573758 0.025972255 -0.024326295
0001e0 11 67 8c 3d c3 63 0c bd 24 26 93 3c 85 03 b0 3d
       0.06855596 -0.034274828 0.017962523 0.08594421
0001f0 14 0e b8 3c 46 f2 17 3d 10 3b 8c bc 09 5b 81 bd
       0.02246765 0.037096284 -0.017118007 -0.06316192
000200 7b 45 a2 3d dc 61 0a 3d b0 f7 36 bc ae cd 92 bd
       0.079234086 0.033784732 -0.011167452 -0.071681365
000210 fc 94 a2 bd 33 e5 2d bd 06 03 76 3d fb 60 b2 3d
       -0.07938573 -0.04245491 0.060061477 0.08709904
000220 de 00 1f bd 9c 73 09 3d 00 1e 15 bb 53 52 3b bd
       -0.038819186 0.03355752 -0.0022753477 -0.045732807
000230 20 3c 3b 3b 80 55 97 bb 53 64 04 bd 84 18 bb 3c
       0.0028569773 -0.0046183467 -0.03232224 0.022838838
000240 b4 f2 c8 bc 19 cd 83 3d c0 c4 b3 3a 59 a4 17 bd
       -0.024529792 0.06435604 0.0013715252 -0.03702197
000250 c9 f5 a1 bd bb 69 87 3d 50 72 2c 3c 92 23 f5 bc
       -0.07908208 0.06611963 0.010525301 -0.029924188
000260 8b 2b 8e bd c6 62 b0 bd 15 fc 80 3d 6f 7b aa 3d
       -0.06941899 -0.086125895 0.06298081 0.08324324
000270 0b cc 55 bd 30 58 99 3b 7c aa 27 bd 72 52 36 3d
       -0.052196544 0.004679702 -0.04093407 0.04451222
000280 86 19 67 bd 25 d3 8d 3d 40 5d d6 ba 9c 95 78 bd
       -0.056420825 0.06925038 -0.0016354695 -0.060689554
000290 db 34 a4 3d 80 f0 bf 3c e9 69 ac 3d b4 8b 86 bd
       0.08017894 0.023430109 0.08418638 -0.06569615
0002a0 fa 27 66 3d 32 36 4a 3d f9 21 03 bd 3d 63 8e bd
       0.05619047 0.04936809 -0.03201482 -0.06952522
0002b0 44 f4 8a bc 89 69 ae 3d a6 8d 23 3d 79 1d 5c bd
       -0.016962178 0.08516223 0.03993001 -0.053739045
0002c0 c3 cf 95 3d 4b f6 6e bd b8 29 ae bc 33 96 a3 bd
       0.07315018 -0.058340352 -0.021260127 -0.079876326
0002d0 4f a5 92 3d d0 e3 00 3c 47 9a 80 bd a0 43 13 bc
       0.07160436 0.007866815 -0.06279426 -0.008988291
0002e0 8e c6 55 3d 30 48 7b bd 3b d6 a1 3d 6b 96 19 bd
       0.05219131 -0.06134814 0.07902189 -0.037496965
0002f0 50 d4 23 bd 91 82 91 bd e0 d2 03 bb dd 6b 55 bd
       -0.0399974 -0.07104982 -0.0020114705 -0.05210482
000300 b0 f2 a3 bb 78 39 73 bc 8e 38 7c 3d a0 02 f3 3b
       -0.005003296 -0.014845245 0.061577372 0.0074160844
000310 80 b4 ed 3a 78 11 ae bc 5e 92 65 3d c6 06 00 bd
       0.0018135458 -0.021248564 0.05604779 -0.03125646
000320 34 d7 bc bc 1b 54 97 bd 0a 24 e8 bc dd ab af 3d
       -0.023051836 -0.07389089 -0.028337497 0.08577702
000330 c2 6f 24 3d 64 67 8f 3c 80 1f 44 3a 47 bb aa 3d
       0.040145643 0.017505355 0.00074815005 0.083365016
000340 c4 b6 cb 3c 6e 30 77 bd 3f ff a3 3d a3 d7 9c 3d
       0.024867423 -0.06034892 0.08007669 0.07658317
000350 ed 3b aa 3d 6d 57 85 3d 50 7a 5b bc ee 0e 92 bd
       0.08312211 0.06510816 -0.013395861 -0.07131754
000360 b4 07 f2 3c a8 86 cb bc 90 7b 8a bd be 94 0a 3d
       0.029544689 -0.024844483 -0.06761849 0.033833258
000370 4f 07 90 bd 16 8a de bc 23 be 83 3d 40 32 11 bb
       -0.07032644 -0.027165454 0.0643275 -0.0022155195
000380 0e 68 a0 bd 38 3a 9c 3c f8 79 02 bd 8f 0a 83 3d
       -0.07832347 0.01907073 -0.0318546 0.06398498
000390 e0 bf 34 bb c0 a6 d2 ba 48 61 10 3d 42 e5 49 3d
       -0.0027580187 -0.0016071424 0.035249025 0.049290903
0003a0 56 da 0a 3d a0 e0 9d bb d2 4f 35 3d 72 88 51 3d
       0.033899628 -0.004818037 0.044265576 0.051155515
0003b0 40 32 27 3b d4 e9 d3 3c 78 e2 72 3c 69 de 80 bd
       0.002551213 0.025868334 0.014824502 -0.06292421
0003c0 48 a2 72 3c 69 b7 82 3d e8 79 51 3c 59 fa 37 bd
       0.014809199 0.06382639 0.012785412 -0.044916485
0003d0 8e 2a 79 bd f6 e9 09 bd 24 c4 93 bc 0a e3 72 3d
       -0.0608316 -0.03367039 -0.018037863 0.059298553
0003e0 2e 27 a4 bd af 64 3e bd 70 f3 5a bd 1c 0e 5b bd
       -0.080152854 -0.046482738 -0.053454816 -0.053480253
0003f0 2a 53 2c 3d e0 8e 25 3b 64 cc bb bc 2b 04 b1 bd
       0.0420715 0.0025262162 -0.02292461 -0.08643373

fc2.bias f4 [128]
000000 ea 4e 20 3d 60 08 7b bb 9c c6 c5 bc 28 7a 04 3c
       0.03913776 -0.0038304552 -0.024142556 0.008085765
000010 b0 1b 3b 3c 60 a3 82 bd f0 01 90 bc a0 17 44 3b
       0.011420175 -0.063788176 -0.017579049 0.0029921308
000020 e1 40 8a 3d 0a bf 9a bd 12 d1 a0 bd 80 ad d5 3a
       0.06750656 -0.07555969 -0.07852377 0.0016302317
000030 fc c0 8a 3c 1e a2 0f 3d d1 24 9e 3d 70 ec 30 3c
       0.016937725 0.035066716 0.07721866 0.010798559
000040 20 bc 2e bb a4 4a 16 bd 87 7e 82 3d b8 74 0c 3d
       -0.0026662424 -0.036692277 0.063717894 0.034291
000050 6a dd 30 3d 35 56 8c bd 1c 9c 99 bc b0 86 05 3c
       0.043179907 -0.0685238 -0.018751197 0.008149788
000060 58 4f 17 bc cd 19 9c 3d dc a4 e4 bc 40 0c ff 3c
       -0.009235226 0.076221086 -0.027910642 0.031133771
000070 57 93 88 3d 28 4f d1 3c e1 d7 92 bd c8 54 6d bc
       0.06668728 0.02555044 -0.07170082 -0.014485545
000080 5c f5 38 bd a8 7d cf 3c ee 37 02 3d 20 41 0a 3b
       -0.045155868 0.025328472 0.03179162 0.0021095946
000090 49 27 91 3d e3 aa 55 bd 27 01 8a bd ec 99 b3 3c
       0.07087571 -0.052164923 -0.06738501 0.021923982
0000a0 ca ab 33 3d b9 a2 63 bd 40 28 2b 3b 88 c3 fd 3c
       0.043865003 -0.055575106 0.002611652 0.030977026
0000b0 b8 23 e1 3c e0 b2 24 bc ee 65 2c 3d 58 0b 1e bd
       0.027482852 -0.010052413 0.042089395 -0.038585037
0000c0 10 ad b1 3b a5 68 5a bd 29 85 88 bd e8 a2 23 3c
       0.005422242 -0.053322453 -0.06666023 0.00998757
0000d0 3e 8a 3e 3d 40 a1 3c bd 4b f7 9b bd 6a 29 0c bd
       0.046518557 -0.046052217 -0.07615527 -0.034219183
0000e0 20 4e 6f 3c 68 63 81 bd ec d3 92 3c 6f 74 87 3d
       0.014606029 -0.06317788 0.017923318 0.06614005
0000f0 6c 48 31 bd 86 ae 9e bd 72 d9 74 bd 42 b6 95 bd
       -0.043281958 -0.077481315 -0.059777685 -0.073101535
000100 e6 79 2c 3d ec 47 dc 3c b0 fe 54 bc f4 8b fa bc
       0.04210844 0.026889764 -0.013000175 -0.030584313
000110 69 9a 89 3d 04 60 a2 bc 67 f1 56 bd ba 8e 17 bd
       0.067189045 -0.019821174 -0.052476313 -0.03700135
000120 ed ea b0 3d 40 84 63 3b 40 4e 8a bc 4d ee 93 3d
       0.086385585 0.0034716278 -0.016883016 0.07223187
000130 44 6a e8 3c 13 ae 73 bd dd ea 81 3d ac f9 3c bd
       0.028370984 -0.059492182 0.06343625 -0.046136543
000140 00 c9 21 bd 0e 49 0c 3d 9a e8 7e 3d 14 35 0a 3d
       -0.03949833 0.034249358 0.062233545 0.033742025
000150 66 13 6a bd 90 f1 65 bc 2a a1 7d 3d a2 bc 2b 3d
       -0.057147406 -0.014034644 0.061921276 0.04192794
000160 f0 9e 3e bc 20 e7 32 bc da 7e 3e 3d 20 ea 18 bb
       -0.011634573 -0.010919362 0.046507694 -0.0023332909
000170 9e 6c 28 3d f0 42 41 bc 3d 4c 8b 3d 9f 34 9b bd
       0.04111921 -0.011795744 0.06801651 -0.07578396
000180 6e 93 aa bd 30 a4 9b 3c 02 7a 42 3d d1 2f 9c 3d
       -0.08328901 0.01899919 0.047479637 0.07626308
000190 40 53 b9 3a 80 15 31 bd 98 68 25 3c 39 c6 37 bd
       0.001413919 -0.043233395 0.010095738 -0.044866774
0001a0 fb c2 a1 3d ec 3a 94 bd 2d 0a 48 bd 1a 9b 70 3d
       0.07898518 -0.07237801 -0.04883783 0.058741666
0001b0 9d 8d a3 3d 97 d5 ae bd 00 b6 b1 bb a0 c0 0a 3c
       0.07985995 -0.08536833 -0.0054233074 0.008468777
0001c0 e0 27 45 bb da 31 19 3d de 36 7b 3d f0 5a 99 3b
       -0.0030083582 0.037401058 0.061331622 0.00468003
0001d0 70 3e ee bb ea 9c 54 3d 8c dd 11 3d 30 19 ae 3c
       -0.0072706267 0.051907457 0.035611674 0.021252245
0001e0 fe 0d 7c bd 6a cb 57 3d 6b 17 82 3d 68 8c 5a 3c
       -0.06153678 0.052684225 0.06352123 0.0133391395
0001f0 9a d8 45 3d 3b 61 ab 3d 70 4d d2 3b 08 4d 62 3c
       0.04830227 0.083681546 0.0064179227 0.013812311
