customTrainer/results/AgentBall12/RollerBall/RollerBall-281638.pt (torch, 312791 bytes, 24 tensors)

fc1.weight f4 [128, 16]
0	0xbe426bca	-0.18986431
1	0xbe0c292c	-0.13687581
2	0xbe373114	-0.17889816
3	0xbd97a7c4	-0.07405046
4	0xbe245ad6	-0.16050276
5	0x3d5d5918	0.054040045
6	0x3e24a4f0	0.16078544
7	0xbe7bfc14	-0.24607879
8	0xbdedd724	-0.116133004
9	0x3e1458aa	0.14486948
10	0x3e6a1ce8	0.2286259
11	0x3e7eb050	0.24871945
12	0xbe40a6f4	-0.18813688
13	0xbc336a40	-0.010950625
14	0x3ca98730	0.020694345
15	0xbe7001d0	-0.23438191
16	0xbe64e05a	-0.22351208
17	0x3e3c972e	0.18417045
18	0x3e4abac2	0.19797805
19	0xbe368aae	-0.1782634
20	0xbe29e8fa	-0.1659278
21	0x3b862a80	0.004094422
22	0x3c241840	0.010015547
23	0xbe435918	-0.19076955
24	0xbdddcc18	-0.108299434
25	0xbdde2c78	-0.108483255
26	0x3df66870	0.120316386
27	0x3db65ef0	0.08904827
28	0xbe6f2a68	-0.2335602
29	0xbcd3ee90	-0.025870591
30	0x3e5dee2e	0.2167289
31	0xbd43c470	-0.04779476
32	0x3e5e3120	0.21698427
33	0xbe2e3940	-0.17014027
34	0xbe288632	-0.16457441
35	0x3e7c2386	0.24622926
36	0x3e5b5f92	0.21423176
37	0xbccdc010	-0.025115997
38	0x3da54de0	0.08071494
39	0x3e79d5ec	0.24398011
40	0x3e3bec98	0.18351972
41	0xbdbbb42c	-0.091652244
42	0xbcc35010	-0.023841888
43	0x3dd0e5e0	0.10200095
44	0x3c4d7ba0	0.0125416815
45	0xbe4a6a3c	-0.19767088
46	0xbcb88e80	-0.022528887
47	0x3e7b615a	0.24548855
48	0xbdd13d6c	-0.102167934
49	0x3cb459d0	0.022015482
50	0x3dd10df8	0.102077425
51	0xbe635270	-0.22199416
52	0x3c774ca0	0.015093952
53	0xbd96c51c	-0.073618144
54	0x3aae9000	0.0013318062
55	0x3d4fd860	0.05074346
56	0x3db03694	0.0860416
57	0x3e338cc4	0.17534167
58	0x3e78986e	0.24276897
59	0xbc523380	-0.012829661
60	0xbc823150	-0.015892655
61	0x3c991120	0.018684924
62	0x3e721ad8	0.23643053
63	0x3d0c68c8	0.034279615
64	0xbceb8e90	-0.028754503
65	0xbe131516	-0.14363512
66	0xbe41a610	-0.18911004
67	0x3e07ec72	0.1327379
68	0xbc4603e0	-0.012085885
69	0xbbe58d40	-0.0070053637
70	0xbdadc844	-0.08485463
71	0x3d9826bc	0.07429263
72	0x3de47140	0.11154413
73	0x3cae6010	0.02128604
74	0xbcd89fc0	-0.026443362
75	0x3e0c6b58	0.13712823
76	0xbd3f2c40	-0.04667306
77	0xbe61a984	-0.22037321
78	0xbc3a51a0	-0.011372
79	0x3d2a9cd8	0.041653484
80	0xbd958008	-0.07299811
81	0xbd3133d0	-0.043262303
82	0xbdf8b4f0	-0.12143886
83	0xbd31ca80	-0.04340601
84	0xbd9a29a8	-0.075274765
85	0xbcea8ec0	-0.028632522
86	0x3e4ef990	0.20212388
87	0x3dd8ef58	0.10592526
88	0xbda344e8	-0.07972127
89	0xbd4cdeb8	-0.05001709
90	0xbe56f59c	-0.2099213
91	0xbe3d2a68	-0.18473208
92	0xbe4c0556	-0.1992391
93	0x3dac158c	0.08402547
94	0x3ce8aea0	0.02840358
95	0x3e588818	0.21145666
96	0xbe378b20	-0.17924166
97	0x3d9ac278	0.07556623
98	0x3e3f72b2	0.18696097
99	0xbde24da4	-0.11049965
100	0x3e60749e	0.21919486
101	0x3de2c494	0.110726506
102	0xbe54527c	-0.2073459
103	0x3d435898	0.04769191
104	0x3d979914	0.07402244
105	0x3c01a060	0.007911772
106	0xbe421dfe	-0.18956754
107	0x3d397548	0.045277864
108	0x3d157860	0.03649175
109	0x3e42a61a	0.19008675
110	0xbdbfb0a0	-0.093598604
111	0xbe343dbc	-0.17601675
112	0x3e0f3832	0.1398628
113	0x3df536a8	0.119733155
114	0x3df5a6d0	0.119947076
115	0x3dab0a08	0.08351523
116	0xbe74b8c0	-0.23898602
117	0x3e019eb4	0.12658197
118	0xbd8656d8	-0.06559533
119	0xbe5f4c12	-0.21806362
120	0xbde0d6ec	-0.10978493
121	0x3d6c4ec8	0.05769232
122	0x3e58e1a4	0.21179825
123	0x3e53ca2a	0.20682588
124	0x3de22500	0.110422134
125	0xbcdf23b0	-0.027238697
126	0xbe1c89b6	-0.15286908
127	0x3e1bc6ce	0.15212557
128	0xbe28825c	-0.16455978
129	0xbbb67a80	-0.0055688024
130	0x3d6f4210	0.05841261
131	0xbda50390	-0.0805732
132	0xbe3bf43c	-0.18354887
133	0xbdf9a740	-0.121901035
134	0xbe6efd0a	-0.23338714
135	0x3d381fa0	0.044952035
136	0xbc504700	-0.01271224
137	0x3e4bdf34	0.19909364
138	0xbe1e5ab8	-0.15464294
139	0x3dfcdb48	0.12346512
140	0xbe5c8e4c	-0.21538657
141	0xbdadd1d4	-0.08487287
142	0xbe790dfa	-0.24321738
143	0x3e11638c	0.1419813
144	0x3deb1ba8	0.114798844
145	0x3bb97480	0.00565964
146	0x3e4ba026	0.1988531
147	0xbe2ac5ca	-0.16677013
148	0x3c20ea00	0.009821415
149	0x3e0b448c	0.13600367
150	0xbe7b457a	-0.24538222
151	0xbdc626ec	-0.096753925
152	0xbe35591c	-0.17709774
153	0x3c5c9460	0.01346311
154	0xbde16af4	-0.11006728
155	0xbb4e8600	-0.0031512976
156	0x3da09de0	0.07842612
157	0xbe00b72e	-0.12569878
158	0x3e4131e2	0.18866685
159	0x3e32cd06	0.17461023
160	0xbe72c0ac	-0.23706311
161	0xbdee8f34	-0.116484076
162	0x3cfd2450	0.030901104
163	0xbc39c100	-0.011337519
164	0xbe40265c	-0.18764633
165	0x3ccf6ec0	0.025321364
166	0xbe555f38	-0.20837104
167	0x3d7c5080	0.06160021
168	0xbe7862aa	-0.24256387
169	0xbe08547c	-0.13313478
170	0xbd014538	-0.031560153
171	0xbda15a9c	-0.078786105
172	0xbd3e41f0	-0.0464496
173	0x3bd6e180	0.0065576434
174	0xbd7c81e8	-0.061647326
175	0xbe328612	-0.17433956
176	0x3e676a78	0.22599208
177	0xbe34e816	-0.17666659
178	0x3c955290	0.018227845
179	0x3e4beebc	0.19915289
180	0xbe0e8d26	-0.13921031
181	0x3e247d48	0.16063416
182	0xbdc4fe04	-0.09618762
183	0x3e2ed21c	0.17072338
184	0xbdfd7eb0	-0.12377679
185	0xbe6e11c6	-0.23248968
186	0x3e77aa1a	0.24185982
187	0xbd1f2f48	-0.03886345
188	0x3d792818	0.060829252
189	0x3d1d4fa8	0.038406044
190	0x3d4fd4f0	0.050740182
191	0xbe4f635c	-0.20252746
192	0x3e20f1f0	0.15717292
193	0x3cad0f20	0.021125376
194	0x3e0605d6	0.13088164
195	0x3dc7f714	0.09763923
196	0xbe7976e2	-0.24361756
197	0xbe6e350c	-0.23262423
198	0xbe3e529a	-0.18586197
199	0xbe4decdc	-0.20109886
200	0x3dbae60c	0.09125909
201	0x3d848150	0.06469977
202	0xbd9420d8	-0.07232827
203	0x3e4cb552	0.19991043
204	0xbd3ad7a0	-0.045615792
205	0x3e6e49fa	0.23270407
206	0x3d804560	0.06263232
207	0xbe66ebaa	-0.22550836
208	0xbe42ec62	-0.19035485
209	0x3da6b6d8	0.081403434
210	0xbe26d31c	-0.1629147
211	0x3dd1382c	0.10215792
212	0x3dbb1f00	0.09136772
213	0x3c918210	0.017762214
214	0xbd025b20	-0.031825185
215	0xbd5593d0	-0.052142918
216	0x3e0f74f2	0.14009455
217	0x3c654340	0.013993084
218	0x3e4a8f6c	0.19781274
219	0xbd91abc0	-0.07112837
220	0x3e3d1478	0.1846484
221	0x3d656258	0.05600199
222	0xbe4dcec6	-0.20098409
223	0x3e5652a0	0.20929956
224	0x3d8ddb30	0.06926572
225	0xbd855898	-0.065110385
226	0xbdf56994	-0.11983028
227	0x3d3952d0	0.04524499
228	0xbda8af2c	-0.082365364
229	0x3dc348ec	0.09535393
230	0xbe2bac6e	-0.16764995
231	0x3e517272	0.20453814
232	0xbe6be362	-0.23035958
233	0x3df6efb4	0.120574385
234	0x3d7973d0	0.060901463
235	0xbd54c2d0	-0.0519436
236	0x3e25ff1a	0.16210595
237	0xbe0f5d0e	-0.14000341
238	0x3e2607c4	0.162139
239	0x3e761fcc	0.24035567
240	0xbdb30e60	-0.08742976
241	0xbd161568	-0.03664151
242	0xbd127178	-0.035752743
243	0x3e0ea46e	0.13929912
244	0xbcdb0e40	-0.026740193
245	0x3dc94984	0.09828475
246	0xba888000	-0.0010414124
247	0x3d16dc40	0.03683114
248	0x3e3cc38e	0.18433973
249	0x3e21512a	0.15753618
250	0x3e50cad6	0.20389876
251	0x3d2ea088	0.042633563
252	0x3e211bec	0.15733308
253	0xbe5c6e20	-0.21526384
254	0xbe36c3be	-0.17848107
255	0x3e3d27ca	0.1847221

fc1.bias f4 [128]
0	0xbe05571c	-0.13021511
1	0xbe6ac1fa	-0.22925559
2	0xbd1c51d8	-0.03816399
3	0xbe469856	-0.19394049
4	0xbd41ac08	-0.047283202
5	0xbe37b998	-0.17941892
6	0x3c4085c0	0.0117506385
7	0x3dc77494	0.097390324
8	0x3ca13290	0.01967743
9	0x3e58db1a	0.2117733
10	0xbdaff4fc	-0.08591649
11	0xbb6b4700	-0.0035900474
12	0x3d9bb8d8	0.076036155
13	0xbdc71b44	-0.097219974
14	0xbe1af838	-0.1513375
15	0x3d705b48	0.058680803
16	0x3e1d6194	0.15369254
17	0x3e441ed8	0.19152391
18	0xbe12f49a	-0.1435112
19	0x3e408ca6	0.18803653
20	0x3d9dd3c4	0.07706407
21	0xbe7faeb6	-0.2496899
22	0xbdaf5c44	-0.0856252
23	0xbca9c4c0	-0.0207237
24	0x3d9a1a3c	0.07524535
25	0x3d0e7f80	0.034789562
26	0xbdd69ec0	-0.10479498
27	0x3e0bedba	0.13664904
28	0xbd432f70	-0.04765266
29	0xbe281c80	-0.16417122
30	0x3e51a768	0.20474017
31	0xbdd135c0	-0.1021533
32	0x3e236c06	0.15959176
33	0xbb490e00	-0.003067851
34	0xbd573cd0	-0.05254823
35	0xbdfc7040	-0.123260975
36	0xbe515b1c	-0.20444912
37	0xbe16f564	-0.14742047
38	0x3de46b0c	0.1115323
39	0x3cfa8560	0.030581176
40	0xbccc2450	-0.024919659
41	0x3d1bcb30	0.03803557
42	0x3dd388c4	0.1032882
43	0x3de45d94	0.11150661
44	0xbdf8a158	-0.12140149
45	0xbe1c9f28	-0.15295088
46	0xbd2a83b0	-0.041629493
47	0x3e55802e	0.20849678
48	0x3e715fda	0.2357172
49	0x3e116f48	0.14202607
50	0x3e20c1dc	0.15698951
51	0xbe4216fc	-0.1895408
52	0xbd849cf4	-0.06475249
53	0x3d83aa80	0.06429005
54	0xbc2af100	-0.010433435
55	0x3e5aecf4	0.21379453
56	0xbe7e05ca	-0.24806896
57	0xbe13e5b6	-0.14443097
58	0xbdb71198	-0.089389026
59	0x3e220c10	0.15824914
60	0xbd9ba63c	-0.07600066
61	0x3e6fed12	0.23430279
62	0xbe5324f4	-0.20619565
63	0xbd0e2430	-0.03470248
64	0x3e7cd5ea	0.24690977
65	0xbe293f18	-0.16527975
66	0xbe060e74	-0.13091451
67	0x3c9afc70	0.0189192
68	0xbe067862	-0.1313186
69	0xbdfd5b48	-0.12370926
70	0xbe6ffdf8	-0.23436725
71	0xbe1f06fa	-0.15530005
72	0x3e22391e	0.15842101
73	0xbcc513a0	-0.02405721
74	0xbd6d1b60	-0.057887435
75	0x3e37b344	0.17939478
76	0x3d8573f0	0.06516254
77	0x3ca78b10	0.020452052
78	0x3e6d4834	0.23172075
79	0x3da09418	0.07840747
80	0xbe12281c	-0.14273113
81	0x3e269e58	0.16271341
82	0x3d764498	0.06012401
83	0xbe36f352	-0.17866257
84	0xbe518e60	-0.20464468
85	0xbe143bbc	-0.14475912
86	0xbd5f8290	-0.054567873
87	0x3e2a3f94	0.16625816
88	0x3d9159d8	0.070972145
89	0xbe0ed850	-0.13949704
90	0x3daad7b0	0.083419204
91	0x3d2d9bd0	0.042384923
92	0xbe6beac0	-0.23038769
93	0xbe620990	-0.2207396
94	0x3e11871a	0.14211693
95	0xbe10ae12	-0.14128903
96	0x3da743b0	0.08167207
97	0xbe7d01b4	-0.24707681
98	0xbe2b9e4e	-0.16759607
99	0xbdbac6d8	-0.09119958
100	0xbd5bb000	-0.053634644
101	0x3d597690	0.053091586
102	0xbe163440	-0.1466837
103	0x3e5de4de	0.21669337
104	0x3dee815c	0.11645767
105	0xbe5e0c56	-0.21684393
106	0x3e470d12	0.1943858
107	0xbd3fa5b0	-0.04678887
108	0x3ce00920	0.027348101
109	0x3d0471b0	0.032334983
110	0xbd61e630	-0.055151165
111	0xbd40de50	-0.047087014
112	0x3d4ca2a8	0.04995981
113	0xbe678960	-0.22610998
114	0x3e0b3886	0.1359578
115	0xbe517e2c	-0.20458287
116	0xbd84647c	-0.064644784
117	0xbe5d7146	-0.21625242
118	0x3e057188	0.1303159
119	0xbe544412	-0.20729092
120	0x3e301a68	0.17197573
121	0x3d9bfa1c	0.07616064
122	0x3dcf5694	0.10123935
123	0xbcd7ce40	-0.026343465
124	0x3e2f5110	0.17120767
125	0x3daeef60	0.08541751
126	0x3d55cb88	0.052196056
127	0xbe1e5a9e	-0.15464255

fc2.weight f4 [128, 128]
0	0x3d05b1b0	0.03264016
1	0xbd383ba5	-0.044978756
2	0xbd82b3eb	-0.06381973
3	0x3cc40b24	0.023931094
4	0xbd22a664	-0.039709464
5	0x3cc7d590	0.024393827
6	0xbd5830b7	-0.052780833
7	0xbd0f7d31	-0.0350315
8	0x3d956a49	0.07295663
9	0x3ccf68ac	0.025318466
10	0x3d97b9ad	0.07408462
11	0x3d90970f	0.07060062
12	0x3d8bbcaf	0.06823098
13	0xbc4d2ff8	-0.012523644
14	0xbd95f88d	-0.07322798
15	0x3da72b71	0.08162583
16	0xbd8a4a4e	-0.06752454
17	0xbd671adc	-0.0564221
18	0xbcd9f2f8	-0.026605114
19	0xbc6365e0	-0.013879269
20	0xbd7fe67e	-0.062475674
21	0x3da47a6f	0.08031165
22	0xbd8cd003	-0.068756126
23	0xbc7c8320	-0.015412122
24	0x3d874f97	0.066069774
25	0xbd36c1b3	-0.04461832
26	0x3b9a2ee0	0.004705295
27	0x3d13ae5e	0.03605496
28	0xbd9893b6	-0.074500486
29	0xbd058210	-0.03259474
30	0x3d91fe6f	0.071286075
31	0x3d877983	0.066149734
32	0x3d1cb11a	0.038254835
33	0x3d7d6a7e	0.061869137
34	0xbd11013d	-0.03540157
35	0x3d1dd076	0.038528882
36	0x3d94bd19	0.0726263
37	0x3d52b43e	0.051441424
38	0xbd982560	-0.07429004
39	0x3c748048	0.014923163
40	0x3c8345c0	0.01602447
41	0x3d9f15c5	0.07767824
42	0x3ce91990	0.028454572
43	0x3d11af4a	0.03556756
44	0xbd40edeb	-0.047101896
45	0xbda86051	-0.08221496
46	0x3d139d34	0.036038592
47	0x3d92cd23	0.07168033
48	0xbd4893dd	-0.04896914
49	0xbd5aeaf6	-0.053446732
50	0xbcc69630	-0.024241537
51	0xbd29c48d	-0.04144721
52	0xbc1a2528	-0.009408273
53	0xbc3c0c80	-0.01147759
54	0xbd59313e	-0.053025477
55	0x3bdb2110	0.006687291
56	0x3c4cd828	0.012502708
57	0xbd8b7020	-0.068084955
58	0xbb9a7100	-0.0047131777
59	0xbc7b96e0	-0.015355796
60	0xbd9d993b	-0.07695242
61	0xbd76ae72	-0.060224958
62	0x3d96b8bb	0.07359453
63	0xbd9f6292	-0.07782473
64	0xbd1d9991	-0.03847653
65	0x39f15000	0.00046026707
66	0x3ca69bc0	0.02033794
67	0xbd545f7c	-0.051848873
68	0xbd2ab2f7	-0.04167458
69	0x3c337748	0.010953732
70	0x3d515fd6	0.051116787
71	0xbd8beec2	-0.06832649
72	0x3da7196d	0.081591465
73	0x3cbab1c0	0.022789836
74	0xbdaee78b	-0.08540257
75	0x3d4f7efe	0.05065822
76	0x3d92fba5	0.07176904
77	0xbd46bf92	-0.04852254
78	0xbd95107e	-0.07278536
79	0xbd50c710	-0.05097109
80	0xbd02d200	-0.031938553
81	0xbd8ff9d4	-0.07030073
82	0x3cdf6fdc	0.027275018
83	0x3c27de88	0.010245927
84	0x3bbecbf0	0.005822651
85	0xbbaa9460	-0.005205676
86	0x3bf0f5a0	0.0073534995
87	0xbdaf59f4	-0.08562079
88	0x3d86a2bf	0.0657401
89	0xbd3ae201	-0.04562569
90	0x3d94a349	0.07257707
91	0x3cc533a0	0.024072468
92	0x3c364b80	0.011126399
93	0x3d985a97	0.07439154
94	0xbc814d80	-0.015784025
95	0xbb6e1c60	-0.003633283
96	0xbdb0032a	-0.085943535
97	0x3d3b3612	0.045705862
98	0xbd843b2a	-0.06456597
99	0xbda98cfd	-0.082788445
100	0x3aabf640	0.0013119653
101	0xbd9cc9ce	-0.07655679
102	0xbd3ab613	-0.045583796
103	0xbd8b294a	-0.06794985
104	0x3cc73934	0.024319269
105	0xbd94ff36	-0.0727524
106	0xbcdf18aa	-0.02723344
107	0x3d6cbc1e	0.05779659
108	0x3da9c57f	0.082896225
109	0x3d87d579	0.066325136
110	0xbcbe4908	-0.023228183
111	0xbdb264f0	-0.087106586
112	0xbd6b8ee5	-0.05750932
113	0xbda1f10c	-0.07907304
114	0xbd885c12	-0.06658186
115	0xbdaa330a	-0.08310516
116	0x3d9f9c29	0.07793457
117	0x3d926ded	0.07149873
118	0x3cd4df28	0.025985315
119	0x3c83e658	0.016101047
120	0xbd9bffae	-0.076171264
121	0xbdb2ad83	-0.08724501
122	0xbd93339d	-0.07187579
123	0x3cee8d34	0.029120065
124	0xbd16e0b1	-0.036835376
125	0x3bb5e080	0.005550444
126	0xbd6d7f98	-0.05798301
127	0x3ce7b23c	0.028283231
128	0x3d10ad56	0.035321556
129	0xbd843cde	-0.06456922
130	0xbaca2f40	-0.0015425459
131	0x3da76a8d	0.0817462
132	0xbd9988ae	-0.07496773
133	0x3db0b38b	0.08627995
134	0xbcbd8d34	-0.02313862
135	0x3bc50060	0.0060120076
136	0x3da599cf	0.08085977
137	0xbd2d9a7a	-0.04238365
138	0x3d7b3f76	0.061339818
139	0xbcc43c10	-0.023954421
140	0xb7a1f000	-1.9304454e-05
141	0xbd1b891b	-0.03797255
142	0x3d35bc26	0.044368885
143	0xbd8bc496	-0.06824605
144	0xbca5098c	-0.020146154
145	0xbd574017	-0.052551355
146	0xbbbdb980	-0.0057899356
147	0xbd83c32a	-0.06433709
148	0xbd8c4127	-0.06848364
149	0xbd65d417	-0.056110468
150	0x3d901e9d	0.07037089
151	0xbd98893a	-0.07448049
152	0x3c964330	0.018342584
153	0xbdb00015	-0.08593766
154	0x3d3d6882	0.046242245
155	0x3db00fc7	0.08596759
156	0xbd7a1386	-0.061053775
157	0xbda35ea0	-0.07977033
158	0x3d7c9d42	0.06167341
159	0x3d3f6ede	0.04673659
160	0xbc4bf690	-0.012448922
161	0x3d854743	0.06507733
162	0x3c2a0878	0.010377996
163	0x3c641c00	0.013922691
164	0x3d76a02a	0.060211338
165	0xbda0e9d5	-0.078571
166	0xbc7704e0	-0.015076846
167	0x3d8c4877	0.06849759
168	0xbc13f9b0	-0.009031698
169	0xbc41f480	-0.0118380785
170	0xbc3bd308	-0.011463888
171	0xbd8c3729	-0.068464585
172	0xbd9f3038	-0.07772869
173	0xbd864854	-0.06556764
174	0x3c8d68f8	0.017261967
175	0xbd1ab4f9	-0.037770245
176	0x3c1478b8	0.009061985
177	0xbccd2a9c	-0.025044732
178	0xbc2e1df0	-0.010627255
179	0x3d9ecbb7	0.07753699
180	0xbcf2aa2e	-0.029622164
181	0xbd9d34fa	-0.0767612
182	0x3ca732f0	0.020410031
183	0xbd7a7902	-0.06115056
184	0x3d36283a	0.044471957
185	0x3d9d16f7	0.07670396
186	0xbdb50105	-0.08838085
187	0xbdb3335e	-0.08750032
188	0x3d712652	0.058874436
189	0x3cb19918	0.021679446
190	0x3d52fa9a	0.051508524
191	0xbd9c8f74	-0.07644549
192	0xbd20e57a	-0.039281346
193	0xbce40f60	-0.027839363
194	0x3ce03798	0.02737026
195	0xbc32e8e8	-0.010919787
196	0xbd94dc6e	-0.07268606
197	0x3d513ab6	0.05108138
198	0x3d88a7b9	0.066726156
199	0x3d922e77	0.07137769
200	0x3cf4b038	0.029869184
201	0xbd250e3a	-0.04029677
202	0x3d03d16c	0.032182142
203	0xbbba0fe0	-0.005678162
204	0xbd534be6	-0.051586054
205	0xbda8c139	-0.08239979
206	0x3d1dd5fe	0.038534157
207	0x3cbae568	0.022814468
208	0x3d31573e	0.04329609
209	0x3dae08a1	0.084977396
210	0x3d15d872	0.03658337
211	0x3c8df660	0.017329395
212	0x3d3f8f3e	0.046767466
213	0x3d677f1a	0.056517698
214	0xbd839fe7	-0.06426983
215	0xbd424009	-0.04742435
216	0x3da2b823	0.079452775
217	0xbda9f7c0	-0.08299208
218	0x3b807730	0.0039204583
219	0x3d10ffc2	0.03540016
220	0xbd561aee	-0.052271776
221	0x3b94c880	0.004540503
222	0x3c063ca0	0.008193165
223	0x3d1802e6	0.03711214
224	0xbc8b1c64	-0.016981311
225	0x3d014bd0	0.03156644
226	0xbd247948	-0.040154725
227	0xbc340a78	-0.010988824
228	0x3d0ff14c	0.035142228
229	0x3d0163e6	0.03158941
230	0x3d1b1aa2	0.037867196
231	0x3c9b351c	0.018946223
232	0xbc407040	-0.0117455125
233	0xbda96d35	-0.08272783
234	0x3ca51480	0.020151377
235	0x3be589d0	0.007004954
236	0x3c4da000	0.012550354
237	0x3d4a38fe	0.04937076
238	0xbc7cb448	-0.015423842
239	0xbb3b5e40	-0.0028590113
240	0x3dabcc9d	0.08388636
241	0x3db2a5ef	0.087230556
242	0xbb382940	-0.0028100759
243	0x3b93f8c0	0.0045157373
244	0xbdb0f69b	-0.08640786
245	0xbb398300	-0.0028306842
246	0xbb37d820	-0.0028052405
247	0xbda36e56	-0.07980029
248	0x3dad792f	0.084703796
249	0xbc95f29c	-0.018304162
250	0x3b5a5d60	0.0033319816
251	0xbb37b1a0	-0.0028029457
252	0xbda17feb	-0.078857265
253	0x3c530408	0.012879379
254	0x3dab5799	0.08366317
255	0x3d8b2165	0.06793479

fc2.bias f4 [128]
0	0x3c3309f8	0.01092767
1	0x3b896a10	0.004193552
2	0xbda95ff0	-0.08270252
3	0x3d594a5e	0.053049438
4	0xbcff1478	-0.03113769
5	0xbd108dfb	-0.035291653
6	0x3c8e4bb0	0.017370075
7	0xbd73fea7	-0.059569027
8	0xbc678f98	-0.0141333565
9	0xbd81ff25	-0.06347493
10	0xbd254d26	-0.040356778
11	0xbd142e88	-0.03617719
12	0xbd981f80	-0.07427883
13	0x3d840233	0.06445732
14	0x3c60f9c0	0.01373142
15	0xbda90dcd	-0.082545854
16	0x3d807897	0.06273001
17	0x3d76ce2e	0.060255222
18	0xbd912f5c	-0.07089111
19	0x3cd64690	0.026156694
20	0x3d9155b7	0.07096427
21	0xbcc56964	-0.024098106
22	0x3d9a5101	0.075349815
23	0x3da26343	0.07929089
24	0xbd64f40f	-0.055896815
25	0x3aea7380	0.0017887205
26	0x3d9cd141	0.076570995
27	0xbd08e9e4	-0.03342618
28	0x3d4f63ae	0.05063217
29	0xbda5a53a	-0.08088155
30	0xbd8925c9	-0.0669666
31	0x3d430d0a	0.047619857
32	0x3a9d2680	0.0011989623
33	0xbccbb0f8	-0.024864659
34	0xbd914252	-0.07092728
35	0x39edb600	0.00045339763
36	0xbd7680d1	-0.060181443
37	0x38db4400	0.000104554
38	0xbd3c6b4d	-0.046000767
39	0x3bddf000	0.006772995
40	0x3d81d537	0.06339496
41	0xbb8b60d0	-0.0042534843
42	0x3d81807f	0.06323337
43	0xbd9c9d9c	-0.07647249
44	0x3cec84c8	0.028871909
45	0x3d53dbea	0.0517234
46	0x39e3b900	0.0004343465
47	0x3d1df946	0.038567804
48	0x3d67aeee	0.05656331
49	0xbd752609	-0.059850726
50	0x3d7bdb66	0.06148853
51	0x3d6bd8ae	0.05757969
52	0x3ca4257c	0.020037405
53	0xbce3b2b8	-0.02779518
54	0x3c20fb58	0.00982555
55	0xbd9fda43	-0.07805302
56	0xbca12628	-0.019671515
57	0x3c00cf00	0.007861853
58	0xbd568e57	-0.05238184
59	0xbb1d8bc0	-0.0024039596
60	0xbd4f7da1	-0.05065692
61	0x3c251680	0.010076165
62	0xba3c4680	-0.0007182136
63	0x3d93f411	0.07224286
64	0xbccaaa3c	-0.024739377
65	0x3d9572e9	0.07297308
66	0xbda6ee98	-0.08150977
67	0x3c707310	0.014675871
68	0xbcd93b2a	-0.02651747
69	0x3c9f5170	0.019448012
70	0xbda22b62	-0.07918431
71	0xbd82aaf4	-0.06380263
72	0x3d5cad5a	0.05387626
73	0x3cf6db20	0.030133784
74	0xbcac1de0	-0.02101034
75	0xbd8078f3	-0.06273069
76	0xbd9c2aa5	-0.07625321
77	0xbd9e6498	-0.077340305
78	0xbd292826	-0.041298054
79	0x3d57395a	0.05254493
80	0xbc91c99c	-0.01779633
81	0x3d9a8271	0.07544411
82	0x3d0b2be6	0.03397741
83	0xbd34cd82	-0.0441413
84	0xbd876a6f	-0.066120975
85	0x3d6ff0e6	0.058579348
86	0x3bc76990	0.006085582
87	0x3bbd1750	0.0057706013
88	0x3ce65450	0.028116375
89	0x3d07ee92	0.033186503
90	0x3d8234c7	0.06357723
91	0x3dad5ccb	0.084649645
92	0xbd94557c	-0.07242867
93	0x3d1ca7de	0.038246028
94	0x3d1f7b2e	0.038935833
95	0xbdb15c94	-0.08660236
96	0xbbb50180	-0.0055238605
97	0x3d3dd1e6	0.046342753
98	0x3c4572d0	0.012051299
99	0x3d9d967d	0.07694719
100	0xbd677726	-0.056510113
101	0x3cdc83e0	0.026918352
102	0xbba1e420	-0.0049405247
103	0xbd676064	-0.05648841
104	0x3db40b4b	0.087912165
105	0xbd911431	-0.07083929
106	0x3d1d11aa	0.038346924
107	0xbda06f0a	-0.07833679
108	0x3d90c6a9	0.070691414
109	0x3d31b13e	0.043381922
110	0x3c612590	0.013741866
111	0xbc9e8a30	-0.019353002
112	0x3c8e76ac	0.017390572
113	0xbdb10086	-0.08642678
114	0x3d6393c2	0.055560835
115	0xbc84de18	-0.016219184
116	0xbda27980	-0.079333305
117	0x3daa7849	0.08323724
118	0xb9b32000	-0.00034165382
119	0x3da7491f	0.081682436
120	0xbc89e2dc	-0.016831808
121	0x3cc2dc00	0.023786545
122	0x3d521f9a	0.05129967
123	0x3d12c756	0.035834633
124	0xbdaec99f	-0.0853455
125	0x3d955147	0.07290893
126	0x3d88d427	0.0668109
127	0x3cdd9ed4	0.027053274

fc3.weight f4 [2, 128]
0	0x3da45189	0.08023364
1	0x3d027e8e	0.031858973
2	0x3c558560	0.013032287
3	0x3c37bb10	0.011214033
4	0xbc67b548	-0.014142342
5	0x3c600018	0.013671897
6	0x3d616cde	0.055035464
7	0xbd9ca0ff	-0.07647895
8	0x3d18885e	0.037239425
9	0xbc039730	-0.008031651
10	0xbda0492b	-0.07826456
11	0x3daa0f97	0.08303755
12	0xbd365024	-0.04451002
13	0xbdb40016	-0.08789079
14	0xbd317dc4	-0.04333283
15	0x3bb88b20	0.0056318194
16	0x3bb276a0	0.00544627
17	0xbc6591e8	-0.014011838
18	0x3d2cb68e	0.042166285
19	0xbd881669	-0.066448994
20	0x3cab44c8	0.02090682
21	0x3d6b4d62	0.057446845
22	0xbd821c37	-0.06353038
23	0x3d453ffa	0.048156716
24	0xbc058878	-0.0081502125
25	0x3d820c83	0.06350043
26	0x3d71b972	0.059014745
27	0x3ca74570	0.020418853
28	0xbc829c40	-0.015943646
29	0xbd108757	-0.03528532
30	0xbc56ae18	-0.013103031
31	0x3d866925	0.065630235
32	0xbd846ba6	-0.06465845
33	0xbd6ebc93	-0.058285307
34	0xbd99815f	-0.07495379
35	0xbd0ca5be	-0.03433775
36	0xbd2ad04d	-0.041702557
37	0x3c214d80	0.009845138
38	0x3cfba90c	0.030720256
39	0xbd7c89d0	-0.061654866
40	0xbd99f8ed	-0.07518182
41	0x3c7296a0	0.01480642
42	0xbcd67b54	-0.026181854
43	0xbcf5bf60	-0.029998481
44	0xbd1746cd	-0.036932755
45	0xbbaa67a0	-0.0052003413
46	0x3c15fe78	0.009154908
47	0x3cb6ed18	0.022329852
48	0xbd9a4855	-0.075333275
49	0xbc6b2808	-0.014352806
50	0x3d0daaca	0.034586705
51	0xbd13fbf7	-0.036128964
52	0xbd6f9f5e	-0.058501594
53	0x3cb5f690	0.022212297
54	0x3c1f9d18	0.009742044
55	0x3afdc940	0.0019362345
56	0x3d1b0c16	0.037853323
57	0x3c7d0640	0.015443385
58	0x3c85b348	0.01632084
59	0x3daa9dab	0.08330854
60	0x3d83e0ff	0.06439399
61	0x3c99c230	0.018769354
62	0x3d0f4d5c	0.034985885
63	0xbd5c9bd8	-0.05385956
64	0xbc538bf0	-0.012911782
65	0xbba64580	-0.005074203
66	0x3d2d851e	0.04236328
67	0x3d862555	0.06550089
68	0xbd369a9e	-0.04458105
69	0x3d15ec28	0.03660217
70	0xbcfbd232	-0.030739877
71	0x3d89def5	0.06731979
72	0x3d6d3222	0.05790914
73	0xbd7209b0	-0.05909127
74	0xbcc9ab14	-0.02461771
75	0x3cd7e694	0.026355065
76	0x3d37465a	0.044744827
77	0xbd42d939	-0.04757044
78	0x3da9d59b	0.08292695
79	0x3cb0d178	0.021584257
80	0xbd6de04a	-0.058075227
81	0xbd5679e4	-0.052362338
82	0xbc757178	-0.014980666
83	0xbd83082b	-0.06398042
84	0xbd1e5822	-0.03865827
85	0x3cba40a8	0.022735909
86	0xb9ce8500	-0.00039390475
87	0xbc6ce2b8	-0.014458351
88	0xbd7263ef	-0.059177335
89	0xbd6257a5	-0.055259366
90	0xbd15db45	-0.036586065
91	0x3cb04340	0.021516442
92	0x3c7ffb58	0.01562389
93	0x3c517730	0.012784764
94	0xbd238f8f	-0.03993183
95	0x3d38499e	0.04499208
96	0xbca37580	-0.01995349
97	0xbc782288	-0.015144952
98	0xbd79d48a	-0.06099371
99	0x3cf39518	0.02973418
100	0xbc495c50	-0.012290075
101	0x3d897257	0.06711262
102	0xbd477cb6	-0.048702918
103	0xbd9efa7f	-0.07762622
104	0x3d4a342a	0.049366154
105	0xbcf2c7c4	-0.029636271
106	0x3cdfc6b4	0.027316429
107	0xbda201d7	-0.07910507
108	0x3da88193	0.08227839
109	0x3c99902c	0.018745504
110	0xbda253b1	-0.07926119
111	0xbd9ba480	-0.07599735
112	0x3c041838	0.008062415
113	0xbb82bff0	-0.003990166
114	0x3cbf4fa8	0.023353413
115	0xbd8934da	-0.06699534
116	0x3b4e1b40	0.0031449348
117	0x3bcefb40	0.0063165724
118	0xbb53aaa0	-0.0032297745
119	0xbda1bf43	-0.078978084
120	0xbd789d30	-0.06069678
121	0xbd39471c	-0.04523383
122	0x3ce4f178	0.027947173
123	0xbcaeee5c	-0.021353893
124	0x3cab56c8	0.020915404
125	0x3d3234aa	0.043507256
126	0x3cf1c09c	0.029510789
127	0x3dac12bd	0.084020115
128	0x3db27021	0.08712793
129	0x3cf04d14	0.029333629
130	0xbcd9ae6c	-0.026572429
131	0x3da934f7	0.08262055
132	0x3d88e897	0.06684988
133	0x3cedf1cc	0.029045962
134	0xbda7ff1d	-0.08202956
135	0x3da00717	0.07813852
136	0xbd8ba2f0	-0.06818187
137	0x3d5b39ca	0.05352191
138	0xbda5773d	-0.080793835
139	0x3d95f097	0.073212795
140	0xbd20106e	-0.03907817
141	0xbd9e87f2	-0.07740773
142	0xbb4b3880	-0.0031009018
143	0xbd124f0f	-0.035719927
144	0x3da2b0a3	0.07943847
145	0x3d6dd5a6	0.05806508
146	0x3da74fc1	0.08169509
147	0xbc9beb5c	-0.019033127
148	0xbc8f5974	-0.01749871
149	0xbd773cf6	-0.06036087
150	0x3d0ed6fc	0.034872994
151	0x3d2ccfbe	0.042190306
152	0x3be462c0	0.0069697797
153	0x3ca1d9e0	0.019757211
154	0x3c8d4ec8	0.01724948
155	0xbd95f619	-0.0732233
156	0xbd92520c	-0.071445554
157	0xbce2c002	-0.027679447
158	0x3add53c0	0.0016885921
159	0x3cb4f64c	0.0220901
160	0x3db1e4db	0.08686229
161	0xbb871b80	-0.0041231513
162	0x3d92ece7	0.07174092
163	0x3da809a5	0.082049645
164	0x3d2451a2	0.040116914
165	0xbd8c7412	-0.06858076
166	0x3d719bf6	0.058986627
167	0xbabb9a40	-0.0014312938
168	0x3d987b45	0.07445387
169	0xbda345e2	-0.079723135
170	0xbd1c9837	-0.0382311
171	0xbdada772	-0.08479203
172	0x3d94b8d5	0.072618164
173	0xbd95e48f	-0.07318985
174	0x3d86d157	0.06582897
175	0xbc7c05a8	-0.015382208
176	0x3d640d6a	0.055676855
177	0x3c3abc30	0.011397406
178	0xbcfc40a8	-0.03079255
179	0x3d94a6e1	0.07258392
180	0x3da2c467	0.07947617
181	0xbcaf529c	-0.021401696
182	0xbc29e070	-0.0103684515
183	0x3d2c12fa	0.042010285
184	0x3da84bff	0.0821762
185	0x3d9f7e79	0.077877946
186	0xbcb643ac	-0.022249065
187	0x3c309538	0.010777764
188	0x3d70cafa	0.058787324
189	0xbda1a0dc	-0.078920096
190	0xbd555583	-0.052083503
191	0x3d68bc72	0.05682034
192	0xbce776fe	-0.028254982
193	0xbd6be0fc	-0.05758761
194	0x3d761fc6	0.060088895
195	0xbd786b46	-0.06064918
196	0x3c77ab28	0.01511649
197	0xbd828d12	-0.06374563
198	0xbc651d70	-0.013984069
199	0xbd54d5b1	-0.051961605
200	0xbd7c8118	-0.06164655
201	0xbd96432d	-0.073370315
202	0x3d484a1a	0.048898794
203	0xbc30ac20	-0.010783225
204	0x3cdeacd8	0.027182028
205	0xbcdeb216	-0.027184527
206	0xbca2f2c0	-0.019891143
207	0xbcabb348	-0.020959511
208	0x3d484d36	0.04890176
209	0x3d217ae6	0.039423846
210	0xbd1f21b4	-0.0388505
211	0x3d35d276	0.044390164
212	0xbc6145b0	-0.013749525
213	0x39e80400	0.00044253469
214	0xbda659cc	-0.08122596
215	0xbd58e8aa	-0.05295626
216	0xbdb1b482	-0.08677007
217	0xbca0f750	-0.019649178
218	0xbd84598a	-0.06462391
219	0xbd962898	-0.073319614
220	0xbd14d1ff	-0.03633308
221	0x3d35e35e	0.044406287
222	0x3dad7f4f	0.08471548
223	0xbd1f026a	-0.03882066
224	0x3d9df64d	0.07712994
225	0x3bbb5da0	0.005717948
226	0x3d2f2506	0.042759918
227	0xbc455180	-0.012043357
228	0x3d9f4399	0.07776565
229	0xbd613c53	-0.05498917
230	0x3d813d65	0.06310538
231	0xbd552335	-0.05203553
232	0x3d4d5122	0.050126202
233	0xbd59db06	-0.053187393
234	0x3d1744b2	0.036930747
235	0xbd174fb5	-0.03694125
236	0x3d15e0e6	0.036591433
237	0x3cd584d0	0.026064306
238	0xbd881000	-0.06643677
239	0x3d8eb677	0.06968396
240	0x3cc4be6c	0.024016581
241	0x3d719086	0.05897572
242	0xba9a4ec0	-0.0011772737
243	0xbca980cc	-0.020691298
244	0xbd952609	-0.07282645
245	0x3d566396	0.052341066
246	0xbd34bdb8	-0.044126242
247	0x3ca5ed90	0.02025488
248	0x3d5db3be	0.054126494
249	0x3d7abbc6	0.06121423
250	0x3cd72a0c	0.026265167
251	0xbd888321	-0.06665636
252	0xbd430094	-0.047607973
253	0x3d8e80e7	0.0695818
254	0xbcfdccec	-0.030981503
255	0x3d6214fe	0.0551958

fc3.bias f4 [2]
0	0xbd1daf6f	-0.038497385
1	0x3c910f00	0.017707348

fc1.weight f4 [128, 16]
0	0x3e52195e	0.2051749
1	0xbd2944a7	-0.041325238
2	0xbd89ef73	-0.067351244
3	0xbe432ec3	-0.19060807
4	0x3a967e2f	0.0011481697
5	0xbdfcac62	-0.12337567
6	0xbe6504b4	-0.22365075
7	0xbe13f1f0	-0.1444776
8	0xbd518355	-0.05115064
9	0x3d67e583	0.056615364
10	0x3d9214fb	0.07132908
11	0xbbe83dd2	-0.0070874477
12	0xbda8aadc	-0.08235714
13	0xbe3fd01a	-0.18731728
14	0xbdc73876	-0.09727566
15	0x3e52eac0	0.20597363
16	0x3d5c404a	0.05377225
17	0xbe0b218c	-0.13587016
18	0x3dade625	0.08491162
19	0xbdb3e61e	-0.08784126
20	0x3e419eb4	0.18908197
21	0xbd6b9152	-0.057511635
22	0xbdc1286e	-0.094315395
23	0xbde45cb9	-0.11150498
24	0xbe253b5c	-0.16135925
25	0x3df577c6	0.119857356
26	0x3e54113a	0.20709696
27	0xbdff6965	-0.12471274
28	0x3e08c5ab	0.13356654
29	0xbe32186f	-0.17392133
30	0xbe8d4738	-0.27593398
31	0xbea79711	-0.32732442
32	0x3e1e04a0	0.15431452
33	0x3e028ffe	0.12750241
34	0xbe3bcc39	-0.18339624
35	0xbe42fe4d	-0.1904232
36	0x3d971c7b	0.07378479
37	0x3def9a37	0.11699336
38	0x3e3e654e	0.18593332
39	0xbdccb446	-0.09995322
40	0xbe4b5914	-0.198582
41	0xbd57b505	-0.052662868
42	0x3e85f717	0.26165077
43	0x3d3033a0	0.043017983
44	0xbe78c800	-0.24295044
45	0x3dee959b	0.11649629
46	0xbe18c10c	-0.14917392
47	0x3e72b826	0.2370306
48	0xbe0f20fd	-0.13977428
49	0xbba80451	-0.0051274677
50	0xbd833607	-0.06406789
51	0x3e548fed	0.20758028
52	0xbe18b55e	-0.14912936
53	0x3e467078	0.19378841
54	0x3c44e94d	0.012018514
55	0xbe07aeb2	-0.13250235
56	0x3da88e77	0.08230298
57	0x3e9c65cd	0.30546418
58	0x3e51fb7c	0.2050609
59	0x3df6db21	0.12053514
60	0x3e05ef14	0.13079482
61	0x3e385385	0.1800061
62	0x3d375f28	0.044768482
63	0x3e219c22	0.15782216
64	0xbd1fe71e	-0.03903877
65	0xbe5212ec	-0.2051503
66	0x3e585d47	0.21129332
67	0x3db4cd52	0.08828224
68	0x3e61e744	0.22060877
69	0x3cf6f2c0	0.03014505
70	0xbe49f02a	-0.19720522
71	0x3d12d50a	0.0358477
72	0x3e5e6713	0.21719007
73	0xbe0ed457	-0.13948189
74	0xbe4fab46	-0.2028018
75	0x3e50de12	0.20397213
76	0xbbbbe15e	-0.005733653
77	0xbe3255e5	-0.17415579
78	0x3d94113f	0.07229852
79	0xbd7acaa8	-0.061228424
80	0xbe104b08	-0.14091122
81	0x3d954933	0.07289352
82	0x3e5cabb9	0.21549882
83	0xbe568ed3	-0.2095292
84	0xbe5a3f96	-0.21313319
85	0x3e07fc2b	0.13279788
86	0x3e49f89e	0.19723746
87	0x3e00da9a	0.1258339
88	0xbe449992	-0.19199207
89	0xbd74f02b	-0.059799355
90	0x3d1cc112	0.038270064
91	0x3e5a1dc0	0.21300411
92	0xbdc0c419	-0.09412403
93	0x3da34c7e	0.07973574
94	0xbcb2711c	-0.02178245
95	0x3e71a525	0.23598154
96	0xbd216220	-0.03940022
97	0xbe773eaa	-0.24144998
98	0xbd5ed4d0	-0.054402173
99	0xbe2fca68	-0.17167056
100	0x3dd466d4	0.103711754
101	0x3d71ae18	0.05900392
102	0x3e480ad4	0.1953538
103	0x3df0f298	0.11765021
104	0xbcc770c0	-0.024345756
105	0xbe5688da	-0.20950642
106	0xbe62800c	-0.22119159
107	0x3e755af2	0.23960474
108	0x3e0fd4a8	0.14045966
109	0xbe3ebf04	-0.18627554
110	0x3e718806	0.23587045
111	0xbe24ac82	-0.16081432
112	0xbe3ac474	-0.18239003
113	0xbd05dc01	-0.032680515
114	0x3d5066a0	0.05087912
115	0xbe750f14	-0.23931533
116	0x3d7c3d4a	0.061581887
117	0x3cbadcc1	0.022810342
118	0x3deb62b1	0.11493433
119	0xbe4d67e0	-0.20059156
120	0xbe6a0c25	-0.22856195
121	0xbe826dfa	-0.2547453
122	0x3dc4825e	0.09595178
123	0xbdecd402	-0.11563875
124	0xba7326e5	-0.000927551
125	0x3e746dd4	0.23870021
126	0x3c34434d	0.011002374
127	0x3e5d0fb4	0.21588022
128	0xbda2805d	-0.079346396
129	0x3d532267	0.05154648
130	0x3e011f95	0.12609704
131	0xbe032b01	-0.12809373
132	0x3e57ac97	0.21061932
133	0x3e0c8ba4	0.13725144
134	0x3d762f1f	0.060103532
135	0x3e3f4552	0.18678787
136	0x3e69feca	0.228511
137	0xbe4e9c31	-0.2017677
138	0xbcc017a3	-0.02344877
139	0x3d518842	0.051155336
140	0xbe347762	-0.17623666
141	0xbde1aebb	-0.11019655
142	0x3de4f37f	0.11179256
143	0x3e049e82	0.12951091
144	0xbe232c5c	-0.1593489
145	0x3e673156	0.22577414
146	0xbe6c2d30	-0.23064113
147	0x3e0a704a	0.13519397
148	0x3e897cb6	0.2685296
149	0x3b63deaa	0.003477017
150	0x3d53bf8b	0.05169634
151	0xbe32d741	-0.17464925
152	0x3e38e06c	0.1805436
153	0xbd1aa4e0	-0.037754893
154	0xbd89597d	-0.06706522
155	0xbd960903	-0.073259376
156	0x3df79865	0.12089614
157	0xbdddd400	-0.108314514
158	0x3e65a7b3	0.22427253
159	0x3e2d252b	0.1690871
160	0x3d9183e1	0.07105232
161	0x3d42189a	0.047386743
162	0x3e814fea	0.25256282
163	0xbe6dea28	-0.23233855
164	0xbe6770c1	-0.22601606
165	0x3e4e42ff	0.20142744
166	0x3d5efa18	0.054437727
167	0x3d1ef494	0.038807467
168	0x3e488ca7	0.19584905
169	0xbe0e7dbd	-0.13915153
170	0xbd564431	-0.052311126
171	0xbcb88056	-0.022522133
172	0x3e52cc2a	0.20585695
173	0xbd6743c5	-0.056461114
174	0x3e7b11cc	0.24518508
175	0xbe5b01d6	-0.21387419
176	0xbd2ed69e	-0.042685144
177	0x3db3e48d	0.08783827
178	0x3c4fb824	0.01267818
179	0xbe311140	-0.17291737
180	0xbe22f3ba	-0.15913287
181	0x3dd89c4d	0.10576687
182	0xbd13fc72	-0.036129422
183	0x3d7f02a0	0.062258363
184	0x3d9e3f6c	0.077269405
185	0x3e074a32	0.13211897
186	0x3d5b2299	0.05349979
187	0xbe02871e	-0.12746856
188	0x3e1cbc53	0.15306215
189	0xbbee2f8f	-0.007268853
190	0xbc8c12a5	-0.017098734
191	0xbe0580af	-0.1303737
192	0x3d39b728	0.045340687
193	0xbe5e4492	-0.21705845
194	0x3e03a5be	0.12856194
195	0xbdb71e14	-0.08941284
196	0xbe276540	-0.16347218
197	0xbe01458c	-0.12624186
198	0x3e39e0b6	0.18152127
199	0xbe147bee	-0.145004
200	0xbe7867b2	-0.24258307
201	0xbd067a58	-0.03283152
202	0xbd2bad18	-0.041913122
203	0x3e1a437a	0.15064803
204	0x3de9ba78	0.11412519
205	0x3d469f58	0.048491806
206	0x3e284716	0.16433367
207	0x3d987678	0.07444471
208	0xbc91240b	-0.017717382
209	0xbe47089d	-0.1943688
210	0xbe2112b5	-0.15729792
211	0xbbb35b1c	-0.0054735076
212	0xbe60bb7e	-0.21946523
213	0xbe57a0fa	-0.21057501
214	0x3d0ed794	0.03487356
215	0x3cff79dd	0.031186039
216	0xbd81da18	-0.06340426
217	0x3e419d30	0.18907619
218	0x3d6b410c	0.05743508
219	0xbe521b47	-0.20518218
220	0xbe013683	-0.12618451
221	0xbe3b27ee	-0.1827695
222	0xbe7081f0	-0.23487067
223	0x3e01a65c	0.12661117
224	0xbd57fc10	-0.05273062
225	0x3e3a5725	0.18197306
226	0xbd9684ba	-0.07349534
227	0x3c9ddca8	0.019270256
228	0xbe3ca62f	-0.18422769
229	0xbe64f0b0	-0.2235744
230	0x3d2b6b69	0.04185048
231	0xbe2b0ffc	-0.16705316
232	0x3cf3bd00	0.029753208
233	0x3dbae266	0.09125213
234	0xbe17be35	-0.14818652
235	0x3caaf5ff	0.020869253
236	0xbe76d579	-0.24104871
237	0x39b45e03	0.0003440232
238	0xbe40b5ce	-0.18819353
239	0xbe83624c	-0.25660932
240	0xbe5f4d21	-0.21806766
241	0xbe337b27	-0.17527448
242	0xbe4c2910	-0.19937539
243	0x3cff640c	0.031175636
244	0xbe8436ce	-0.25823063
245	0x3e78daae	0.2430217
246	0xbe366a23	-0.17813925
247	0x3e38c26d	0.18042918
248	0xbdabd504	-0.08390239
249	0x3e334657	0.17507301
250	0xbde7f80d	-0.11326609
251	0x3d8906e0	0.066907644
252	0xbde3b77f	-0.111189835
253	0x3deddecb	0.1161476
254	0x3e73848b	0.2378103
255	0x3c6c09d1	0.014406637

fc1.bias f4 [128]
0	0xbe2050fd	-0.15655895
1	0x3cbb06c6	0.022830378
2	0x3e7282f9	0.23682775
3	0xbcf95622	-0.03043658
4	0xbcabed4b	-0.020987174
5	0x3e4d1aee	0.20029804
6	0xbe37b3da	-0.17939702
7	0xbe3c988a	-0.18417564
8	0xbe1f972d	-0.15585013
9	0xbd6bb390	-0.05754429
10	0x3dd1c9c6	0.10243563
11	0x3e4dd06a	0.20099035
12	0xbd8c2a80	-0.06844044
13	0x3e4f3a1c	0.2023701
14	0xbbb80c02	-0.005616666
15	0x3e584a16	0.21122012
16	0xbd95e8e7	-0.07319813
17	0x3c8b590c	0.017010234
18	0x3e07571c	0.13216823
19	0xbe7bfd36	-0.24608311
20	0xbdbdd3bb	-0.092689
21	0xbd436ac1	-0.04770923
22	0x3e3965cf	0.18105243
23	0x3e3b2357	0.182752
24	0x3df7bab6	0.12096159
25	0xbddd5ae0	-0.10808349
26	0x3e305a1f	0.17221878
27	0x3cd1a65e	0.025592025
28	0x3de74ee7	0.11294346
29	0x3baebff6	0.005332942
30	0xbe1c4987	-0.15262423
31	0xbe85b97d	-0.2611808
32	0xbe15929f	-0.14606713
33	0x3dc70469	0.09717638
34	0x3e3d31e1	0.18476059
35	0xbc56068e	-0.013063086
36	0x3d8587b6	0.065200254
37	0x3db6d072	0.089264765
38	0x3dd9c473	0.10633173
39	0x3c500b07	0.012697942
40	0xbe044625	-0.12917383
41	0xbd9c1d34	-0.076227576
42	0x3db80c3a	0.08986707
43	0xbdb6b669	-0.08921511
44	0xbe4e631d	-0.20154996
45	0xbe3f2eab	-0.18670146
46	0xbd11d8d4	-0.035607174
47	0x3d5e0df2	0.054212518
48	0xbe229f44	-0.15881068
49	0x3c58d59d	0.013234523
50	0x3e639b35	0.22227176
51	0xbe03bd21	-0.12865116
52	0x3e8e7e84	0.278309
53	0x3df20224	0.118168145
54	0x3d8a55df	0.0675466
55	0xbe4808a4	-0.19534546
56	0x3e180ed1	0.14849402
57	0x3e344f83	0.17608456
58	0xbd155cf4	-0.0364656
59	0xbe60c8a2	-0.21951535
60	0xbe506adc	-0.20353264
61	0x3e29646f	0.16542219
62	0xbe11d1f7	-0.14240251
63	0x3d9f03b7	0.077643804
64	0xbe629ab6	-0.2212933
65	0x3e2ad2cf	0.1668198
66	0xbe2d5b41	-0.16929342
67	0xbe1b37f3	-0.15158062
68	0x3dcc426b	0.09973606
69	0xbdfe1798	-0.12406844
70	0xbd3939d3	-0.04522116
71	0x3e3471b2	0.17621496
72	0x3dd296e2	0.10282685
73	0xbc2490a6	-0.0100442525
74	0x3e60ce0d	0.21953602
75	0x3e1255c4	0.1429053
76	0x3e725c46	0.23668012
77	0xbe514c16	-0.2043918
78	0x3ce26649	0.027636664
79	0x3e21c38c	0.15797251
80	0xbd802a34	-0.062580496
81	0x3d823298	0.06357306
82	0xbd1cec68	-0.038311392
83	0xbdd31a2e	-0.10307728
84	0xbe694904	-0.2278176
85	0xbdac7ba6	-0.084220216
86	0x3dac4346	0.08411269
87	0xbdb77b7b	-0.08959099
88	0xbd9f11d6	-0.07767074
89	0x3d6c5484	0.057697788
90	0x3df72def	0.12069308
91	0x3e38fc19	0.18064918
92	0x3e378cca	0.179248
93	0xbe1002a0	-0.14063501
94	0x3dc05018	0.09390277
95	0xbd8a0a99	-0.067403026
96	0x3de66d42	0.11251308
97	0xbe6d4d93	-0.23174123
98	0xbcef0c94	-0.029180802
99	0xbe271b08	-0.16318905
100	0xbe80f4a7	-0.25186655
101	0x3e3943e7	0.18092309
102	0x3e608aa7	0.21927892
103	0xbddfe6d0	-0.10932696
104	0x3e257f1a	0.16161767
105	0xbcb3cc68	-0.021948054
106	0xbaa2a25f	-0.001240801
107	0xbd123669	-0.03569642
108	0xbdc6f236	-0.09714167
109	0x3e148eac	0.1450755
110	0xbe155170	-0.14581847
111	0x3db2531d	0.08707259
112	0xbe6203c2	-0.22071746
113	0xbcfa5bba	-0.030561317
114	0xbd839e30	-0.06426656
115	0x3ba4cdde	0.005029424
116	0xbe612713	-0.21987562
117	0x3e6731ff	0.22577666
118	0x3e13a150	0.14417005
119	0x3c1a3009	0.009410867
120	0xbc25902d	-0.010105175
121	0xbe36f945	-0.17868526
122	0x3d9ec7da	0.077529624
123	0xbd95afc3	-0.073089145
124	0x3e430bc7	0.19047461
125	0xbda38010	-0.0798341
126	0xbe4a493e	-0.19754502
127	0x3e73c1c5	0.23804386

fc2.weight f4 [128, 128]
0	0xbdbd5fa0	-0.09246755
1	0xbc3b7cbb	-0.011443312
2	0xbc5b8faa	-0.013400951
3	0xbd0db4e3	-0.034596335
4	0x3d0c7f34	0.034300998
5	0x3d441048	0.04786709
6	0x3d9da421	0.07697321
7	0x3d8d26ae	0.06892143
8	0xbd62c4bc	-0.0553634
9	0x3c647a07	0.013945109
10	0x3c878a33	0.01654539
11	0xbcfd62c0	-0.030930877
12	0xbca45158	-0.020058319
13	0x3b230f21	0.0024880844
14	0xbd3fb26f	-0.046801027
15	0x3d49585d	0.049156535
16	0xbdb1cbc1	-0.08681441
17	0xbd1627e8	-0.03665915
18	0x3cb14d81	0.021643402
19	0xbcb295d6	-0.021799963
20	0xbd89fe74	-0.06737986
21	0xbbae1990	-0.005313106
22	0x3b741e2e	0.0037249434
23	0xbb95b92c	-0.0045691933
24	0x3bdc8858	0.0067301206
25	0x3d40c23a	0.04706023
26	0x3d704188	0.058656245
27	0xbd307a89	-0.04308561
28	0xbdc06d7b	-0.09395882
29	0x3ad60016	0.001632693
30	0xbda12f1b	-0.07870313
31	0xbd87758c	-0.06614217
32	0xbc2022a6	-0.009773886
33	0xbc913ec2	-0.01773012
34	0x3c670b59	0.014101827
35	0x3d90f36a	0.070776775
36	0xbd243e7d	-0.040098656
37	0x3cc6146c	0.02417966
38	0x3d8ff528	0.07029182
39	0xbdb4a234	-0.0882
40	0x3dc74311	0.09729589
41	0xbc83270c	-0.01600983
42	0x3c714729	0.014726439
43	0x3cc1d824	0.023662634
44	0xbda2f791	-0.07957376
45	0xbda4f2c6	-0.08054118
46	0x3bf7c618	0.0075614564
47	0xbde98c97	-0.114037685
48	0xbd8a6da2	-0.06759192
49	0x3d21865b	0.039434772
50	0xbd0eb0c2	-0.034836538
51	0x3baac4b7	0.0052114385
52	0xbd17620a	-0.03695873
53	0xbd8bf667	-0.06834107
54	0xbded4400	-0.115852356
55	0xbda9a80d	-0.08284006
56	0xbcffb716	-0.031215232
57	0xbd4e969d	-0.050436605
58	0x3da2ea77	0.07954877
59	0xbd61e7b3	-0.055152606
60	0xbccf236e	-0.025285449
61	0xbd4ff966	-0.050774954
62	0x3d3f6250	0.046724617
63	0x3d3c329f	0.045946714
64	0x3d50f3b0	0.05101365
65	0x3ccf9d49	0.025343554
66	0xbd8be3f8	-0.06830591
67	0x3c67d25e	0.014149277
68	0xbdfa77d9	-0.122298904
69	0xbba33fe3	-0.004981981
70	0xbd1e7f6b	-0.038695734
71	0x3d927dc1	0.07152892
72	0xbe476761	-0.1947303
73	0xbcf34594	-0.029696263
74	0xbc33b5f8	-0.010968678
75	0xbdc2899b	-0.094989024
76	0xbd1f6e2e	-0.038923435
77	0xbd814803	-0.06312563
78	0xbd843ce7	-0.06456929
79	0x3d2aa3a4	0.041659966
80	0x3d22db99	0.039760206
81	0xbdb47ecd	-0.08813248
82	0x3cd0691a	0.025440741
83	0xbcd5967d	-0.026072735
84	0xbd5def51	-0.054183308
85	0x3d7b7637	0.061392035
86	0xbd24e65c	-0.04025875
87	0xbd2bfa47	-0.04198673
88	0x3cadd7b0	0.021221012
89	0xbce506e5	-0.02795739
90	0xbd9d0144	-0.07666257
91	0xbd8015ec	-0.06254181
92	0xbd0b3c86	-0.033993267
93	0x3c684e78	0.014178865
94	0xbd470df6	-0.0485973
95	0xbd4a48a6	-0.04938569
96	0x3db70fea	0.08938582
97	0xbda0ffd6	-0.07861297
98	0xbc2476d9	-0.010038101
99	0x3ce9afe0	0.028526247
100	0x3d90f924	0.0707877
101	0x3d1bc57b	0.03803013
102	0x3a75ece5	0.00093813083
103	0x3c4c1d6f	0.012458189
104	0xbd48dc2a	-0.04903809
105	0x3d48929d	0.048967946
106	0x3dc2b4f2	0.09507169
107	0xbd9ee267	-0.077580266
108	0x3bccd9e9	0.006251563
109	0x3c86e130	0.0164648
110	0xbcdee36e	-0.027208056
111	0xbc652aaf	-0.013987227
112	0xbd9ff30e	-0.07810031
113	0xbb8541d0	-0.0040666834
114	0xba03c1eb	-0.00050261494
115	0xbdb7379e	-0.08946155
116	0x3d6ec201	0.058290485
117	0xbcac425d	-0.021027738
118	0x3d32e72b	0.04367749
119	0xbdc079de	-0.09398244
120	0xbbc2e746	-0.00594798
121	0xbd1ffbec	-0.03905861
122	0xbdb2ede6	-0.08736782
123	0xbc1099e4	-0.008825753
124	0x3db544a5	0.088509835
125	0x3d3bd47f	0.04585695
126	0x3d224924	0.039620534
127	0xbe0548c9	-0.13016047
128	0xbd210bd6	-0.03931793
129	0x3d8e36da	0.06944056
130	0xbdfe66a4	-0.12421921
131	0x3d9a824b	0.07544383
132	0xbd926ca4	-0.07149628
133	0xbc139c11	-0.009009377
134	0xbbf5e2a0	-0.0075038224
135	0x3d651151	0.055924717
136	0xbc30a835	-0.010782291
137	0xbce039ff	-0.027371405
138	0xbdcadd37	-0.09905475
139	0xbbab697b	-0.00523108
140	0xbc40f370	-0.01177679
141	0x3d1ec4c1	0.038761858
142	0xbd27c75f	-0.04096162
143	0xbd2ca654	-0.04215081
144	0xbbd8aa66	-0.00661211
145	0xbc9566d5	-0.01823751
146	0xbc471a4e	-0.012152268
147	0x3bb67fa6	0.005569416
148	0x3d532fb2	0.051559158
149	0x3b2d7f88	0.002647372
150	0xbc274b72	-0.010210859
151	0x3c289522	0.010289462
152	0xbc60dced	-0.013724548
153	0xbdaab690	-0.08335602
154	0xbb9c54b8	-0.0047708414
155	0x3de9778d	0.113997556
156	0x3da0b308	0.078466475
157	0x3c31565a	0.0108238105
158	0xbda3f725	-0.080061235
159	0x3c323528	0.010876931
160	0x3cd518c9	0.026012795
161	0x3b6205f5	0.0034488414
162	0x3c8e2e1c	0.017355971
163	0x3d208428	0.039188534
164	0xbd19cc84	-0.037548557
165	0xbd58b69f	-0.052908536
166	0xbd448f3b	-0.047988158
167	0xbd5d63f4	-0.0540504
168	0x3d278488	0.040897876
169	0x3d66bcef	0.056332525
170	0xbc8131f9	-0.0157709
171	0xbb4a9f19	-0.0030917583
172	0x3c9f06b5	0.019412378
173	0x3c264d11	0.01015021
174	0xbd8180d8	-0.06323403
175	0xbd2445dc	-0.040105686
176	0xbd2afc20	-0.04174435
177	0xbda03cc1	-0.07824088
178	0x3db59f4f	0.08868276
179	0xbd6bfadb	-0.05761228
180	0x3c3426cf	0.010995581
181	0xbc77ca24	-0.015123878
182	0xbdd4165e	-0.10355829
183	0xbd8c8eaf	-0.06863152
184	0xb922ba44	-0.00015518913
185	0x3d9070ad	0.07052741
186	0xbc73358a	-0.014844308
187	0xbd461b93	-0.04836614
188	0x3d7f087d	0.062263954
189	0xbb48d556	-0.0030644736
190	0x3d863e03	0.065547965
191	0x3d8d632b	0.069036804
192	0x3c7bd453	0.015370446
193	0x3db7c4b5	0.08973066
194	0x3d7ba856	0.061439835
195	0xbdc3d4da	-0.095620826
196	0xbcc0540e	-0.02347758
197	0x3d2fd1fe	0.042924874
198	0xbcca29f4	-0.024678208
199	0x3c2f84d4	0.010712821
200	0x3d954f29	0.07290489
201	0xbcfc96ff	-0.03083372
202	0xbdbbe1f3	-0.09173956
203	0x3c4f892f	0.012666984
204	0x3d78dd06	0.06075766
205	0x3c000783	0.007814291
206	0xbd881472	-0.06644525
207	0x3ca6683c	0.020313375
208	0xbc16c565	-0.009202336
209	0x3d0aa644	0.03384997
210	0x3ceef7ca	0.02917089
211	0xbd8c9d34	-0.068659216
212	0x3ce21f5a	0.02760284
213	0x3d739c77	0.05947539
214	0x3c80b184	0.015709646
215	0x3bb08b43	0.005387695
216	0xbdc1f1d5	-0.09469954
217	0xbd33a3ee	-0.043857507
218	0xbd560b7f	-0.052257057
219	0xbc0b7671	-0.008512125
220	0x3c591816	0.013250371
221	0xbd355719	-0.044272516
222	0xbd914e9f	-0.07095074
223	0x3d3497b0	0.044089973
224	0x3dc05dd7	0.093928985
225	0x3d7fcc77	0.062450852
226	0xbd94f41e	-0.07273124
227	0xbc9d6a4a	-0.019215722
228	0xbd7cef27	-0.06175151
229	0x3c8c37cf	0.017116455
230	0x3da7e133	0.0819725
231	0xbc522658	-0.012826525
232	0x3dcf8b84	0.10134032
233	0xbc513395	-0.012768646
234	0x3d24dc1c	0.040248975
235	0x3cde014f	0.027100233
236	0xbdae1943	-0.08500912
237	0xbd9486da	-0.072522834
238	0x3a8bb480	0.0010658652
239	0x3d777bf7	0.060420956
240	0x3d90598a	0.07048328
241	0xbd6f306e	-0.058395796
242	0xbd3b3674	-0.045706227
243	0x3c29e81e	0.010370282
244	0x3d86e1b0	0.06586015
245	0x3da578b1	0.08079661
246	0x3cff6b4a	0.03117909
247	0xbdc10382	-0.09424497
248	0xbd15283c	-0.036415324
249	0xbd6f384e	-0.058403306
250	0x3cda508d	0.026649738
251	0x3d8cd5df	0.0687673
252	0x3d9335ee	0.07188021
253	0x3c99ac71	0.018758984
254	0xbd62cca5	-0.055370945
255	0xbdae7d8b	-0.08520039

fc2.bias f4 [128]
0	0xbce69a49	-0.02814974
1	0xbc5c1364	-0.013432357
2	0x3d7dd9c6	0.061975263
3	0x3d54a1b1	0.051912013
4	0x3d74fa32	0.059808917
5	0xbbdab7db	-0.0066747493
6	0xbd9fcfc0	-0.07803297
7	0x3d0f02f3	0.034914922
8	0x3c279211	0.010227696
9	0x3c196c10	0.009364143
10	0x3d81373a	0.06309362
11	0x3c8dfc03	0.017332083
12	0xbd1931ce	-0.037401013
13	0xbd9bc59a	-0.07606049
14	0x3d90fbec	0.070793
15	0x3c068d03	0.008212331
16	0x3d7d6311	0.061862055
17	0xbce87dc3	-0.02838028
18	0x3d95091b	0.07277127
19	0xbd8caf03	-0.06869318
20	0xbd4356b1	-0.047690097
21	0xbcb759e9	-0.02238174
22	0x3dc6759c	0.09690401
23	0xbd6506b4	-0.055914596
24	0xbcd331d2	-0.025780592
25	0x3ca66b41	0.020314815
26	0x3d9c49e6	0.076312825
27	0xbb941320	-0.0045188814
28	0xbd25944c	-0.04042463
29	0x3cd07066	0.02544422
30	0xbcf244d7	-0.029573841
31	0x3d99cad3	0.07509389
32	0xbc311d28	-0.010810174
33	0x3dbf976a	0.09355052
34	0x3d385837	0.045006003
35	0x3d98145a	0.07425757
36	0xbd55960f	-0.05214506
37	0x3db05ab7	0.086110525
38	0x3c2cecec	0.010554533
39	0x3d78e293	0.060762953
40	0xbd6ce447	-0.05783489
41	0x3db6438e	0.08899604
42	0xbd7c92f8	-0.061663598
43	0xbd48871a	-0.048956968
44	0x3cb7d8a9	0.022442179
45	0x3d97f075	0.074189104
46	0xbd3a0561	-0.045415286
47	0xbd957f9e	-0.07299732
48	0xbd1ec0ca	-0.038758077
49	0x3cd4b6cd	0.025966072
50	0x3d215961	0.03939188
51	0xbd8250bb	-0.06363054
52	0xbdc4987a	-0.09599395
53	0xbd4a96ef	-0.049460348
54	0xbcb7a649	-0.022418158
55	0x3d9e6a3a	0.07735105
56	0x3d52b30b	0.05144028
57	0x3c0ca637	0.008584551
58	0xbd946fea	-0.072479084
59	0xbcc60ab8	-0.024175033
60	0x3d76b2d7	0.06022915
61	0x3d70af41	0.058760885
62	0xbd47017c	-0.0485854
63	0x3c1b51f2	0.0094799865
64	0x3d968cd4	0.073510796
65	0x3d9079df	0.07054495
66	0xbd855ced	-0.06511865
67	0xbdaa72b5	-0.0832266
68	0xbc6525c6	-0.013986057
69	0xbd53fc19	-0.05175409
70	0x3d1e7b4e	0.03869181
71	0xbc012291	-0.007881776
72	0xbd224222	-0.03961385
73	0xbd84be6a	-0.06481631
74	0x3b371075	0.0027933393
75	0xbd9a1206	-0.07522969
76	0x3d4cba64	0.049982443
77	0x3d0e4a19	0.034738634
78	0x3bef7981	0.0073081856
79	0xbd1e2d83	-0.038617622
80	0x3d906c9e	0.07051967
81	0xbd73910a	-0.059464492
82	0x3d6656f9	0.056235287
83	0xbc011941	-0.007879556
84	0x3d47f8f6	0.048821412
85	0xbced58b6	-0.028972965
86	0xbcd7b0e4	-0.026329465
87	0xbd84c1e4	-0.06482294
88	0x3d6e3cf0	0.058163583
89	0x3da09340	0.07840586
90	0x3d227093	0.03965814
91	0xbb195325	-0.0023395505
92	0xbd2c661a	-0.04208956
93	0x3cfea9f0	0.031086892
94	0x3d9161fc	0.07098767
95	0x3da39900	0.07988167
96	0xbcc60106	-0.02417041
97	0x3d4f3249	0.050585065
98	0xbda4b842	-0.08042957
99	0x3b16dddf	0.002302043
100	0x3d813aac	0.06310019
101	0x3d8fce47	0.07021766
102	0x3da75e65	0.08172301
103	0x3d62c20b	0.055360835
104	0xbd1467de	-0.036231868
105	0x3c9d0d0c	0.01917126
106	0xbc2b9e21	-0.010474713
107	0x3c1960d6	0.009361466
108	0xbbc8e918	-0.0061313026
109	0x3cf6939f	0.030099688
110	0x3da7054d	0.08155308
111	0x3c8195b7	0.01581846
112	0x3d9f9470	0.07791984
113	0x3c94a971	0.018147202
114	0xbc773d18	-0.0150902495
115	0x3d90e783	0.07075407
116	0xbd7c89d3	-0.061654877
117	0xbd59db01	-0.053187374
118	0x3c80ef76	0.015739184
119	0x3d8fa202	0.070133224
120	0xbcfdcce0	-0.030981481
121	0x3d46602d	0.048431564
122	0xbd8fb10d	-0.07016192
123	0x3d567436	0.05235692
124	0xbd8e711f	-0.0695517
125	0xbd37d9f3	-0.044885587
126	0xbd86b648	-0.06577736
127	0x3c631a9f	0.013861327
