customTrainer/results/AgentBall04/RollerBall/checkpoint.pt (torch, 312546 bytes, 24 tensors)

fc1.weight f4 [128, 16]
00000000: 9814 333e 8c1b 19be 0cf0 8f3d cc17 2ebe
00000010: 60a8 02bd 2494 06be d879 f5bd 5015 9fbc
00000020: 08c9 aa3d a0af 72be 1023 4dbe f819 6a3d
00000030: 56bb 583e 10e9 9d3d c825 453d e042 613e
00000040: 0ce0 88bd 2039 9e3d d016 42be 2422 683e
00000050: 289a 453d c631 2f3e 30f9 fb3c e8ef 1dbe
00000060: 4675 5abe 8c89 afbd 0070 6f39 bc77 943d
00000070: 8476 573e 88d7 97bd dc85 143e dca9 50be
00000080: d497 eabd 60f8 143c 5884 3e3e 186f 683e
00000090: 78df f23d be9c 2ebe 00c2 083d 80d2 cfbd
000000a0: 00db 10bb bc42 403e c8bc 1b3d 6abe 19be
000000b0: d4b7 0c3e 0072 dabb d824 7bbe f8eb 64bd
000000c0: f049 29be 7006 0bbe 827a 063e 2eb9 7dbe
000000d0: 4c8d da3d 5ed0 62be 1a84 2bbe 0ab1 10be
000000e0: 127a 203e 0c34 6ebe 407e 57bd 5863 213e
000000f0: c82c ac3d f0ce 583e 183b 793d 36d1 3dbe
00000100: 74e1 e13d 5861 303d 2482 b83d b05c 10bd
00000110: 7cd9 73be 804f f4bd 8c6b fabd d09d a03d
00000120: 0858 2bbd b85e 4a3e ccdc 2a3e 90fb 703d
00000130: 6cc3 cd3d 80c0 c33c 0033 ffbd 4863 793d
00000140: ec66 f1bd f0a7 51bd 7252 693e 382d fe3d
00000150: bc6c f2bd 3c0f acbd d064 e1bc f2ce 153e
00000160: 34ce c0bd 6a03 7c3e a0d2 7cbe b4ac 66be
00000170: 6421 0fbe cc1d 9b3d 68df 06bd 341f 923d
00000180: 986c 3fbd 305c 7fbd 52a5 7c3e 20ca be3c
00000190: beb9 4cbe ce75 48be 50f2 443e 00e1 d8ba
000001a0: e859 5ebe b803 52be 7ab3 60be 06f7 00be
000001b0: 701a 6c3e 6ca5 e9bd 50e8 51bd 7c25 c5bd
000001c0: e099 79bc bc1d 113e 4816 85bd dcce fd3d
000001d0: 807b 16bb 883c 4b3e 40c8 ae3b 007b 8aba
000001e0: 1cf7 8fbd 76b2 61be 4054 d03d fed6 493e
000001f0: 86a3 163e 1016 233e 442e 04be 90c6 e43d
00000200: bceb d0bd 4451 94bd 9803 153d aa6d 26be
00000210: e2ea 133e ee02 25be cc3c 0f3e 30b1 f7bc
00000220: 80a8 60bb 2832 ee3d 2c2d 2c3e 00e0 d5b8
00000230: 56e3 09be 2010 e83d 4016 ffbd 2a26 203e
00000240: a0d4 cc3c fc5d 31be 1a6b 163e 12b9 57be
00000250: aa0a 2fbe 8073 d13c f834 443e 8c77 533e
00000260: b64c 0dbe e280 623e 0821 40bd 9008 c1bd
00000270: a8c2 233e 466f 41be 100f 123d ba5b 4a3e
00000280: 8c2d 333e 5c5f eabd a06d 75be 643a 4dbe
00000290: 5e51 39be c0ea b9bd 8866 bcbd 04d8 23be
000002a0: 7c9e b3bd b6fe 12be a4c0 ccbd e0f8 463e
000002b0: 9474 45be b08f 57bd 9469 eabd 20ee 273c
000002c0: bc99 113e a02f 5dbe 8084 cf3c 4c36 b63d
000002d0: 7466 eb3d c2ee 70be 16f1 373e 3e14 013e
000002e0: f2e9 363e 080d 443e ccc3 b3bd 24af fcbd
000002f0: cc9c 1ebe f06f 77bd 965f 5abe a050 0dbe
00000300: f4bf 80bd 0e35 6a3e c839 d33d a436 ac3d
00000310: b08c 953d 98fd 553e 6474 1e3e 4c10 4bbe
00000320: 148f afbd 646c debd ec6a d33d 6e00 48be
00000330: 7470 15be 1a7f 563e b251 6abe e043 56be
00000340: 8014 ee3c 64f1 ce3d 8aaf 44be 00d7 98bd
00000350: a016 85bc 72cf 7c3e a09f 1fbc 20d1 22bc
00000360: 3004 f23c 6453 3f3e 2edf 45be aafe 653e
00000370: b8f8 bdbd 0830 5d3e 8a1b 363e c02c 12bc
00000380: 8002 7c3b 8078 b93d 685f 16be 4822 10be
00000390: 4c77 8cbd 18c6 573d 1899 0dbe 302b 913d
000003a0: 6edd 60be b050 ae3d 60f2 bc3c f4af e7bd
000003b0: ba9d 02be 1c64 6abe 2cbd 503e defa 0f3e
000003c0: d052 a0bd ec49 1c3e 6cf5 733e 8857 673d
000003d0: 80ce 083b 58ff 3e3e 7647 2f3e 4e74 1dbe
000003e0: 78b0 223d 54d6 0e3e 58af 463e bc75 c03d
000003f0: ca28 26be c01f 74bc 981d 71bd 0425 3a3e
0.17488325 -0.14951915 0.07028207 -0.17001265 -0.031898856 -0.13142449 -0.119861305 -0.019419342
0.08339125 -0.23699808 -0.20032907 0.057153672 0.21165213 0.07710469 0.048131734 0.21998167
-0.066833586 0.077257395 -0.18954015 0.22669274 0.048242718 0.17108831 0.03075847 -0.15423548
-0.21333799 -0.08571157 0.0002283454 0.072494 0.21041304 -0.07414156 0.14504188 -0.20377296
-0.1145474 0.00909242 0.18605173 0.22698629 0.118590295 -0.1705198 0.033388138 -0.101475716
-0.002210319 0.18775457 0.038021833 -0.15014043 0.13742 -0.006666422 -0.24525774 -0.0558891
-0.16532111 -0.13576674 0.1313267 -0.24777672 0.106714815 -0.22149798 -0.16749611 -0.14130035
0.15671566 -0.23262042 -0.052610636 0.15760553 0.08406979 0.2117269 0.06084737 -0.18536839
0.1102933 0.043061584 0.09009197 -0.035244644 -0.23813432 -0.11929226 -0.12227544 0.078426
-0.041832 0.19762695 0.1668579 0.05883366 0.100470394 0.023895502 -0.12460899 0.060885698
-0.11787209 -0.05118555 0.22785357 0.124109685 -0.11837146 -0.08401343 -0.027513891 0.14629725
-0.0941433 0.24610677 -0.24689722 -0.22526819 -0.13977581 0.07574043 -0.0329279 0.07134858
-0.046734422 -0.062343776 0.2467244 0.02328974 -0.1999273 -0.19576189 0.1923306 -0.0016546547
-0.21713984 -0.20509231 -0.21943465 -0.12594232 0.2305696 -0.11408505 -0.05124694 -0.0962629
-0.015234441 0.14171499 -0.064983904 0.12392971 -0.0022961795 0.1984731 0.0053339303 -0.0010565221
-0.07029554 -0.22040734 0.101723194 0.1971092 0.14710817 0.15926385 -0.12908274 0.11170685
-0.10201213 -0.07242063 0.03638038 -0.16252771 0.1444507 -0.16114399 0.13988036 -0.030235857
-0.0034280121 0.1163066 0.16814107 -0.00010198355 -0.13465628 0.113312006 -0.12455416 0.15639558
0.025003731 -0.17321008 0.14689294 -0.21066692 -0.17093912 0.02556777 0.19160831 0.20651072
-0.13798794 0.22119477 -0.0469065 -0.09425461 0.15992224 -0.18890104 0.035658896 0.19761553
0.17497844 -0.114439696 -0.239676 -0.20041806 -0.18097445 -0.09077978 -0.09199244 -0.16000372
-0.08770463 -0.14354977 -0.09997681 0.19430876 -0.19282752 -0.052627265 -0.11445919 0.0102496445
0.14218801 -0.21600199 0.025331736 0.08897075 0.11494151 -0.23528579 0.1796306 0.12605378
0.1786268 0.19145596 -0.0877758 -0.12338093 -0.15489501 -0.060409486 -0.21325526 -0.13800287
-0.06286612 0.22871801 0.10313755 0.08408859 0.07302225 0.2089752 0.15474087 -0.19830436
-0.08572212 -0.108605176 0.10323128 -0.19531414 -0.14593679 0.20946923 -0.22882727 -0.2092433
0.02906251 0.10104635 -0.19207588 -0.07462883 -0.01624614 0.24688509 -0.009742647 -0.009937555
0.029543012 0.18684155 -0.19323418 0.22460428 -0.09275955 0.21600354 0.17783943 -0.008921802
0.0038453639 0.09056187 -0.14684832 -0.14075577 -0.068586916 0.05267915 -0.13827932 0.070883155
-0.21959469 0.08511484 0.023064792 -0.11312857 -0.1275548 -0.22889751 0.20384663 0.14060542
-0.07828295 0.15262574 0.2382409 0.05647996 0.0020875037 0.18652093 0.17117104 -0.15376398
0.039719075 0.13948947 0.19402826 0.09397456 -0.16226497 -0.014900148 -0.058866113 0.18178183

fc1.bias f4 [128]
00000000: 70f8 873d d472 49be da59 2b3e 9a8e 6dbe
00000010: 109c 7fbe e65f 1e3e 882b 383d 6c19 c7bd
00000020: b2f4 1cbe 08d1 693e ac61 2abe 80ec 4bbe
00000030: e8fa 75be a057 e2bd a846 06be 809d 7a3e
00000040: 628b 4d3e 6003 313d 00c6 953c 2881 623e
00000050: 1074 7b3e 1455 673e 5a84 3a3e 78cf 28be
00000060: 082a 7f3e e419 3b3e 9670 1d3e 48fe 0c3d
00000070: 7e99 2bbe 084d ba3d 246b fdbd b815 b7bd
00000080: 008a 42bd 7073 55be 04b5 793e aae6 55be
00000090: e655 24be a661 0f3e 582b 95bd 2243 153e
000000a0: 1024 30bd 808d 0d3c b0ce 80bc fe84 1d3e
000000b0: c0ad f43c f815 d43d e0ec 2d3d 8abd 4a3e
000000c0: 80d9 2fbc 8805 a0bd 5098 123e c279 5abe
000000d0: be5a 16be 4cc8 6d3e 4252 7dbe b069 5f3d
000000e0: ca4f 053e 1af9 06be 0a76 2dbe e0ad 813d
000000f0: c091 46bd 50f0 02be 48f1 583d 98fc 00be
00000100: e092 28be b0ee 253d 40d3 6d3c 48b0 873d
00000110: 4081 a1bc 683a 8f3d 8087 5abd 80d2 cc3c
00000120: a8e1 123e a4d4 ea3d 500e b4bc 3c59 0bbe
00000130: 4803 5d3e 9229 66be 18c3 f13d 50f1 7e3d
00000140: 9655 32be 4e6b 44be f65a 093e 56b6 01be
00000150: d6c5 483e fca6 193e 7c51 dc3d 163f 38be
00000160: e090 e4bc d0ec 703e 303e 203d 70a8 85bd
00000170: 3630 60be 9c02 143e 709e d7bc 9cdd f5bd
00000180: 7a41 713e 0ada 4d3e 8057 d13c c0ca 38be
00000190: b496 a9bd d4ed 3d3e 460c 443e f058 6ebe
000001a0: 6618 3dbe a01f 3c3c b215 0a3e a0ac c1bd
000001b0: e6b2 293e 98d1 5bbd 244d df3d 1a11 693e
000001c0: c492 5abe 98a4 f13d f87b 503e 6835 44be
000001d0: 40fd 4abd d074 29be ccd2 cb3d a0ac f93c
000001e0: 5eff 1dbe 106c e6bd a488 9abd fc8a d0bd
000001f0: c646 1a3e 42af 7f3e 30d5 75be f6a2 49be
0.066391826 -0.1967271 0.16733494 -0.2319893 -0.24961877 0.1546627 0.04496339 -0.09721646
-0.15327719 0.22833645 -0.16638821 -0.19914436 -0.24021494 -0.110518694 -0.1311289 0.24474144
0.20072702 0.04321611 0.01828289 0.22119582 0.24555993 0.22591048 0.1821455 -0.16485393
0.24918377 0.18271595 0.1537498 0.03442219 -0.16757771 0.09096724 -0.12373951 -0.089396894
-0.04749489 -0.20844817 0.24385458 -0.20888773 -0.16048393 0.14002094 -0.07283658 0.1457639
-0.043003142 0.008639693 -0.015723556 0.15382764 0.029868007 0.10355753 0.04246223 0.19798866
-0.010733008 -0.07813555 0.14315915 -0.2133551 -0.14683053 0.23220938 -0.2473841 0.05454415
0.13018718 -0.13180962 -0.1693956 0.06331992 -0.04847884 -0.12786984 0.05296448 -0.12596357
-0.16462278 0.040510833 0.014515698 0.0662542 -0.019714952 0.06993562 -0.05335188 0.025002718
0.14343894 0.11466339 -0.021979481 -0.13608259 0.21583283 -0.22476795 0.11804789 0.062241852
-0.17415461 -0.19181558 0.13413605 -0.12667212 0.19606718 0.15005106 0.107577294 -0.17992815
-0.027901113 0.23527837 0.039121807 -0.065262675 -0.21893391 0.1445412 -0.026320666 -0.12005159
0.23560134 0.20102707 0.025554419 -0.18046093 -0.082806975 0.18547755 0.19145307 -0.23276114
-0.18466339 0.011482149 0.13484839 -0.09456754 0.1657215 -0.05366668 0.10903385 0.2276043
-0.21345049 0.11798972 0.2035979 -0.19160998 -0.049557924 -0.16548467 0.09952316 0.030477822
-0.15429446 -0.1125108 -0.075455934 -0.10182759 0.1506606 0.249692 -0.24007106 -0.19691071

fc2.weight f4 [128, 128]
00000000: eab5 3e3d 80a2 d1bb b3c3 82bd ac5c 033d
00000010: 0b9b 40bd 363a 703d d2d4 ebbc 803f 343b
00000020: e44b 84bd b25a 1d3d f823 4f3c 264f 393d
00000030: 9312 7cbd bab4 3a3d a4d9 82bc 189c 153c
00000040: 162c 1d3d 1604 6b3d 244a 87bc a211 053d
00000050: c8f7 6bbc d93e 8d3d d50c 813d 1bbf a33d
00000060: 12d9 253d 9228 a5bd 9083 a9bd 6aaf aabd
00000070: 2659 7fbd 021d 243d 00a9 a4b9 93d3 a23d
00000080: b979 91bd 6612 733d e4a1 ac3c 54ef 14bd
00000090: e4aa a93c edd8 1ebd 913e ab3d 009a a73b
000000a0: 7e7a 4a3d a05c 083b 860c 3a3d 2c66 bd3c
000000b0: 2420 a8bd 989b 4ebc a014 833b c0c3 f23c
000000c0: c4fb 8b3c 075b 2dbd 8e34 e1bc e400 103d
000000d0: 0798 74bd c8a1 7ebc f21a 5b3d a813 e93c
000000e0: 9aaa 333d 33cc b13d fbf8 0fbd f0a4 b43b
000000f0: 0897 44bc a0b0 8cbd 8c01 e73c 68a1 0ebc
00000100: a025 633b cec3 423d 461a 5c3d a528 3ebd
00000110: 5e29 4c3d 3286 1b3d b25c 053d 9880 5e3c
00000120: 1808 693c e258 773d b034 fc3c 5841 253c
00000130: e487 a03c d088 9dbd 8b00 a23d 8c41 a83c
00000140: 8595 aa3d 004e 23bc c035 d3ba 9271 5abd
00000150: e639 2f3d 600e a5bd 5897 bcbc b654 273d
00000160: d0fd 79bc 5cb6 103d 7032 82bb 9b65 b33d
00000170: 801d 3f3a 8e25 2b3d c4ed ea3c 44b1 863c
00000180: c20c 0f3d ce16 5e3d 8970 b13d 5100 25bd
00000190: bd11 813d 19e5 8b3d 0c13 993c eed2 6a3d
000001a0: f020 873c c61a 453d 8a49 1f3d 6a72 263d
000001b0: 2844 d5bc ff16 54bd f01f b63b e6cc edbc
000001c0: 14f8 9cbd 1091 92bd f519 a93d 649c e63c
000001d0: 9bc2 10bd 7e3a 85bd cddc 3cbd 9e93 333d
000001e0: d023 bd3b 7f23 4fbd 6bc6 99bd edfb 883d
000001f0: 6061 e3bb 6692 38bd 40dc d53c 1261 6b3d
00000200: d094 a2bc b45c eb3c 0095 8aba 0031 a6bd
00000210: b66e 763d 79b4 a2bd d090 afbc 40bd ffbc
00000220: c0e5 ee3b 8c5e cc3c 1e20 253d fad6 1e3d
00000230: d838 6cbd 18d2 96bd 40bf d5bb 8006 30ba
00000240: 7444 86bc fb69 a33d 8c53 8a3c 0063 d939
00000250: 7e84 703d 1354 a63d 004b d0b9 814f 8dbd
00000260: 1615 7bbd 8cc3 85bd a7cf 853d bcf7 43bd
00000270: 4a1e 023d 66c2 7abd b5d6 aabd 6cad 2abd
00000280: a0b7 3bbb 6bd7 4bbd 0d5c b13d 40ba f23c
00000290: 10f9 d6bc e028 34bc 862f 34bd f23d 92bd
000002a0: 6b72 8e3d 6037 7abc 5e3e 6e3d 827c afbd
000002b0: dc1a edbc c918 47bd 62cf 17bd eeb7 43bd
000002c0: c02c c73b 3b6b 06bd c6bf a0bd 40c8 f4bb
000002d0: 9229 653d cae8 793d e023 3abb 039e b4bd
000002e0: 57d0 b23d cf2e 9e3d ccf0 ec3c 2844 ef3c
000002f0: 953e 56bd 8048 6abd c081 41bc 1483 97bc
00000300: 28cf 433c 1e71 603d 97b1 a2bd 801c 0ebd
00000310: 1f37 a8bd 0c93 9ebc ab15 973d 7060 ab3c
00000320: 5360 b43d 3471 a8bc 64de 8abc bee7 85bd
00000330: 26c6 663d 35e1 8abd c0d6 8a3b 7425 44bd
00000340: 5096 9dbd 80f6 4bbb 411c b43d 21ef a3bd
00000350: 37bb 863d 0a72 383d 00a4 a3bd d0bd 9abd
00000360: 0d40 8e3d 44e4 da3c 69e2 2ebd 514c ab3d
00000370: 0088 dc3c 8628 143d 2244 44bd e992 b03d
00000380: 5aff 513d 766e 9dbd ee7b aabd e612 a9bd
00000390: ba83 29bd a0db 39bb f3b4 883d f097 5abc
000003a0: d838 063c b54a 953d f3b4 983d 45d3 74bd
000003b0: cc82 86bc a01e 7bbb 5d3c 0cbd 462d 84bd
000003c0: 1471 8abc 6866 98bd dcd3 f03c d63c 273d
000003d0: 8687 2e3d 04e2 f73c 9990 993d aa93 633d
000003e0: fc98 f33c 73b8 963d 2d00 1ebd 20c3 a3bb
000003f0: 6aeb e5bc ec21 a9bc 8644 053d 008f 0a3b
0.046560206 -0.0063975453 -0.06384983 0.0320708 -0.04702286 0.058649264 -0.028788004 0.002750367
-0.064597875 0.038416572 0.012642853 0.045241497 -0.06154115 0.04558251 -0.01597292 0.009131454
0.03837212 0.057376944 -0.016514845 0.03248752 -0.014402337 0.06896753 0.06301276 0.07995435
0.040490218 -0.08064379 -0.08277047 -0.08334239 -0.062340878 0.040066727 -0.00031406432 0.07950511
-0.07103295 0.059343718 0.02107329 -0.036361054 0.02071137 -0.038781095 0.08361543 0.005114794
0.049433224 0.0020807162 0.0454221 0.023120008 -0.08209255 -0.012610339 0.0040002614 0.029634356
0.017087825 -0.04232314 -0.02749088 0.0351571 -0.059715297 -0.015541501 0.053492494 0.028451756
0.04386387 0.08681526 -0.035149556 0.005512826 -0.011998899 -0.06869626 0.02819898 -0.008705474
0.0034659877 0.047550015 0.053735994 -0.04642548 0.04984414 0.037969775 0.032559104 0.013580464
0.014223121 0.0603875 0.030786842 0.01008638 0.019596048 -0.076921105 0.0791026 0.020539068
0.083293 -0.009967327 -0.0016114041 -0.053330965 0.042779826 -0.080593824 -0.023021385 0.04085227
-0.0152582675 0.03533016 -0.003973298 0.08759614 0.00072904676 0.04178386 0.028677829 0.016441949
0.034924276 0.054220967 0.086640425 -0.040283505 0.063022114 0.06830806 0.01868584 0.057330064
0.016495198 0.048121236 0.03888849 0.040636458 -0.026033476 -0.051779743 0.0055580065 -0.029028367
-0.07664505 -0.07156575 0.08256904 0.028150745 -0.03534184 -0.06505297 -0.04610901 0.04384195
0.0057720914 -0.05057096 -0.07508548 0.06688676 -0.0069390982 -0.04506149 0.026106 0.05746562
-0.01984635 0.028730728 -0.001057297 -0.08114815 0.060164176 -0.07944579 -0.021431357 -0.031218171
0.007290572 0.024947427 0.040313832 0.038779236 -0.057671398 -0.07364291 -0.006523043 -0.0006714836
-0.016390063 0.079791985 0.016885541 0.00041463226 0.058720104 0.08121505 -0.0003972873 -0.0689993
-0.061299406 -0.06531438 0.06533747 -0.04784368 0.031767167 -0.06122055 -0.08341733 -0.041669294
-0.0028643385 -0.049765985 0.086601354 0.029629827 -0.02624181 -0.0109960735 -0.043990634 -0.071407214
0.06955417 -0.0152719915 0.058164947 -0.0856867 -0.028943472 -0.04860762 -0.03706301 -0.04778283
0.0060783327 -0.032817107 -0.07849078 -0.0074701607 0.055947848 0.06101302 -0.002840273 -0.08819201
0.08731144 0.07723772 0.028923415 0.029207304 -0.052305777 -0.057198048 -0.01181072 -0.01849512
0.011951245 0.054795377 -0.07944029 -0.03469515 -0.082136385 -0.019357227 0.0737718 0.020920008
0.08807435 -0.020561792 -0.016951747 -0.06538342 0.056341313 -0.06781236 0.004237026 -0.04788728
-0.076946855 -0.0031122267 0.087944515 -0.080045946 0.06578677 0.04503063 -0.07990265 -0.07555735
0.069458105 0.026720174 -0.04269639 0.083641656 0.026920319 0.03617146 -0.04791654 0.08621771
0.051268913 -0.076870844 -0.08324419 -0.08255558 -0.04138539 -0.0028359666 0.06675138 -0.013341889
0.008192264 0.0728964 0.07456388 -0.059771795 -0.01641979 -0.0038317814 -0.034237254 -0.06453948
-0.016899623 -0.074414074 0.029397897 0.040829502 0.042609714 0.03025914 0.07498283 0.055560745
0.029736035 0.073594 -0.038574386 -0.004997626 -0.028066356 -0.020646058 0.032536052 0.0021142364

fc2.bias f4 [128]
00000000: 1b41 9f3d b857 32bc 8f17 9f3d 28c3 083c
00000010: f046 963c 93e6 803d d6f5 333d aaea 43bd
00000020: b615 373d b476 de3c 0428 95bc 90de 1bbc
00000030: d6d1 623d 1269 09bd 9710 81bd f89a a83c
00000040: cca2 0f3d 884f c2bc 0901 51bd 9dab 2bbd
00000050: dcfd 86bc 6242 423d 5242 84bd 6c85 4ebd
00000060: 80ce 78bc 07de 9d3d 30c2 f9bb 625a 703d
00000070: f091 bf3c 10cc 6ebd 5fb0 52bd 3883 c1bc
00000080: e018 0abb d87f 323c e961 01bd 98d4 15bc
00000090: 4e84 293d 7531 a73d c898 f03c a6df 2cbd
000000a0: 7819 61bd 32b7 5c3d ce64 1f3d b0cc 1abc
000000b0: c8b0 75bc ba93 563d d096 b1bb 510b 8c3d
000000c0: 3cb3 62bd 06ad 763d d08d ca3c 75ca 9bbd
000000d0: 403e f43c d0ba ee3b dd3b 8d3d 703c 78bd
000000e0: 52c3 703d d118 abbd c977 03bd 40a6 a23c
000000f0: d972 b4bd 6fc3 b33d 4069 17bd 203e b6bc
00000100: e3e2 803d ad63 833d 409f 5bbb ae4d 693d
00000110: 863a 87bd 612d 803d 8efa 0ebd b863 92bd
00000120: ec1a 9abd 7f7d ac3d 09e2 a1bd 4040 db3a
00000130: d09c ddbc ecb7 1cbd a8ef 12bc 474a abbd
00000140: 5b1a 9bbd 204a 90bc 6834 30bc 8269 b0bd
00000150: 1311 883d ba2a 3fbd 6a2c 7d3d 802d bdba
00000160: 1a4b 643d 82b7 293d f89a cd3c d0bc 143c
00000170: 1870 9fbd 7d9d 28bd a2af 85bd 00b6 eb39
00000180: f7a9 833d b806 a6bd 6fdc 9e3d cea0 84bd
00000190: f5d9 7cbd 1a62 503d 4c3c db3c 0cd5 b2bc
000001a0: b98f a8bd c768 ae3d b504 ad3d 967b 403d
000001b0: e8d4 dc3c 5c20 91bc 44eb a03c c870 4dbc
000001c0: d0ed 08bc 5063 85bd 806b 39ba 38e8 1e3c
000001d0: 6c37 823c 30b5 3d3c b03e 41bc 1866 4abc
000001e0: d648 86bd fe00 1d3d 6ddf b43d 02f9 2a3d
000001f0: a0a9 60bb 409e b1bc 6042 32bb d891 86bc
0.0777609 -0.010885172 0.07768165 0.00834731 0.018344373 0.062939785 0.04393562 -0.047831215
0.04469844 0.027156211 -0.018207557 -0.009513512 0.055375896 -0.03354747 -0.063019924 0.020581707
0.035067365 -0.023719564 -0.051026378 -0.04191171 -0.016478471 0.04742659 -0.06457962 -0.05042021
-0.015185952 0.07708364 -0.007622026 0.058679946 0.023385018 -0.058300078 -0.05143773 -0.02362214
-0.0021071956 0.010894738 -0.031587515 -0.009144925 0.04138594 0.0816373 0.029369727 -0.042205475
-0.05495593 0.053885646 0.038914494 -0.009448215 -0.014995761 0.052386977 -0.0054195896 0.06838096
-0.055346712 0.0602236 0.024725825 -0.07606975 0.02981484 0.0072854534 0.06896184 -0.060604513
0.058780022 -0.08354343 -0.032096658 0.019854665 -0.08810968 0.087775104 -0.03696561 -0.02224642
0.06293275 0.06415496 -0.0033511668 0.056958847 -0.06602959 0.06258655 -0.034906916 -0.07147926
-0.07524666 0.08422374 -0.07904441 0.0016727522 -0.027052313 -0.03826134 -0.008968271 -0.08363777
-0.07573386 -0.01761347 -0.010754682 -0.08613874 0.06643882 -0.046671607 0.061809935 -0.0014433116
0.055735685 0.041434772 0.025098309 0.0090782195 -0.07785052 -0.041165818 -0.0652764 0.00044958293
0.064289026 -0.0810675 0.07756888 -0.064759836 -0.061731298 0.050874807 0.02676215 -0.021830104
-0.08230538 0.085160784 0.084481634 0.04699286 0.02695699 -0.017715625 0.019643433 -0.012539096
-0.00835748 -0.06513083 -0.00070732087 0.00969892 0.015895568 0.011578843 -0.011794731 -0.012353443
-0.06556861 0.038331024 0.088316776 0.04174138 -0.0034280792 -0.021681905 -0.0027200207 -0.016426966

fc3.weight f4 [2, 128]
00000000: 5aa0 7d3d 8c8f eb3c c279 f4bc 87b0 9e3d
00000010: d289 543d 205e 983b 6530 8b3d 10b8 6dbd
00000020: 001e 31bb 5e6e 7a3d b2f3 173d bbc2 1ebd
00000030: 5eb4 31bd 78e8 3cbd 70ab 2fbd 094e 05bd
00000040: 685c 25bd a29d 433d 34b5 a6bc c0f4 9cbb
00000050: 94d0 71bd 0492 b93c c1c0 67bd 48f4 b43c
00000060: cec7 5abd 2ff0 0dbd 997b aabd 2816 91bd
00000070: 120f 83bd 100f 0b3c bcc4 973c 4142 a63d
00000080: 2c4e febc ba4e 08bd 9a52 08bd 8883 783c
00000090: de64 373d a952 833d 3e68 573d 08bc 3c3c
000000a0: a42e 983c d31d 5cbd 48e7 afbc c4ae a5bc
000000b0: 300c 0fbd 72c9 453d ae16 523d 9cf3 91bd
000000c0: ff60 b4bd 555b af3d ced8 133d 2249 98bd
000000d0: f86c 87bd 90c2 193c 2a59 593d e424 afbd
000000e0: 5a82 4abd 3c9c 40bd 9bd9 2cbd ec14 87bc
000000f0: 4ad1 413d b221 94bd 91c4 93bd 888c 05bc
00000100: c14d 803d 42c8 0abd f0a7 cc3b 332f 943d
00000110: bdff 923d f010 153d 1060 92bd e3c3 933d
00000120: 1467 123d 40fa f4bb 3ed4 583d a698 83bd
00000130: 981f b33c a08b ed3c 3618 083d a0c7 c3bb
00000140: a800 233c aa73 563d ea3f 713d aad6 523d
00000150: 4634 5abd 1334 6bbd f494 46bd 003f 503a
00000160: 0009 ca39 c499 3bbd a02a e8bb 463b b0bd
00000170: 6be0 823d a4a8 97bd dc18 133d 507f db3b
00000180: 7a79 693d cd30 853d da06 6c3d 806a 6bba
00000190: 704a 28bc d2d9 453d 897c a3bd 60cd 743c
000001a0: 095f 8d3d f0ed 1b3c df21 2dbd 95dc a1bd
000001b0: 1f59 aabd 780f 4dbc bed3 213d 6051 903c
000001c0: 5fef 0abd f326 8c3d d7a8 843d 118e a43d
000001d0: 1415 1abd e0f5 8f3c 70c7 aa3b 7072 58bc
000001e0: b00a a9bd 26cd 8fbd 76e9 583d 7449 d33c
000001f0: aff3 29bd 36d5 6cbd a0da 0e3c e8f3 f0bc
00000200: ec03 b33c 20c9 82bb 97b7 2bbd 9443 a4bd
00000210: e097 65bc b0e1 69bc 4c56 853c 17d7 66bd
00000220: efe4 18bd f392 9abd c1ef 8bbd 836e 06bd
00000230: f8bf eebc cc1f a7bd 1971 9b3d cadd 4ebd
00000240: dd1e 8d3d eef1 303d 8395 adbd dd55 0ebd
00000250: ccbd 0abd f8ed 3cbc 3e37 70bd a828 30bc
00000260: c6cb 9abd 3a6f d4bc fb67 b43d e859 533c
00000270: 178e ad3d dc05 f03c beee efbc b1c6 b03d
00000280: 15ac a03d 4511 943d a664 293d 95a9 abbd
00000290: 9b65 9f3d d0aa 4b3c 5500 b23d b42a f53c
000002a0: 000c 56bd b02f 67bd 924c 473d c554 8cbd
000002b0: 40dd 74bb 4803 f13c f483 d43c 92df 6c3d
000002c0: 102d 7e3c cada 163d 0253 7ebd 4385 883d
000002d0: 24d3 083d 54b6 bbbc a80b 5dbd 9ec6 6c3d
000002e0: 0362 963d 401b a7ba 504c 1dbc 9783 00bd
000002f0: 2010 febb c2ac 393d 7220 21bd 0383 8b3d
00000300: 8725 b23d e4f9 a0bc 1dbb 92bd f33e 9a3d
00000310: a4ab febc 461a 223d 26e9 1e3d 2a61 58bd
00000320: 1614 5a3d 38e3 e33c 90ef d53b 00f3 563b
00000330: e053 823b ec22 913c 40ce 9cbc e3b8 b23d
00000340: 5a48 6d3d b93a 91bd 5184 5bbd 26eb 4f3d
00000350: d18d 55bd 4e20 84bd bccf 61bd 8f53 9cbd
00000360: b026 acbc 80f6 46bb 9edb 613d ce93 5bbd
00000370: a80b 0dbd 201d a7bb ba49 95bd c20e 0e3d
00000380: b140 b33d d200 0abd 4c67 30bd 6033 3dbb
00000390: 304f 3dbd d014 97bd 88ba c9bc c0e2 b4bd
000003a0: c374 863d 3463 aabd 7512 25bd e88e c6bc
000003b0: a590 8b3d f003 933b 38ec 4f3c 8648 7b3d
000003c0: 5d15 92bd 88e3 93bc 1053 da3c 578e 04bd
000003d0: 001a a33a 2aa4 30bd 3af4 1e3d f042 8ebb
000003e0: 2c46 d43c 5202 70bd 9e06 9abd 0db0 00bd
000003f0: 5615 ddbc 895b aebd 44a2 3cbd 35a2 923d
0.0619205 0.028754972 -0.029843215 0.07748514 0.05188925 0.0046498924 0.0679634 -0.058036864
-0.0027025938 0.06114041 0.03709764 -0.03875993 -0.043384902 -0.046120137 -0.042888105 -0.032545123
-0.04037133 0.047757752 -0.020350076 -0.0047899187 -0.059036806 0.022652633 -0.05658031 0.022089139
-0.053413205 -0.034652885 -0.08324356 -0.07084304 -0.06399359 0.008487478 0.018526427 0.08118106
-0.031043135 -0.033278205 -0.0332819 0.015168078 0.04477393 0.064122505 0.052589647 0.0115194395
0.018576927 -0.05373938 -0.021472588 -0.020224936 -0.034923732 0.048287816 0.05129116 -0.07126543
-0.08807563 0.08562342 0.036095433 -0.07435824 -0.06612581 0.009384766 0.05306355 -0.08551958
-0.04944072 -0.047023997 -0.042199712 -0.016489469 0.047318734 -0.07232989 -0.072152264 -0.008151181
0.062648304 -0.033882387 0.0062456056 0.07235565 0.071776845 0.036393106 -0.07147229 0.07215097
0.035742834 -0.007476121 0.052936785 -0.064256 0.021865651 0.028997242 0.033226214 -0.005974725
0.009948887 0.0523564 0.058898844 0.05147425 -0.053272508 -0.05742271 -0.048481897 0.0007943958
0.00038535148 -0.04580094 -0.0070851594 -0.086050555 0.063904606 -0.074052125 0.03591238 0.0066985264
0.057000615 0.06503449 0.05762372 -0.00089804083 -0.0102716535 0.048303433 -0.079827376 0.014941543
0.06902892 0.009517178 -0.04226863 -0.07903401 -0.0831778 -0.012515895 0.039508574 0.017616928
-0.03391969 0.068433665 0.06477516 0.080349095 -0.037617758 0.017573297 0.005211763 -0.013210878
-0.082539916 -0.07021551 0.05295702 0.025791861 -0.04149216 -0.05782052 0.008719116 -0.029413179
0.021852456 -0.003991261 -0.04192313 -0.08020702 -0.014013261 -0.0142749995 0.016276501 -0.05635747
-0.037327703 -0.075475596 -0.06832839 -0.032820236 -0.029144272 -0.08160362 0.07589931 -0.050504483
0.06890652 0.043199472 -0.08475783 -0.034749854 -0.03387241 -0.011531346 -0.058646433 -0.010751881
-0.07558398 -0.025931943 0.08808895 0.012899853 0.08474367 0.029299669 -0.029288646 0.086316474
0.07845322 0.072298564 0.04135575 -0.083819546 0.077830516 0.012430862 0.086914696 0.029927589
-0.052257538 -0.056441963 0.048657008 -0.06852106 -0.003736332 0.02942051 0.025941826 0.0578304
0.015513673 0.036829747 -0.06209088 0.06666043 0.033404484 -0.02291409 -0.053966194 0.057806604
0.07342913 -0.001274921 -0.009600714 -0.031375494 -0.007753387 0.04533077 -0.039337583 0.06812098
0.08698564 -0.019650407 -0.07164595 0.07531538 -0.031087704 0.039575838 0.038796566 -0.052827038
0.05324181 0.027818307 0.006528802 0.0032798648 0.003977284 0.017716847 -0.019141316 0.087266706
0.057930328 -0.070912786 -0.053592984 0.050761364 -0.0521372 -0.06451474 -0.05512975 -0.07633125
-0.021014541 -0.0030359328 0.055141084 -0.053607754 -0.034434944 -0.0050999075 -0.07289453 0.034682043
0.08752573 -0.03369219 -0.04306726 -0.0028869733 -0.046218097 -0.073770165 -0.024625078 -0.08832312
0.06565239 -0.08319703 -0.040300805 -0.024238065 0.06814698 0.0044865534 0.012690596 0.06134846
-0.07132981 -0.018052831 0.026650935 -0.03236231 0.0012443662 -0.04312531 0.03880713 -0.0043414757
0.025912367 -0.058595963 -0.075207934 -0.031417895 -0.026987713 -0.08513553 -0.046053186 0.07159845

fc3.bias f4 [2]
00000000: c0bb 9fbb a245 3e3d
-0.0048746765 0.046453126

fc1.weight f4 [128, 16]
00000000: 11e5 403e 24f6 2cbd d7ab 133e 1faf e9bd
00000010: a4a4 5ebc 67a5 893c 3078 8f3d bf44 163d
00000020: 0ace 58be b406 313b f48c 07be ef03 a6bb
00000030: b5f0 473e 7918 343e 9aa9 cebd d1a8 793c
00000040: 0401 36be 2d01 133e 85d0 e1bd 8315 01be
00000050: 123d bd3d 28cb fbbd f581 9abc 0478 3ebd
00000060: 70ab 543e af68 5a3e 5972 52be 9026 d03d
00000070: 0f28 c1bd 4eec 37be 6fd7 1e3e 4f5b b03e
00000080: b607 05be 4581 093e e74a 9abd 5be3 123e
00000090: 0527 2b3e 593c 033e 553f 01be 59ac c1bc
000000a0: 15cf 0b3e 7667 00be 8366 21be bbc2 b9bd
000000b0: cae9 e6bb c977 23be cdbc ee3d 7fd2 72be
000000c0: 3659 4b3e 7241 42be 802f 9f3c 9c17 fbbd
000000d0: c4be 4d3e e088 f0bc 3665 033e f0dd 543e
000000e0: e2a2 313e 007e 903c 441a 8e3d c834 203e
000000f0: 6007 813d 70b8 f43d a064 67be bcae 153e
00000100: 77e1 0fbe 76b1 523e f3a1 033e 3c45 c13d
00000110: 8dd2 b0bd 1c9d 113c ae78 203e c400 22be
00000120: 903a 8abd 316e c63c 8d94 5e3e ef2f 36be
00000130: 112d 763e f4ed 8ebd 554f b13b 45d3 c23c
00000140: f18c ba3c 9e81 4abe aa15 323d aad1 51be
00000150: 3604 43bd cfa1 8dbe 5a4e 143e 9814 df3d
00000160: f824 403e 162c 4ebd 10f7 10be 9ecf 913d
00000170: 08c7 fcbd 8a38 c6bd 8bc3 603e 2113 0fbe
00000180: a9fd 00be 2150 bfbd c583 4abe ef38 51be
00000190: e48e 2dbe 4dc4 bfbd fe3f 2ebe 0ce7 91bd
000001a0: 982e 1d3d e7cb 103e ca47 893e 9435 95bd
000001b0: 69c3 61be 3701 243e 537a a0be d2a9 11be
000001c0: 3b2c d33d 2d64 b43d 2698 1e3e 2869 2c3e
000001d0: 0c85 44bd 4d0b fd3d 6cf6 7ebc 20d8 49bc
000001e0: 5911 863d 2251 593e 94ea 953e 70ff 7cbe
000001f0: 3685 d93d e373 133e 863b 8bbe 8997 5fbe
00000200: 2e46 e7bc 2373 353e 5664 633e f90b 2c3e
00000210: bef0 06bd dd14 373e 8528 51be 4866 143e
00000220: e356 40be d99d 8dbd c130 443e 8d87 4d3e
00000230: f9f4 6cbe 6aaa 4cbe b2d6 7cbe efd8 63be
00000240: c8a3 65be a034 f1bb a79c 40be 0f16 55be
00000250: 62c0 413e 0340 95bd dedf 5cbe 7e6a 6ebd
00000260: ff01 64bd e407 67be f642 243e 6961 e53d
00000270: 7e1f b83d b54e ed3d 0038 8a3e 5a0a f83c
00000280: 364f 67bd 799e 803e 51db 773e 5128 693e
00000290: f734 c9bd 9189 a8bd 051d 573e 7d49 aabd
000002a0: ab1b c03c 5c7b 4e3e 8c3e 093d 5a59 423e
000002b0: 0677 1f3c 891a a83d 4168 853d b82e bb3c
000002c0: 8b04 4a3e cdc4 56bd dcdf 7b3e d3f8 ec3d
000002d0: 052d 8ebd 47dc 2ebe 7494 65be 0118 a7bc
000002e0: 4b2c 6cbd 195f 543d d673 eabb 7ca8 193e
000002f0: 687a af3d 4b56 a53d f8cf 603d 2e87 4abd
00000300: 9711 60be 44c4 adbd 74a4 a8bb c139 3fbe
00000310: 7c9a 80be 649a b1bd 5cb8 debd 8f8f 46be
00000320: d0d5 ed3d 6caf 343d 7f98 803e 22b3 153e
00000330: 8bd7 41be 4fbd 56bd 79d1 373e d2d9 7abd
00000340: 1654 92bd 0447 663e 8ccc 803e 29c4 84bd
00000350: 3daf 91bc 9d10 513d 3a01 1e3e 16da 553c
00000360: e72a 483e 3db8 fabd 1036 06bd 0b2f db3d
00000370: 7905 71be 1d8a 14be 4222 98be a9eb 90be
00000380: 19f0 053e e9e8 24be 763f 8dbd 436c c23d
00000390: eeb0 333e 3768 63be 3c14 0e3e 8ea5 093e
000003a0: de25 053e 764e a93c 9efd f23d 99f3 603e
000003b0: 53b2 6dbe 6f32 493e 50e5 01bd 98d7 9a3d
000003c0: a8ad 2b3e f29e 13bc 3386 00be 2518 46bd
000003d0: 9c5a 4b3e cb84 c9bd 3ad2 033e f1e7 b3bd
000003e0: 9921 253d 4dd5 413e c295 6fbe 95bb 5dbe
000003f0: 2588 df3d 282d b03c 7ac4 813e c268 b03e
0.18837382 -0.042226925 0.1442102 -0.11410355 -0.013589058 0.016802503 0.07005346 0.036686655
-0.21172348 0.0027012052 -0.13237363 -0.005066387 0.19525416 0.1758746 -0.10090943 0.015238003
-0.17773825 0.14355917 -0.110261 -0.12605862 0.09240164 -0.12294608 -0.018860796 -0.046501175
0.20768523 0.21328996 -0.20551433 0.10163605 -0.09431469 -0.17961237 0.15511869 0.34444663
-0.12991223 0.13428219 -0.07533818 0.14344542 0.16714104 0.1281599 -0.12621816 -0.023641752
0.13653214 -0.12539467 -0.15761761 -0.09070345 -0.007046913 -0.15963663 0.11657105 -0.2371311
0.1985825 -0.18970278 0.01943183 -0.122603625 0.20092303 -0.029362142 0.12831578 0.20787787
0.17347291 0.017638206 0.069386035 0.15645134 0.06300235 0.11949241 -0.22596979 0.14617437
-0.14050852 0.20575508 0.12854747 0.094370335 -0.086339094 0.008887555 0.15671036 -0.15820605
-0.06749451 0.024222465 0.21736355 -0.17791723 0.24040629 -0.0697898 0.0054110684 0.023782382
0.022772284 -0.19776008 0.04347769 -0.20490137 -0.047611438 -0.27662513 0.14483014 0.108926
0.18764102 -0.050335012 -0.14156747 0.07119678 -0.1234265 -0.09678753 0.21949594 -0.13972141
-0.12596764 -0.09341455 -0.19776829 -0.20431875 -0.1694904 -0.09363613 -0.17016599 -0.07124147
0.038374513 0.14140283 0.26812583 -0.0728561 -0.220472 0.16016088 -0.31343326 -0.14224938
0.10311171 0.088081695 0.15487728 0.16836989 -0.047978446 0.12355671 -0.015561681 -0.012319595
0.065462776 0.21222356 0.2928053 -0.24706817 0.10621111 0.14399676 -0.2719385 -0.2183515
-0.028231706 0.17719702 0.22206244 0.16801442 -0.032944433 0.17879052 -0.20425613 0.14492142
-0.18783145 -0.06914873 0.19159223 0.2007124 -0.23140325 -0.19986883 -0.24691275 -0.22250722
-0.22425759 -0.0073610097 -0.18809758 -0.20809196 0.18921044 -0.072876 -0.21569774 -0.058207028
-0.055665966 -0.22561604 0.16041169 0.1120022 0.08990382 0.11587278 0.2699585 0.030278374
-0.056472026 0.25120905 0.24204756 0.22769286 -0.09824555 -0.08229364 0.21007164 -0.08314798
0.023450693 0.20164245 0.033506915 0.18979397 0.009732967 0.08208186 0.065140255 0.022849426
0.19728296 -0.052433778 0.24597114 0.11570897 -0.069421805 -0.17076217 -0.22419912 -0.020397188
-0.05765943 0.051848505 -0.007154922 0.15005678 0.08568269 0.080731 0.054885834 -0.049445324
-0.2188171 -0.084847 -0.0051465575 -0.18674375 -0.25117862 -0.08672026 -0.108750075 -0.19390701
0.11613047 0.044112608 0.25116345 0.14619115 -0.1892988 -0.052426632 0.17951001 -0.061242886
-0.07144944 0.22488028 0.25156057 -0.06482727 -0.017783755 0.051041234 0.15430155 0.013052484
0.19547616 -0.12242172 -0.0327664 0.10702332 -0.23537244 -0.14505811 -0.29713637 -0.28304794
0.13079871 -0.16104473 -0.0689687 0.094933055 0.17547962 -0.22207724 0.13874906 0.1344206
0.13002726 0.020667296 0.1186478 0.21967925 -0.23212557 0.19648145 -0.03171283 0.075606525
0.16765463 -0.0090100635 -0.12551193 -0.04836287 0.19858783 -0.098397814 0.12873164 -0.08784474
0.040315244 0.18929024 -0.23396972 -0.21653588 0.109146394 0.021505907 0.25345212 0.34454924

fc1.bias f4 [128]
00000000: d54d ee3d 6221 163e d783 27be 40b0 e03c
00000010: 1330 33bd f472 6c3e c3c3 633e d3ee 31be
00000020: d6a2 7bbe 5473 48be 22c3 bf3d 90a1 0cbe
00000030: 1604 51be 2997 f2bd 0932 1abe 76b1 ee3d
00000040: d431 17be 267d 403e 92e4 233e 2f79 47be
00000050: bed4 35be 5b44 073e 764a bbbd 9eaf a83d
00000060: 3e2d 15bd 5566 02be 4923 693e 94a4 e4bd
00000070: 598d 71be 443f 3b3e 1f75 23bc 6943 3ebe
00000080: d888 e53c 7a21 b03d 3c0f b3bc c81a 4c3e
00000090: 30d4 52be fb9c febb 0c6e bebb f6a3 623e
000000a0: 7041 b7bd 11b0 60be 6670 05be 4e4f 343e
000000b0: 41e8 81bb ef09 60be 11a3 a73c 6ab9 14be
000000c0: f66e 533e b8a3 f8bd 01d8 643d 4585 89be
000000d0: 36ec 0dbd b871 473d 28c7 323e 7ccc d13d
000000e0: 4f8b 73be 1203 3a3d 7daa 323d 6ab6 97bd
000000f0: d50f cd3d 084e 74be 9287 873e 0c6e 303d
00000100: 2964 d7bd 1ef5 07be 2ec7 b1bb 44ed 1b3e
00000110: d935 193e 3991 013e 6635 1c3e 81e0 173e
00000120: 14c1 af3c 4c44 7d3d 7109 8abb e367 1c3e
00000130: 0c3c 90bd 30bb 83be 3f58 99bd 6748 533e
00000140: 11f5 4fbe af95 39be 6c6c 35be a5ed 653e
00000150: 3ade 5abe 4862 1c3e 3359 553e 724f 3c3e
00000160: f7ea 29bd da12 bbbc ebd4 253e 5d28 613e
00000170: adb1 3dbd 9672 84bd 1789 67be a323 6e3e
00000180: 6ca1 8c3d ef48 043e 10b6 91bd d3b0 35bd
00000190: da4a 59bd fd40 9a3d 1d1a 7a3e d329 36be
000001a0: 3808 dbbd 3880 463c 5ac9 103e eb19 863e
000001b0: 6857 213e 5704 69be e17e 0abe 3966 a23d
000001c0: 9ec2 c6bd cfdb 113e d2eb d83c 0e99 05be
000001d0: 0a89 a63d 16e3 1a3e 762e b03d 6c08 b8bd
000001e0: 56b6 b5bc acdf 37bb 722e f9bd 310e c23d
000001f0: 76b7 c2bc f09b fe3b 0a08 633e 7825 493e
0.11635939 0.14661172 -0.16358887 0.027427793 -0.04374702 0.23090726 0.22242646 -0.1737626
-0.24573836 -0.19575244 0.093633905 -0.13733506 -0.20411715 -0.11845238 -0.1505815 0.11654942
-0.14765102 0.1879774 0.16005161 -0.19479822 -0.17756936 0.1320967 -0.09145062 0.08236621
-0.0364201 -0.12734349 0.22767366 -0.11164203 -0.23589076 0.18285853 -0.009976654 -0.18580402
0.028019354 0.08600135 -0.02185785 0.19932091 -0.20588756 -0.0077701784 -0.0058114585 0.22132859
-0.08948028 -0.21942164 -0.13031158 0.17608377 -0.0039644544 -0.2187879 0.020463498 -0.14523855
0.20647797 -0.12140602 0.05587006 -0.2685949 -0.034649096 0.048692435 0.17458785 0.102440804
-0.23783611 0.045413084 0.04361962 -0.074078396 0.10012785 -0.23857892 0.2647062 0.0430737
-0.10517151 -0.13277099 -0.0054253554 0.15227228 0.14961948 0.12653054 0.15254745 0.14831735
0.021454372 0.06183271 -0.0042125513 0.15274005 -0.07042703 -0.2572875 -0.07487535 0.20633088
-0.20308329 -0.18123506 -0.17717141 0.22453935 -0.21373835 0.15271866 0.20834808 0.18389681
-0.041483846 -0.022836138 0.16194503 0.21988054 -0.046312023 -0.06467168 -0.2261089 0.23255782
0.06866726 0.12918447 -0.07114804 -0.044358086 -0.0530499 0.07531927 0.24424024 -0.17789392
-0.10694927 0.012115531 0.1413931 0.2619165 0.15755999 -0.22755562 -0.13524963 0.07929654
-0.09705089 0.14244007 0.026479635 -0.13046667 0.08131607 0.15125689 0.08602612 -0.08985981
-0.022181671 -0.0028056903 -0.12167062 0.09475363 -0.023769122 0.007770054 0.22171035 0.196432

fc2.weight f4 [128, 128]
00000000: bc74 c1bd c601 89bd be7a 04bd 4080 553c
00000010: ab52 3fbd b1d9 09bd 7398 933d 8550 b73c
00000020: 01c9 ef3b 60bc 9d3d 6548 41bd 2eac 21bd
00000030: 86cf 253b c772 9e3c 404c 053d 239d e03d
00000040: 7ec7 89bd 8e18 7ebd 7c17 5abd a968 31bd
00000050: 0d4e b0bc ce4a 933c 7c5c 3c3d 7cd9 743d
00000060: be1a 123d 0d5a c63c 4463 bbbd a1ee adbd
00000070: 8c44 5dbd 029f 4e3d 6c06 08bb 2db1 3c3d
00000080: e4e7 d3ba 7866 f33a 69f5 a5bd af83 a2bd
00000090: 9157 8d3c 9720 50bd 3bec 29bd 9d95 b3bd
000000a0: 1a05 e5bb 752a a7bd 0e86 0ebd 0dbe 4dbb
000000b0: 47e8 95bc 1662 e7bd 1306 7a3d 1086 813d
000000c0: 5393 2ebd 0025 25bd cbc5 01bd 1d6b 0fbc
000000d0: 9c96 39bd cc51 4cbd 8ce8 903d b412 b7bc
000000e0: 6645 d53d 6284 a0bc 38cc 9b3d 3292 233d
000000f0: 66a4 043d 0259 b436 12f4 09bd 0c25 5abd
00000100: dc58 babd 2534 4a3d 5c46 a2bd d8be b3bb
00000110: 5c8a 2d3d 9226 b9bd ab24 4c3d b52d 3f3c
00000120: 4662 46bd f6c4 8ebd 1835 dbbb 21e9 b0bc
00000130: f034 943c 3663 2fbd 8f98 50bc 8c65 b63d
00000140: 7c3f bbbd 9182 883c dcd0 5a3d c680 fe3c
00000150: 870b a63d 8cca 32bd 6b30 63bd c06a 163d
00000160: aee6 633d 8850 82bd 2dd6 90bd d435 41bc
00000170: 72b7 2dbd 85a6 633c 03d2 c2bc 31b6 2d3d
00000180: b0b5 d3bc 9992 b1bd 5f70 a73d ffbe b13d
00000190: 0f30 843d d4ac a93d a264 95bc 54ce 3d3d
000001a0: c081 38bc ac7e 073b 835c 2ebd 23e8 16bc
000001b0: b0de fe3c 1bd0 77bd a8ec 2b3d 40c1 bbbc
000001c0: e360 3dbd 0cd6 c43d b954 8dbb 50e8 eabc
000001d0: 612c 04bd 4881 58bb 4288 3b3d 7f5c 0fbd
000001e0: c41f 13bd 8115 643c 6c25 87bd cd57 423d
000001f0: 0859 10bb b282 03bd 30b0 51bb 48e6 413d
00000200: 14df 13bb 0cd8 dc3c 441c 78bd 097b 22bd
00000210: 8242 153c 8737 4fbd 1e36 37bd 1c1f 47bd
00000220: 5f3a cb3b 3eee 493d b291 49bd 877f ccbd
00000230: 08fa 9b3d 2a1c 6e3d 5bb4 273c ede5 3b3d
00000240: 9718 21bd e45a 583d f384 b2bc 1557 93bd
00000250: de5c 17bd 9de4 fabc 6c40 97bb 86f9 04bd
00000260: 292a 843d 5125 5bbc a04f aabc cab3 373d
00000270: 03b2 9ebb 26c6 52bd d76a abbd 1b50 af3d
00000280: 2c25 0abd 69a4 683d 86d5 863d 3ce6 353d
00000290: 1dac ba3d 89ea 873d 9a43 71bd bc10 a6bd
000002a0: 4089 58bd e575 533d dc35 9abd d876 043d
000002b0: e245 8cbd ee6b 963d cd29 31bd 96af d33c
000002c0: a06c 53bd e636 8abc 82b2 243c 156c 633d
000002d0: a415 253d e3a7 c43c a89e 623d 4b0d 3dbd
000002e0: 264a 0a3d 27f1 403d f1e9 543d 6858 34bc
000002f0: 9838 6b3d 996c 8fbc a8a9 0dbd 78f2 8b3c
00000300: bc32 a43b 107e 9a3c 784d 8dbd d936 99bd
00000310: 76d9 783d d44e cc3c 20fa 96bd 08de 35bd
00000320: d16a bfbd 60ae dcbc 1ce9 2abd 5cf2 a73d
00000330: dda0 ac3d 0291 8abd 0eb0 313d f5a0 3d3d
00000340: 07a8 d83c 55cb 37bd 3a3a 6f3d 6e64 53bc
00000350: e85b 85bd 9ad7 68bd 0b7d 04bc f563 77bb
00000360: 2410 5f3d 48fd 983c 4330 853d 8084 b9bb
00000370: 9846 9b3d 092a a2bd 9aff babd 3d65 4abd
00000380: 678e b1bc 63ff c63c c31f a2bd 44bf f7bb
00000390: 3cfa 203c 80d1 a33b 71bb 6dbd c711 193d
000003a0: 2dee a7bd 97c0 843d 6263 8abd 6b38 853d
000003b0: b0c7 16bd f0c1 46bd 48fc cd39 3a78 bfbd
000003c0: 5d9a afbd 8382 533d ca2a 38bc a02f 6e3b
000003d0: c1f2 96bd 34b5 3cbd b796 933d 2c65 5f3d
000003e0: 0d29 65bd c190 d0bd f03a 843d 72e7 3cbd
000003f0: cc3f b43d 8473 313b c010 3e3c 2ee4 93bd
-0.094460934 -0.066897914 -0.03234362 0.013031065 -0.046709698 -0.033654872 0.07206812 0.022377262
0.0073176627 0.07701945 -0.04718818 -0.039470844 0.0025300696 0.01934184 0.03254342 0.109674715
-0.06727503 -0.062035136 -0.053245053 -0.043312702 -0.021521593 0.017980006 0.045986637 0.05977772
0.035670035 0.024212861 -0.09149793 -0.084927805 -0.05402045 0.05044461 -0.002075578 0.046067405
-0.0016167131 0.0018569967 -0.08103449 -0.07935273 0.017253669 -0.05081233 -0.041485053 -0.08768771
-0.0069891335 -0.08162395 -0.034795813 -0.0031393797 -0.018299235 -0.11298005 0.06104095 0.063243985
-0.042620968 -0.04031849 -0.03168277 -0.008753565 -0.045309648 -0.049882695 0.07075605 -0.022347786
0.10413627 -0.019594375 0.07607311 0.039934345 0.032383345 5.37478e-06 -0.03368003 -0.053257987
-0.0909898 0.049366135 -0.07923576 -0.005485397 0.042368278 -0.0904056 0.049839657 0.011668612
-0.048433565 -0.06971161 -0.006689679 -0.02159554 0.018091649 -0.042819224 -0.012731685 0.08906087
-0.09142968 0.016663821 0.05342184 0.031067263 0.081076674 -0.043650195 -0.055466097 0.0367229
0.055639915 -0.06363016 -0.07072101 -0.011792619 -0.042411275 0.013894682 -0.023781782 0.04241008
-0.025843471 -0.086705394 0.0817573 0.08679008 0.06454479 0.082849175 -0.018236462 0.046339348
-0.011261404 0.0020674868 -0.042568695 -0.009210619 0.031112045 -0.0605012 0.04197374 -0.022919297
-0.046234977 0.09611139 -0.0043130782 -0.028675228 -0.032268886 -0.0033036042 0.045784242 -0.03500032
-0.035918966 0.013921143 -0.065989345 0.047447015 -0.0022025723 -0.032107063 -0.0031995885 0.047338754
-0.0022563385 0.026958488 -0.06057383 -0.039668117 0.009110095 -0.050590064 -0.044729345 -0.048613653
0.0062020267 0.04929947 -0.04921121 -0.099852614 0.07616049 0.058132328 0.010235871 0.04587357
-0.03933009 0.052821055 -0.02179191 -0.07194344 -0.0369538 -0.03062659 -0.004615834 -0.032464527
0.06453354 -0.013375596 -0.020789921 0.044849195 -0.004842998 -0.0514585 -0.083699875 0.08560201
-0.033726856 0.05679742 0.06583695 0.04440902 0.09114859 0.06636531 -0.05890236 -0.081086606
-0.052865267 0.051626105 -0.07529804 0.0323399 -0.068492666 0.07344805 -0.043252755 0.025840562
-0.051617265 -0.01687188 0.010052325 0.055522997 0.04030384 0.024005836 0.055327088 -0.046155255
0.03376212 0.04710498 0.051980916 -0.011007406 0.05742702 -0.017507838 -0.034585625 0.017083392
0.005010931 0.01885894 -0.068995416 -0.074811645 0.060754262 0.024939932 -0.07371926 -0.0444012
-0.093465455 -0.026938617 -0.041726217 0.08200523 0.0842912 -0.06765939 0.04338079 0.04629608
0.02644731 -0.044871647 0.05840514 -0.012902362 -0.0651167 -0.05684624 -0.008086453 -0.0037748788
0.054458752 0.018675461 0.06503346 -0.005661547 0.07581824 -0.07918174 -0.091307834 -0.049412955
-0.021674348 0.0242917 -0.07916214 -0.0075606424 0.0098252855 0.0049993396 -0.058040086 0.03737047
-0.08199725 0.06482046 -0.06757237 0.065049015 -0.03681153 -0.048524797 0.0003928861 -0.09349103
-0.08574364 0.051638138 -0.01124067 0.0036344305 -0.073705204 -0.046071246 0.07206481 0.054539844
-0.055947352 -0.101838596 0.06456554 -0.04611916 0.08801231 0.002707691 0.011600673 -0.07221256

fc2.bias f4 [128]
00000000: 6447 4f3d 3c15 273c 59fc 3ebd ccd6 ae3c
00000010: 43fb ed3c 4de5 603c df9b 81bd ce98 50bd
00000020: bc02 0abd a3c5 d13b 56ac 333d c557 73bd
00000030: 73fb eabc 8864 15bb 36e0 b03d b442 4fbd
00000040: 3b9d ee3b 7c7b e4bc 5055 da3c 5970 253d
00000050: 3ce9 96bb 27b8 8fb9 1888 303d c0f7 a23d
00000060: b44b 43bd 81fc a33d 6c66 8fbd 03bd 9e3d
00000070: 689f 2d3c 1bb5 07bd d3aa 403c 799a 2e3d
00000080: 9651 50bc e9b2 7cbd 3e1f 36bc cee2 333d
00000090: 5164 2fbd c6da 71bc 0881 4e3d 272d 673a
000000a0: a5b5 adbd f851 8ebc 4826 46bc 61d5 75bd
000000b0: 4bf0 41bd 9f17 bdbb 9581 0ebd 1f35 b9bc
000000c0: 5b56 73bd 81dd 2abd edcf c83c 1942 523c
000000d0: bdfd b0bd be6a 76bd 5a25 733c e903 66bd
000000e0: 2b54 debc c43f e03b 4b37 09bd 3a3d c73c
000000f0: a8da 12bd 6214 8d3d 9b4a 8a3c f926 7f3d
00000100: 3348 a1bd 4821 9bbd 3fb7 f23c 2b04 1c3c
00000110: f593 2b3c 397a 673d ddf0 88bd 717c ab3b
00000120: 8cf4 db3c 4bae 5a3d 3832 2abd 71ee 583c
00000130: 0b7e b0bc 6bc7 3bbd a202 033d c6b1 b4bd
00000140: dd68 18bd 3534 b3bc 68ea febb 3ab1 bdbc
00000150: a69c 9e3c 27e0 13bc c5a7 7a3d 77d4 7b3c
00000160: ef5b 8cbd c2af cebc 0ab4 6fbd 418b 693d
00000170: c5a4 07bd 2f86 ae3d 143a 9c3d 4d9b 883c
00000180: f153 9a3d c190 9d3d b0c1 bb3c 00a7 08bc
00000190: a51b a83d 4776 863d 8f67 0ebc 4c84 dfbc
000001a0: ec0a 043d 8519 203d 8dca 40bd 8e30 233d
000001b0: acb7 9ebb 8fc2 293d 4431 823b 237e efbb
000001c0: 8a3e 0437 3f15 7dbd 093d c73d 1e57 b53c
000001d0: 88bd 223d 902e acbd 0923 7a3d ab59 a83d
000001e0: fda2 8abd fb37 7d3d 3ae6 2b3d 7da5 4e3c
000001f0: 16f9 5a3d 88f0 a1bd e08d 9f3d afe4 983b
0.050605193 0.010197934 -0.046627376 0.021342658 0.029050475 0.013726545 -0.06328558 -0.050926976
-0.033694014 0.006401734 0.043865524 -0.059409875 -0.028684353 -0.0022795517 0.08636515 -0.050600722
0.007281927 -0.027890913 0.026652008 0.040390346 -0.0046054404 -0.0002741229 0.04309854 0.07957411
-0.047679618 0.08007146 -0.07001957 0.07750895 0.010597087 -0.0331317 0.011759478 0.042627785
-0.012714764 -0.06169406 -0.011115847 0.04391747 -0.04282028 -0.014761632 0.050416023 0.0008818679
-0.084819116 -0.01737307 -0.012094088 -0.060017947 -0.0473483 -0.005770638 -0.034791548 -0.022608338
-0.059408527 -0.04171515 0.02451321 0.012833142 -0.08642147 -0.06016039 0.014840448 -0.056156073
-0.027139744 0.006843539 -0.033499997 0.024321187 -0.035853058 0.06888653 0.016881278 0.062293027
-0.07875099 -0.07574707 0.029628394 0.009522478 0.010472287 0.056513045 -0.06686566 0.0052333404
0.026850007 0.053388875 -0.0415518 0.013240443 -0.021544477 -0.045844477 0.031984933 -0.0882297
-0.03720938 -0.02187548 -0.0077794082 -0.023155797 0.019361805 -0.00902561 0.061195154 0.01537048
-0.068534724 -0.025230292 -0.058521308 0.05701757 -0.03311612 0.08521687 0.07628265 0.016675616
0.07535542 0.07693625 0.022919506 -0.008340597 0.08208398 0.06565528 -0.0086916825 -0.027284764
0.03223698 0.039086837 -0.047068167 0.039841227 -0.0048436727 0.04144531 0.003973158 -0.007308738
7.882374e-06 -0.06178784 0.097284384 0.022136267 0.039731532 -0.084073186 0.06106857 0.08220228
-0.06769369 0.061820965 0.041967608 0.012612698 0.053460203 -0.07907206 0.077907324 0.004665933
