customTrainer/results/AgentBall05/RollerBall/RollerBall-73786.pt (torch, 312756 bytes, 24 tensors)

fc1.weight f4 [128, 16]
-0.13748345 0.036235034 0.082907885 -0.16831619 -0.024311423 0.23660368 0.19863945 -0.24991965
-0.13771957 -0.20793536 -0.18372488 0.2038778 0.1747607 0.15799743 0.06306541 0.095062226
0.18485558 0.17687955 0.12584704 0.17413107 -0.21882194 -0.19659972 -0.17073157 -0.11464319
-0.23810235 -0.005648613 0.06061849 -0.025862545 0.23563638 0.15666065 0.18106285 -0.11269191
0.17790356 -0.21955046 0.02793631 0.08172932 -0.18793178 -0.10749695 -0.0150946975 0.17068592
0.025340825 -0.11441913 0.18663871 0.20791045 0.24511755 0.17675403 -0.021772534 0.03925565
0.037919343 0.10760802 0.12706682 -0.03923446 0.16976991 0.23953146 -0.24883342 0.028016388
0.2356343 0.147928 -0.20324504 0.15902525 -0.23433974 0.08146337 0.22195464 -0.18634793
-0.19942713 0.22759825 0.20768505 -0.23748189 -0.010217458 -0.0031934083 -0.036374927 0.11209825
0.13318884 -0.22591993 0.0986284 0.02193749 -0.12350306 -0.011553496 0.23564252 -0.15590751
-0.2358194 -0.034460217 0.23797026 -0.14609525 -0.021820903 0.0070793927 -0.07612106 -0.08628479
0.0018506348 0.06682047 -0.24911353 0.020445704 -0.08271366 0.18604368 -0.045938253 -0.16024029
0.01698482 0.16616198 -0.19975576 0.1161426 -0.09791553 -0.14257857 -0.04835239 0.18207413
0.014440626 -0.18270722 0.013704628 0.21383065 -0.009931892 -0.05266002 -0.122270286 0.19876003
0.16780615 -0.039505184 -0.14750722 -0.19773999 -0.22691861 0.1373578 0.19624627 -0.20648447
-0.006838113 0.10653493 -0.16748053 0.16943616 0.16459015 0.013688028 0.16522783 0.00064879656
-0.09843284 0.089922935 -0.23604533 0.13394877 -0.13094532 -0.16063589 -0.07848218 -0.010628313
0.092880875 0.06353387 -0.06344774 0.19034389 0.042000413 0.21699649 0.21450078 -0.008529007
-0.082434684 -0.16796318 -0.21666962 0.18790486 -0.15381348 -0.2160052 -0.085793555 -0.06240192
0.20908728 -0.14913037 -0.11124018 -0.23241463 -0.14421237 -0.14721614 -0.23764026 -0.13869783
-0.13125446 -0.14525363 0.0007413924 0.037561715 0.06200275 0.07802057 -0.15560833 0.023345739
-0.049849838 -0.1666097 0.00013321638 0.06326464 -0.0391908 -0.15118235 -0.14575669 0.11040363
0.22151753 -0.0018895268 0.09113878 -0.19840184 0.028539896 0.20356894 -0.14220041 0.22852266
0.1669322 -0.19663873 0.08576906 -0.11781266 -0.06883484 -0.104243755 0.17601186 0.08844131
-0.22108346 -0.017014623 0.1168738 0.12094721 0.02571866 -0.24263826 0.081977844 -0.05431825
0.053635776 -0.13769925 0.04162562 0.16419992 -0.18852943 0.121791065 0.13054597 0.15951249
-0.042205155 -0.08835593 0.23743537 0.029356897 0.03650838 -0.10409936 -0.028897732 -0.05447966
-0.14967299 0.06878936 -0.24498707 0.03382224 0.18524802 0.059205353 0.053687662 -0.12284219
-0.084864944 -0.032201648 0.23675567 0.12477264 -0.18627605 0.23467025 -0.08771345 -0.14730173
0.15623844 -0.045574367 0.11298326 -0.07645461 0.20435515 -0.08523098 -0.0781638 0.021076888
0.14435786 -0.14205638 0.23298335 -0.041154563 -0.14155269 0.0830313 -0.16955373 0.035517365
-0.124953866 0.022374123 -0.017653435 0.044117242 0.00912869 0.23684323 -0.050193965 0.12409568
00000000: 76c8 0cbe 306b 143d 9ccb a93d 145b 2cbe
00000010: c028 c7bc 3c48 723e 2468 4b3e f0ea 7fbe
00000020: 5c06 0dbe 02ed 54be 6022 3cbe 58c5 503e
00000030: 78f4 323e 14ca 213e 7028 813d fcaf c23d
00000040: c84a 3d3e ea1f 353e 0cde 003e 6a4f 323e
00000050: dc12 60be 7051 49be 42d4 2ebe 0cca eabd
00000060: 1ad1 73be 0018 b9bb 184b 783d b0dd d3bc
00000070: aa4a 713e a66b 203e 8a68 393e 04cb e6bd
00000080: 5a2c 363e d6d1 60be b0da e43c b461 a73d
00000090: 3071 40be 5c27 dcbd c04f 77bc 4ac8 2e3e
000000a0: 9097 cf3c 9454 eabd 381e 3f3e 7ae6 543e
000000b0: 1800 7b3e 02ff 343e 505c b2bc 88ca 203d
000000c0: 5051 1b3d 9861 dc3d ce1d 023e 50b4 20bd
000000d0: 2ad8 2d3e bc47 753e 30ce 7ebe a082 e53c
000000e0: 1e4a 713e 707a 173e 781f 50be 84d7 223e
000000f0: c2f6 6fbe 44d6 a63d 1448 633e fed1 3ebe
00000100: a036 4cbe 840f 693e 64ab 543e 742e 73be
00000110: 2067 27bc 8048 51bb e0fd 14bd c493 e53d
00000120: a862 083e 8e57 67be b0fd c93d 40b6 b33c
00000130: 2cef fcbd e04a 3dbc 464c 713e 38a6 1fbe
00000140: a47a 71be 2826 0dbd 7aae 733e fe99 15be
00000150: c0c1 b2bc 40fa e73b 5ce5 9bbd 14b6 b0bd
00000160: 0091 f23a 2cd9 883d 9e17 7fbe c07d a73c
00000170: c865 a9bd 3c82 3e3e c029 3cbd 0816 24be
00000180: c023 8b3c 5e26 2a3e c68c 4cbe 2cdc ed3d
00000190: f087 c8bd 1e00 12be 280d 46bd a471 3a3e
000001a0: 6098 6c3c 9a17 3bbe 6089 603c 6cf6 5a3e
000001b0: 60b9 22bc 08b2 57bd d868 fabd c087 4b3e
000001c0: 60d5 2b3e 30d0 21bd 220c 17be 5a7c 4abe
000001d0: 5a5d 68be 86a7 0c3e c8f4 483e aa70 53be
000001e0: 4012 e0bb fc2e da3d 0480 2bbe ac80 2d3e
000001f0: 528a 283e c043 603c 7c31 293e 0014 2a3a
00000200: 2897 c9bd 8429 b83d deb5 71be de29 093e
00000210: 8816 06be bc7d 24be 44bb a0bd 6022 2ebc
00000220: 5438 be3d 0c1e 823d e4f0 81bd 82e9 423e
00000230: a008 2c3d 5434 5e3e 18a6 5b3e 40bd 0bbc
00000240: 84d3 a8bd 8afe 2bbe a4de 5dbe 226a 403e
00000250: 4881 1dbe 7830 5dbe 88b4 afbd 2899 7fbd
00000260: fa1a 563e a2b5 18be e4d1 e3bd 1afe 6dbe
00000270: 68ac 13be d4bf 16be f857 73be ce06 0ebe
00000280: 9267 06be 5ebd 14be 005a 423a 50da 193d
00000290: 98f6 7d3d 40c9 9f3d ca57 1fbe 903f bf3c
000002a0: 582f 4cbd bc9b 2abe 00b0 0b39 e490 813d
000002b0: 8886 20bd 8ccf 1abe 3e41 15be 4c1b e23d
000002c0: 7ed5 623e 00aa f7ba f8a6 ba3d da29 4bbe
000002d0: 80cc e93c 6074 503e fc9c 11be d801 6a3e
000002e0: 46f0 2a3e aa5b 49be b0a7 af3d c447 f1bd
000002f0: 48f9 8cbd c07d d5bd 743c 343e b820 b53d
00000300: b463 62be 4062 8bbc 885b ef3d 2cb3 f73d
00000310: f0af d23c 2a76 78be 00e4 a73d d07c 5ebd
00000320: 30b1 5b3d 0801 0dbe a07f 2a3d 0624 283e
00000330: dc0d 41be 986d f93d d8ad 053e 3e57 233e
00000340: 50df 2cbd f4f3 b4bd 4222 733e e07d f03c
00000350: d089 153d 0c32 d5bd f0ba ecbc 1026 5fbd
00000360: e043 19be 70e1 8c3d e4dd 7abe 3089 0a3d
00000370: a8b1 3d3e 5081 723d 98e7 5b3d b094 fbbd
00000380: accd adbd e0e5 03bd 1470 723e cc88 ff3d
00000390: 26bf 3ebe 664d 703e 1ca3 b3bd 44d6 16be
000003a0: f8fc 1f3e 30ac 3abd c463 e73d 3c94 9cbd
000003b0: 7a42 513e 948d aebd 5814 a0bd 70a9 ac3c
000003c0: 8cd2 133e 3a77 11be 3093 6e3e b091 28bd
000003d0: 30f3 10be 500c aa3d 7e9f 2dbe a87a 113d
000003e0: d0e7 ffbd f049 b73c f09d 90bc 48b4 343d
000003f0: 8090 153c 0887 723e 3098 4dbd e025 fe3d

fc1.bias f4 [128]
-0.03958252 -0.14212874 0.080556184 -0.10953033 -0.008984029 -0.10810739 -0.07988545 0.16199562
-0.1433196 -0.009309679 -0.12458289 0.23163855 0.14740962 -0.14681289 -0.024207085 0.20974779
-0.14562008 -0.16523239 0.11879265 -0.23249167 0.18947002 -0.034587562 0.03991744 -0.13237801
-0.04316041 0.17409474 0.17112485 0.013164282 -0.06499013 0.029580712 -0.051255316 -0.10526791
-0.053339988 -0.02141288 0.06027651 0.12711966 0.120275915 -0.24755225 -0.24851835 -0.040026575
0.012313694 -0.11201492 0.15195182 0.1563895 -0.12979662 0.22888678 0.18237963 0.11729586
-0.121047914 -0.23879477 0.14067593 0.034289658 0.0021113753 0.17847922 -0.21980667 -0.047867715
0.20960695 0.035649806 -0.20121798 0.012927741 -0.17494676 -0.06172815 0.13906083 -0.20093083
-0.20859641 -0.060288966 -0.19255131 0.14167523 0.15645206 -0.1631903 -0.16599387 0.1293211
-0.036917806 0.11901364 -0.11209956 -0.23241672 0.05049491 -0.22999415 0.008242816 0.017676443
0.09872627 -0.22360018 0.15298775 0.1101338 -0.03349182 0.10440722 0.19325134 -0.23504314
0.13426626 0.10121545 0.11632839 -0.0840438 -0.10512701 -0.11840713 -0.18392378 -0.20217368
0.123797655 -0.14806193 0.24927893 -0.054893017 0.1269035 0.1010679 0.19777516 0.19409367
0.038357466 0.2335999 -0.08001995 0.020920128 -0.023432344 0.20633867 0.046479106 0.20971248
-0.21573797 -0.08174983 0.10786763 0.09705123 0.07938883 0.059155703 0.09533426 0.15547106
0.06662223 0.0043874383 -0.017328352 0.06789479 -0.09098509 -0.055960476 -0.048156023 -0.14521456
00000000: 4821 22bd 328a 11be a4fa a43d 7051 e0bd
00000010: c031 13bc 6867 ddbd fc9a a3bd 2ee2 253e
00000020: 60c2 12be a087 18bc 5025 ffbd a832 6d3e
00000030: 8cf2 163e 1e56 16be f04d c6bc 20c8 563e
00000040: 6e1d 15be ae32 29be 9049 f33d 4c12 6ebe
00000050: 6e04 423e b0ab 0dbd 7880 233d 1a8e 07be
00000060: f8c8 30bd e445 323e 5a3b 2f3e 00af 573c
00000070: 8c19 85bd 4053 f23c 18f1 51bd b496 d7bd
00000080: 087b 5abd 106a afbc 80e4 763d a82b 023e
00000090: 3853 f63d 567e 7dbe 987b 7ebe e8f2 23bd
000000a0: 60bf 493c 1468 e5bd 4299 1b3e 9224 203e
000000b0: 68e9 04be 4c61 6a3e bac1 3a3e d038 f03d
000000c0: f8e7 f7bd 9e86 74be 5a0d 103e 5073 0c3d
000000d0: 005f 0a3b 42c3 363e 0015 61be f010 44bd
000000e0: 34a3 563e 8805 123d 160c 4ebe e0ce 533c
000000f0: 3e25 33be a8d6 7cbd f665 0e3e d0c0 4dbe
00000100: 4c9a 55be 90f1 76bd 2c2c 45be 5013 113e
00000110: f834 203e 5c1b 27be 4cfa 29be c06c 043e
00000120: 2037 17bd 6cbd f33d 7494 e5bd a6fe 6dbe
00000130: c0d3 4e3d 9683 6bbe e00c 073c 30ce 903c
00000140: 0031 ca3d 72f7 64be d2a8 1c3e d48d e13d
00000150: b82e 09bd 74d3 d53d aee3 453e 26af 70be
00000160: 187d 093e 0c4a cf3d 943d ee3d 281f acbd
00000170: d44c d7bd 707f f2bd 8456 3cbe 9e06 4fbe
00000180: a089 fd3d 8c9d 17be fa42 7f3e 80d7 60bd
00000190: fef2 013e b0fc ce3d 9285 4a3e 7ec0 463e
000001a0: b81c 1d3d d034 6f3e 80e1 a3bd b060 ab3c
000001b0: 30f5 bfbc 724a 533e e060 3e3d debe 563e
000001c0: 6aea 5cbe 746c a7bd b4e9 dc3d ccc2 c63d
000001d0: 9c96 a23d 404d 723d 9c3e c33d ce33 1f3e
000001e0: 3c71 883d 80c4 8f3b 30f4 8dbc 6c0c 8b3d
000001f0: 6456 babd d036 65bd 403f 45bd 20b3 14be

fc2.weight f4 [128, 128]
0.042083792 0.045423783 0.070650764 -0.0763833 0.0788955 0.076648705 -0.034201797 0.06100627
-0.028420672 0.08140316 0.0054195374 0.067761086 0.07708662 0.0487734 -0.029126663 -0.0155762285
0.005000241 0.0130330995 -0.058203943 -0.017037325 0.05674807 0.024925753 0.028612062 -0.06670912
-0.0071667656 -0.015798219 -0.037643816 -0.017125107 -0.026303153 0.0024481341 0.06397053 -0.010361001
-0.024930619 0.024578981 -0.051583264 0.07155327 -0.04888261 0.071246736 0.02491986 -0.06373795
0.06652213 0.008692943 0.01941333 -0.05502254 -0.024098799 -0.063248836 -0.027055338 -0.00891076
-0.081092305 0.057329573 -0.046065766 0.026449278 -0.062396795 0.017386101 0.059270866 -0.05120433
0.023623265 0.06540727 0.035350956 0.08394983 0.08604812 0.07316101 0.08613553 0.084078945
-0.076109715 0.060716905 -0.08364158 0.06595305 0.08560809 -0.02263739 -0.07347033 0.03240393
-0.008043714 0.030220963 -0.07926033 -0.028512765 0.024656095 -0.043055218 0.029478885 -0.023810305
0.04952755 -0.052214738 -0.032315884 -0.0782008 -0.06496141 -0.085252434 -0.057284437 0.039889835
-0.06371911 -0.0466216 -0.012545213 0.07832267 -0.01019901 0.03242342 -0.005077265 0.07359361
0.016051754 -0.062178392 -0.065247916 -0.004518248 -0.000725992 0.08453619 -0.007097274 -0.051919583
-0.012772687 -0.086030416 -0.00031355023 -0.051626906 -0.086354986 0.03481496 0.010269403 -0.022907339
0.0836995 0.044847973 -0.038630072 0.06445501 0.05974313 -0.08048375 -0.082356185 -0.039575733
-0.06912532 0.015444003 0.06763963 -0.04082428 -0.055080008 0.08809654 0.03220254 0.05989515
0.04579916 0.047006406 -0.060321115 0.044005282 0.0071594715 -0.002354689 0.065313004 -0.028402802
-0.050629437 -0.012664773 -0.07391754 0.085161276 -0.060047075 -0.046821576 0.023165666 -0.03039363
0.064469524 -0.084868275 -0.083968535 0.0365239 0.013556093 -0.0011966825 0.048580475 0.069912784
-0.041162763 -0.023515336 0.022102535 0.002796203 -0.083105184 -0.056011863 -0.046349984 -0.052496817
-0.08651848 0.06472064 0.04322783 -0.038691733 0.011219256 0.077801384 0.044737883 0.06776381
0.03295792 0.026024453 -0.0696083 -0.04830501 -0.08547542 -0.085987285 -0.039582253 -0.032935582
-0.03206393 0.015569732 0.057192244 -0.025303565 0.016189776 0.0093932375 -0.0060425326 0.026780136
-0.06081215 -0.034067214 0.081375904 0.0518715 -0.0058914945 -0.071220145 -0.025187522 -0.064965144
0.025044478 -0.077677906 0.059846886 -0.027663127 0.061704956 -0.08528751 0.084568776 0.058669575
0.04166972 -0.08701961 -0.01508265 0.015171781 -0.02961526 0.058880754 -0.07861069 0.025074512
0.059509553 -0.045663748 -0.06268994 0.011876635 0.042318784 -0.054567482 0.029591933 -0.0852715
-0.013060704 -0.060297072 0.035150327 -0.03840467 -0.043263298 -0.04471649 0.03813819 0.02656538
0.06959086 0.039391704 -0.030853685 0.043820642 -0.0848588 0.04029482 0.033375435 -0.07652623
0.0875364 0.022586524 -0.002442591 0.009852752 0.042295955 0.06435738 0.048890106 0.06242863
0.041945823 -0.08145798 -0.025943756 0.023902826 0.0005640313 -0.07221836 0.014078595 -0.0021119788
-0.057678003 -0.017327689 -0.0126365945 -0.079914756 -0.020676687 0.024676308 0.028588459 0.047397904
00000000: 0e60 2c3d 4a0e 3a3d 59b1 903d d96e 9cbd
00000010: f793 a13d fff9 9c3d 2f17 0cbd b6e1 793d
00000020: 78d2 e8bc b3b6 a63d 6096 b13b 53c6 8a3d
00000030: 97df 9d3d 9ec6 473d 0a9b eebc 7033 7fbc
00000040: 10d9 a33b c888 553c 4267 6ebd dc91 8bbc
00000050: aa70 683d 1831 cc3c d863 ea3c cb9e 88bd
00000060: 30d7 eabb 446b 81bc 6730 1abd f449 8cbc
00000070: b679 d7bc e070 203b fb02 833d 30c1 29bc
00000080: 4c3b ccbc dc59 c93c f948 53bd 858a 923d
00000090: 2239 48bd cfe9 913d bc24 cc3c 0b89 82bd
000000a0: c13c 883d d86c 0e3c b408 9f3c 515f 61bd
000000b0: d86a c5bc 9b88 81bd 28a3 ddbc 70fe 11bc
000000c0: b913 a6bd 6ad2 6a3d 75af 3cbd 28ac d83c
000000d0: c893 7fbd 4c6d 8e3c 02c6 723d a2bb 51bd
000000e0: 9485 c13c 3ff4 853d 2acc 103d e3ed ab3d
000000f0: ff39 b03d 71d5 953d d367 b03d 9531 ac3d
00000100: 69df 9bbd 4ab2 783d 474c abbd 6512 873d
00000110: 4b53 af3d 0c72 b9bc 9d77 96bd fcb9 043d
00000120: c8c9 03bc f491 f73c 3d53 a2bd 9a93 e9bc
00000130: 94fb c93c ab5a 30bd b47d f13c d40d c3bc
00000140: 66dd 4a3d 1fdf 55bd a95d 04bd be27 a0bd
00000150: 7d0a 85bd d498 aebd 16a3 6abd 8663 233d
00000160: 2a7f 82bd 4af6 3ebd 708a 4dbc a367 a03d
00000170: c019 27bc 6cce 043d 305f a6bb 3fb8 963d
00000180: f87e 833c c5ae 7ebd b3a0 85bd d00d 94bb
00000190: 8050 3eba 4f21 ad3d 4090 e8bb a1a9 54bd
000001a0: 8844 51bc b730 b0bd 0064 a4b9 bc76 53bd
000001b0: e2da b0bd 229a 0e3d 0041 283c 2ca8 bbbc
000001c0: a56a ab3d 82b2 373d 913a 1ebd fd00 843d
000001d0: 36b5 743d aad4 a4bd 5caa a8bd 2a1a 22bd
000001e0: 9391 8dbd d808 7d3c a586 8a3d 5c37 27bd
000001f0: 939b 61bd f56b b43d d0e6 033d 9e54 753d
00000200: e697 3b3d ca89 403d 4613 77bd e23e 343d
00000210: 009a ea3b 2051 1abb d3c2 853d feac e8bc
00000220: d060 4fbd e87f 4fbc 1462 97bd 0969 ae3d
00000230: ecf3 75bd fbc7 3fbd ecc5 bd3c 10fc f8bc
00000240: 9908 843d 6bcf adbd b2f7 abbd 169a 153d
00000250: 601a 5e3c 00da 9cba 52fc 463d 6f2e 8f3d
00000260: 499a 28bd 3ca3 c0bc 6010 b53c 8040 373b
00000270: 0d33 aabd b26c 65bd 7bd9 3dbd e706 57bd
00000280: 9a30 b1bd 418c 843d aa0f 313d 397b 1ebd
00000290: f8d0 373c 5556 9f3d 123f 373d c1c7 8a3d
000002a0: e2fe 063d 3c31 d53c cc8e 8ebd 79db 45bd
000002b0: bd0d afbd 1a1a b0bd 0021 22bd 76e7 06bd
000002c0: 7855 03bd 3018 7f3c 6a42 6a3d 6c49 cfbc
000002d0: 6ca0 843c 18e6 193c 7000 c6bb 0462 db3c
000002e0: 2916 79bd 108a 0bbd 69a8 a63d 3677 543d
000002f0: 700d c1bb dedb 91bd 1056 cebc 720c 85bd
00000300: 142a cd3c 9815 9fbd 0222 753d c89d e2bc
00000310: 56be 7c3d 38ab aebd 6532 ad3d 824f 703d
00000320: dead 2a3d 5637 b2bd 381d 77bc 1093 783c
00000330: b49b f2bc f22c 713d a4fe a0bd 1069 cd3c
00000340: 4ac0 733d e909 3bbd 9563 80bd 3896 423c
00000350: 7656 2d3d 2782 5fbd c86a f23c d3a2 aebd
00000360: 90fc 55bc 10fa 76bd caf9 0f3d 374e 1dbd
00000370: db34 31bd a328 37bd ca36 1c3d a49f d93c
00000380: a785 8e3d 3259 213d dec0 fcbc 467d 333d
00000390: 73ca adbd 2e0c 253d aeb4 083d c9b9 9cbd
000003a0: 4946 b33d 6007 b93c e013 20bb 706d 213c
000003b0: 863e 2d3d cdcd 833d fe40 483d 2ab5 7f3d
000003c0: 62cf 2b3d 71d3 a6bd 0088 d4bc dccf c33c
000003d0: 80db 133a 38e7 93bd e8a9 663c 2069 0abb
000003e0: c53f 6cbd ccf2 8dbc b809 4fbc 59aa a3bd
000003f0: 2862 a9bc f825 ca3c 5832 ea3c 4e24 423d

fc2.bias f4 [128]
-0.021219999 0.036648013 0.05341337 -0.025968265 0.03947247 0.023795627 0.08534569 0.06590354
0.07350852 -0.07545515 -0.02423603 0.043815963 -0.05306265 0.023994192 -0.031030543 0.087130435
0.07350171 -0.0169679 0.06771848 0.04971773 -0.027318671 0.07069153 0.018937275 -0.04364031
0.04529702 -0.009742938 -0.07336796 -0.04688093 -0.059125833 0.01389192 -0.057954326 -0.029135663
-0.03727071 0.02271951 0.019239552 0.020290293 0.024321511 0.027197726 -0.033706795 0.010711513
0.06509406 -0.008241177 -0.028833967 -0.020211183 -0.010439873 -0.05401043 0.045366727 0.013845757
-0.053708095 0.06594353 -0.026682284 0.038811646 -0.040397808 0.012175716 -0.045280043 0.021952473
-0.07894563 -0.042866454 -0.015871808 -0.034885548 0.05152995 0.026500002 -0.06787103 0.07943977
-0.055825945 -0.02350235 0.07158435 -0.0063412264 0.04738968 0.037342004 -0.054817148 0.059945233
0.027281255 0.07041783 0.065010466 -0.048209336 0.07202346 -0.03530514 -0.06883094 -0.018333077
-0.06854737 0.040625773 -0.05758532 0.06130954 0.009487793 0.034443602 0.0461848 0.057139717
-0.05899955 0.031912394 -0.031254437 -0.0034647956 -0.087780364 0.056484304 -0.0111361 0.0033992827
-0.062796816 0.05472187 0.0580338 -0.004159555 -0.013668694 0.05439944 0.013391495 -0.057367854
-0.056899574 0.022034153 -0.054159604 0.058728047 0.06523796 0.07504373 0.015657224 -0.06900616
-0.010115705 -0.06904834 0.03527224 -0.0494019 -0.032657526 -0.056287926 0.08170592 0.06789336
0.074157216 0.059447028 -0.054458257 0.05911327 -0.03149356 0.058717825 0.053475283 0.011835583
00000000: 90d5 adbc 3a1c 163d fac7 5a3d 66bb d4bc
00000010: e2ad 213d 0cef c23c b9c9 ae3d 6ff8 863d
00000020: a38b 963d 3b88 9abd a48a c6bc 5e78 333d
00000030: 3958 59bd 788f c43c c433 febc 7171 b23d
00000040: 1188 963d 4400 8bbc fdaf 8a3d d2a4 4b3d
00000050: 68cb dfbc b9c6 903d 5822 9b3c 2fc0 32bd
00000060: 5e89 393d d8a0 1fbc f141 96bd 3806 40bd
00000070: ee2d 72bd f09a 633c 8461 6dbd eaad eebc
00000080: 2ca9 18bd 441e ba3c 449c 9d3c d437 a63c
00000090: e83d c73c c4cd de3c 2310 0abd 587f 2f3c
000000a0: 0950 853d 0006 07bc 3635 ecbc ec91 a5bc
000000b0: 000c 2bbc 0a3a 5dbd 76d2 393d 50d9 623c
000000c0: 05fd 5bbd 670d 873d ce94 dabc f6f8 1e3d
000000d0: 2c78 25bd a87c 473c 9177 39bd acd5 b33c
000000e0: 3fae a1bd bc94 2fbd 9805 82bc 26e4 0ebd
000000f0: 1211 533d 8816 d93c f7ff 8abd 51b1 a23d
00000100: bfa9 64bd 0088 c0bc d19a 923d 10ca cfbb
00000110: ae1b 423d eef3 183d f287 60bd 2289 753d
00000120: f07c df3c 3937 903d 3524 853d 2777 45bd
00000130: 0981 933d 1f9c 10bd 3cf7 8cbd 402f 96bc
00000140: 9062 8cbd 3667 263d 96de 6bbd b61f 7b3d
00000150: b072 1b3c bc14 0d3d 462c 3d3d 560b 6a3d
00000160: 83a9 71bd 92b6 023d a704 00bd a011 63bb
00000170: 31c6 b3bd 165c 673d 3074 36bc 80c6 5e3b
00000180: 9e9b 80bd 0a24 603d dab4 6d3d e04c 88bb
00000190: a8f2 5fbc f2d1 5e3d 0068 5b3c 8efa 6abd
000001a0: 870f 69bd f880 b43c 76d6 5dbd d28c 703d
000001b0: 7b9b 853d 87b0 993d 9443 803c 1a53 8dbd
000001c0: 58bc 25bc 3769 8dbd a079 103d a659 4abd
000001d0: e6c3 05bd 2b8e 66bd 6f55 a73d ad0b 8b3d
000001e0: bddf 973d ba7e 733d 9f0f 5fbd c220 723d
000001f0: 64ff 00bd 1a82 703d e608 5b3d 08ea 413c

fc3.weight f4 [2, 128]
-0.0698566 0.04962396 0.06520357 0.04492078 -0.021491446 -0.06506425 0.018485934 -0.0041086674
-0.081932195 -0.016905636 -0.038373135 0.07453569 0.008318432 -0.04699835 -0.061848737 -0.030037701
-0.0695255 -0.07806126 -0.001460433 -0.011352636 0.08642159 -0.018123768 0.031118736 0.0010308698
-0.017876111 -0.035436805 -0.015361391 0.068988346 -0.044234253 0.088034086 -0.04417137 -0.01690171
0.017881192 0.07582215 -0.072918735 0.08751429 0.07997813 -0.033368103 -0.00028612465 0.011679016
0.023282185 0.032934576 -0.001961179 -0.042610254 0.029776372 -0.076967895 -0.07909779 -0.008130886
-0.022148661 0.064555295 0.019878447 -0.0073288307 -0.08710548 -0.056139916 -0.07748759 0.024390794
0.07859207 0.07675619 0.03743089 -0.008889183 0.017159171 0.057648756 -0.08018245 0.053050913
0.04398062 0.0293158 0.05511806 -0.040854298 -0.06405129 -0.0634477 -0.043385155 0.08657736
0.06469389 0.084887065 0.030747794 0.06277361 -0.07539254 0.011503227 -0.07546782 -0.08539482
0.07167763 0.004474625 0.017024294 0.011357069 0.060319595 -0.011133477 -0.024958923 -0.0667668
0.05173803 -0.036963027 0.045528315 0.041285582 0.022933342 0.033604674 0.01928068 -0.037185807
-0.043648247 0.02397921 0.0317211 -0.048706837 0.033298425 0.0235539 0.02413354 -0.07793844
0.023392245 -0.027613025 0.085027285 -0.0052524954 0.025805071 0.07186235 0.006891474 0.054123454
-0.020401202 -0.017161943 0.07215615 -0.030180208 0.0030145645 0.032009058 -0.008251734 0.0513997
0.04662084 -0.031538814 0.056862004 -0.08799047 -0.075391926 0.0489318 -0.008632317 0.06788533
0.024681486 -0.028356072 -0.04027205 -0.06133081 0.026833951 -0.014528029 -0.032031205 -0.06885974
0.0045885593 0.06815336 -0.032365143 0.05018755 -0.027695686 0.027550533 -0.006030157 -0.03085395
-0.086628705 -0.076424375 0.034045957 -0.037571903 0.022943519 0.007313624 0.08169339 -0.048439045
0.059036873 -0.04890286 0.07374772 -0.085787855 -0.07561731 0.04531119 0.06851178 -0.02982977
0.08530662 0.05389876 -0.041880786 -0.030602846 -0.06436639 -0.05887136 -0.07047002 -0.0870892
-0.04246145 -0.07471457 0.03537085 0.035200194 -0.01378838 -0.077330254 0.0130075365 0.05496026
0.002071254 -0.078358755 -0.074558616 0.035363294 -0.028751493 0.0036665127 -0.083194084 -0.057458974
0.020439737 -0.041236088 0.022957496 0.028488636 -0.07738525 0.009692699 0.0021634325 0.023649544
0.038411386 0.0029430538 0.020967625 0.06845776 0.052207522 0.036151044 0.06998969 -0.06662837
-0.019118018 -0.08676268 0.03418736 0.011458822 -0.032464124 0.05395145 -0.009212427 0.080715634
0.02679386 0.049656965 -0.01378376 -0.044465546 0.08700708 0.054011606 -0.0069197565 -0.043774664
-0.06772666 0.01654993 0.0040919185 0.080122165 0.06660318 0.025984004 0.041809596 0.012655847
0.06302481 0.0664516 0.012973219 0.0015942454 0.057058595 -0.030915197 -0.065462865 -0.05274033
0.060085528 -0.019613318 0.031767406 0.08622942 0.0864569 -0.033304 0.07612341 0.031496584
0.059550487 -0.0069348216 -0.04519748 0.07653833 0.011636816 0.08375377 0.07167608 0.005604148
0.03225451 -0.02699785 0.077597894 -0.060013108 -0.017289877 -0.08401032 0.04307296 0.0350027
00000000: fa10 8fbd 7e42 4b3d 7389 853d dafe 373d
00000010: d40e b0bc 6840 85bd d06f 973c 00a2 86bb
00000020: 11cc a7bd b07d 8abc 262d 1dbd 2ba6 983d
00000030: 084a 083c 5881 40bd 1a55 7dbd a011 f6bc
00000040: 6363 8ebd 95de 9fbd 006c bfba 6800 3abc
00000050: cdfd b03d 4c78 94bc b8ec fe3c 401e 873a
00000060: ec70 92bc 2f26 11bd 58ae 7bbc c349 8d3d
00000070: fa2e 35bd 374b b43d 0aed 34bd 7475 8abc
00000080: 947b 923c a548 9b3d 6b56 95bd b13a b33d
00000090: 93cb a33d feac 08bd 0003 96b9 5859 3f3c
000000a0: 48ba be3c 68e6 063d 2087 00bb 1788 2ebd
000000b0: 94ed f33c 58a1 9dbd 06fe a1bd 6837 05bc
000000c0: 1c71 b5bc 9135 843d 20d8 a23c b026 f0bb
000000d0: 5c64 b2bd f8f2 65bd d0b1 9ebd 34cf c73c
000000e0: e1f4 a03d 5932 9d3d 2251 193d f0a3 11bc
000000f0: 6491 8c3c 1a21 6c3d b236 a4bd ea4b 593d
00000100: 0625 343d b027 f03c 7ac3 613d d656 27bd
00000110: 532d 83bd def0 81bd a2b4 31bd 794f b13d
00000120: 3b7e 843d 45d9 ad3d cce2 fb3c 738f 803d
00000130: 6767 9abd 0878 3c3c df8e 9abd 7be3 aebd
00000140: b9cb 923d e09f 923b 8876 8b3c 0013 3a3c
00000150: ae11 773d 3069 36bc a876 ccbc 08bd 88bd
00000160: 42eb 533d 8b66 17bd e67b 3a3d 121b 293d
00000170: b4de bb3c 0ea5 093d 84f2 9d3c 2550 18bd
00000180: 81c8 32bd 0c70 c43c fced 013d d280 47bd
00000190: ee63 083d 1cf4 c03c b4b3 c53c 309e 9fbd
000001a0: 18a1 bf3c b634 e2bc c922 ae3d 201d acbb
000001b0: 2865 d33c 912c 933d e0d1 e13b 8eb0 5d3d
000001c0: 6c20 a7bc 3497 8cbc 9bc6 933d 7c3c f7bc
000001d0: 0090 453b ee1b 033d 4832 07bc 7e88 523d
000001e0: 7ef5 3e3d d82e 01bd 22e8 683d 5934 b4bd
000001f0: 1567 9abd b66c 483d 906e 0dbc 7707 8b3d
00000200: d430 ca3c fe4a e8bc 4ef4 24bd 0436 7bbd
00000210: e0d2 db3c f806 6ebc 2733 03bd 5606 8dbd
00000220: a05b 963b fd93 8b3d 5091 04bd 7691 4d3d
00000230: 10e2 e2bc a8b1 e13c a098 c5bb 6cc1 fcbc
00000240: 646a b1bd 6284 9cbd c673 0b3d ffe4 19bd
00000250: 0cf4 bb3c 20a7 ef3b dd4e a73d 0568 46bd
00000260: a6d0 713d 5e4e 48bd 0b09 973d 8bb1 afbd
00000270: 40dd 9abd 3a98 393d e74f 8c3d 905d f4bc
00000280: 3db5 ae3d f2c4 5c3d 308b 2bbd d2b2 fabc
00000290: 87d2 83bd 1823 71bd 9652 90bd d35b b2bd
000002a0: 0fec 2dbd f403 99bd 06e1 103d 142e 103d
000002b0: a8e8 61bc 535f 9ebd 901d 553c 021e 613d
000002c0: e0bd 073b 8e7a a0bd 30b2 98bd 1ad9 103d
000002d0: 4088 ebbc e049 703b a961 aabd 1a5a 6bbd
000002e0: 3c71 a73c 2ce7 28bd 5c11 bc3c 0061 e93c
000002f0: 287c 9ebd 20ce 1e3c 60c8 0d3b b0bc c13c
00000300: 4255 1d3d 40e0 403b 4cc4 ab3c 9533 8c3d
00000310: 8ed7 553d 1e13 143d c156 8f3d 7474 88bd
00000320: 649d 9cbc a2b0 b1bd 0c08 0c3d c8bd 3b3c
00000330: 1af9 04bd 32fc 5c3d b8ef 16bc 3d4e a53d
00000340: cc7e db3c 1a65 4b3d 48d5 61bc 8121 36bd
00000350: c530 b23d 463b 5d3d 20bf e2bb 104d 33bd
00000360: 46b4 8abd b893 873c 8015 863b 1717 a43d
00000370: 3f67 883d 68dc d43c 8a40 2b3d 785a 4f3c
00000380: 2713 813d c717 883d a08d 543c 00f6 d03a
00000390: 46b6 693d de41 fdbc 6511 86bd 3f06 58bd
000003a0: 3e1c 763d 1cac a0bc 8a1e 023d 0d99 b03d
000003b0: 5110 b13d c669 08bd 97e6 9b3d 9002 013d
000003c0: 36eb 733d 803d e3bb fe20 39bd 21c0 9c3d
000003d0: 58a8 3e3c 1987 ab3d e9ca 923d 00a3 b73b
000003e0: 4e1d 043d 982a ddbc a5eb 9e3d 4ed0 75bd
000003f0: 80a3 8dbc 9a0d acbd 466d 303d fe5e 0f3d

fc3.bias f4 [2]
0.03380207 -0.0070791095
00000000: 0a74 0a3d e0f7 e7bb

fc1.weight f4 [128, 16]
-0.85182345 0.49940458 0.8485593 0.36154902 0.42865336 -0.20472729 -0.7011827 0.32836935
0.6544815 0.7163673 0.13884881 -0.5288789 -0.006334307 0.037025657 0.12823878 -0.32458517
-0.51697135 0.5766828 0.31219128 -0.0075927046 0.5590029 0.020146452 -0.22716227 0.29839212
0.31554657 0.4509583 -0.30044267 -0.10579462 -0.040398736 -0.25175917 0.15324664 0.46393225
-0.63308793 0.741116 0.6018987 0.17108698 0.73920256 0.13766919 -0.7326698 0.58131754
0.45696598 0.7242122 0.10995337 -0.4517835 0.15533692 -0.16055968 0.05151875 0.08820261
-0.45754042 0.73115486 0.4171706 0.16614918 0.18696989 0.20306507 -0.7249514 0.2741173
0.44635263 0.87306935 0.10201473 -0.6035089 0.072154544 -0.08484612 -0.26328638 -0.10180436
-0.7881217 0.5926322 0.64704233 0.18510607 0.69415665 0.23786104 -0.6651274 0.7872592
0.38127896 0.56617856 -0.16504179 -0.7171335 -0.15116209 0.07986458 0.32341123 0.040205378
-0.17787114 0.15076101 0.5025057 -0.04712165 0.18259335 0.13015795 -0.44162735 0.117873244
0.40334752 0.4185654 -0.114914455 -0.5198578 -0.2390348 0.10169538 0.15663852 -0.04031274
-0.51965106 0.5251037 0.68326926 -0.040819444 0.9549152 0.12354499 -0.8146619 0.9019959
0.8667659 0.84452397 -0.2983732 -0.7406718 0.088271156 -0.044175014 0.4762238 0.18696372
-0.26342273 0.4671432 0.2732481 -0.3195928 0.36303878 0.06574375 -0.28983364 0.42829463
0.5057623 0.38011262 -0.3311883 -0.31236815 -0.21937737 -0.21307647 -0.08918946 0.20523867
-0.820044 0.38690358 0.3636672 -0.08037828 0.4636596 0.13414988 -0.6892713 0.7794114
0.7669547 0.6526215 0.062437322 -0.8065688 0.08056553 -0.10321922 0.33780834 -0.019587949
-0.42836607 0.6723048 0.5653296 -0.04751276 0.033965327 -0.012454833 -0.50958055 0.57755125
0.70617586 0.37324086 0.017670957 -0.7176081 -0.014038948 -0.17662178 0.1178045 -0.19070609
-0.67917824 0.8455308 0.48639658 0.15313284 0.36798358 -0.04589092 -0.79040873 0.381002
0.84335697 0.37578335 0.16878481 -0.83449733 0.008115448 -0.11898533 -0.09793246 -0.1942285
-0.5738091 0.51635873 0.4705758 0.17818914 0.7447102 -0.007904298 -0.8317009 0.66638774
0.6042769 0.78327847 0.3868049 -0.63774306 0.0011252777 0.013763388 -0.2357978 0.064304985
-0.47943792 0.6198131 0.6938672 0.26692972 0.6019957 -0.03462799 -0.7682379 0.8586715
0.4700717 0.4884163 -0.07195904 -0.6240878 -0.2206649 -0.067168854 0.5019051 0.10433252
-0.2956882 0.31816623 0.21881172 -0.05401262 0.3657595 -0.19506961 -0.4061124 0.27706695
0.46542564 0.55525047 0.08589066 -0.23469171 -0.2725177 -0.18448429 0.00047833362 0.25180605
-0.32498187 0.4368282 0.30145767 -0.13580976 0.57121396 0.137653 -0.13868561 0.2788497
0.5118645 0.4214378 -0.48429444 -0.44541535 -0.09307244 -0.19959933 0.3129185 0.416865
-0.38591373 0.80062354 0.3746458 0.30375466 0.5706467 -0.0913273 -0.8592566 0.46469843
0.73350847 0.785032 -0.25934702 -0.7815593 -0.13754882 0.1973398 0.17272711 0.27022967
00000000: 1a11 5abf f5b1 ff3e 2f3b 593f f41c b93e
00000010: 7478 db3e 08a4 51be b680 33bf 0720 a83e
00000020: 198c 273f d963 373f 622e 0e3e 9c64 07bf
00000030: 0590 cfbb 37a8 173d 0751 033e 0730 a6be
00000040: 3c58 04bf 7ca1 133f 89d7 9f3e 39cc f8bb
00000050: d01a 0f3f 2c0a a53c 3a9d 68be dac6 983e
00000060: 528f a13e 02e4 e63e 9fd3 99be daaa d8bd
00000070: 2579 25bd 94e6 80be b0ec 1c3e 8788 ed3e
00000080: 0d12 22bf c7b9 3d3f 0916 1a3f 6d31 2f3e
00000090: 613c 3d3f 27f9 0c3e 3f90 3bbf 3ad1 143f
000000a0: 72f7 e93e f965 393f 3c2f e13d 2b50 e7be
000000b0: a410 1f3e c269 24be 5305 533d 92a3 b43d
000000c0: bd42 eabe f72c 3b3f 6397 d53e 0323 2a3e
000000d0: 0975 3f3e 4af0 4f3e 6a96 39bf 1a59 8c3e
000000e0: 5588 e43e 7981 5f3f 19ed d03d 8f7f 1abf
000000f0: c3c5 933d cdc3 adbd 79cd 86be ce7e d0bd
00000100: 58c2 49bf beb6 173f 91a4 253f 728c 3d3e
00000110: 40b4 313f d891 733e ca45 2abf d289 493f
00000120: ff36 c33e 14f1 103f b700 29be 1096 37bf
00000130: 3cca 1abe 0a90 a33d 2896 a53e 65ae 243d
00000140: da23 36be 1861 1a3e 37a4 003f a202 41bd
00000150: c0f9 3a3e 2048 053e fb1c e2be 8767 f13d
00000160: 9183 ce3e 344e d63e 4558 ebbd 6715 05bf
00000170: 8ac5 74be ab45 d03d d965 203e f91e 25bd
00000180: da07 05bf 326d 063f bcea 2e3f 4a32 27bd
00000190: 5375 743f 2805 fd3d af8d 50bf 34e9 663f
000001a0: 5fe4 5d3f b932 583f 5fc4 98be ab9c 3dbf
000001b0: 82c7 b43d dcf0 34bd 9bd3 f33e 6b73 3f3e
000001c0: 58df 86be 652d ef3e 2de7 8b3e aba1 a3be
000001d0: 38e0 b93e a9a4 863d 1365 94be 6f49 db3e
000001e0: a379 013f 1f9e c23e 8391 a9be b8ee 9fbe
000001f0: 76a4 60be b830 5abe f7a8 b6bd 162a 523e
00000200: 67ee 51bf 3a18 c63e 9632 ba3e 5e9d a4bd
00000210: cb64 ed3e 965e 093e 1574 30bf 8187 473f
00000220: 2557 443f 3412 273f 47be 7f3d 4b7b 4ebf
00000230: 8aff a43d 9964 d3bd 37f5 ac3e e876 a0bc
00000240: cc52 dbbe 2b1c 2c3f 71b9 103f bd9c 42bd
00000250: 3a1f 0b3d 5b0f 4cbc df73 02bf 66da 133f
00000260: f1c7 343f 6d19 bf3e afc2 903c 2ab5 37bf
00000270: 9e03 66bc 57dc 34be 7c43 f13d 7548 43be
00000280: a0de 2dbf b574 583f f908 f93e dbce 1c3e
00000290: 5868 bc3e 1ef8 3bbd 3a58 4abf b212 c33e
000002a0: 3ee6 573f ad66 c03e edd5 2c3e 9ea1 55bf
000002b0: a8f6 043c 95ae f3bd d090 c8bd d6e3 46be
000002c0: 27e5 12bf 1630 043f 50ef f03e 3777 363e
000002d0: 54a5 3e3f 0781 01bc 5aea 54bf 6398 2a3f
000002e0: e4b1 1a3f f084 483f 4b0b c63e 2143 23bf
000002f0: 0e7e 933a d57f 613c fa74 71be 55b2 833d
00000300: e378 f5be 12ac 1e3f 48a1 313f 03ab 883e
00000310: 641c 1a3f 14d6 0dbd 3dab 44bf e5d1 5b3f
00000320: 3dad f03e b411 fa3e 435f 93bd 38c4 1fbf
00000330: fbf5 61be d38f 89bd da7c 003f 4aac d53d
00000340: 7264 97be afe6 a23e 2e10 603e 563c 5dbd
00000350: d444 bb3e 54c0 47be f7ed cfbe b8db 8d3e
00000360: 454c ee3e e524 0e3f 71e7 af3d 0653 70be
00000370: 7187 8bbe 73e9 3cbe dac8 fa39 b9ec 803e
00000380: 0664 a6be f2a7 df3e a958 9a3e b711 0bbe
00000390: 143b 123f e8f4 0c3e 9a03 0ebe 63c5 8e3e
000003a0: 8d09 033f b2c6 d73e 71f5 f7be 7b0d e4be
000003b0: c39c bebd c463 4cbe db36 a03e 546f d53e
000003c0: 7c96 c5be aaf5 4c3f 93d1 bf3e bb85 9b3e
000003d0: e715 123f cf09 bbbd 3ef8 5bbf f4ec ed3e
000003e0: 36c7 3b3f dbf7 483f 22c9 84be 4514 48bf
000003f0: 99d9 0cbe 7213 4a3e 60df 303e 8b5b 8a3e

fc1.bias f4 [128]
0.7225059 0.30933484 0.4884686 0.5826294 0.44128457 0.48659924 0.6046022 0.3509952
0.6651457 0.82114804 0.62460744 0.6635625 0.7532536 0.27269474 0.5094547 0.8176525
0.82163274 0.83708864 0.4586569 0.6844348 0.56877935 0.43878937 0.34174895 0.4823034
0.4738246 0.42340386 0.41281673 0.72422326 0.31135103 0.51692647 0.1538382 0.24135222
0.7799265 0.78073007 0.094438545 0.86190695 0.66277045 0.6147501 0.25542718 0.8902311
0.4283871 0.54364 0.619484 0.23730788 0.19898048 0.24441637 0.22182961 0.3429827
0.16276655 0.3963995 0.5111775 0.5106967 0.7677341 0.6708883 0.4649289 0.5153595
0.7490542 0.46390224 0.5507732 0.6764548 0.56416863 0.46700442 0.4755098 0.40020943
0.59400165 0.39933887 0.39770666 0.36159465 0.58886015 0.55700654 0.5368695 0.41643298
0.8292055 0.3267548 0.35001594 0.8837464 0.44556224 0.6761075 0.65259033 0.5767295
0.75401187 0.52695936 0.87318355 0.5111941 0.4447618 0.5936338 0.70773405 0.49618018
0.87305707 0.6592454 0.5320111 0.5101061 0.6465532 0.8753504 0.80229294 0.82141083
0.80779403 0.7702832 0.5498955 0.7271546 0.50145924 0.6967103 0.42822748 0.53576803
0.7532997 0.591277 0.25233755 0.39071172 0.118114606 0.40073523 0.36109412 0.5770996
0.48849994 0.5005136 0.82729656 0.8575482 0.7820439 0.36266747 0.88951164 0.8600097
0.5304781 0.742908 0.65722597 0.46234512 0.38827476 0.33746967 0.41744873 0.47788963
00000000: 26f6 383f 2361 9e3e 8e18 fa3e 3327 153f
00000010: 0df0 e13e 8923 f93e 36c7 1a3f a5b5 b33e
00000020: fd46 2a3f c236 523f 46e6 1f3f 3bdf 293f
00000030: 3ad5 403f a59e 8b3e a06b 023f ad51 513f
00000040: 8656 523f 714b 563f 14d5 ea3e 1e37 2f3f
00000050: 869b 113f 00a9 e03e b8f9 ae3e 79f0 f63e
00000060: 2399 f23e 64c8 d83e b75c d33e b266 393f
00000070: 6769 9f3e 4b55 043f c387 1d3e 0925 773e
00000080: 43a9 473f eddd 473f ff68 c13d efa5 5c3f
00000090: 53ab 293f 4360 1d3f 5ac7 823e 2fe6 633f
000000a0: 8e55 db3e fe2b 0b3f 8196 1e3f d600 733e
000000b0: 8ac1 4b3e 4948 7a3e 4d27 633e 6e9b af3e
000000c0: 46ac 263e e0f4 ca3e 87dc 023f 05bd 023f
000000d0: 398a 443f 56bf 2b3f 290b ee3e 9aee 033f
000000e0: 04c2 3f3f 9884 ed3e 79ff 0c3f 242c 2d3f
000000f0: 5b6d 103f 341b ef3e 0576 f33e 40e8 cc3e
00000100: 7e10 183f 2576 cc3e 35a0 cb3e ef22 b93e
00000110: 8abf 163f fb97 0e3f 4870 093f b436 d53e
00000120: d046 543f 684c a73e 4a35 b33e 343d 623f
00000130: bc20 e43e 6215 2d3f 2910 273f 8ba4 133f
00000140: ec06 413f cfe6 063f f588 5f3f 9edd 023f
00000150: d2b7 e33e 62f8 173f 0f2e 353f 540b fe3e
00000160: ab80 5f3f 4ec4 283f e131 083f 5096 023f
00000170: 8384 253f f716 603f 1263 4d3f fb47 523f
00000180: 97cb 4e3f 4831 453f f4c5 0c3f ce26 3a3f
00000190: a25f 003f 9b5b 323f a240 db3e 1828 093f
000001a0: 40d8 403f ee5d 173f 6332 813e 5e0b c83e
000001b0: 12e6 f13d 2b2d cd3e 54e1 b83e cdbc 133f
000001c0: aa1c fa3e a921 003f b5c9 533f 4788 5b3f
000001d0: 0734 483f 8daf b93e 09b7 633f 9829 5c3f
000001e0: 6acd 073f 382f 3e3f f63f 283f 80b8 ec3e
000001f0: f3cb c63e d3c8 ac3e d7bb d53e f3ad f43e

fc2.weight f4 [128, 128]
0.5513697 -0.107238986 0.55314624 0.68429255 0.3584535 -0.027291145 0.52973384 -0.013115122
0.49609488 0.17562722 0.3343475 0.5624243 -0.025140412 -0.11077859 -0.052584037 0.71681654
0.5886492 0.65222365 0.50001407 0.22630575 0.046278078 0.025796026 0.1354106 0.56884956
0.42980224 0.7051889 0.39816165 0.70654404 0.062175814 0.06658858 -0.08101222 -0.28374916
0.03480377 0.37997648 -0.07013633 0.8279837 0.5185887 0.12182057 -0.04405969 0.25683683
-0.32846788 0.8146173 0.7571643 -0.33162612 -0.4659203 0.032346565 -0.36105072 -0.42653403
-0.33215606 -0.112511456 -0.27345702 0.33686653 0.4393692 0.75431883 -0.42845258 0.89323217
0.11498419 -0.10658027 0.06682031 0.4146364 0.02723803 0.34358525 0.00762001 -0.0019364103
-0.3746429 0.13456199 0.23208444 0.506619 0.47041047 0.75947505 0.14027435 -0.26801807
0.81886226 -0.16098222 -0.29222322 0.6695138 0.6716625 0.040398616 0.5995742 0.14039564
0.81278294 0.9078188 0.034414615 0.35447446 -0.007606743 0.55514425 0.8404212 0.30472115
-0.03138132 0.9054929 0.5368786 0.60562634 0.7728728 0.51176727 0.5939218 0.54129064
0.5812366 0.22241798 0.8980188 0.7952947 0.08875586 0.57600427 -0.10635449 0.69068354
0.4854683 0.6436817 -0.39000696 -0.24193777 -0.2378861 0.52287614 -0.27859056 0.35215828
0.74650127 -0.05785016 0.8366988 0.57350713 0.6959272 0.69674885 0.5183968 0.62054473
0.6230332 0.5755019 0.12664571 0.60023934 -0.07975835 -0.038053103 0.47097254 0.5802335
0.6161616 0.051891554 0.61585104 0.6943857 0.38028514 -0.030888876 0.4688117 -0.05395683
0.51164305 0.07191798 0.29991642 0.4566116 0.024654957 0.029071594 -0.10098777 0.70607245
0.56641054 0.5550023 0.51191306 0.27642164 -0.037365336 0.070570715 0.115621105 0.69407034
0.43864712 0.73586535 0.3637281 0.7655453 -0.116767384 0.06168133 -0.02980273 -0.32646602
0.0014053973 0.3560005 -0.090661705 0.81513053 0.5128158 0.08174348 -0.12067305 0.18599586
-0.44309938 0.740918 0.64657503 -0.24984436 -0.41109845 -0.071743995 -0.36657152 -0.46494088
-0.39886698 -0.028544903 -0.39253014 0.16696495 0.5141829 0.7184031 -0.3380565 0.8078829
0.1501418 -0.030458469 0.11728943 0.5120309 -0.099335015 0.3953928 0.0050352793 -0.06359284
-0.39830452 0.18239416 0.2144323 0.51885813 0.5545265 0.77479 0.016024113 -0.3485257
0.6258749 -0.10458833 -0.3849761 0.63232636 0.67544764 0.13608079 0.492096 0.080039084
0.7418091 0.8474047 0.113749795 0.345941 0.038445804 0.57719547 0.6867767 0.27657422
0.01893187 0.7921888 0.57997906 0.56448466 0.7683228 0.42761108 0.5888945 0.54477
0.57728094 0.11756245 0.8275741 0.82211524 0.13800658 0.5481239 0.011836823 0.62230605
0.55238235 0.6388161 -0.4369831 -0.23329674 -0.25496557 0.5802335 -0.40028265 0.4620112
0.59978837 -0.004975859 0.66343117 0.5627004 0.5892536 0.6379556 0.42473504 0.4644457
0.7289066 0.5155253 0.09521225 0.63813585 -0.14360093 0.030955805 0.49187 0.6357675
00000000: 9126 0d3f 1da0 dbbd fe9a 0d3f cc2d 2f3f
00000010: 3887 b73e ae91 dfbc a39c 073f cfe0 56bc
00000020: 2600 fe3e 9fd7 333e 982f ab3e 0afb 0f3f
00000030: 44f3 cdbc e3df e2bd 5c62 57bd 4a81 373f
00000040: b7b1 163f 21f8 263f ec00 003f b2bc 673e
00000050: 158e 3d3d 3052 d33c 14a9 0a3e 20a0 113f
00000060: 0a0f dc3e 4287 343f d8db cb3e 12e0 343f
00000070: 11ac 7e3d 985f 883d bce9 a5bd 9247 91be
00000080: 668e 0e3d 478c c23e a3a3 8fbd bdf6 533f
00000090: 3bc2 043f 107d f93d ef77 34bd 1e80 833e
000000a0: f12c a8be c28a 503f 85d5 413f e6ca a9be
000000b0: 1b8d eebe d57d 043d a4db b8be ab62 dabe
000000c0: 5c10 aabe 686c e6bd 8f02 8cbe c579 ac3e
000000d0: 00f5 e03e 0a1b 413f 235e dbbe ddaa 643f
000000e0: d57c eb3d c246 dabd 16d9 883d 394b d43e
000000f0: 4a22 df3c 68ea af3e 47b1 f93b 26cf fdba
00000100: 32d1 bfbe 9eca 093e 8ba7 6d3e c8b1 013f
00000110: a4d9 f03e f56c 423f 14a4 0f3e aa39 89be
00000120: f5a0 513f 86d8 24be 489e 95be 4265 2b3f
00000130: 13f2 2b3f 0579 253d b27d 193f e0c3 0f3e
00000140: 8b12 503f d066 683f 57f6 0c3d ad7d b53e
00000150: fc41 f9bb ef1d 0e3f d825 573f 6904 9c3e
00000160: b389 00bd 62ce 673f e070 093f 540a 1b3f
00000170: feda 453f 2e03 033f 420b 183f 0692 0a3f
00000180: eccb 143f 8ac1 633e 8fe4 653f 6f98 4b3f
00000190: a2c5 b53d 0475 133f 62d0 d9bd a3d0 303f
000001a0: 4d8f f83e 53c8 243f feae c7be 89be 77be
000001b0: 6a98 73be 36db 053f 6ca3 8ebe 174e b43e
000001c0: b51a 3f3f 4af4 6cbd e431 563f 5dd1 123f
000001d0: 4928 323f 225e 323f a7b5 043f 05dc 1e3f
000001e0: 1b7f 1f3f 1854 133f 6aaf 013e 49a9 193f
000001f0: 5958 a3bd 92dd 1bbd 5023 f13e 2f8a 143f
00000200: c4bc 1d3f 3d8c 543d 6aa8 1d3f 43c3 313f
00000210: bcb4 c23e ab0a fdbc 1608 f03e d601 5dbd
00000220: 0afb 023f bc49 933d a58e 993e ffc8 e93e
00000230: 31f9 c93c 8d27 ee3c add2 cebd 2ac1 343f
00000240: 4800 113f a114 0e3f bc0c 033f 2387 8d3e
00000250: 650c 19bd 6187 903d c2ca ec3d 98ae 313f
00000260: 5b96 e03e ac61 3c3f 923a ba3e c7fa 433f
00000270: bd23 efbd 90a5 7c3d db24 f4bc 8e26 a7be
00000280: 4f35 b83a b345 b63e d8ac b9bd 65ac 503f
00000290: e547 033f 2069 a73d 6f23 f7bd b375 3e3e
000002a0: ecdd e2be cdac 3d3f f185 253f 33d7 7fbe
000002b0: 7f7b d2be 84ee 92bd 43af bbbe bb0c eebe
000002c0: 4b38 ccbe 00d7 e9bc b6f9 c8be dcf8 2a3e
000002d0: 7ea1 033f 44e9 373f be15 adbe 6ad1 4e3f
000002e0: c6be 193e 0a84 f9bc 7135 f03d 7514 033f
000002f0: 2870 cbbd ed70 ca3e fcfe a43b f73c 82bd
00000300: 92ee cbbe 89c5 3a3e 2494 5b3e e3d3 043f
00000310: 73f5 0d3f a358 463f 0045 833c f671 b2be
00000320: 5639 203f 6832 d6bd 961b c5be 24e0 213f
00000330: 23ea 2c3f c358 0b3e 02f4 fb3e 88eb a33d
00000340: 34e7 3d3f 84ef 583f a7f5 e83d 2e1f b13e
00000350: 5979 1d3d 15c3 133f 99d0 2f3f 239b 8d3e
00000360: 0217 9b3c e3cc 4a3f 8279 143f 1182 103f
00000370: ceb0 443f d7ef da3e cac1 163f 0c76 0b3f
00000380: afc8 133f 95c4 f03d e5db 533f 2576 523f
00000390: 9951 0d3e d951 0c3f 3cef 413c 734f 1f3f
000003a0: ee68 0d3f 7489 233f 40bc dfbe 57e5 6ebe
000003b0: d98a 82be 2f8a 143f d9f1 ccbe bb8c ec3e
000003c0: bb8b 193f 880c a3bb a0d6 293f 220d 103f
000003d0: 53d9 163f 0f51 233f df76 d93e d4cb ed3e
000003e0: 9f99 3a3f 77f9 033f a4fe c23d df5c 233f
000003f0: 1f0c 13be 0797 fd3c 62d6 fb3e a9c1 223f

fc2.bias f4 [128]
0.5383725 0.55173254 0.560322 0.6145113 0.26604176 0.40224743 0.48651433 0.5206818
0.5910242 0.07417279 0.29023418 -0.0566122 -0.065753885 0.5519238 -0.06868093 0.46527672
0.53120565 0.5510376 0.6033101 0.46928713 -0.024271246 0.4393339 0.46773103 0.5615421
0.25279805 0.375177 0.5468722 -0.08575251 0.24957073 0.4778008 0.5200307 0.47327718
0.038185295 0.304446 0.32968822 0.5106013 0.48519507 0.14333129 0.57462853 -0.0053190514
0.0017928154 0.38480917 0.112396866 0.60134387 -0.08642332 0.45079923 0.40065828 0.31897697
0.23964536 -0.08281814 0.52501434 0.44759923 0.3236881 0.41042095 0.6032876 0.5944581
0.26609048 0.2671144 0.3636725 -0.1517627 0.50711656 0.5703791 0.5129743 0.5515044
0.4078267 -0.007659547 0.4735272 0.018814245 0.571185 0.46046272 0.55397046 0.04278209
0.570329 0.5414578 0.37185386 0.5078783 0.2475744 -0.07871387 0.27451482 0.32613924
0.5088436 0.4792177 0.50418484 0.3880543 0.2998873 0.34808394 0.5817815 0.46480587
0.5464332 0.23765913 0.37985027 0.3109808 0.37754455 0.6156993 0.05063277 0.4845136
0.27166504 0.30235603 0.26603305 0.17431329 0.5316527 0.4920846 0.36285084 0.50216734
0.5225357 0.44750664 0.25779474 0.46363828 -0.17299026 0.01498824 0.37543413 0.43767208
0.34120068 0.4163935 0.20483193 0.36864087 0.194578 0.29962814 0.026297152 0.46482566
0.3868368 0.40697262 0.31978217 0.42217907 0.47566435 0.5769479 0.020779109 0.28680506
00000000: c8d2 093f 583e 0d3f 4371 0f3f 9d50 1d3f
00000010: a036 883e 60f3 cd3e 6818 f93e 674b 053f
00000020: 5d4d 173f e7e7 973d 9399 943e 32e2 67bd
00000030: f9a9 86bd e14a 0d3f 96a8 8cbd c038 ee3e
00000040: 18fd 073f cd10 0d3f 8872 1a3f 6746 f03e
00000050: 7ed4 c6bc 5ff0 e03e 717a ef3e 39c1 0f3f
00000060: bf6e 813e 3317 c03e d1ff 0b3f 039f afbd
00000070: 788f 7f3e 4ea2 f43e bb20 053f 6351 f23e
00000080: 2f68 1c3d 59e0 9b3e e5cc a83e c4b6 023f
00000090: 7d6b f83e 70c5 123e db1a 133f 704b aebb
000000a0: e7fc ea3a b505 c53e 5430 e63d acf1 193f
000000b0: b6fe b0bd 28cf e63e 1523 cd3e f350 a33e
000000c0: 9865 753e 8f9c a9bd 5767 063f ba2b e53e
000000d0: 72ba a53e b222 d23e 0e71 1a3f 682e 183f
000000e0: 033d 883e 38c3 883e 4833 ba3e ae67 1bbe
000000f0: 64d2 013f 5d04 123f 4952 033f 642f 0d3f
00000100: a9ce d03e f0fc fabb 2872 f23e 5520 9a3c
00000110: 2e39 123f c5c1 eb3e 02d1 0d3f 463c 2f3d
00000120: 1501 123f fa9c 0a3f a163 be3e 5004 023f
00000130: 2584 7d3e bd34 a1bd 358d 8c3e b9fb a63e
00000140: 9343 023f 065c f53e 4212 013f 0eaf c63e
00000150: d48a 993e 0f38 b23e a2ef 143f 09fb ed3e
00000160: 0ce3 0b3f ea5c 733e bc7b c23e e038 9f3e
00000170: 854d c13e 789e 1d3f 4f64 4f3d 2b12 f83e
00000180: ae17 8b3e 69ce 9a3e 7c35 883e 2f7f 323e
00000190: 641a 083f 83f2 fb3e 96c7 b93e 0a8e 003f
000001a0: e6c4 053f 971f e53e acfd 833e ff61 ed3e
000001b0: 5c24 31be 3c91 753c e738 c03e 8e16 e03e
000001c0: dbb1 ae3e 8731 d53e 76bf 513e 7fbe bc3e
000001d0: 753f 473e dc68 993e 206d d73c a1fd ed3e
000001e0: 790f c63e b75e d03e 7dba a33e db27 d83e
000001f0: 478a f33e dcb2 133f f338 aa3c 1dd8 923e

fc3.weight f4 [2, 128]
-0.7478197 -0.62965775 -0.688199 -0.7092154 0.10125538 -0.74617195 -0.73990875 -0.6582273
-0.7386634 0.0052599637 0.060314305 0.10328757 -0.013220315 -0.7805252 0.00026295971 -0.72986317
-0.65841496 -0.7904177 -0.8884678 -0.703541 0.038329195 -0.7973643 -0.81397355 -0.6620816
0.07241178 0.22671884 -0.6961173 -0.10741509 0.14209768 -0.90890276 -0.6845548 -0.7364468
-0.084581316 0.07020507 0.12738955 -0.59324086 -0.55119234 0.06592929 -0.5681462 -0.084263876
-0.08240122 0.16022183 0.06354954 -0.6676066 0.28997734 -0.65140736 0.12906566 0.16601801
0.032174926 0.026631244 -0.5531275 -0.46729434 0.25081706 0.13620484 -0.71871954 -0.6544329
0.098086685 0.110684015 0.15335926 -0.1105872 -0.7993403 -0.69637936 -0.81230175 -0.71541244
0.09953607 0.08303595 -0.5857818 0.039784033 -0.6741496 -0.7649944 -0.56820005 0.07087409
-0.7608927 -0.7325185 0.08987565 -0.6630285 0.090484 -0.00919756 0.090708785 0.11246179
-0.62174547 -0.65946966 -0.6108332 0.18883583 0.07583241 0.0892278 -0.680946 -0.75107896
-0.78430486 0.12242863 0.1126614 0.08728378 0.16684684 -0.61893207 0.00409916 -0.8016443
0.062392376 0.11794226 0.15162157 0.105014466 -0.75281495 -0.7081937 0.115920976 -0.74402016
-0.6692888 -0.71656466 0.079511605 -0.71245784 0.043835774 0.055634063 0.13960773 -0.664254
0.17727272 -0.7866148 0.16904764 0.13411328 0.11416167 0.14955732 -0.000836172 -0.63994133
0.1204536 0.12815507 0.18620406 0.07182804 -0.77716655 -0.68809766 0.078179054 0.08822469
-0.82836616 -0.79060644 -0.69520384 -0.758293 0.07152495 -0.70401925 -0.7548229 -0.5835088
-0.6700555 0.11238791 0.123215474 0.11929279 0.08010557 -0.6788098 0.1497652 -0.77369994
-0.67251307 -0.80645925 -0.87340003 -0.7906115 0.08982548 -0.8135293 -0.7730112 -0.6321454
0.07651985 0.14801806 -0.7939895 -0.16613792 0.12611991 -0.8724753 -0.74105465 -0.78611803
0.05719255 0.15464254 0.124200106 -0.6677665 -0.7281916 0.19353025 -0.6943613 -0.032640174
0.09702041 0.09573411 0.053948116 -0.71412694 0.28267354 -0.60044146 0.070205376 0.08487019
0.14579801 -0.068412475 -0.7091721 -0.6808534 0.06970502 0.0769486 -0.8139868 -0.693785
0.2125661 0.22418283 0.15366162 -0.21256605 -0.8191281 -0.56849134 -0.73410636 -0.8162087
0.14079164 0.038299836 -0.689328 0.07825053 -0.7322135 -0.8225433 -0.6919984 0.026814343
-0.7572212 -0.8059751 0.14449841 -0.7295618 -0.032724913 0.07016645 0.10874599 0.089239486
-0.7787984 -0.7969198 -0.7557897 0.058933258 0.11897053 0.10439419 -0.8273067 -0.69629127
-0.8334142 0.13922532 0.11077663 -0.010210541 0.11635201 -0.6735873 0.12906528 -0.79565215
0.09074347 0.09027763 0.14552474 0.117164694 -0.77759886 -0.7472712 0.09118534 -0.7657106
-0.66251117 -0.8154108 0.07329695 -0.7400083 -0.18340339 0.06235677 0.12665321 -0.75013083
0.11437033 -0.7119594 0.09553498 0.13226719 0.1225025 0.17550921 0.09889096 -0.6044354
0.08475351 0.03850918 0.16369744 0.1096564 -0.71003777 -0.7442483 0.12861751 0.006857831
00000000: 1d71 3fbf 4031 21bf cf2d 30bf 248f 35bf
00000010: fb5e cf3d 2005 3fbf a96a 3dbf 9681 28bf
00000020: 0b19 3dbf c65b ac3b 220c 773d 6f88 d33d
00000030: 059a 58bc 80d0 47bf dbdd 8939 50d8 3abf
00000040: e28d 28bf d058 4abf a072 63bf 431b 34bf
00000050: 13ff 1c3d 1120 4cbf 9260 50bf 2e7e 29bf
00000060: a14c 943d fc28 683e be34 32bf 71fc dbbd
00000070: 0e82 113e daad 68bf fc3e 2fbf c787 3cbf
00000080: f838 adbd adc7 8f3d 6872 023e a2de 17bf
00000090: f11a 0dbf f005 873d 0872 11bf 8a92 acbd
000000a0: f9c1 a8bd 3111 243e 4326 823d 44e8 2abf
000000b0: e977 943e a2c2 26bf ca29 043e a000 2a3e
000000c0: dbc9 033d c429 da3c c499 0dbf 3441 efbe
000000d0: 186b 803e 4879 0b3e 01fe 37bf ea88 27bf
000000e0: ace1 c83d 4dae e23d 360a 1d3e 8b7b e2bd
000000f0: 91a1 4cbf eb45 32bf 02f3 4fbf 4525 37bf
00000100: 91d9 cb3d c10e aa3d ccf5 15bf 95f4 223d
00000110: 1195 2cbf acd6 43bf 8f75 11bf 6f26 913d
00000120: ddc9 42bf 5586 3bbf ba10 b83d 3cbc 29bf
00000130: ad4f b93d 5db1 16bc 87c5 b93d 5e52 e63d
00000140: b62a 1fbf 01d3 28bf 915f 1cbf 2e5e 413e
00000150: 064e 9b3d 11bd b63d 7a52 2ebf b646 40bf
00000160: 34c8 48bf ddbb fa3d 05bb e63d d7c1 b23d
00000170: e6d9 2a3e 5572 1ebf 3f52 863b 9038 4dbf
00000180: 268f 7f3d b68b f13d af42 1b3e d311 d73d
00000190: 7bb8 40bf 2f4c 35bf fa67 ed3d 1b78 3ebf
000001a0: 8356 2bbf c870 37bf fbd6 a23d a363 36bf
000001b0: 248d 333d 8be0 633d 54f5 0e3e 8d0c 2abf
000001c0: fb86 353e 965f 49bf d31a 2d3e fe54 093e
000001d0: 98cd e93d 8e25 193e 8e32 5bba 32d3 23bf
000001e0: 61b0 f63d 153b 033e 47ac 3e3e 941a 933d
000001f0: 63f4 46bf 2b27 30bf 571c a03d 25af b43d
00000200: ce0f 54bf 2f65 4abf e1f8 31bf 7d1f 42bf
00000210: ac7b 923d 9b3a 34bf 133c 41bf d560 15bf
00000220: c288 2bbf a22b e63d 6558 fc3d c74f f43d
00000230: 640e a43d 7bc6 2dbf 0c5c 193e 3311 46bf
00000240: d129 2cbf 1d74 4ebf 2597 5fbf 8465 4abf
00000250: 6cf6 b73d 7543 50bf 10e4 45bf 48d4 21bf
00000260: 70b6 9c3d 0c92 173e e542 4bbf 0f20 2abe
00000270: 9425 013e 8b5a 5fbf c2b5 3dbf 083f 49bf
00000280: bc42 6a3d 9d5a 1e3e a05c fe3d bff2 2abf
00000290: c46a 3abf cb2c 463e aac1 31bf b4b1 05bd
000002a0: a3b2 c63d 3f10 c43d b3f8 5c3d 06d1 36bf
000002b0: 96ba 903e 88b6 19bf d6c7 8f3d 6cd0 ad3d
000002c0: 134c 153e d71b 8cbd 4e8c 35bf 694c 2ebf
000002d0: 81c1 8e3d 3a97 9d3d 7061 50bf e59b 31bf
000002e0: edaa 593e 2f90 653e 7959 1d3e eaaa 59be
000002f0: 61b2 51bf a688 11bf 65ee 3bbf 0ef3 50bf
00000300: af2b 103e 4ae0 1c3d cd77 30bf d041 a03d
00000310: 5872 3bbf 3392 52bf cf26 31bf c1a9 db3c
00000320: 40d9 41bf 6254 4ebf 64f7 133e 90c4 3abf
00000330: 8f0a 06bd 6eb3 8f3d 38b6 de3d 31c3 b63d
00000340: 555f 47bf f002 4cbf 6f7b 41bf 0064 713d
00000350: d2a6 f33d 9fcc d53d 5fca 53bf 2540 32bf
00000360: a25a 55bf 1591 0e3e dcde e23d 1d4a 27bc
00000370: f649 ee3d 3870 2cbf b029 043e dcaf 4bbf
00000380: b6d7 b93d 7ae3 b83d 7004 153e 0bf4 ef3d
00000390: b810 47bf 2a4d 3fbf 61bf ba3d 9c05 44bf
000003a0: 559a 29bf c3be 50bf b61c 963d 2f71 3dbf
000003b0: 19ce 3bbe d069 7f3d 61b1 013e 9308 40bf
000003c0: fe3a ea3d f942 36bf d8a7 c33d 0d71 073e
000003d0: 97e2 fa3d b0b8 333e 5887 ca3d 47bc 1abf
000003e0: 4093 ad3d cdbb 1d3d 4da0 273e 8993 e03d
000003f0: 09c5 35bf 0e87 3ebf 4fb4 033e a8b7 e03b

fc3.bias f4 [2]
-0.3949743 -0.4423159
00000000: 123a cabe 3b77 e2be
