customTrainer/results/AgentBall03/RollerBall/RollerBall-185256.onnx (onnx, 76482 bytes, 6 tensors)

fc1.weight f4 [128, 16]
0	0xbb371e00	-0.0027941465
1	0xbe48d252	-0.19611481
2	0x3dcf03ec	0.1010817
3	0x3d9b4a80	0.07582569
4	0x3e2acf22	0.16680577
5	0x3c7a14a0	0.015263706
6	0x3e66f558	0.22554529
7	0x3d0d4d78	0.034497708
8	0xbdc60aa4	-0.09669998
9	0x3e2c5710	0.16830087
10	0xbe744ba4	-0.2385698
11	0xbd1cb7c8	-0.038261205
12	0x3e6d8c8e	0.23198149
13	0x3da13ee8	0.078733265
14	0xbda3b488	-0.07993418
15	0xbcec4bd0	-0.028844744
16	0xbe6a97ae	-0.22909424
17	0x3e311bda	0.17295781
18	0x3e4f2992	0.20230702
19	0x3d99b988	0.075060904
20	0x3e4da97a	0.20084181
21	0xbd760ff8	-0.060073823
22	0xbe25efb4	-0.1620472
23	0x3db322e0	0.08746886
24	0x3e1d3e20	0.1535573
25	0x3e6b8ea0	0.23003626
26	0x3e22db1a	0.15903893
27	0x3e2b4418	0.16725194
28	0xbd5b7eb0	-0.053587615
29	0xbde4da9c	-0.11174509
30	0x3d4c0300	0.04980755
31	0x3cdd1920	0.02698952
32	0x3c2884c0	0.010285556
33	0xbd9269b8	-0.071490705
34	0x3e3cc0c0	0.18432903
35	0x3e50e248	0.2039882
36	0xbe5df414	-0.2167514
37	0x3e338c48	0.17533982
38	0xbe21c906	-0.1579934
39	0x3e667a06	0.22507486
40	0xbe394fea	-0.18096891
41	0xbe0e3028	-0.13885558
42	0xbe10c270	-0.14136672
43	0xbd41d200	-0.047319412
44	0xbe45710e	-0.19281408
45	0x3e30b734	0.17257386
46	0xbe1dd314	-0.15412551
47	0xbd7f9be0	-0.062404513
48	0xbdff3124	-0.12460545
49	0x3e3d367a	0.18477812
50	0x3d5c4938	0.053780764
51	0xbe18fc14	-0.1493991
52	0x3deda34c	0.11603412
53	0x3d575700	0.052573204
54	0x3e289b8a	0.16465583
55	0xbe3526f6	-0.17690644
56	0xbe1c3ba6	-0.15257129
57	0x3e27a0f2	0.1636999
58	0xbe5fd56e	-0.2185876
59	0x3dc70340	0.09717417
60	0x3e1024ee	0.14076588
61	0x3d985f88	0.07440096
62	0x3e280b90	0.1641066
63	0x3e5bdee2	0.21471742
64	0x3e391a98	0.18076551
65	0xbe1d8388	-0.15382206
66	0xbe63719a	-0.22211304
67	0x3deaffac	0.11474547
68	0xbe33ffb4	-0.17578012
69	0xbe28c32c	-0.16480702
70	0x3e45ca82	0.19315532
71	0xbd985144	-0.07437375
72	0x3d73b008	0.05949405
73	0xbe2dd952	-0.16977432
74	0x3dd656d8	0.10465783
75	0x3e71b696	0.23604807
76	0xbe165718	-0.14681661
77	0x3a818800	0.000988245
78	0xbe5a3fcc	-0.21313399
79	0xbe783220	-0.24237871
80	0xbe526d92	-0.2054961
81	0x3e788756	0.24270377
82	0xbe045926	-0.12924632
83	0x3e4ebab0	0.20188403
84	0xbcd85fd0	-0.026412874
85	0x3d3ce908	0.046120673
86	0xba5d7e00	-0.00084492564
87	0xbe570832	-0.2099922
88	0xbe11d692	-0.14242008
89	0x3e501ca0	0.2032342
90	0xbe553926	-0.20822582
91	0x3e3ee858	0.1864332
92	0x3e741e80	0.2383976
93	0xbd83e5d0	-0.06440318
94	0xbb925f80	-0.004466951
95	0x3e12473a	0.14284983
96	0x3d227698	0.03966388
97	0xbdd0cc50	-0.101952195
98	0xbe6fb124	-0.23407418
99	0xbcd82d20	-0.026388705
100	0x3d053530	0.032521427
101	0x3c1ec940	0.009691536
102	0xbd9a2f90	-0.07528603
103	0xbd24f320	-0.040270925
104	0xbd9037e0	-0.07041907
105	0xbe568892	-0.20950535
106	0x3d488fd0	0.048965275
107	0xbd031fd0	-0.03201276
108	0x3d78d6c8	0.060751706
109	0xbe0e9180	-0.13922691
110	0x3e37f2fc	0.17963785
111	0xbe32d848	-0.17465317
112	0x3d9b0d18	0.07570857
113	0xbd8743dc	-0.0660474
114	0x3e275bac	0.16343564
115	0xbd723b30	-0.059138477
116	0x3dceefbc	0.101043195
117	0x3e715c86	0.23570451
118	0x3e298394	0.165541
119	0x3e742d62	0.23845437
120	0x3e022808	0.12710583
121	0x3e373bd2	0.17893913
122	0x3e5afc34	0.2138527
123	0x3c5b8c20	0.013400108
124	0xbe0a018a	-0.1347715
125	0xbcd1e3e0	-0.025621355
126	0xbe4a374c	-0.19747657
127	0x3e7eede6	0.24895439
128	0x3e03693c	0.12833112
129	0x3e37fb3a	0.17966929
130	0xbe6fcb4e	-0.23417398
131	0x3cbc32e0	0.022973478
132	0x3e20b8e2	0.15695527
133	0x39b0a800	0.00033694506
134	0xbde60850	-0.11232054
135	0x3e6b6f2e	0.2299163
136	0x3dcb8418	0.09937304
137	0xbd5527e8	-0.05204001
138	0x3e75a262	0.23987725
139	0xbd405b30	-0.046961963
140	0x3da696b0	0.0813421
141	0xbd585648	-0.05281666
142	0xbe4f7966	-0.20261154
143	0xbd22d5b0	-0.03975457
144	0xbcf10c30	-0.029424757
145	0x3e1d4028	0.15356505
146	0x3caeedf0	0.021353692
147	0xbdc373d4	-0.09543577
148	0xbcef7090	-0.029228479
149	0xbd52e3c0	-0.05148673
150	0xbe5ffb06	-0.21873102
151	0x3e420700	0.18947983
152	0xbe44afee	-0.19207737
153	0xbe5a19d0	-0.21298909
154	0x3d29ee18	0.04148683
155	0x3d8c5c34	0.06853524
156	0xbd45b690	-0.04826981
157	0x3e537918	0.20651662
158	0x3e1d3512	0.15352276
159	0x3e33dde8	0.1756512
160	0xbe1597a0	-0.14608622
161	0x3cd9c550	0.026583344
162	0x3e23cdb8	0.15996444
163	0xbddaff14	-0.106931835
164	0x3db57200	0.088596344
165	0x3d656ff8	0.056014985
166	0x3e2783dc	0.16358894
167	0x3e03737c	0.12837023
168	0x3dc916d4	0.09818807
169	0x3e639b22	0.22227147
170	0xbe2c4fde	-0.16827342
171	0x3d719f08	0.058989555
172	0x3c5a30e0	0.013317317
173	0x3da04174	0.07824984
174	0x3c5c23c0	0.013436258
175	0xbce721d0	-0.028214365
176	0x3e67ba5e	0.22629687
177	0x3e2a1264	0.16608578
178	0xbe6ec686	-0.23317918
179	0xbd658938	-0.056039065
180	0xbe231272	-0.15925005
181	0x3d8dba28	0.06920272
182	0x3e5e2e8a	0.2169744
183	0xbe7c22a0	-0.24622583
184	0x3e0519d0	0.12998128
185	0xbe640246	-0.22266492
186	0xbe12c8ea	-0.14334455
187	0xbe57f25e	-0.2108855
188	0x3caa5960	0.02079457
189	0x3d0ffd38	0.035153598
190	0xbe1f8516	-0.15578112
191	0x3e05611e	0.13025329
192	0x3e580a50	0.21097684
193	0xbe7ed444	-0.2488566
194	0x3e38b876	0.18039116
195	0x3e2abfaa	0.16674677
196	0x3e6680fa	0.22510138
197	0xbe451702	-0.19247058
198	0x3e090b4a	0.13383213
199	0x3e727bfc	0.23680109
200	0x3e08f652	0.13375214
201	0x3e671698	0.22567213
202	0x3e52d248	0.20588028
203	0x3d0d8740	0.034552813
204	0x3c45d160	0.012073845
205	0x3e5cdabe	0.21567819
206	0xbe42d458	-0.19026315
207	0x3dacde28	0.084408104
208	0x3df5bfe4	0.11999491
209	0x3de937e0	0.113876104
210	0x3e2431b8	0.16034591
211	0xbe3b9114	-0.18317062
212	0xbd610328	-0.05493465
213	0xbd949678	-0.07255262
214	0xbe284520	-0.16432619
215	0x3d2e38d0	0.04253465
216	0x3e35072a	0.17678514
217	0x3d82c730	0.06385648
218	0xbe415a48	-0.18882096
219	0xbe2a02e2	-0.16602662
220	0xbd9c5838	-0.07634014
221	0x3e078622	0.13234761
222	0x3e753582	0.23946193
223	0x3e227dac	0.15868253
224	0x3dc31348	0.09525162
225	0x3e50def6	0.20397553
226	0xbdd81398	-0.10550612
227	0xbca61ae0	-0.020276487
228	0x3dafec44	0.08589986
229	0xbe2d5ac2	-0.16929153
230	0x3d0c7b90	0.034297526
231	0x3da04da4	0.07827309
232	0xbb5c1100	-0.0033579469
233	0x3c404420	0.011734992
234	0xbe0cd4ec	-0.13753098
235	0x3d947dfc	0.07250592
236	0x3e1b9a8a	0.1519567
237	0x3c092300	0.008370161
238	0x3c455f20	0.012046605
239	0x3d8517bc	0.064986676
240	0xbd9ebf1c	-0.07751295
241	0xbd035ba0	-0.032069802
242	0xbd250060	-0.04028356
243	0xbe0af98a	-0.13571754
244	0xbe7bfb1c	-0.2460751
245	0x3e5e0464	0.21681362
246	0xbd624f00	-0.05525112
247	0x3e7407d8	0.23831117
248	0xbe7976fa	-0.24361792
249	0x3d0ff040	0.03514123
250	0x3dd1dbe8	0.10247022
251	0x3d70d698	0.058798403
252	0x3da73550	0.081644654
253	0x3e5827b6	0.21108899
254	0x3dbcb370	0.092139125
255	0xbc965880	-0.018352747

fc1.bias f4 [128]
0	0x3db0be60	0.08630061
1	0x3e17fbfe	0.14842221
2	0xbe14c6c0	-0.14528942
3	0xbe78549a	-0.24251023
4	0x3e300820	0.171906
5	0xbe354c7e	-0.1770496
6	0x3dad4c58	0.08461827
7	0x3ce09c00	0.027418137
8	0x3d5cd2d0	0.053911984
9	0xbe088aba	-0.1333417
10	0xbd22a618	-0.03970918
11	0x3b827f00	0.0039824247
12	0xbe61aefc	-0.22039407
13	0x3e73c6ca	0.23806301
14	0xbe73df82	-0.2381573
15	0x3e7890a4	0.24273926
16	0xbe367874	-0.17819387
17	0xbd801800	-0.06254578
18	0xbd750ae8	-0.059824854
19	0x3e5b34f2	0.21406916
20	0x3db1ae00	0.08675766
21	0x3db831f4	0.08993903
22	0xbe1550ec	-0.1458165
23	0x3e71e53e	0.23622605
24	0xbe4acf46	-0.19805631
25	0xbdee9db4	-0.11651173
26	0xbcbf3190	-0.023339063
27	0x3d4ee918	0.050515264
28	0xbe1973e8	-0.14985621
29	0x3bdc8a40	0.006730348
30	0xbd6f3a18	-0.058405012
31	0xbe6c8774	-0.23098546
32	0x3da0f42c	0.07859072
33	0xbe368720	-0.17824984
34	0x3e2d893e	0.16946885
35	0xbdfb7058	-0.12277287
36	0xbdca6140	-0.0988183
37	0x3e0dc49c	0.13844532
38	0x3d869f90	0.06573403
39	0x3e6a027a	0.22852507
40	0xbde5fe40	-0.11230135
41	0x3d83a1c0	0.06427336
42	0x3d3e25c8	0.04642275
43	0xbdc19118	-0.094515026
44	0xbe10fc40	-0.14158726
45	0xbe16410c	-0.14673251
46	0xbd8a0d00	-0.06740761
47	0x3d8abf74	0.06774798
48	0x3deed080	0.11660862
49	0x3d9f92b4	0.07791653
50	0xbdb7f840	-0.08982897
51	0xbdd07624	-0.101787835
52	0x3d4171b0	0.04722756
53	0xbe2ab536	-0.16670689
54	0xbe223b02	-0.15842822
55	0xbde65560	-0.11246753
56	0xbe3f59e4	-0.18686634
57	0x3e4478b8	0.19186676
58	0xbd4c3fd0	-0.049865544
59	0xbd411ba8	-0.047145516
60	0x3e1d7558	0.15376794
61	0x3db46564	0.08808401
62	0x3d89ce3c	0.06728789
63	0x3e4bf4c0	0.19917583
64	0x3d5922e8	0.053011805
65	0x3d5ab6f0	0.05339712
66	0x3e04da5c	0.12973922
67	0x3dd9d95c	0.10637161
68	0x3e2ac36e	0.16676113
69	0xbd219f18	-0.039458364
70	0x3cdffaa0	0.027341187
71	0x3d716f50	0.058944046
72	0xbc49cc00	-0.012316704
73	0x3e3d55b8	0.1848973
74	0xbe05e70c	-0.13076419
75	0xbc125a80	-0.00893271
76	0x3e7a6c44	0.24455363
77	0x3e2afc3a	0.1669778
78	0x3e598642	0.21242622
79	0xbdc965c8	-0.09833866
80	0x3e0c9388	0.13728154
81	0xbde055e0	-0.10953879
82	0x3d6d5600	0.057943344
83	0x3e0e6144	0.13904291
84	0x3d850ba4	0.06496361
85	0xbd696ed0	-0.056990445
86	0xbe53e3fe	-0.20692441
87	0x3e02ff66	0.1279274
88	0xbd683a20	-0.056696057
89	0x3e7a20be	0.24426553
90	0x3b878940	0.0041362345
91	0x3d4ab710	0.04949099
92	0x3e705fc8	0.23474038
93	0xbe7b1d48	-0.24522889
94	0xbde1d188	-0.11026293
95	0x3b3a9080	0.0028467476
96	0x3e3f4296	0.18677744
97	0xbdaca414	-0.08429733
98	0x3d3535a8	0.044240624
99	0xbe3053f0	-0.1721952
100	0x3e100756	0.14065298
101	0xbe7cfd14	-0.24705917
102	0x3d1fa890	0.038979113
103	0x3df63790	0.120223165
104	0x3dd23f84	0.10266021
105	0xbdd3f504	-0.103494674
106	0x3cac50a0	0.021034539
107	0xbe7e37ea	-0.24826017
108	0x3d425128	0.047440678
109	0xbe422f24	-0.18963295
110	0xbe1224f4	-0.14271909
111	0x3e40cb96	0.18827662
112	0xbe062554	-0.13100177
113	0x3e21a60a	0.15785995
114	0x3e28d65c	0.16488022
115	0xbe7986e8	-0.24367869
116	0x3e24c304	0.16090018
117	0x3e73550c	0.23762912
118	0xbd4367c0	-0.047706366
119	0x3de3bc80	0.11119938
120	0x3e7d98f0	0.24765372
121	0x3df07014	0.11740127
122	0x3d28d2e8	0.04121676
123	0xbd65d178	-0.056107968
124	0x3e7eca32	0.24881819
125	0x3da1b4a0	0.078957796
126	0xbdaf1e9c	-0.0855076
127	0x3e068bac	0.13139218

fc2.weight f4 [128, 128]
0	0x3cc82270	0.024430484
1	0xbdabbf4d	-0.08386097
2	0x3d62ae8e	0.05534225
3	0xbd887c32	-0.066643134
4	0xbd388a88	-0.04505399
5	0xbcd63038	-0.02614604
6	0xbd81cb57	-0.06337612
7	0x3cbe0294	0.023194589
8	0x3d1bb652	0.03801567
9	0xbd533d65	-0.051572222
10	0x3d8c3ce1	0.06847549
11	0xb9662600	-0.00021948665
12	0x3d68fd06	0.056881927
13	0xbd1cfe91	-0.03832871
14	0x3b694e80	0.0035599768
15	0x3d0a71f6	0.033800088
16	0x3d554e3a	0.052076556
17	0xbd930a12	-0.07179655
18	0xbc0b81d0	-0.008514836
19	0xbda748c2	-0.08168174
20	0x3d2f4a7e	0.04279565
21	0xbd46cce5	-0.048535246
22	0x3da4ac7d	0.08040712
23	0x3d44b7c6	0.048026823
24	0x3ccc11cc	0.02491083
25	0x39f32200	0.00046373904
26	0xbd89bfa0	-0.06726003
27	0xbd2d5b23	-0.042323243
28	0x3db2642b	0.08710512
29	0xbd8f4141	-0.06994868
30	0xbd9022cf	-0.07037889
31	0x3d2eddaa	0.042691864
32	0xbd694ed8	-0.056959957
33	0x3b615920	0.0034385398
34	0x3d3c98d2	0.04604418
35	0xbb899720	-0.0041989237
36	0x3da146b1	0.078748114
37	0xbd13f142	-0.036118753
38	0xbc264f08	-0.010150678
39	0x3d9f615d	0.077822424
40	0xbc3a0c18	-0.011355422
41	0xbd244100	-0.04010105
42	0x3c246788	0.010034449
43	0xbbd426d0	-0.0064743534
44	0xbd28188a	-0.041039027
45	0xbc56f178	-0.013119094
46	0xbcb5cb14	-0.022191562
47	0xbd819861	-0.06327892
48	0xbc4938b8	-0.012281589
49	0xbd75756b	-0.05992643
50	0xbbaf3f40	-0.005348116
51	0x3d12622c	0.035738155
52	0xbdae753d	-0.08518455
53	0x3d102a08	0.035196334
54	0xbc1adee8	-0.009452559
55	0x3d378d6a	0.044812597
56	0x3d9f2b79	0.077719636
57	0xbc2f2cd0	-0.0106918365
58	0x3d6f91a6	0.05848851
59	0x3d96d369	0.07364542
60	0x3d9d6a5b	0.07686301
61	0xbda73d67	-0.081660084
62	0x3d4bdd3a	0.049771525
63	0xbda805a7	-0.08204203
64	0x3c516e70	0.012782678
65	0x3c85a7a4	0.016315289
66	0xbda67838	-0.08128399
67	0xbc3a4728	-0.011369504
68	0x3d6f8de2	0.05848492
69	0xbd9d0137	-0.07666247
70	0xbd09b65b	-0.033621173
71	0x3d7fc516	0.062443815
72	0xbc67d080	-0.014148831
73	0x3d260042	0.04052759
74	0x3db07479	0.086159654
75	0xbd33afc8	-0.04386881
76	0x3d8b7f4f	0.068113916
77	0xbd982e3c	-0.074306935
78	0x3d8e57f3	0.06950369
79	0x3d2a94fa	0.04164598
80	0xbd839bf8	-0.06426233
81	0x3c52b1c0	0.012859762
82	0xbc842300	-0.01612997
83	0x3d23b65e	0.03996884
84	0xbd62af86	-0.055343173
85	0x3d1e845e	0.038700454
86	0x3cf54d54	0.0299441
87	0x3d2b120a	0.04176525
88	0xbd2effd2	-0.042724438
89	0xbc9407dc	-0.018070154
90	0xbda56462	-0.08075787
91	0x3dadb3fb	0.08481594
92	0x3d0ddce4	0.034634486
93	0x3b48d8e0	0.0030646846
94	0xbccc6e18	-0.02495484
95	0xbd174a9d	-0.03693639
96	0x3d394b2e	0.045237713
97	0xbce01328	-0.027352884
98	0xbc142440	-0.009041846
99	0x3d5e19b6	0.05422374
100	0x3da34355	0.07971827
101	0x3c661ca8	0.014044918
102	0xbd15901e	-0.036514394
103	0xbd5fb8e3	-0.05461968
104	0xbb1c41e0	-0.0023842975
105	0x3d0957fe	0.03353118
106	0x3d18bc02	0.037288673
107	0x3db15e8b	0.08660611
108	0xbdacf567	-0.08445244
109	0xbd01c375	-0.031680543
110	0x3d989a69	0.074513264
111	0xba665680	-0.0008786693
112	0x3ce9cbe8	0.028539613
113	0x3c9ccaf0	0.019139737
114	0xbcf77d8a	-0.030211229
115	0x3dabc2b1	0.08386744
116	0xbad387c0	-0.0016138479
117	0xbd4b307a	-0.049606778
118	0x3ca27b98	0.019834325
119	0x3d31c166	0.04339733
120	0xbd8859c6	-0.06657748
121	0x3cb11a28	0.021618918
122	0x3aaa3a40	0.001298733
123	0x3d3ac6fa	0.045599915
124	0x3da0213b	0.07818838
125	0xbd9dce7b	-0.07705399
126	0xbd8d64c8	-0.06903988
127	0xbd31b836	-0.043388568
128	0xbc006d60	-0.007838577
129	0xbc4b1758	-0.012395702
130	0x3d4e703a	0.050399996
131	0x3d34b52a	0.044118084
132	0x3dae6111	0.08514608
133	0xbd2e1198	-0.042497247
134	0x3c6f11b8	0.014591627
135	0xbce96532	-0.028490636
136	0x3d90efe1	0.07077003
137	0x3d278e4a	0.04090718
138	0x3d4015c6	0.046895765
139	0x3db1dae7	0.086843304
140	0x3d49754a	0.04918412
141	0x3d7f45ee	0.06232255
142	0xbda1be4e	-0.07897626
143	0x3d87e0af	0.06634652
144	0xbd7450c4	-0.059647337
145	0x3d5ecf4a	0.054396905
146	0x3c895138	0.01676236
147	0x3b1776c0	0.0023111552
148	0x3d978ee1	0.07400299
149	0xbdacfbab	-0.08446439
150	0xbbab4010	-0.0052261427
151	0xbd423c09	-0.047420535
152	0xbce246ea	-0.027621705
153	0xbcbb185c	-0.022838764
154	0xbda7a2ae	-0.081853256
155	0x3d935dfb	0.0719566
156	0x3d0e6b2a	0.03477017
157	0xbd905440	-0.070473194
158	0xbb388fa0	-0.002816178
159	0xbda97a59	-0.08275289
160	0x3d9a7ecf	0.07543718
161	0xbba905e0	-0.005158171
162	0xbd8169b0	-0.063189864
163	0xbd6d93f2	-0.05800242
164	0xbc49f058	-0.012325369
165	0xbd22d10f	-0.039750155
166	0x3cd47b24	0.025937624
167	0xbda7559e	-0.08170627
168	0x3d724b22	0.059153683
169	0x3cea6798	0.02861385
170	0xbdae6c5f	-0.08516764
171	0xbd953422	-0.07285334
172	0x3c92f45c	0.017938785
173	0xbcd38874	-0.025821902
174	0xbd871dab	-0.065974556
175	0x3c9ad4d4	0.018900312
176	0xbd5c5bfc	-0.05379866
177	0xbd0ae3a6	-0.03390851
178	0x3d4ecbca	0.050487317
179	0x3d84f533	0.064920805
180	0x3d11ff1a	0.035643674
181	0xbd4a060b	-0.04932217
182	0xbac22400	-0.0014811754
183	0x3bfc4b90	0.0076994374
184	0x3c9060c8	0.017624274
185	0xbda23c74	-0.07921687
186	0xbd9187fa	-0.071060136
187	0x3d763046	0.06010463
188	0xbdad0f2e	-0.08450161
189	0xbcb871f4	-0.022515275
190	0xbdaafe27	-0.08349257
191	0x3db31875	0.08744899
192	0xbdaae0a1	-0.08343626
193	0xbc1d68b0	-0.009607479
194	0x3da7594f	0.08171331
195	0x3d473862	0.048637755
196	0xbb24d440	-0.0025150925
197	0xbdaa5826	-0.08317594
198	0x3d8feaef	0.07027232
199	0xbcfeca22	-0.031102244
200	0xbd09a749	-0.0336068
201	0xbdadfa15	-0.08494965
202	0xbdb33248	-0.08749825
203	0xbdb253a6	-0.08707361
204	0xbd9bc03a	-0.07605024
205	0x3d9ae80b	0.0756379
206	0x3cf6e910	0.03014043
207	0xbd3f207c	-0.04666184
208	0xbd216bc3	-0.03940941
209	0xbd4fb20b	-0.050706904
210	0x3d9bbc83	0.07604315
211	0xbc3e4668	-0.011613466
212	0xbd77b526	-0.06047549
213	0xbd1eebe3	-0.038799178
214	0x3d16468e	0.03668838
215	0x3ba8a4e0	0.0051466078
216	0xbd860d00	-0.06545448
217	0x3d9bdf7f	0.07610988
218	0x3d8a63f9	0.067573495
219	0xbd1f778a	-0.03893236
220	0x3d827235	0.063694395
221	0xbc3fd5b8	-0.011708669
222	0xbd577a4b	-0.052606862
223	0x3d106134	0.03524895
224	0x3cde7ee8	0.027160123
225	0x3d8aa2c7	0.067693286
226	0x39ffe100	0.00048805028
227	0xbd87bf96	-0.06628339
228	0x3cfbd420	0.030740798
229	0x3d6f1be6	0.058376215
230	0x3d76b892	0.060234614
231	0x3d74868e	0.059698634
232	0x3c99b2bc	0.018761985
233	0x3cc67494	0.02422551
234	0x3d023d48	0.031796724
235	0x3daf2dcf	0.08553659
236	0x3d484306	0.048892044
237	0xbd962fb7	-0.0733332
238	0x3d6d9bce	0.058009915
239	0xbba52890	-0.005040236
240	0xbcaa4ad4	-0.020787634
241	0x3db07635	0.08616296
242	0xbd3af562	-0.04564417
243	0xbcd5b80e	-0.02608874
244	0x3d8ba17f	0.06817912
245	0x3d157094	0.036484316
246	0xbcd826d2	-0.026385698
247	0xbd86ee75	-0.06588451
248	0xbd30044a	-0.04297284
249	0x3cd676ec	0.026179753
250	0xbb82ae00	-0.0039880276
251	0x3d0d1904	0.034447685
252	0xbd89536e	-0.06705366
253	0x3d5aef92	0.05345113
254	0xbccf907c	-0.02533745
255	0x3d66b38e	0.05632358

fc2.bias f4 [128]
0	0xbd5ac3eb	-0.0534095
1	0xbc7c2c30	-0.0153913945
2	0xbd0ea950	-0.034829438
3	0x3d3c696a	0.04599897
4	0x3d1c5baa	0.038173355
5	0xbda9ff58	-0.08300656
6	0x3bf284b0	0.0074010715
7	0xbd5ab2e1	-0.05339325
8	0x3d1a1136	0.03761407
9	0xbd32e866	-0.043678664
10	0x3d54d13a	0.051957346
11	0xbcd90868	-0.026493266
12	0x3d2a9cbe	0.041653387
13	0x3da025ed	0.07819734
14	0x3cfb2624	0.030657835
15	0xbd7ef60e	-0.062246375
16	0xbc7b9078	-0.015354268
17	0xbc110ee0	-0.008853644
18	0xbbeacd20	-0.007165566
19	0xbda1228f	-0.0786792
20	0xbd8a247e	-0.067452416
21	0x3da3953b	0.07987448
22	0xbd42570a	-0.04744629
23	0xbd29f30e	-0.04149156
24	0xbc99da94	-0.018780984
25	0x3d973f35	0.07385103
26	0xbd180c57	-0.037121143
27	0xbda2828e	-0.079350576
28	0xbd2dd80a	-0.04244236
29	0xbcd1db78	-0.025617346
30	0xbd0b6980	-0.03403616
31	0xbb9f3ec0	-0.0048597753
32	0xbcd9dcde	-0.026594575
33	0xbd97f48e	-0.07419692
34	0xbd60979a	-0.05483208
35	0x3d9d07f9	0.07667536
36	0xbc73a680	-0.01487124
37	0xbd3a29df	-0.045450088
38	0x3d42c472	0.047550626
39	0xbd9dd8d6	-0.07707374
40	0xbd839d0c	-0.06426439
41	0xbdb45ad6	-0.08806388
42	0x3d92858d	0.07154379
43	0xbd4d20d2	-0.050080128
44	0x3b718d60	0.0036857948
45	0xbd818905	-0.063249625
46	0xbcb0a620	-0.02156359
47	0x3d6761e6	0.056489848
48	0x3c4f0240	0.012634814
49	0xbc190c90	-0.009341374
50	0x3d44a172	0.04800553
51	0x3d140304	0.03613569
52	0x3d405956	0.046960197
53	0xbd43db40	-0.047816515
54	0x3ca04dbc	0.019568317
55	0xbd672e2f	-0.05644053
56	0x3ca9a5e0	0.020708978
57	0xbc8ad32c	-0.016946398
58	0xbdaf1487	-0.08548837
59	0xbcac6864	-0.021045871
60	0xbb36afc0	-0.0027875751
61	0x3d8eda19	0.069751926
62	0x3c632c70	0.013865575
63	0x3d354a66	0.044260405
64	0xbc991978	-0.018688902
65	0xbd36078a	-0.044440784
66	0x3d0d4470	0.034489095
67	0x3d9d257b	0.076731645
68	0xba586c00	-0.00082558393
69	0xbca91e78	-0.020644411
70	0x3daeb5a5	0.0853074
71	0x3d7f82de	0.062380664
72	0xbd8c817e	-0.06860636
73	0xbc30fd30	-0.010802552
74	0x3d881f7d	0.06646631
75	0xbd64ff27	-0.055907395
76	0xbda4d1d7	-0.08047836
77	0x3ce10cb0	0.02747187
78	0x3c91066c	0.017703258
79	0xbbbf9740	-0.005846888
80	0xbcf4f9be	-0.029904243
81	0xbd04d55a	-0.03243003
82	0xbd5c3ee7	-0.053770926
83	0x3d9be421	0.076118715
84	0xbcf5cbcc	-0.030004404
85	0xbd9bfadc	-0.07616207
86	0xbda353a6	-0.07974939
87	0x3d764ffa	0.060134865
88	0x3d0fdedc	0.035124645
89	0xbcb32ca0	-0.021871865
90	0x3d5031ca	0.050828733
91	0xbc93ba08	-0.018033043
92	0x3d6082ce	0.054812245
93	0x3d5f7556	0.05455526
94	0x3d8c0239	0.068363614
95	0xbd7f42aa	-0.062319435
96	0x3b8d6250	0.0043146983
97	0xbccff1c8	-0.025383845
98	0xbbf29180	-0.007402599
99	0x3d32fcbe	0.043698065
100	0x3d957355	0.072973885
101	0x3d98e045	0.07464651
102	0xbd5c4b8e	-0.053782992
103	0x3d9508c1	0.0727706
104	0xbda74d19	-0.08169002
105	0xbc35bd10	-0.011092439
106	0xbbec1920	-0.0072051436
107	0xbd94d004	-0.07266238
108	0x3d8e053b	0.069345914
109	0x3d92d439	0.071693845
110	0x3cc9e1b4	0.024643756
111	0xbd02fb9f	-0.031978246
112	0x3da19317	0.07889383
113	0x3bb161a0	0.005413249
114	0xbd38bd72	-0.045102544
115	0x3d9b5483	0.07584479
116	0xbcaf7694	-0.021418847
117	0xbd8bde35	-0.06829492
118	0xbd5ecf27	-0.054396775
119	0xbda9af60	-0.08285403
120	0x3da6566f	0.08121955
121	0x3d2680aa	0.040650047
122	0x3cc82488	0.024431482
123	0x3d4d8386	0.05017426
124	0xbd395c31	-0.045253936
125	0xbd97702c	-0.07394442
126	0x3d3c2152	0.045930214
127	0xbdb43837	-0.08799785

fc3.weight f4 [2, 128]
0	0x3d7c727a	0.06163261
1	0x3d9cfc9f	0.07665371
2	0xbd29aba5	-0.04142346
3	0xbc558298	-0.013031624
4	0x3d83e3d9	0.06439943
5	0xbda64b85	-0.08119873
6	0x3d94780d	0.0724946
7	0xbca50224	-0.020142622
8	0x3d7dd442	0.061970003
9	0xbd9f603e	-0.077820286
10	0xbd7537e4	-0.059867755
11	0x3db30725	0.08741597
12	0x3d509a32	0.050928302
13	0x3a9bb440	0.001187928
14	0x3db3497b	0.0875425
15	0xbd8242a3	-0.06360366
16	0xbc8d1d6c	-0.017225944
17	0xbc14c4e8	-0.009080149
18	0x3c92c2fc	0.017915241
19	0x3d83c7eb	0.06434616
20	0x3cc82e68	0.02443619
21	0xbc887794	-0.016658582
22	0xbdb43c9b	-0.08800622
23	0xbd5056cc	-0.050864026
24	0x3d8de155	0.06927744
25	0xbca288b4	-0.019840576
26	0xbd5ed08f	-0.054398116
27	0xbd986157	-0.07440441
28	0x3c2e31b8	0.010631971
29	0xbcf411fc	-0.029793732
30	0x3d29675e	0.041358344
31	0x3d594922	0.05304826
32	0x3db34f17	0.087553196
33	0xbd46ab05	-0.04850294
34	0x3d4a42e2	0.04938019
35	0xbd9787bf	-0.073989384
36	0x3d8519c7	0.06499057
37	0xbd04b73e	-0.032401316
38	0x3d3c5ad2	0.04598505
39	0x3ccafd68	0.024779037
40	0xbda965e1	-0.08271385
41	0x3d2bb482	0.041920193
42	0xbd080804	-0.03321077
43	0xbcfa6f68	-0.0305707
44	0x3d23309a	0.039841272
45	0x3cea7eb8	0.028624877
46	0xbb9198b0	-0.0044432506
47	0x3d9762bb	0.07391878
48	0x3bbc02a0	0.0057376176
49	0xbd494cc2	-0.049145468
50	0xbd956ffc	-0.0729675
51	0x3c924544	0.017855294
52	0xbd1324bd	-0.03592371
53	0xbcb06770	-0.021533698
54	0xbc60b888	-0.013715871
55	0xbd59d3d2	-0.053180523
56	0xbb6d1ea0	-0.0036181584
57	0xbca576e8	-0.0201983
58	0xbd84d3d5	-0.06485716
59	0xbda2bbff	-0.07946014
60	0x3ce6e29c	0.028184228
61	0xbd878017	-0.06616228
62	0xbd8d41c7	-0.06897312
63	0xbd4922f9	-0.04910562
64	0xbd81c313	-0.063360356
65	0x3da6628d	0.08124266
66	0x3d2a406e	0.04156535
67	0xbd7eae9a	-0.06217823
68	0x3d8f4747	0.06996017
69	0xbc9513fc	-0.018198006
70	0x3d31b2f2	0.043383546
71	0xbcd750e6	-0.026283693
72	0x3dab6aad	0.08369956
73	0xbc6233a0	-0.013806254
74	0x3dafca97	0.08583563
75	0x3d8ce081	0.06878758
76	0x3cb508f4	0.022098996
77	0x3ccf8750	0.025333077
78	0x3d8e88b9	0.069596715
79	0x3d9da819	0.07698078
80	0xbd05800d	-0.032592822
81	0x3b9cbdf0	0.0047833845
82	0xbd710790	-0.058845103
83	0x3d87bb1d	0.06627486
84	0x3c0bbe50	0.008529261
85	0x3d21ed6e	0.03953307
86	0xbd34a4d1	-0.044102494
87	0xbbefb910	-0.0073157623
88	0x3d00cc48	0.031444818
89	0x3ccefde4	0.025267549
90	0x38edf800	0.00011347234
91	0x3d84b19b	0.06479188
92	0xbd273f7e	-0.040832035
93	0x3ba49880	0.005023062
94	0x3d5f5c62	0.054531462
95	0xbd9eabb0	-0.077475905
96	0x3c3b6518	0.011437677
97	0xbd241208	-0.04005626
98	0xbd13b95d	-0.036065448
99	0x3d882735	0.06648103
100	0x3d830cdd	0.06398938
101	0xbda66885	-0.08125404
102	0xbd0c0de2	-0.034192927
103	0x3c8ee158	0.017441437
104	0x3db27e3b	0.08715483
105	0xbb4d2340	-0.0031301528
106	0xba67ba00	-0.0008839667
107	0xbcf206c6	-0.029544245
108	0x3d62af46	0.055342935
109	0xbd3a2a42	-0.045450456
110	0xbd55d02f	-0.052200492
111	0x3da2d339	0.07950444
112	0xbc698e10	-0.014255062
113	0xbc9004dc	-0.017580442
114	0xbc4ff608	-0.012692936
115	0x3c32a880	0.010904431
116	0xbda48b70	-0.08034408
117	0xbd84d80c	-0.0648652
118	0xbc802080	-0.015640497
119	0xbd94802c	-0.07251009
120	0xbd8014eb	-0.0625399
121	0x3d45696a	0.048196234
122	0xbcc82e60	-0.024436176
123	0x3ce903c4	0.028444178
124	0x3d6b757a	0.05748508
125	0xbd55379e	-0.052054994
126	0x3bb55d80	0.0055348277
127	0x3b98ff30	0.0046690926
128	0x3d299276	0.04139944
129	0xbcbfe644	-0.023425229
130	0x3cf6aabc	0.03011071
131	0x3c36eb78	0.011164539
132	0x3c8d1c28	0.01722534
133	0xbcaf653c	-0.021410577
134	0xbd5e9690	-0.054342806
135	0x3ce28348	0.02765049
136	0xbda2249d	-0.0791714
137	0xbd39e2fe	-0.045382492
138	0x3ca1bc54	0.019743122
139	0xbd65c151	-0.056092564
140	0x3c90e274	0.017686106
141	0x3d123880	0.035698414
142	0xbceeb3f2	-0.029138539
143	0xbccafd04	-0.02477885
144	0x3d8f8463	0.07007673
145	0x3bcba110	0.0062142685
146	0xbc87faa0	-0.016599
147	0x3d06aff0	0.03288263
148	0xbd57ed44	-0.05271651
149	0x3d5cad0e	0.053875975
150	0xbd87e3fc	-0.066352814
151	0xbc863b38	-0.01638566
152	0xbd1256ba	-0.03572724
153	0xbc374210	-0.011185184
154	0x3b987a10	0.004653223
155	0x3d44ad52	0.048016854
156	0x3d8d7623	0.069072984
157	0x3d4c65da	0.04990182
158	0xbd6d4306	-0.057925247
159	0x3b86ced0	0.0041140094
160	0xbdaa8aed	-0.08327279
161	0x3c4f1658	0.0126396045
162	0xbd4219d4	-0.047387913
163	0x3db49d5d	0.08819077
164	0x3d42e206	0.047578834
165	0xbd74327e	-0.059618466
166	0x3d36728e	0.04454284
167	0xbb80ab80	-0.0039266944
168	0xbd8f198d	-0.06987295
169	0x3ce82124	0.028336115
170	0xbb976960	-0.004620716
171	0xbd89b532	-0.067240134
172	0x3d0fe118	0.035126776
173	0x3d53a8a2	0.051674493
174	0x3d0efa44	0.03490664
175	0xbd9e073c	-0.077162236
176	0x3b64e2a0	0.0034925118
177	0xbb9ff940	-0.004882008
178	0xbd1df0c3	-0.038559686
179	0xbd7ff62c	-0.062490627
180	0x3cd8e30c	0.026475452
181	0xbd8e882f	-0.06959569
182	0x3cbe62d0	0.023240477
183	0x3d437e5e	0.047727935
184	0xbd41c9c0	-0.047311544
185	0xbd6ecfa5	-0.058303494
186	0x3d56722e	0.052354984
187	0x3d59e552	0.053197213
188	0xbd5ec996	-0.054391466
189	0xbc6acc80	-0.014330983
190	0x3cfa96e4	0.030589528
191	0xbd1594a3	-0.036518704
192	0x3d58943e	0.05287575
193	0xbd877717	-0.066145115
194	0xbd157c90	-0.036495745
195	0xbbdda3f0	-0.0067639276
196	0xbc830334	-0.015992738
197	0xbd744b16	-0.05964192
198	0x3da03ab5	0.078236975
199	0x3daa424b	0.08313426
200	0xbd49f9e7	-0.04931059
201	0xbdad1af6	-0.08452408
202	0xbda2af5a	-0.07943602
203	0xbcf00d6a	-0.029303271
204	0x3d5a1da2	0.053250916
205	0x3d6cbd36	0.057797633
206	0xbdafdd28	-0.08587104
207	0xbd146621	-0.03623021
208	0x3cff4cdc	0.03116458
209	0xbdb24010	-0.08703625
210	0x3d51ee3a	0.05125258
211	0xbda0b965	-0.07847861
212	0xbdaa5849	-0.0831762
213	0xbb74d5c0	-0.003735885
214	0xbcc8390c	-0.024441265
215	0xbd92bfd0	-0.071654916
216	0xbb431be0	-0.0029771253
217	0xbd7fda5c	-0.062464103
218	0x3c9fb210	0.019494087
219	0x3d61b20e	0.055101447
220	0xbd50a1dd	-0.050935615
221	0x3d9d2f3f	0.07675027
222	0x3d50bc4a	0.050960816
223	0xbd4e5562	-0.050374396
224	0xbabe8340	-0.0014534965
225	0xbd1671f9	-0.036729787
226	0xbd8b68f9	-0.06807131
227	0x3d4b3752	0.049613304
228	0xbd393122	-0.045212872
229	0x3dab7d73	0.08373537
230	0xbca0eae8	-0.019643262
231	0xbd9f7428	-0.07785827
232	0x3da3d1a1	0.07998968
233	0x3d7ee382	0.062228687
234	0x3d86035f	0.06543612
235	0x3c7b4058	0.015335165
236	0xbd0411f2	-0.032243676
237	0xbcaec5c8	-0.021334544
238	0x3b8764a0	0.0041318685
239	0xbda1211b	-0.078676425
240	0xbcf4e6ac	-0.02989515
241	0xbdaf9319	-0.085729785
242	0x3beb5740	0.007182032
243	0x3d1b9cca	0.037991323
244	0x3d71a442	0.05899454
245	0xbca4adb4	-0.02010236
246	0x3d94b633	0.07261314
247	0x3d2aebd2	0.041728802
248	0x3d5a1a6a	0.053247847
249	0xbc3f1c48	-0.011664458
250	0xbc9d3de4	-0.01919455
251	0xbcc918a0	-0.024547875
252	0x3d826207	0.063663535
253	0x3d94e313	0.072698735
254	0x3d93caaf	0.07216393
255	0xbd3b6351	-0.045749012

fc3.bias f4 [2]
0	0xbd6df27f	-0.05809259
1	0x3d49c7e2	0.04926289
