customTrainer/results/AgentBall08/RollerBall/RollerBall-0.onnx (onnx, 76482 bytes, 6 tensors)

fc1.weight f4 [128, 16]
00000000: 4e66 5fbe c8d2 c43d 664d 47be bc34 dd3d
00000010: 421c 343e 10e5 0ebe f042 5ebe 9c8d d2bd
00000020: a8a2 07bd 6878 1fbe 3234 3c3e 34ce ff3d
00000030: a256 6ebe e243 6fbe 8636 71be a858 233d
00000040: fc33 78be 4cd6 103e b0ca d43d e0db febd
00000050: 68c5 2e3d 10cb 9c3d 2a76 1a3e 1846 00bd
00000060: 78ed 76bd ca53 203e e07f 0c3c 8033 46bb
00000070: 3071 783d 6ceb 8e3d 2274 083e 02df 0abe
00000080: 8063 c4bb b8ec 3e3d 1c5a 843d 38b8 643e
00000090: 3077 9dbd a8bb 753e 6038 673e 2822 2bbe
000000a0: 50c4 a5bc 70cd 02bd 649a a3bd bc8a f5bd
000000b0: 7619 2ebe 4c62 22be 54c3 36be e81a 68be
000000c0: 1c12 4dbe 14a5 ef3d 16de 0ebe 96c6 0bbe
000000d0: 0424 02be 184d 40be e460 253e 6038 03bc
000000e0: 84ba 3a3e 8c16 173e 40c5 7c3e bc6c 813d
000000f0: 7cfb 74be 5075 74be 70f9 343d fc31 59be
00000100: 0093 2b3e 0092 3b3e f850 1dbe 340a eabd
00000110: 0085 643d d8aa 73bd 2ae4 23be 8241 463e
00000120: 80f8 e7bc 3c72 653e 98a1 2d3d 7429 f83d
00000130: 1008 f9bd 4249 3dbe 14c6 c93d 30cc 423e
00000140: 9842 383d 100b 42bd 303b 8c3c dc9d 5a3e
00000150: 1e5d 2abe 5cb0 933d ca25 17be c006 2e3e
00000160: 18eb a73d dc60 5fbe b4f6 e93d 9461 623e
00000170: 9c4c afbd 802c e6bb 4488 1c3e a4cc d33d
00000180: 6864 443e fc0f c43d 205f acbd 08ae 77bd
00000190: e46b b7bd 92a2 023e 1a10 113e 1876 db3d
000001a0: 401e cf3c a459 d0bd a8fa 65be 9883 5fbe
000001b0: 2888 453d a6b4 70be 78f6 b63d 007d f1bb
000001c0: d887 2b3e 1c9c 8bbd 72e3 773e 3a35 673e
000001d0: d202 5fbe 0092 603c ac32 9ebd 587b 783e
000001e0: a4cd d5bd 886a 563e 0868 6e3d 563e 723e
000001f0: 88a1 26be e001 033c 907e c2bc 864a 75be
00000200: f0b4 6b3d d2e5 6dbe b078 013e 8ce3 643e
00000210: 6081 5fbd f0d3 42bd 705f b0bc dae3 5b3e
00000220: 46b6 72be 60ae 66be d061 a6bd 7089 843d
00000230: a651 463e 50e0 533d 5204 1cbe 944b c43d
00000240: 840f b7bd dccc d6bd b821 953d a035 d03c
00000250: 6025 6ebd 50ac 49be c8b2 573e 468e 3dbe
00000260: faa7 7c3e b6ba 78be f0d5 a1bc d088 ea3d
00000270: c2d4 3d3e a60e 3a3e 389a f4bd 44b1 f4bd
00000280: 1004 bdbc 26ed 23be ac5f 33be 56ca 48be
00000290: c83e 2cbe 100a e5bd 547b 683e 000f f13a
000002a0: b0a5 a53c 94f7 973d b060 b2bd d8a8 31be
000002b0: 5088 7b3d a09b d3bd 9236 423e 44e2 c3bd
000002c0: d6c8 78be 3841 27be 28df 04bd 6465 443e
000002d0: 544d b0bd 301a f93d e076 3a3e 604b 5c3c
000002e0: 9299 0f3e d475 b23d 8e08 603e 004a 8dba
000002f0: ac09 373e c0b5 18bd 54ea 28be 80b5 efbb
00000300: c884 793e acb6 853d dc7c 4d3e 7025 a83d
00000310: b890 f2bd 5ef1 38be 327d 513e 7a75 373e
00000320: ec4d e83d 52a2 57be b0b5 583e c882 503d
00000330: ac7d 80bd 78ca e5bd 52ba 73be c0d6 43be
00000340: 203e 3cbd d43a 323e 5811 723d 501e 43bd
00000350: d01d 8d3c 9abd 753e 5e01 333e 4cbe bf3d
00000360: be34 6e3e 1041 2abd f0f2 f13d 689f 403d
00000370: 70ca 3fbd 1096 ddbc 8c8f ec3d c865 773e
00000380: 904a 2bbe 6040 1b3c 2631 203e de5d 6dbe
00000390: 40b1 45be 00e3 6cbd 669b 11be 5e2f 65be
000003a0: 0cc7 25be e09f 1abd 2490 263e 6edb 5e3e
000003b0: 4623 21be 02cb 65be 706d 24bd 645f dbbd
000003c0: 30d3 813d 50d7 37be c08c ae3b f27b 793e
000003d0: 7a41 53be 809a 8ebb de59 3e3e e037 c83c
000003e0: 400a 0c3e c048 7f3d 942c df3d c682 173e
000003f0: 20c7 e83d 786f 24be 38ca 7fbd 4080 453e
-0.2181637 0.09610516 -0.19463119 0.10801074 0.17588905 -0.13954568 -0.21705222 -0.10280916
-0.033114105 -0.15573275 0.18379286 0.12490502 -0.23275235 -0.23365739 -0.23555955 0.03987947
-0.2423858 0.14144248 0.10390222 -0.124442816 0.04266873 0.076559186 0.15084139 -0.031316847
-0.06028506 0.15656963 0.00857541 -0.0030243099 0.06065482 0.06978497 0.13325551 -0.13561633
-0.0059933066 0.04661247 0.064624995 0.22335899 -0.07688749 0.23997366 0.22580099 -0.16712248
-0.02023521 -0.0319342 -0.07988432 -0.11989352 -0.170019 -0.1585781 -0.1784795 -0.22666514
-0.2002644 0.11701408 -0.13951907 -0.13649973 -0.12709051 -0.18779409 0.16150242 -0.008009046
0.18235213 0.14754695 0.2468462 0.063195676 -0.23924059 -0.23872876 0.044183195 -0.21210474
0.16755295 0.18317413 -0.15362918 -0.11427727 0.0557909 -0.0594891 -0.16005006 0.19360927
-0.028316736 0.22406858 0.042390436 0.121172816 -0.12159741 -0.18484977 0.098522335 0.19023204
0.044985384 -0.04737383 0.017118067 0.21349281 -0.16637084 0.07211372 -0.14760509 0.16994762
0.081991374 -0.21814293 0.11424008 0.22107536 -0.08559534 -0.007024348 0.15286356 0.103417665
0.19178927 0.09573361 -0.08416581 -0.060468704 -0.089561254 0.12757328 0.14166299 0.10715884
0.025282979 -0.101733476 -0.22458899 -0.21827543 0.04822555 -0.23506412 0.08933729 -0.0073696375
0.16751039 -0.06816885 0.24207857 0.22578898 -0.2177842 0.013706684 -0.07724509 0.24265802
-0.104396135 0.20939076 0.05820468 0.23656592 -0.16272557 0.0079960525 -0.02374199 -0.2395421
0.057545602 -0.232322 0.12643695 0.22352427 -0.05456674 -0.0475654 -0.021529883 0.21473637
-0.23702344 -0.22527456 -0.08124125 0.064715266 0.19367084 0.051727593 -0.15236023 0.09584728
-0.08938506 -0.104882926 0.07281822 0.025416195 -0.058141112 -0.19694638 0.21064293 -0.18511304
0.24673453 -0.24289975 -0.019755334 0.11451876 0.18538192 0.1816965 -0.119434774 -0.11947873
-0.023073226 -0.16008434 -0.17516965 -0.19608435 -0.16820824 -0.1118356 0.22703296 0.0018391311
0.020220608 0.07420269 -0.08709848 -0.17349565 0.061409295 -0.103324175 0.1896613 -0.09564641
-0.24295363 -0.16333473 -0.03243938 0.19179302 -0.08608499 0.12163198 0.1820941 0.013445705
0.14023426 0.0871388 0.21878263 -0.00107795 0.17874783 -0.037282705 -0.16495639 -0.0073153377
0.24367058 0.065289825 0.20067161 0.08210266 -0.11844009 -0.18060824 0.20457914 0.17915908
0.113429874 -0.21058014 0.21163058 0.050905973 -0.0627397 -0.112202585 -0.23801544 -0.1912489
-0.045957685 0.17405254 0.05909857 -0.04763633 0.01722613 0.23998109 0.1748099 0.09362468
0.23262307 -0.041565955 0.11813915 0.04702702 -0.04682392 -0.027049094 0.11550817 0.2415992
-0.16727662 0.009475797 0.15643749 -0.23180339 -0.19305897 -0.05783367 -0.14219436 -0.2238135
-0.16189212 -0.037750125 0.16265923 0.21763393 -0.15736112 -0.22440723 -0.04014343 -0.10711554
0.06339109 -0.17953229 0.0053268373 0.24363688 -0.20630446 -0.004351914 0.18588969 0.024440706
0.13675785 0.06232524 0.108971745 0.1479598 0.11366105 -0.16058147 -0.06244871 0.19287205

fc1.bias f4 [128]
00000000: 169c 68be ec2f 823d a0c7 fcbd 6ecf 16be
00000010: c801 663d 20d1 2abd 583d 9c3d fade 3b3e
00000020: e405 49be c0fc 403c dc0a 143e 0c89 b83d
00000030: b2a1 1a3e 14d9 6b3e c0bc 55bd 2c1b 68be
00000040: 7047 f03c 648b 8a3d 167c 2e3e a898 60bd
00000050: a8d7 4bbe 00ba f1ba e462 0f3e a406 8ebd
00000060: 00a1 c1bc ea55 3fbe 986c 233e 7cb4 ebbd
00000070: c043 0abc c05b 22be 84cd 9bbd e839 6b3d
00000080: 8cb3 e1bd f4f8 32be bcce ccbd e0fa 6abe
00000090: a0a9 6dbe 5080 ea3d c0ef c93d b0b6 573d
000000a0: e064 2fbe 3e1e 643e 083d 2fbd 30be d7bc
000000b0: 509c c2bd 0490 fbbd 28bd 603d 80b0 e93c
000000c0: 3c55 91bd 5055 0bbe 400b 2b3d 70e6 ef3d
000000d0: 382b 3d3e d4d0 6f3e da70 063e f4f2 c0bd
000000e0: ca3d 733e e81d 3d3e 7804 02bd 041e d63d
000000f0: c6a6 48be dcb0 66be 4049 2dbd e830 3abd
00000100: e035 9cbc 0602 723e 764f 32be d0d5 d7bd
00000110: 38fe 023e 0047 3b3c fc80 f23d 0654 0c3e
00000120: 7470 f43d 5c2a 853d 8002 173d 004e bf3b
00000130: 40e7 55be 90f3 bfbd d668 6abe 221f 7abe
00000140: b8ed 6e3d 2040 2c3c e6c9 59be 685f fabd
00000150: aa8a 1d3e b6de 033e 4670 0abe da03 32be
00000160: 068f 733e dcab 113e c8db 0f3d 9263 433e
00000170: b64e 3a3e 4885 233d c08c 0bbc 38d8 62bd
00000180: f8ca 7c3e 0012 8b3a dc5c b63d 4077 c0bc
00000190: 04ed 183e 506c 953c e03f 40be 2841 183d
000001a0: 5283 373e 406f 58be e037 693e ced4 60be
000001b0: be51 0f3e ec88 203e 808e 383b 04d3 503e
000001c0: 401c 683c c4df e93d 22a3 28be 001c 093a
000001d0: 6e56 3d3e 00b8 693c 3eec 7a3e 0cb0 203e
000001e0: 5048 163d 8037 fcbc 2abc 49be d236 6e3e
000001f0: 141b 08be 8843 313e 0c7e 79be f004 713e
-0.22715792 0.063567966 -0.12342763 -0.14727566 0.056154042 -0.041703343 0.07628888 0.18346778
-0.19631153 0.01177901 0.14457268 0.090105146 0.15100744 0.23032027 -0.05218196 -0.22666615
0.029330939 0.06764868 0.17039523 -0.054833084 -0.19906485 -0.0018442273 0.14002568 -0.0693486
-0.023636341 -0.18685117 0.15959394 -0.11509034 -0.008439004 -0.15855312 -0.07607558 0.05742827
-0.11020574 -0.1747778 -0.10000369 -0.22947264 -0.23209238 0.11450255 0.09860182 0.05266446
-0.17128325 0.22277161 -0.042782813 -0.026335806 -0.095024705 -0.12283328 0.054867893 0.028526545
-0.07096335 -0.13606763 0.041758776 0.11713874 0.18473518 0.23419505 0.13128987 -0.0942134
0.2375404 0.1846844 -0.031742543 0.10454944 -0.19594869 -0.22528404 -0.042306185 -0.045456797
-0.019068658 0.23633584 -0.17413124 -0.105388284 0.1279229 0.011430502 0.11841008 0.13703927
0.11935511 0.0650222 0.03686762 0.0058381557 -0.20888996 -0.09372628 -0.22891554 -0.24425939
0.058332175 0.0105133355 -0.21268424 -0.122252285 0.15384927 0.12877926 -0.13519391 -0.17384282
0.23785028 0.14225715 0.03512171 0.19080952 0.18194088 0.03992203 -0.008517444 -0.055381984
0.24686801 0.0010610223 0.0890443 -0.023494363 0.14934164 0.018240124 -0.18774366 0.037171513
0.17921188 -0.21136189 0.22775221 -0.21956179 0.13996026 0.15677232 0.0028161108 0.20392996
0.014166892 0.11419633 -0.1646848 0.00052303076 0.18490002 0.01426506 0.24504182 0.15692157
0.036690056 -0.030788183 -0.19700685 0.232631 -0.1329158 0.17310917 -0.2436449 0.2353704

fc2.weight f4 [128, 128]
00000000: 2d64 85bd 44a9 c4bc 409a 053b fa69 1cbd
00000010: 0c77 f23c 4e64 3cbd 7814 79bd ccf1 0dbd
00000020: 2221 68bd 7a8b 8fbd c6eb 503d 00c8 59bb
00000030: b2a7 3e3d e006 d6bc 1636 88bd d595 b33d
00000040: 2ed1 1e3d cefb a7bd f8e6 023c acb6 dcbc
00000050: 83fe 55bd f977 64bd 03be a63d 2af9 59bd
00000060: 19b8 a33d a9a0 903d e637 43bd 6032 c23c
00000070: 92dc 4f3d c697 d4bc bbfe 18bd 489c 3abc
00000080: bcac 85bc c8a5 aebd f818 b0bd 283b 983c
00000090: 41a0 aabd c048 933c ead1 3f3d 0629 88bd
000000a0: 9470 8cbd f8e6 e03c 45a2 a5bd e0a1 7fbb
000000b0: 99be b23d d4fa a0bc 601c d53c 3b85 a3bd
000000c0: 1256 a6bd 20ea 5ebc c8ba 7cbc 8836 023c
000000d0: ccef a3bc 8ac6 303d ed86 67bd 87a6 983d
000000e0: 3908 b3bd 1224 573d 4060 103c 88e0 44bc
000000f0: 2054 1ebb 1d64 08bd 05b8 49bd 5e4b 653d
00000100: 68d4 9bbc 048d aebd 60c9 14bc 7cc7 f6bc
00000110: d88e 6cbc d6da 613d 74e7 82bc 969e acbd
00000120: eaa5 a1bd 6653 ebbc 2a45 e3bc 8019 c53c
00000130: a4a1 c0bc ac47 c93c 4060 b63b 80d0 08ba
00000140: 3bc6 05bd c8b0 57bc ef80 31bd 591b 0abd
00000150: d03f bf3b 2442 913c 7845 92bd 94f4 6ebd
00000160: e6b9 29bd 8314 ae3d c3e7 a13d d262 7d3d
00000170: 79e2 1cbd 70e7 133c e195 843d 1a4a 05bd
00000180: 176d 7bbd b452 93bc 5ddc 973d 1b46 903d
00000190: 4000 b53c 1d7a 8c3d 177e b4bd e05d 1d3b
000001a0: 8065 34bc d118 3fbd fe20 f8bc be9c 2e3d
000001b0: 8a22 723d 36ea 3d3d ce52 353d a0d8 5fbb
000001c0: d663 763d 8ccb f23c 3004 5bbd 4731 65bd
000001d0: 708c b7bc ff95 02bd b758 34bd 463f e6bc
000001e0: 234c 833d 00da dfba 90ce 0bbd 4eb7 423d
000001f0: 1243 533d 5b20 993d 08a6 7cbd 7c9e fbbc
00000200: 38d1 57bc 7a96 323d 6060 5ebc b0c6 80bd
00000210: 1659 85bd 27a8 813d a010 6abb 6c6d ce3c
00000220: 6f6d b4bd f0d1 b9bc 6827 4f3c 677b 9a3d
00000230: 60be e13c f4b3 6dbd 3a86 8dbd 18a9 403c
00000240: 0b50 ae3d 7d45 1bbd aba1 8f3d e92c 9ebd
00000250: 1d56 20bd ce3b 4abd e438 96bd 4689 10bd
00000260: 5a7d 4b3d 0076 1cba 0000 ffba 18a0 723c
00000270: 802c e8ba 6cf8 e6bc 8023 01bb 9084 e4bb
00000280: 7f41 a53d a886 8c3c 0264 b0bd 0642 0bbd
00000290: d4de c1bc b39b 65bd 0e9d 4f3d 82fd 72bd
000002a0: 5c56 67bd 4be7 1bbd f6d0 7abd 09ff 17bd
000002b0: d8cd 73bc 2b25 4ebd 645e bebc 8b65 963d
000002c0: 883c 643c 56e3 f0bc e065 4cbb 4c4a 38bd
000002d0: 68f3 d2bc 0d9a 15bd 001e 0d3a 74a0 91bc
000002e0: c2e5 6fbd 16df 783d 7618 303d 5dde 8cbd
000002f0: 0016 1f3c a7ba 9cbd c8ac 3bbc 3b0a 2fbd
00000300: 708c 353c 100e 183c 65c2 0ebd 6a0a 1c3d
00000310: 10e8 723c 0058 9dbd ab0f 9e3d 54e1 123d
00000320: 866a 783d 28e5 d2bc 4d1a 71bd 808d bfbb
00000330: bba0 3cbd 0d16 b0bd ae6e a3bd d60c 84bd
00000340: 8a9c 2cbd ba79 513d 3440 a1bd cd9a 90bd
00000350: d83a 66bc bd63 8b3d 3334 4dbd 0f47 49bd
00000360: 6874 89bd 9098 c93c d89b 043c cc7a cd3c
00000370: 30b8 103d c559 aa3d 3985 983d 0869 63bc
00000380: 404b df3a 0414 64bd fae3 763d 20ab 40bc
00000390: 083e 7bbc 0832 adbc 23a1 913d 0cc1 73bd
000003a0: a582 18bd 583e 89bd d5a0 6ebd 3c6c c63c
000003b0: 1c26 aebd c2da 723d 01d6 9bbd d81b 74bc
000003c0: b0d6 fc3b a836 ba3c fbba 863d e147 853d
000003d0: 508f 9dbb 6025 13bc 1cb8 f5bc f0b4 55bc
000003e0: 1f0f 9b3d 8616 36bd e260 173d f608 9dbd
000003f0: af73 a53d 7ac1 5ebd 7b9b b3bd 4338 30bd
-0.06513248 -0.024006493 0.002038613 -0.038187005 0.029597782 -0.045994096 -0.060810536 -0.034654424
-0.056672223 -0.07009025 0.0510061 -0.0033230782 0.046546645 -0.026126325 -0.06650941 0.087688126
0.038773708 -0.08202325 0.007989638 -0.026942573 -0.052244674 -0.055778477 0.081417106 -0.053216137
0.07994098 0.070618935 -0.04766073 0.023705661 0.05074746 -0.025951277 -0.037352305 -0.011389799
-0.016317718 -0.08527714 -0.085985124 0.018582895 -0.08331347 0.017979026 0.04683105 -0.066484496
-0.0685741 0.027453884 -0.08087591 -0.0039006397 0.0872776 -0.019650854 0.026014507 -0.07984396
-0.08121885 -0.013605624 -0.0154253915 0.007947572 -0.020011805 0.04315809 -0.05652516 0.074536376
-0.08741803 0.052524634 0.00881201 -0.012016423 -0.002415903 -0.0332986 -0.04924776 0.05598008
-0.019022182 -0.0852299 -0.009081215 -0.030124418 -0.0144383535 0.05514034 -0.015979506 -0.08428685
-0.07892974 -0.02872629 -0.027742941 0.02406001 -0.023514576 0.024570309 0.005565673 -0.0005219057
-0.03265975 -0.0131647065 -0.04333585 -0.033717487 0.0058364645 0.017731734 -0.07142156 -0.058338717
-0.041437052 0.08500006 0.07905533 0.06186182 -0.03830192 0.009027347 0.064739 -0.032541372
-0.061383333 -0.017983772 0.07415078 0.070446216 0.022094846 0.06859229 -0.08813112 0.0024012253
-0.011010528 -0.046654526 -0.03028917 0.04262995 0.05911497 0.04636594 0.04426842 -0.0034156218
0.060153805 0.029638074 -0.05347079 -0.055955198 -0.022405833 -0.03188133 -0.044029918 -0.028106343
0.06411006 -0.0017078519 -0.03413254 0.047538094 0.051577635 0.074768744 -0.061681777 -0.03071522
-0.01317244 0.043600537 -0.013572782 -0.06287897 -0.065111324 0.06330901 -0.0035715476 0.02519866
-0.08809935 -0.022683114 0.0126436725 0.075430684 0.027556598 -0.058032945 -0.06910367 0.011759065
0.08511361 -0.037908066 0.070132576 -0.0772341 -0.039144624 -0.04937344 -0.0733507 -0.035287164
0.04968009 -0.0005968511 -0.0019454956 0.014808677 -0.0017713457 -0.028194629 -0.0019704998 -0.0069738105
0.08069133 0.017154053 -0.08612825 -0.03399851 -0.023665823 -0.05605669 0.05068689 -0.059323795
-0.056478843 -0.038062375 -0.061234437 -0.037108455 -0.01488062 -0.050328415 -0.023238368 0.073435865
0.013930447 -0.029405277 -0.0031188652 -0.04499273 -0.02575083 -0.036523867 0.00053831935 -0.017776705
-0.058568723 0.060759626 0.042992078 -0.0687835 0.009709835 -0.076527886 -0.0114547685 -0.042734366
0.011080846 0.0092806965 -0.034853358 0.03809587 0.014825836 -0.076828 0.07717832 0.03585942
0.060648464 -0.025744036 -0.058862973 -0.0058457255 -0.046051722 -0.08597956 -0.07980095 -0.06447761
-0.042141475 0.051141478 -0.07873574 -0.07060776 -0.014052115 0.06806133 -0.05009861 -0.049140032
-0.06711656 0.02460888 0.008093797 0.025082968 0.035331905 0.083179034 0.07447285 -0.013880022
0.0017035976 -0.05568315 0.06027601 -0.011759549 -0.015334614 -0.02114202 0.071108125 -0.059510276
-0.037233967 -0.06701344 -0.05825885 0.024221532 -0.085033625 0.059290655 -0.076091774 -0.014899217
0.0077160224 0.02273114 0.065786324 0.065078504 -0.004808344 -0.008981079 -0.029995017 -0.013043627
0.075712435 -0.044455074 0.03695763 -0.07667725 0.080787055 -0.054383732 -0.0876989 -0.043022405

fc2.bias f4 [128]
00000000: 0093 6bbb b864 9d3c deb8 3bbd 00b9 843b
00000010: d237 2abd 7da1 b03d db7c b43d cddf 92bd
00000020: b1a5 59bd 1895 323c 8f62 9ebd 12c6 763d
00000030: f206 83bd c0d2 e5bb 3cf3 15bd 6a03 0bbd
00000040: d0fa 72bd d4ff a2bc b368 06bd 32ba 8bbd
00000050: 7609 663d b71a 853d 0358 1ebd 8fb9 22bd
00000060: 945b 8ebd 530b 0dbd 26af 393d 9ce1 b03c
00000070: c9ab 1bbd afad ae3d 00b6 70b9 80d1 e7bb
00000080: 38eb cebc 5427 36bd a35a 29bd 1198 a0bd
00000090: 1634 123d f4d8 973c d0be 083c 20b3 4dbc
000000a0: 26c2 47bd f0bb 68bc 60a2 98bb 67fa 903d
000000b0: 361a 123d b0a6 7b3c 7506 38bd a0ad d13b
000000c0: f323 a13d 479b a43d 1067 09bc 40c4 b3bd
000000d0: 5ab0 2a3d e32c 1cbd e0b4 833b e72a 983d
000000e0: af93 a13d e092 cebc f6bb 363d b04e ecbc
000000f0: 02c9 1c3d 00a8 44b9 ac4b 24bd caa5 723d
00000100: 5c3e a83c 7028 aebb e689 573d 2a57 6e3d
00000110: cd05 b23d 8c7d fd3c bef3 24bd 09c2 a03d
00000120: c8f1 8c3c f969 b2bd 5179 32bd c039 69bc
00000130: 8d43 aa3d 8056 503c 48a7 99bc 9712 96bd
00000140: cf03 83bd 8b47 b33d f02c b13c b49e ac3c
00000150: 9e34 6a3d 6dca 8c3d 5850 253c 1da8 4cbd
00000160: eea7 723d e61c 68bd 4513 903d 70ae 153d
00000170: d0b6 873b 1c72 92bd 8002 053c ac58 f63c
00000180: e86f 283c a08d ef3b 2ca6 9c3c ae5b 173d
00000190: b0da 51bc 78c6 69bc e940 26bd 8023 37bb
000001a0: 06c3 3c3d 04f3 bbbc 40e5 14bc 53ca 1dbd
000001b0: 1f75 91bd 085c 463c d55b a8bd 506f be3b
000001c0: a45a adbd 418b 4abd 3d7c adbd b52e 923d
000001d0: 3e8e f4bc a096 953b a6ee 3e3d 60d4 e43b
000001e0: 00e0 053b f636 363d c66c 1c3d c550 6fbd
000001f0: f08e 90bb 1114 39bd 7a68 663d 4894 3a3c
-0.0035945773 0.019213066 -0.0458306 0.004050374 -0.04155714 0.086245514 0.08812877 -0.07171593
-0.05313653 0.0108998045 -0.07733642 0.06024749 -0.06397809 -0.0070136487 -0.03660892 -0.033938803
-0.059321225 -0.019897379 -0.032814693 -0.06822623 0.056161366 0.06499236 -0.038658153 -0.039727744
-0.06951061 -0.034434628 0.04533305 0.021591954 -0.038005624 0.08529221 -0.00022955984 -0.007074535
-0.025258645 -0.0444711 -0.041346204 -0.07841504 0.035694204 0.018536068 0.0083462745 -0.012554914
-0.04876914 -0.014204964 -0.0046580285 0.070790105 0.035669528 0.015359566 -0.044928033 0.0063988715
0.07868185 0.08037429 -0.008386388 -0.08777666 0.04167209 -0.038128745 0.0040193647 0.07430058
0.078894965 -0.02521652 0.044612847 -0.028846115 0.038277633 -0.00018754601 -0.04011123 0.05924014
0.020537548 -0.005314879 0.052621745 0.058188595 0.08692513 0.030943654 -0.040271513 0.07849509
0.017205134 -0.08711619 -0.043572728 -0.01423496 0.083136655 0.012715936 -0.018756524 -0.073277645
-0.06397211 0.0875388 0.021627873 0.02107177 0.057179086 0.06874547 0.010089956 -0.049965013
0.05924218 -0.056668185 0.07034925 0.03654331 0.004141666 -0.07150671 0.008118272 0.030071579
0.010280587 0.007310584 0.019122206 0.036952667 -0.012808487 -0.01426851 -0.040589247 -0.0027944744
0.046084426 -0.022943027 -0.009087861 -0.03852303 -0.07102417 0.012106903 -0.082206406 0.0058116093
-0.08464554 -0.04944921 -0.08470962 0.07137815 -0.029852983 0.004565075 0.04661431 0.006983325
0.0020427704 0.04448601 0.038189672 -0.058426637 -0.0044115707 -0.045185152 0.05625198 0.011387892

fc3.weight f4 [2, 128]
00000000: 6612 1b3d 847c a5bc 7c46 dcbc 682f 0b3d
00000010: 005c d0bc c8fc e43c 2e6f 18bd 9542 9abd
00000020: aa4b 71bd 5c2b 21bd 1a5a 773d 7067 a43b
00000030: 00d2 2339 8d52 a8bd 6b50 b03d c440 26bd
00000040: 0020 03b7 42fa 6cbd 2081 c83b a082 50bb
00000050: 5486 b8bc 65cd 9e3d bdc2 a23d 1084 193c
00000060: a8ac 2a3c 27a1 5bbd 3cfe 88bd 6a4e 17bd
00000070: 58ef 993c 7147 9e3d e04f 0dbb f0a6 753c
00000080: a9f0 8a3d 9082 2abd 498d a8bd 3990 b4bd
00000090: ea47 8fbd c623 763d a48b f13c 6ed9 253d
000000a0: 038e 90bd e04e a1bd e35c ae3d 6833 75bc
000000b0: 39f2 9e3d 7ded 93bd e0ad 2bbb 9248 603d
000000c0: 18e2 b23c 90d2 8fbd 905c 86bb 638e b1bd
000000d0: 53f8 b1bd ffc7 8a3d e463 3fbd e89b 7b3c
000000e0: dd94 90bd 7ed5 9fbd 4ca5 93bd 23a7 a43d
000000f0: da47 9ebd 0683 87bd 1a17 2c3d eb50 acbd
00000100: 1286 3c3d 904e 64bc 28ba 06bc 961e 00bd
00000110: 7714 06bd 54b0 75bd 8a16 053d fc7f 84bd
00000120: 5ced 58bd 0874 a3bc 0980 ae3d 63e3 9e3d
00000130: b196 20bd c863 04bd 4006 d43c 4541 8cbd
00000140: 8e30 60bd ec8b 8cbd c897 173c 2443 b4bc
00000150: 9387 81bd a361 8c3d 453d 5cbd 6e09 7c3d
00000160: 9a79 4f3d 506f c0bc 8053 133b 80e2 e83b
00000170: b0d2 833c 6e33 37bd dcc4 9cbc bb34 9a3d
00000180: d922 853d 380c 2fbd ac9a afbd 1f7b 3ebd
00000190: 3667 62bd 0c4b f73c 1406 b9bc f539 953d
000001a0: 6e4b 6fbd 263a 243d aec4 393d ec2d 3fbd
000001b0: 15a7 80bd 4034 4ebc bb09 933d b497 c5bc
000001c0: 8fc0 89bd f60f 4a3d ae98 93bd 80e5 e3bb
000001d0: a472 cd3c 3576 b1bd 11a7 adbd 8c5e a93c
000001e0: 4fb4 83bd 4e5e 81bd 2dfe acbd adc5 ac3d
000001f0: 6be8 3bbd f768 87bd ccca 11bd 0e86 4c3d
00000200: 4b48 893d fe3f a4bd 9e42 a6bd e86d 75bd
00000210: 7ca6 97bc 7fa4 b0bd 5807 4a3c 60a1 28bd
00000220: f078 be3c bc29 d73c 1f05 49bd 51d5 92bd
00000230: 17e2 32bd afb5 11bd 4447 153d 2912 2bbd
00000240: 005d b5bc b151 953d 20ff 623b 006c 4c39
00000250: b0c6 98bb 0ff9 63bd 80ad 0bbc 6649 5a3d
00000260: 80c9 97bc fd02 b4bd c2a7 673d b579 85bd
00000270: c8c4 d23c bfd5 8a3d 206d 863c 862c 263d
00000280: bd23 8a3d 50c1 a3bd 338e a43d a8f5 d63c
00000290: 00f0 fbbc 6451 55bd 70b3 9dbd 996f 963d
000002a0: 48c4 a13c 0e16 3e3d 42c6 93bd c019 5ebd
000002b0: 1cfe bf3c 0b8f b03d 4b4a 7abd f581 933d
000002c0: 2693 663d d0ad cc3c a07a fc3c 2cd7 06bd
000002d0: 5bf1 33bd 026b 98bd a87e 0e3c 46d4 1b3d
000002e0: 4597 6dbd eeb6 3d3d 1830 7cbc 001f 92bd
000002f0: a37d a63d a3d3 b13d 2056 7fbb c4fd a93c
00000300: 0238 673d ec66 b23c ce06 333d 156f 65bd
00000310: 483e 173c 4251 84bd 96e4 293d f0be b53b
00000320: a063 4d3b a0aa 063c c71a 90bd e2e3 a9bd
00000330: dae8 483d 09e5 923d 90e9 b9bc d662 29bd
00000340: 4aaa 283d 6765 923d 5086 2bbc 9b03 abbd
00000350: 8542 05bd efa4 aa3d 2be9 13bd 5e64 dbbc
00000360: d496 9abd 0cac e3bc 91df 74bd 40bb 043b
00000370: 7afd 95bd 0301 843d cb4b 9c3d cc11 95bd
00000380: 4f33 a2bd 71a3 93bd c4e1 f83c a421 863c
00000390: 0d3d 42bd 6f1f 0fbd 6e05 94bd acfd 81bd
000003a0: af51 803d 38be d2bc 984d 50bd ed2f 9f3d
000003b0: eb88 ad3d 2f4b aa3d 7842 a9bc 5d58 4fbd
000003c0: 7693 163d e881 2a3c 0268 aabd ed57 93bd
000003d0: 48a7 453c 8a28 193d c862 403c 6979 903d
000003e0: 787f 43bd 696a a7bd e6f7 a3bd c869 d2bc
000003f0: 051d 903d f6f2 443d 1091 50bc 52e2 8abd
0.037859343 -0.020200975 -0.026889078 0.033980757 -0.025434494 0.027952567 -0.037215404 -0.07532231
-0.05891005 -0.03934799 0.060388662 0.0050172135 0.00015623122 -0.0821887 0.086090885 -0.04058911
-7.815659e-06 -0.057855852 0.0061189085 -0.003181614 -0.02252499 0.0775402 0.079473 0.009369865
0.010417141 -0.053620484 -0.06689116 -0.036940016 0.018790886 0.0772847 -0.0021562502 0.014993414
0.067841835 -0.04162842 -0.08230073 -0.08816571 -0.069961384 0.06009271 0.029485531 0.04049056
-0.070583366 -0.07876372 0.085138105 -0.0149658695 0.07761044 -0.07223032 -0.0026196167 0.05475671
0.021836326 -0.070225835 -0.00410039 -0.08669736 -0.08689942 0.067764275 -0.046726122 0.015356995
-0.070596434 -0.07804392 -0.07209262 0.08039691 -0.07728548 -0.066167876 0.04201422 -0.084138714
0.046026297 -0.013934746 -0.008223094 -0.03127917 -0.03273436 -0.059982613 0.032492198 -0.064697236
-0.05296074 -0.019952789 0.085205145 0.07758214 -0.03920621 -0.03232172 0.025881886 -0.06848387
-0.054733805 -0.068626255 0.009252496 -0.022004671 -0.06324687 0.0685456 -0.05376937 0.06153243
0.050653078 -0.023490578 0.002248019 0.007107079 0.016091675 -0.04472678 -0.019136839 0.07529589
0.06500787 -0.042736262 -0.08574423 -0.046504136 -0.05527421 0.030187152 -0.022585906 0.07286445
-0.058421545 0.040094517 0.045353584 -0.046674654 -0.06281868 -0.0125857 0.0717959 -0.02412019
-0.06726181 0.049331628 -0.07206856 -0.0069548488 0.025079079 -0.08665124 -0.08479131 0.020674966
-0.064308755 -0.06316815 -0.08446918 0.08436141 -0.045875948 -0.06611817 -0.035593793 0.049932532
0.06703242 -0.08020018 -0.08118175 -0.059919268 -0.018512003 -0.08625125 0.012330852 -0.041169524
0.023251027 0.026265018 -0.04907715 -0.07169593 -0.043672647 -0.035573658 0.036444917 -0.041765366
-0.022139072 0.07290972 0.003463693 0.00019495189 -0.0046623573 -0.055657443 -0.008525252 0.053292654
-0.0185287 -0.087896325 0.05655647 -0.065173544 0.025728598 0.0677905 0.016409457 0.040569805
0.06745098 -0.07995856 0.08034935 0.026240185 -0.03075409 -0.052079573 -0.077002406 0.07345504
0.019746915 0.04640775 -0.07215549 -0.054223776 0.023436598 0.08621033 -0.061106008 0.07202522
0.056292675 0.024985224 0.03082019 -0.032920048 -0.043931346 -0.07442285 0.008697189 0.038044237
-0.05800559 0.046317033 -0.015392326 -0.07134819 0.08129432 0.086829446 -0.0038961247 0.020750888
0.056449898 0.021777593 0.04370766 -0.05601414 0.009231158 -0.06460811 0.041477762 0.005546443
0.0031339899 0.008219391 -0.070363574 -0.08295418 0.04905019 0.07172591 -0.02269438 -0.041354023
0.041178025 0.07148247 -0.010469034 -0.08350297 -0.03253414 0.0833224 -0.03611104 -0.026781257
-0.075482994 -0.027792 -0.059783522 0.0020253211 -0.073237374 0.064455055 0.07631644 -0.07278785
-0.079199426 -0.07208908 0.030381091 0.016373463 -0.047421504 -0.034942087 -0.07227598 -0.06347212
0.0626558 -0.025725469 -0.05085525 0.07772813 0.08473381 0.083151214 -0.020661578 -0.05062138
0.036761723 0.010406949 -0.08320619 -0.07194505 0.012063809 0.037392177 0.011742301 0.07054407
-0.047728986 -0.08174593 -0.08006267 -0.025685206 0.07036785 0.048083268 -0.012729898 -0.067814484

fc3.bias f4 [2]
00000000: 2047 78bc ee27 1f3d
-0.015153676 0.03885644
