customTrainer/results/AgentBall06/RollerBall/RollerBall-0.onnx (onnx, 76482 bytes, 6 tensors)

fc1.weight f4 [128, 16]
00000000: 0072 90bb 5ea3 213e 60f7 4dbe fcb1 46be
00000010: e074 bc3c 003e 333a d6e0 60be 08b4 793e
00000020: 483f e73d a092 7f3c f878 d53d 60ff 21be
00000030: 5419 193e 1296 163e a2d7 2e3e 6cfc 713e
00000040: 705a ef3d 08b3 f33d 62e2 3f3e 9420 7dbe
00000050: 60cb 553d 1e5d 483e 3c6a 853d 3839 06bd
00000060: a865 c23d 968f 31be 8024 72be 4c22 9bbd
00000070: 9a05 1d3e d426 7b3e e49b 933d f86a 5e3e
00000080: d437 edbd bc99 7fbe 4090 fc3d 5617 2f3e
00000090: 64b1 e6bd e06d 163c 9e82 233e e0b1 653c
000000a0: 228b 37be 7000 323e b42c cdbd cc37 c8bd
000000b0: 0070 3abb c812 37bd 26e9 5abe 8c34 b1bd
000000c0: 74d7 93bd 8a32 04be d86c d53d e488 df3d
000000d0: 4072 24be 9cb2 7f3e d8a0 65bd 9cc2 0b3e
000000e0: 40c0 9dbd 3855 47be 107f 403d 442e 6bbe
000000f0: 6ca3 6d3e 265b 7e3e a06d 31bd 508b edbc
00000100: a426 6f3e a084 5bbd 70b2 993c 988c 45be
00000110: 608d 6c3e 00b6 88bb c057 a53b 4cf0 2a3e
00000120: c086 8cbd 36c8 743e 38d1 d93d ea0b 313e
00000130: b0bb c2bc b02e aabd 20fe 02bc a6f7 343e
00000140: 80be 0f3e 3872 19bd f824 e8bd 62bb 773e
00000150: f421 3dbe d842 bfbd f808 3f3d 66f3 56be
00000160: c068 083c 385d 56be 983f d03d 60a5 073c
00000170: 404e 20bd c051 8f3d 5e5b 20be bcc4 1dbe
00000180: e047 bc3d 4034 5ebc 1c6a e53d 6236 1f3e
00000190: 7c6c ea3d cc82 d1bd b087 f63d 7e36 143e
000001a0: 2aa3 113e b8af 03be 04a6 303e d4ee 2e3e
000001b0: 3a74 5f3e a4ce cdbd acae 15be beaa 543e
000001c0: ee86 6abe 80ec 053d e8ff 773d 22d9 78be
000001d0: 4c88 5f3e 8e30 2a3e fc50 f13d a0dd f2bd
000001e0: 7ae4 423e 1af5 2bbe d8b3 fc3d 98c2 96bd
000001f0: 8055 7cbd da86 053e b884 1c3e c0d4 b63d
00000200: 0ccf 8ebd 04fb e23d d0c1 4f3e 104d 05bd
00000210: f89c e7bd b8e5 33be aeca 22be 1206 67be
00000220: b458 9bbd 0004 333d f60e 673e c44f f9bd
00000230: 9037 3e3d 2036 54be e81b 69be c65b 4bbe
00000240: 4052 16be 3e45 353e 1070 aebd f0ec 50bd
00000250: e052 4dbc 34e5 003e 009f db3d 00ab 893a
00000260: 8c5e f7bd a28d 27be dcf6 693e 34f1 953d
00000270: 9059 75bd 9e11 64be 6870 4e3d c25a 703e
00000280: 00ec 133b 44c1 b4bd 48c6 763d 409d eebc
00000290: 5a76 553e c0e8 833c 3842 553e e83d 82bd
000002a0: 0a8e 14be 7c61 51be b03b fb3d d0e1 2cbe
000002b0: 28a0 143e 88d1 bbbd 2096 b63c 28e0 3d3e
000002c0: 48dc fdbd a87e 103e 4a6d 223e 6ed1 4d3e
000002d0: 4037 57be 784e 063e 5449 06be ac78 47be
000002e0: c0d6 8f3d 9043 683d 14e9 c8bd 50a7 eebd
000002f0: 54b3 59be 107b 373d 86aa 373e e0b3 f73d
00000300: 6c61 3e3e a62d 1b3e e617 0b3e 0c0a 10be
00000310: 682c 3c3e cedc 3dbe c8e1 163d be31 7cbe
00000320: 2cf6 0abe b810 563e 7050 26bd 3882 49bd
00000330: 58f7 0e3d b0e1 b3bc 80ce 423c 10c5 d73c
00000340: aa08 49be 507c 8f3c 7439 233e 9ad5 4cbe
00000350: 980d 213e f057 97bd 0087 6abe 8090 3c3b
00000360: 14bf 8f3d 5494 7bbe 6c1f babd 443a 19be
00000370: 8886 4bbe 000a 2fbd 2097 a63c a09c 643d
00000380: c494 c63d 661c 7bbe 00d7 2bbd 8085 8f3b
00000390: 980d 7abe f850 01be 483f a5bd 6071 623d
000003a0: 980c 6abe e0bd e2bc 70d2 d13d 669c 17be
000003b0: f0f8 dabd aed1 2c3e 6aa0 723e 94fc 593e
000003c0: 9cb4 ab3d 6010 e7bc b06e c6bd a239 183e
000003d0: 10d8 533d b032 413e 1cd0 7c3e 7c4f cc3d
000003e0: 6aac 693e ba4c 02be e46d a63d 40f2 513c
000003f0: 16c0 30be d4ec d0bd 5e9b 5d3e 18a7 713d
-0.004408121 0.15784976 -0.20113897 -0.19403833 0.02300495 0.0006837547 -0.21960768 0.24385083
0.11291367 0.015598923 0.104234636 -0.15820074 0.14951068 0.14705685 0.17074445 0.23631448
0.116871715 0.11899382 0.18738702 -0.24719459 0.052195907 0.19566771 0.06514403 -0.03276941
0.09492046 -0.1733993 -0.23646736 -0.07574901 0.15334168 0.2452653 0.07207468 0.21720493
-0.11582914 -0.24960989 0.12332201 0.17098746 -0.11264303 0.00918147 0.15967795 0.0140194595
-0.17924169 0.1738298 -0.10018292 -0.097762674 -0.0028448105 -0.044695646 -0.21378002 -0.08652601
-0.07218829 -0.12909904 0.10421151 0.10914782 -0.16059208 0.24970478 -0.056061596 0.13648456
-0.077026844 -0.19466102 0.046996176 -0.22966868 0.23206872 0.24839458 -0.043317437 -0.028997093
0.23354584 -0.053593278 0.018761843 -0.19291914 0.23100805 -0.0041720867 0.005045861 0.16693228
-0.06861639 0.239045 0.106356084 0.17289701 -0.023771137 -0.08309686 -0.007995158 0.17672595
0.14037514 -0.037462443 -0.11335176 0.24192575 -0.18469983 -0.09338921 0.046639413 -0.20991287
0.008325756 -0.20933998 0.101683795 0.008279175 -0.039137125 0.069980145 -0.15659854 -0.1540708
0.091933966 -0.013562262 0.112018794 0.15548089 0.11446473 -0.10230026 0.12037599 0.14473912
0.14222398 -0.1286 0.1725083 0.17083293 0.2182168 -0.10049179 -0.14617413 0.20768258
-0.22903034 0.032696247 0.060546786 -0.2430158 0.21829337 0.16620085 0.11783025 -0.11858678
0.1903247 -0.16792718 0.1233899 -0.073613346 -0.061604977 0.13039723 0.15285003 0.089272976
-0.06973085 0.11083034 0.20288777 -0.032544196 -0.11309236 -0.175681 -0.15897629 -0.2256091
-0.07585278 0.043704987 0.22564301 -0.12173417 0.046439707 -0.20723772 -0.22764552 -0.19859228
-0.14679813 0.17702195 -0.08517468 -0.05100721 -0.012531966 0.12587434 0.10723686 0.0010503232
-0.1207858 -0.16362622 0.22848076 0.073213965 -0.059899867 -0.22272345 0.050400168 0.23472121
0.0022571087 -0.08825925 0.06024769 -0.029127717 0.20845929 0.016102195 0.20826042 -0.06359464
-0.14507309 -0.20447344 0.12267244 -0.16883016 0.1451422 -0.09170824 0.022288382 0.1854254
-0.12395531 0.14110816 0.15862003 0.20099422 -0.2101717 0.13115871 -0.1311391 -0.19479626
0.07023382 0.056705058 -0.09810081 -0.11653006 -0.21259815 0.044795096 0.17936143 0.12094855
0.18591851 0.15154132 0.13583335 -0.14066333 0.18376315 -0.18541262 0.036836416 -0.2462835
-0.1357047 0.20904815 -0.040604055 -0.049196452 0.034903854 -0.021958202 0.011890054 0.026339084
-0.19632211 0.017515332 0.15939885 -0.20003358 0.15727842 -0.073898196 -0.22903061 0.0028772652
0.07018867 -0.24568301 -0.090880245 -0.14963633 -0.19875538 -0.042734146 0.020335734 0.05581343
0.096963435 -0.24522552 -0.041953087 0.004379928 -0.24419248 -0.12628543 -0.080687106 0.055283904
-0.22856367 -0.02767843 0.10245216 -0.14805755 -0.10692012 0.16876861 0.23694006 0.21287757
0.08384058 -0.02820605 -0.09689081 0.14865735 0.051719725 0.18866992 0.24688762 0.09976098
0.22819677 -0.12724581 0.08126429 0.012814105 -0.17260775 -0.102014214 0.21641299 0.058997244

fc1.bias f4 [128]
00000000: a02a 373d 8048 2a3b f040 a7bc dc75 94bd
00000010: dc40 0fbe da6b 18be 600a e3bd c0e6 0abd
00000020: 203a 9d3c f843 313d 4026 68be d068 c4bc
00000030: c08f 59be 2014 7bbd 7046 943d d0a7 d43d
00000040: dcdc a1bd 187b 7d3d dea5 213e 7250 50be
00000050: d80b 29be c274 233e f28b 65be d0d5 a93c
00000060: 6073 3fbe 6ca0 acbd 98e6 a5bd b08e b2bd
00000070: a0eb 81bc c6f2 403e a0f5 ef3d 40c3 8e3d
00000080: 2a3a 173e 5c6c 193e c00e a8bb f8af 303e
00000090: c016 903c 981d 67be 9c28 813d 8e44 313e
000000a0: def2 6b3e 408f 403e 3046 bf3d e06c 78bc
000000b0: 6495 bd3d 8288 143e 042a 073e 8471 16be
000000c0: dcaa c2bd c016 7c3d 289d 50be 30a7 3fbe
000000d0: 5c0d 00be 64d4 da3d 0026 503b 1026 5abd
000000e0: 004c cdb9 3035 78bd 28c0 003d cec2 34be
000000f0: aac6 52be c4f0 fbbd 0059 c6bb 40f9 c8bb
00000100: 4ed4 49be f205 1cbe 443f 7bbe f01d 22be
00000110: e057 1fbd fcf3 f13d 921c 583e 281a e1bd
00000120: cc99 2cbe f88f 0c3d a8d8 1a3d 407e 543e
00000130: 949c b0bd a6f1 1c3e 00dd 15bd 0c01 e6bd
00000140: f2bf 49be b2d7 743e 6806 59be 80fc 2bbc
00000150: 16f4 1a3e e8ad 61be f072 aa3c 7046 d43d
00000160: 14df 66be d475 173e e8e5 253e 0cb4 4cbe
00000170: 48ef 093e 5aba 75be 60ca 393e 0050 edbd
00000180: 8c20 7fbe 6013 0a3d 88f2 e0bd 842a 97bd
00000190: 609a 3cbc 3053 d53d b00e eb3d f88f 7c3e
000001a0: f4f4 e33d 086a 39bd b41a 9ebd acd3 f33d
000001b0: 9009 993c 6023 7ebd 0075 4d3c 2c70 483e
000001c0: 00ea debc 60f7 49bd d845 9f3d ec57 82bd
000001d0: 9432 7d3e f4ac cfbd 48ae 2a3d c0ea 9c3d
000001e0: 88ec 63bd 0663 66be 58f8 08be 2edc 393e
000001f0: 10b2 a1bd 7c69 14be 6827 d93d 862b 493e
0.044718385 0.0025983155 -0.020416707 -0.072490424 -0.13989586 -0.14884892 -0.11085963 -0.033911467
0.019192755 0.04327771 -0.22670841 -0.02397576 -0.21246243 -0.06129849 0.072399974 0.1038357
-0.07903454 0.06188497 0.1578593 -0.20343187 -0.16508424 0.15962508 -0.22416666 0.020731837
-0.18696356 -0.084290355 -0.08100623 -0.08718622 -0.015859425 0.1884261 0.11716771 0.06970835
0.14768282 0.14982742 -0.0051287115 0.17254627 0.017588973 -0.22569883 0.06306574 0.17311308
0.23041865 0.18804646 0.09339559 -0.015162677 0.092570096 0.14505199 0.13199621 -0.1469174
-0.09505245 0.061545134 -0.2037245 -0.1871612 -0.12505096 0.106850415 0.003176093 -0.053258955
-0.0003915727 -0.0605976 0.031433254 -0.17652437 -0.20583597 -0.12301782 -0.00605309 -0.0061332285
-0.19709894 -0.15236643 -0.24535853 -0.15831733 -0.038902164 0.118141145 0.21104649 -0.10991317
-0.16855544 0.034316987 0.037804276 0.20751286 -0.08623615 0.15326557 -0.036587715 -0.112306684
-0.19702128 0.23910406 -0.2119385 -0.010497212 0.15132174 -0.22038996 0.02080676 0.103649974
-0.22546035 0.14791042 0.16200984 -0.19990557 0.13470185 -0.23996869 0.18143606 -0.115875244
-0.2491476 0.033709884 -0.10983759 -0.07381156 -0.011511415 0.104162574 0.11477411 0.24664295
0.111307055 -0.045267135 -0.07719937 0.119056076 0.018681318 -0.062045455 0.012540102 0.1957404
-0.02721119 -0.04930818 0.077769935 -0.06364426 0.24726325 -0.1014041 0.041670114 0.076619625
-0.055645496 -0.22498712 -0.13375986 0.18150398 -0.07895291 -0.14493364 0.10603219 0.19645509

fc2.weight f4 [128, 128]
00000000: decd a9bd aeb3 403d fe69 73bd 38a9 4dbc
00000010: c2de 6cbd 50a6 97bc 683a 393c 5721 16bd
00000020: 331a 9ebd 0065 d33a ebb9 8abd 5659 29bd
00000030: 2007 81bd 9c02 8b3c 4a0a 1c3d 5783 b33d
00000040: 50ab 9cbd d8de 3c3c 39db 5bbd baf5 473d
00000050: 5aa4 333d e80d 4c3c acb5 923c ee60 98bd
00000060: 0011 abba 15d5 b03d b1e8 acbd c173 5dbd
00000070: 00e4 62ba d057 c9bb d90c a73d e075 cd3c
00000080: 46de 3b3d 9e5b 6a3d 3095 b53b a274 793d
00000090: 39aa a0bd f20b 3b3d 4759 ac3d e2d6 483d
000000a0: 3b3a ab3d 203d 1dbb 275e 27bd 8883 f53c
000000b0: 1fdd aabd 3a39 edbc fb49 35bd fefc 1fbd
000000c0: fad4 143d f7d9 48bd d8a8 7bbc ae3f 273d
000000d0: 2714 863d 18a5 20bc d5b9 b23d 00b9 c9bc
000000e0: 5899 9fbd 388b 7bbd 804e 52bc 6981 a23d
000000f0: 60af 05bb b353 53bd 11de 9abd e891 f0bc
00000100: 507b febc 0478 49bd 130a 59bd 462d 613d
00000110: 5fc4 14bd 88c8 d13c f252 2d3d 9eb8 173d
00000120: 0cc6 06bd d805 7fbc 102d bdbc 1e21 6e3d
00000130: 65e9 9cbd 2c16 fe3c 878c 973d 8444 afbd
00000140: c98c 933d 29ab adbd 6e80 8cbd 6dd1 a4bd
00000150: 0ed2 48bd 95ed 983d 2a56 68bd eab7 133d
00000160: 431f 8bbd c0c9 57bc 7cd4 a9bc 8314 8fbd
00000170: af7e 13bd 5733 01bd a2d6 4c3d 769a 273d
00000180: 25c6 5fbd 5693 243d 3ccf f83c 48a4 263c
00000190: 36d4 283d 380c 123d fffc 14bd 70c9 9fbc
000001a0: 60bc 9cbc b96e b03d 2437 d0bc e229 213d
000001b0: 18e7 973c 774b 9abd 7809 aabd 4d7d 5dbd
000001c0: 28ad 083c 8db1 65bd 80e7 45bb f61f 513d
000001d0: e6cf 393d f6f8 36bd 6897 1e3c 18aa 943c
000001e0: a0dd 88bd aeed 47bd f7b0 72bd e082 b1bd
000001f0: a81f a9bc 4b38 02bd d470 8b3c d6f5 21bd
00000200: c9de 9cbd bc2a c93c ef46 8d3d 34b1 a2bd
00000210: 57d2 803d 9e5c 82bd 7143 ae3d 74ca 13bd
00000220: 5bd3 b13d 79e3 23bd 041e fb3c a8ed 92bd
00000230: 2e8f 603d d84b 893c c856 a03c 10f4 f73c
00000240: cd95 803d c4fe ae3c 579f a8bd 9cae 003d
00000250: c738 8b3d 88dd a5bd 524f 533d 2c11 ca3c
00000260: a4e2 c83c 5e02 93bd 2a11 9dbd 4ad4 793d
00000270: 1895 63bc 338c a33d 9e80 37bd 48dc 7cbc
00000280: e408 aa3c ea08 783d b83f 0d3c 64ce d33c
00000290: 56cc 98bd 0809 7cbc e59e 25bd fc09 d7bc
000002a0: f22d 3a3d abd5 61bd 8df3 8c3d 9063 013d
000002b0: 9077 823b 789d 803c be75 46bd 6bff 7fbd
000002c0: e6a5 1fbd a00c 31bd e0eb afbb e2e7 083d
000002d0: 7a95 d8bc 845b af3c 1d93 a5bd 9fac ac3d
000002e0: 939e 93bd a0de 7ebb 7777 913d ae09 513d
000002f0: 6a95 1a3d 7680 9cbd d097 693c 4a27 363d
00000300: 96ea 643d bc85 adbc 7ab7 47bd 35a7 973d
00000310: 3b4d 98bd fa6f 5a3d abd1 ad3d 2220 43bd
00000320: 9864 4d3c bd67 0ebd 1d77 a93d f864 79bd
00000330: e74e 853d f853 0d3d 7a9b 2c3d 6cd5 ac3c
00000340: 66cd 80bd e261 0abd e8b4 01bd 9212 80bd
00000350: a841 34bc a1e7 2dbd aac1 243d 4042 453b
00000360: 2cd7 babc a779 18bd e795 66bd 0a16 523d
00000370: 607a 45bc b02a 0c3d 9aae 43bd 3fad 803d
00000380: ea43 afbd e328 9a3d ff2b 82bd 6558 ad3d
00000390: c02b 05bd 3e2c e3bc 50d6 23bc d6ae 423d
000003a0: c00e 5fbc f864 03bd 4670 2a3d e07b c73c
000003b0: bf54 43bd 5231 303d 0012 77bc 38f9 55bd
000003c0: 9cc9 803c 02a9 193d e6c4 513d 7047 fe3c
000003d0: c807 4abc 5ace b2bd 7052 5e3c 7913 60bd
000003e0: 8a6a e2bc a4a2 c6bc fe0c 453d e28b 3e3d
000003f0: 086e 683c 615d a9bd c947 8c3d 0136 b4bd
-0.08291219 0.047046356 -0.059427254 -0.012552552 -0.057829626 -0.018511921 0.011305429 -0.03665289
-0.07719841 0.0016128123 -0.06773742 -0.041344963 -0.06300187 0.016969018 0.03809575 0.087652855
-0.07649863 0.011527739 -0.053675864 0.048818327 0.04385791 0.012454487 0.017908894 -0.07440363
-0.0013051331 0.08634392 -0.0844282 -0.05406547 -0.00086551905 -0.0061445013 0.08156747 0.025080621
0.045866273 0.05721628 0.005541466 0.060902245 -0.078449674 0.04566569 0.08415466 0.049033053
0.08360716 -0.0023992732 -0.040861275 0.029969946 -0.08342957 -0.028957952 -0.044260006 -0.03905963
0.036335923 -0.049035992 -0.01536008 0.040832214 0.065468125 -0.009804986 0.08726851 -0.024624348
-0.0779292 -0.061412066 -0.012836099 0.07934839 -0.002039872 -0.051593494 -0.07561887 -0.029366449
-0.03106466 -0.04918672 -0.052988123 0.054974817 -0.036320087 0.025608316 0.04231543 0.0370413
-0.032903716 -0.015565358 -0.023092777 0.05813705 -0.07661704 0.031016432 0.0739985 -0.0855799
0.07204587 -0.08479912 -0.068604335 -0.08047757 -0.04902845 0.0746719 -0.056722797 0.036064066
-0.06793072 -0.01317066 -0.020731203 -0.06986334 -0.036009487 -0.031543102 0.050009377 0.04091879
-0.054632325 0.040179573 0.030372255 0.010171004 0.041218005 0.035656184 -0.03637409 -0.019505233
-0.019132793 0.08614869 -0.025416918 0.039346583 0.018542811 -0.07533925 -0.08302587 -0.054074574
0.008342065 -0.05607753 -0.00301978 0.05105587 0.045364283 -0.04467102 0.009679653 0.018147513
-0.066828966 -0.048810653 -0.059250798 -0.086675406 -0.020644978 -0.031791966 0.017021574 -0.039541088
-0.076596804 0.02455651 0.06898295 -0.07943955 0.06290119 -0.063653216 0.08508957 -0.036081746
0.08682891 -0.040011857 0.030653961 -0.071742356 0.054824047 0.016759798 0.01957263 0.030267745
0.06278572 0.021361716 -0.08233517 0.03141652 0.06797939 -0.08098894 0.051589318 0.024666391
0.024522133 -0.07178186 -0.076692894 0.06099347 -0.013890527 0.07985725 -0.044800393 -0.0154333785
0.020756193 0.060555376 0.008621149 0.02585525 -0.07460849 -0.015383013 -0.040434737 -0.026249878
0.045453973 -0.05513541 0.06882391 0.03158909 0.003981538 0.015700087 -0.04845213 -0.062499445
-0.038976572 -0.04322493 -0.0053686947 0.033424266 -0.026438463 0.021405943 -0.080847 0.08431362
-0.0720798 -0.003889002 0.07102864 0.051034622 0.03774015 -0.076416895 0.014257386 0.044471063
0.05588778 -0.021181934 -0.04875896 0.07404939 -0.074366055 0.053329445 0.084872566 -0.047638066
0.01253619 -0.0347669 0.08274672 -0.060887307 0.0650919 0.034503907 0.04214046 0.021097861
-0.06289177 -0.033784755 -0.031666666 -0.06253542 -0.011001982 -0.042457227 0.040223755 0.0030099303
-0.02280768 -0.03722539 -0.0562953 0.05129055 -0.012053102 0.034220397 -0.047773935 0.06283044
-0.085578755 0.0752733 -0.06356048 0.084641255 -0.032512426 -0.027731057 -0.009999827 0.047530018
-0.0136143565 -0.032078713 0.04161098 0.02435106 -0.047688242 0.043015786 -0.015079975 -0.052239627
0.015721135 0.037514694 0.051213168 0.031039923 -0.012330957 -0.08730765 0.013569459 -0.05470607
-0.027638692 -0.024247475 0.048108093 0.04652012 0.01418639 -0.08269764 0.068496294 -0.08799363

fc2.bias f4 [128]
00000000: ccd2 9d3c 6334 853d 40cc 2bbd d765 9c3d
00000010: 0e59 673d 2f80 89bd a162 933d 4086 a83a
00000020: 8ea1 9cbd 14e0 76bd 7f22 ac3d 2be9 a43d
00000030: 001e ac3a dbb7 8e3d 22a4 583d 20d4 0a3d
00000040: d0c5 b13b ab45 903d b651 5f3d e831 a6bd
00000050: 38ca 81bd ed75 12bd 87d2 7fbd 7251 413d
00000060: c84e 3b3c c618 65bd 4840 1cbc 4057 193b
00000070: 7fa6 973d e0f0 c6bc b0c4 b13c 1554 3fbd
00000080: e851 bcbc 365e 5a3d 0ff1 2cbd ef1f 21bd
00000090: 6158 923d ffd7 a13d fea4 4b3d fcd0 ea3c
000000a0: 3f1e 5ebd f9c6 a93d 5727 01bd 60f1 85bd
000000b0: 64b7 843c e3fe 8a3d 236d 9e3d 7b57 9bbd
000000c0: 4532 39bd 43da b0bd 007a 94bb e6f6 90bd
000000d0: 1ed3 94bd 352a b43d 728b a8bd bcee d3bc
000000e0: 2ca3 eebc 5433 f03c 95a5 80bd 0a7d 87bd
000000f0: e619 3d3d e2b2 523d 38b2 b1bd ee03 aabd
00000100: 00d6 5239 c91b 9dbd fd26 a73d 83fe a23d
00000110: 90b2 dc3b e8c8 40bc ec08 803c 2d4e 0ebd
00000120: 80a1 d13a 65a9 42bd edbc 5ebd 20bb 633b
00000130: 604f cf3b 57bc 863d 1733 90bd 6e74 94bd
00000140: befb 8fbd 08b4 b3bc 74bb a2bc 36c1 99bd
00000150: 4e23 1c3d 1ba3 60bd c009 cbbb 11ed 9dbd
00000160: 01f6 96bd 7ea4 dbbc 3623 4b3d 00a3 deba
00000170: 0a43 23bd eacf 773d 20e5 483c b430 87bd
00000180: 006c 34bc 287a b4bc 86aa 733d deaa 5a3d
00000190: 002f e13a 0dd3 28bd 5e1e 413d e5a9 ad3d
000001a0: fea4 0c3d 206b 48bb 2488 0fbd 3017 22bc
000001b0: 031f 0bbd ec0b 33bd 5028 6abc 7442 44bd
000001c0: 20c3 d53c 42d9 94bd c5c8 93bd 0901 b43d
000001d0: 7f43 8a3d 34a7 6bbd 8edc 75bd fd5a 84bd
000001e0: 4b51 a63d d857 da3c e06b 58bb 54d2 d93c
000001f0: 4e90 80bd 6483 af3c dd9e 03bd e6af 633d
0.019265555 0.065041326 -0.041942835 0.07636612 0.056481414 -0.06713902 0.07196546 0.0012857392
-0.076480016 -0.06027229 0.08405017 0.08052286 0.0013131499 0.069686614 0.052890904 0.033893704
0.0054251924 0.07044538 0.054521285 -0.081149876 -0.06337398 -0.035756994 -0.062456634 0.047196813
0.011432357 -0.05593183 -0.00953681 0.0023397952 0.074048035 -0.02428478 0.021700233 -0.046711046
-0.022988275 0.053312503 -0.04222208 -0.039337095 0.07145763 0.07902526 0.049717896 0.028664105
-0.054228064 0.08289904 -0.031531658 -0.06540179 0.016200729 0.06786897 0.0773566 -0.07585045
-0.045213956 -0.0863538 -0.004531145 -0.07078342 -0.0726683 0.08797113 -0.08229722 -0.025870673
-0.02913054 0.02932135 -0.06281582 -0.06615646 0.046167277 0.051440127 -0.08676571 -0.08301531
0.00020106882 -0.07671315 0.08161733 0.079587005 0.0067351535 -0.01176665 0.015629254 -0.034742523
0.0015993565 -0.04752483 -0.054379392 0.0034748986 0.006326601 0.06578892 -0.070409946 -0.0724877
-0.07030438 -0.021936432 -0.019864775 -0.07507555 0.038119607 -0.05484305 -0.0061962306 -0.077112325
-0.0737114 -0.026811834 0.049594127 -0.0016985834 -0.039858855 0.060501017 0.012261659 -0.06601086
-0.011012077 -0.022030905 0.059488796 0.053385608 0.0017180145 -0.0412169 0.0471481 0.084796704
0.034337036 -0.003058143 -0.035041943 -0.009893224 -0.033965122 -0.04371254 -0.014291838 -0.047914937
0.02609402 -0.07268001 -0.07216028 0.0878926 0.06751155 -0.057532504 -0.06002479 -0.06462667
0.08120974 0.026653215 -0.0033023283 0.02658955 -0.06277524 0.021424957 -0.032133926 0.05558767

fc3.weight f4 [2, 128]
00000000: 7943 a13d 0080 8438 c991 13bd 7e05 dcbc
00000010: 8579 2fbd dc3e 8b3c 93e3 57bd 70ef 0f3c
00000020: 977f 9a3d 3e61 95bd 4019 683b 9507 9cbd
00000030: e6aa 023d 914e 39bd 78e6 9b3c a577 9b3d
00000040: 6ed8 d9bc 4076 963a c0e3 8f3a 0cbe bebc
00000050: e2de 393d 6009 033b 9411 88bd f85c c43c
00000060: c98b aebd f8ca 63bc d0f0 b9bc a73d 61bd
00000070: e47e c93c 50db 923c b4b4 d3bc 107b f7bb
00000080: 5bfa 7bbd 6540 9f3d 0b4b 8c3d 5871 c03c
00000090: cc19 c9bc d22e adbd 583f 73bd 2832 5ebc
000000a0: 5329 ae3d f855 f63c 0bab a4bd e760 833d
000000b0: c699 633d 789b a43c 07ca 56bd 7684 0b3d
000000c0: b1f4 a1bd ac39 a9bc 50c1 93bd 8892 91bd
000000d0: 3816 e5bc 0e1b 6cbd d679 7abd 21cc 25bd
000000e0: 2cf1 873c a6a0 9ebd 9b26 813d d8eb 46bc
000000f0: 3f50 02bd 2248 393d 4d96 993d 47b4 84bd
00000100: a01a b8bb 98d7 84bc 9ea9 5a3d 508c b63b
00000110: e832 15bc 411e 87bd e0c7 4f3c e89b d13c
00000120: f113 46bd 1ae4 353d 1dd3 813d 164e 6a3d
00000130: 6c7a 69bd 00a8 9638 e830 23bd c8ab 04bc
00000140: 301c a6bb 8a76 8cbd 9078 583c 1e77 89bd
00000150: 8a1e 2c3d 239c 9fbd d42a b1bc 3e25 1d3d
00000160: f200 3ebd ccbd dd3c 5554 923d fdcd 70bd
00000170: 8771 afbd 4e3d 5f3d 5088 063c b0eb 943c
00000180: 3c33 a13c a134 9d3d b024 b03c 7223 4f3d
00000190: 2238 8dbd c018 e5ba 164b 383d 6894 fc3c
000001a0: 1788 883d 8045 79ba 020b 0cbd bef6 523d
000001b0: 3bee 63bd 82f5 a3bd 3f18 75bd 4913 a33d
000001c0: 5773 893d 1c6c a7bc 046a 62bd 39ab 30bd
000001d0: 608c f93c 1d0e 41bd a223 173d 003b 7ebb
000001e0: a005 1f3c 800c 173b b8f5 9d3c 86d0 663d
000001f0: fe85 3cbd 1101 863d 2068 093c 6102 923d
00000200: 4201 783d b072 203c 6b65 aebd 42f3 7ebd
00000210: ca0a 8cbd 799f 48bd 4eba 71bd 28db 44bc
00000220: 221a 193d f033 bfbc aa45 613d 20f0 703c
00000230: 122b ebbc 5e30 7dbd 6e00 1b3d 7e12 73bd
00000240: 96b4 1d3d 4060 6bbc 8263 71bd c061 29bb
00000250: f085 323c e278 3a3d f9cb 803d e029 2abb
00000260: 96da 2a3d 16c2 523d 6350 51bd dce2 913c
00000270: 8db9 913d 104a 3fbd 3d52 813d 0f19 8cbd
00000280: 20c3 0b3d c05a 88ba 5a99 9dbd 894e 69bd
00000290: ec55 93bd 0f14 b03d b8f5 3a3c 7098 1fbc
000002a0: 0bc0 9ebd 4e85 1fbd 3f33 8e3d be9f d6bc
000002b0: 7872 95bc 8c20 80bd 4f24 13bd 9feb 8bbd
000002c0: e2b6 d9bc 288c c2bc b35a b33d 4cd5 edbc
000002d0: 60fa a73b 2ad3 263d 7a6e 463d 48c8 e83c
000002e0: 5e46 98bd 3ad1 533d 687d 8d3c 01ee 27bd
000002f0: cf0e a23d 6c93 c83c 492e 3bbd 6f48 a33d
00000300: aa4a 6f3d 4910 963d e0bd 3cbd 626c e0bc
00000310: 5d82 a63d 81af 83bd e10f a6bd 6e15 5f3d
00000320: caae 2e3d b8b3 21bd 8c2c b13c b5a2 91bd
00000330: 9e06 a5bd 5036 c0bb a8e6 4bbc 8236 573d
00000340: 592a 68bd 90f1 a03c 7f9a a53d ef38 a8bd
00000350: 8022 413a c835 013c 4399 92bd 1c21 fc3c
00000360: 5045 603c 0d49 7dbd 6ef2 19bd 408e aa3b
00000370: 7aa1 6c3d d0b6 78bc a613 02bd 460a 133d
00000380: 4762 9e3d 3f05 9b3d d426 87bc 9ee8 073d
00000390: 107e 07bc 9baf 8c3d f895 1f3c ccc7 9dbd
000003a0: 648f d13c 35b7 48bd c529 a6bd c83d 943c
000003b0: f139 0abd c78e 97bd 5cbf 92bd 1010 01bc
000003c0: 7d82 a93d 2215 a6bd e82e a8bc a788 ab3d
000003d0: f993 983d 59f4 a23d ecdb f2bc 104e 6dbd
000003e0: 2ee1 193d 1471 91bd d3e9 8cbd c83c 4d3c
000003f0: 50fc 2e3c 7684 653d 6da8 9bbd 08a9 9abc
0.078741975 6.318092e-05 -0.036027703 -0.026858088 -0.0428405 0.016997747 -0.052707266 0.008785114
0.07543867 -0.07293938 0.003541544 -0.07618634 0.031901263 -0.045240942 0.019030795 0.0759118
-0.02659246 0.0011479333 0.0010977909 -0.02328398 0.045378573 0.0019994602 -0.06643978 0.023970112
-0.08522756 -0.013903372 -0.022697836 -0.054990437 0.024596639 0.017926842 -0.025843002 -0.007552512
-0.061518054 0.07775954 0.06850251 0.023491547 -0.024548434 -0.08456196 -0.05938658 -0.013561763
0.08503976 0.03007029 -0.08040436 0.06414967 0.05556657 0.020093665 -0.052438762 0.03406187
-0.07907999 -0.020657383 -0.07214606 -0.07108027 -0.027964696 -0.05764299 -0.061151348 -0.040477876
0.016594492 -0.07745485 0.063061915 -0.0121411905 -0.03181481 0.045234807 0.07499371 -0.06479698
-0.0056184083 -0.016216084 0.053384416 0.005570926 -0.009106375 -0.06597567 0.012681931 0.025587037
-0.04835886 0.044406988 0.06339095 0.057203375 -0.057001516 7.18385e-05 -0.039841563 -0.0080975965
-0.005069278 -0.06858547 0.013212338 -0.06712173 0.04202131 -0.077934526 -0.021626867 0.038365595
-0.04638762 0.027068041 0.07144991 -0.058790196 -0.085665755 0.054501824 0.00821121 0.01817879
0.01967775 0.07676054 0.021501869 0.050570913 -0.06895472 -0.001747869 0.044993483 0.030832484
0.06666582 -0.00095089525 -0.034190185 0.051504843 -0.055647116 -0.08005811 -0.059837576 0.07962663
0.067114525 -0.020437293 -0.055276886 -0.04313204 0.030462444 -0.0471326 0.036899216 -0.003879249
0.009705931 0.0023048222 0.019282207 0.056351207 -0.046026222 0.06543172 0.008386642 0.0712936
0.060548075 0.009792969 -0.08515438 -0.062243707 -0.06837995 -0.04898021 -0.059015565 -0.012015142
0.037378438 -0.023340195 0.054998077 0.014705688 -0.028707061 -0.061813705 0.037842207 -0.059343807
0.0385023 -0.0143662095 -0.05893279 -0.0025845617 0.010896191 0.04552544 0.06288905 -0.00259649
0.041712366 0.051454626 -0.051102053 0.01780837 0.07115469 -0.04670149 0.06314514 -0.06840717
0.034121633 -0.0010403022 -0.07695265 -0.056959663 -0.07194123 0.08597576 0.011411123 -0.009740934
-0.07751473 -0.03894549 0.06943368 -0.026199218 -0.01824306 -0.06256208 -0.0359233 -0.068320505
-0.026576463 -0.023748472 0.08757534 -0.029032372 0.0051262826 0.040728725 0.048445202 0.028415814
-0.074352965 0.051713206 0.017271712 -0.040998463 0.07912981 0.024484359 -0.045698438 0.079728
0.058420815 0.07327325 -0.046079516 -0.027395431 0.081303336 -0.06429959 -0.081084974 0.054463796
0.04264716 -0.039478034 0.021627687 -0.07111112 -0.08057903 -0.0058658496 -0.012445129 0.052542217
-0.05668101 0.019646436 0.080861084 -0.08213984 0.00073675066 0.007886358 -0.071581386 0.030777507
0.0136884 -0.061837245 -0.037584715 0.005204946 0.057771184 -0.015180305 -0.03175702 0.03589847
0.07733589 0.0756936 -0.016498007 0.033180825 -0.008269802 0.068694316 0.009740345 -0.07704124
0.02558107 -0.049002845 -0.08113436 0.018095866 -0.033746663 -0.074002795 -0.07165405 -0.007877365
0.08276842 -0.081094995 -0.02053018 0.08375674 0.074500985 0.07956762 -0.029645883 -0.057935774
0.037568264 -0.07101646 -0.06880536 0.012526698 0.010680273 0.056034528 -0.07600484 -0.018879429

fc3.bias f4 [2]
00000000: b833 063d 3cb8 f2bc
0.032764167 -0.029628865
