customTrainer/results/AgentBall02/RollerBall/RollerBall-187240.pt (torch, 312791 bytes, 24 tensors)

fc1.weight f4 [128, 16]
000000 78 a4 56 be 2c f0 14 3e c6 81 54 3e f8 27 f0 3d
       -0.20961177 0.14544743 0.2075263 0.117263734
000010 b8 15 85 bd 0c ea 7e 3e cc c3 a6 3d 76 d5 6b 3e
       -0.06498283 0.2489397 0.08142814 0.23030648
000020 e6 7e 3d be 3a 31 56 3e 4c 98 a1 bd 34 b2 08 3e
       -0.18505439 0.20917216 -0.078903764 0.13349229
000030 38 e2 6f be f8 7e 3c 3d 60 64 61 3c 70 3a 23 bd
       -0.2342614 0.046019524 0.013756841 -0.039850652
000040 02 3c 40 be 66 11 4f be a0 ac d3 3d 28 27 74 3d
       -0.18772891 -0.2022148 0.1033566 0.059607655
000050 f4 3e 8e 3d bc d0 45 be 68 c9 4c be 26 94 47 be
       0.06945601 -0.19317907 -0.19998705 -0.19490108
000060 be 80 30 3e 06 dc 21 3e 88 2f 2d 3e 0a 25 6c 3e
       0.17236611 0.15806589 0.16912663 0.23061004
000070 e0 45 8a bc 74 fa a7 bd 38 92 64 3d 5a de 79 be
       -0.016879022 -0.08202067 0.055803508 -0.24401227
000080 60 b7 46 3d 28 4d b3 bd b0 d4 e6 bc c8 51 4c 3d
       0.048514724 -0.08754951 -0.02817759 0.04988268
000090 00 18 4e 3a 04 36 44 be a8 86 ec bd 08 ff d5 bd
       0.00078618526 -0.1916123 -0.11549121 -0.10449034
0000a0 fc 16 de bd 46 25 12 be 9c c0 35 3e d0 2d ea bc
       -0.10844228 -0.14272031 0.17749256 -0.028586298
0000b0 80 a1 53 3d 04 4e 9a bd e0 91 bd bd 88 5a f5 3d
       0.05166769 -0.075344115 -0.09256339 0.11980158
0000c0 20 5b 90 bd 00 d9 88 3c f0 5f f1 3c 74 9b e1 bd
       -0.07048631 0.016705036 0.029464692 -0.110159785
0000d0 4e f4 7e 3e 6c d1 df bd 68 6b a4 bd fa 17 5f be
       0.24897882 -0.10928616 -0.080282986 -0.2178649
0000e0 f8 c2 5c be e6 60 59 be 7a a4 1a 3e da 5d 55 3e
       -0.2155875 -0.2122837 0.15101805 0.20836583
0000f0 30 fb e4 3c 9c e8 67 3e bc 97 0b 3e c4 db d5 3d
       0.027951807 0.22647327 0.13632101 0.104423076
000100 50 f9 71 be 76 a6 6e 3e 80 47 ae 3b 68 e3 c1 bd
       -0.23630261 0.23305687 0.005318582 -0.094672024
000110 0e 85 41 3e e6 0e 34 be 00 db 46 bb 6c 9f 3b 3e
       0.18898413 -0.17583808 -0.0030342937 0.18322533
000120 08 1f 40 be 5a 6c 39 be a8 2e 58 3d d8 14 02 bd
       -0.18761837 -0.18107739 0.05277887 -0.03175816
000130 98 4d 61 3e 28 82 3d 3e a0 cd b7 3d 40 68 f7 bd
       0.22002256 0.18506682 0.08974767 -0.12080431
000140 f0 c8 77 3d be 8c 5c 3e 68 1e bc bd 58 dc 59 3e
       0.060494363 0.21538064 -0.09185487 0.2127546
000150 60 d4 7a 3e ac 8c 3d 3e 70 44 d6 3d 00 86 e3 bb
       0.24495077 0.18510693 0.10462272 -0.0069434643
000160 68 09 64 3d 90 43 52 bd 10 9b ae bd a8 41 bf bd
       0.055673033 -0.051333964 -0.085256696 -0.09338695
000170 d0 e2 c6 3c 98 f3 79 be 5e 85 4c be 14 5c 58 be
       0.024278075 -0.2440933 -0.1997275 -0.21128875
000180 e8 64 01 bd 6c e5 67 be 10 68 5d be 00 47 06 3d
       -0.031590372 -0.22646111 -0.21621728 0.032782555
000190 88 e6 ed 3d ce c7 44 3e 88 b9 4f 3d 6e d1 44 3e
       0.11616236 0.19216844 0.050714046 0.19220516
0001a0 b0 48 a4 bd 08 8e 6d 3e 68 dc d0 bd 98 8c 5b be
       -0.080216765 0.23198712 -0.10198289 -0.21440351
0001b0 c0 21 37 3e 3e 77 1e 3e 48 2b 0e bd 34 9b 41 be
       0.17883968 0.15475175 -0.034709245 -0.18906862
0001c0 2a 4a 7d 3e 18 e3 cd bd f4 a5 44 3e 7e de 43 be
       0.24735323 -0.1005308 0.19203931 -0.19127843
0001d0 00 02 ce bb f6 43 1d be c0 cd 07 3d fc 8d 31 3e
       -0.0062868595 -0.15357956 0.033155203 0.17339319
0001e0 b0 15 ee 3c 1e 3b 31 be 1a 14 43 3e 20 9f 3d be
       0.029063076 -0.17307708 0.19050637 -0.18517733
0001f0 32 38 38 3e 08 3e 3e bd d0 0e b3 3c 46 e2 54 be
       0.17990187 -0.046445876 0.02185765 -0.20789441
000200 28 3e 38 bd 60 de ad bd 94 8e d1 3d 8a c3 26 3e
       -0.04498115 -0.0848968 0.10232273 0.1628553
000210 b2 83 66 be 08 b2 44 3d e2 da 0f be 48 a2 42 be
       -0.22511175 0.048021346 -0.14048341 -0.19007218
000220 04 ea 61 3e 88 dd 38 3e 1a 64 3d be ac 3b d3 bd
       0.22061926 0.18053257 -0.18495217 -0.10314116
000230 40 66 1c bc 5e ca 51 3e 4e 84 38 3e 52 f4 18 3e
       -0.009545863 0.20487353 0.1801922 0.14936951
000240 ce 15 58 3e 76 ca 10 3e 04 0c 3c be 78 7f 5f be
       0.21102068 0.14139733 -0.18363959 -0.21825969
000250 d0 bd 49 3e 28 0a dc 3d f8 5e 64 3e 50 cc 0f 3d
       0.19701314 0.10744125 0.22301853 0.035106957
000260 e2 59 33 3e 0c 72 dd bd 8e 8b 48 3e 70 30 f7 3d
       0.17514756 -0.10812768 0.19584486 0.120697856
000270 0c 8a b6 3d 4e 77 7b 3e e0 7d 22 be 80 3d af bb
       0.08913049 0.2455723 -0.1586833 -0.0053479075
000280 04 42 e7 3d 00 b3 7b 3d b0 c3 ce bc 70 41 a6 3c
       0.11291888 0.061450005 -0.025239795 0.020294875
000290 14 a0 3a be 10 51 26 bd 80 28 7a 3e f8 e8 31 be
       -0.18225127 -0.04060465 0.24429512 -0.17374027
0002a0 e0 56 7e bd e0 39 35 3d ca b1 28 be 0a 08 17 3e
       -0.06209457 0.044244647 -0.16474071 0.1474916
0002b0 78 26 24 3e 00 17 ad bc 08 aa 71 3e 00 0c a7 bc
       0.160303 -0.021129131 0.23600018 -0.020391464
0002c0 80 2d 0c 3d d4 2d 8f bd ae 7e 11 be 60 a3 65 bc
       0.03422308 -0.06991163 -0.1420848 -0.014016002
0002d0 08 96 4b 3e ba 50 7b be b0 32 7e bd 00 e8 2c b9
       0.19881451 -0.24542513 -0.062060058 -0.00016489625
0002e0 c8 f5 1a be aa 3a 16 3e 38 36 6b 3d e0 06 66 bc
       -0.1513282 0.14670816 0.057424754 -0.014039725
0002f0 d0 b1 a8 3d 98 9d 1b be 34 f6 30 3e c0 cd 30 3d
       0.0823704 -0.15196836 0.17281419 0.04316497
000300 78 7c 20 be 16 f1 4d 3e 4a a8 59 be da 6a 66 be
       -0.15672481 0.20111498 -0.21255603 -0.22501698
000310 ec 7f 7f be e8 f5 09 3e fe ab 00 be 90 f6 49 bd
       -0.24951142 0.13472712 -0.1256561 -0.049307406
000320 48 07 ae bd 88 55 2a bd 00 bc 90 bc 58 4f 22 be
       -0.084974825 -0.041585475 -0.01766777 -0.1585058
000330 08 f8 e4 3d 38 01 ed bd a6 30 6d 3e f2 38 3f be
       0.11180121 -0.11572498 0.23163089 -0.18674067
000340 20 37 66 3e ca 39 48 3e 5c 35 da 3d 22 f4 72 3e
       0.22481966 0.19553295 0.10654709 0.23725942
000350 b0 aa a9 bc 70 8b 13 3d b0 be 70 3e 2e 66 51 be
       -0.020711273 0.03602165 0.23510242 -0.20449135
000360 0e 2b 76 be 82 d2 58 be e0 53 56 bc 36 56 0c be
       -0.24039862 -0.21174052 -0.013081521 -0.13704762
000370 da 7a 1a 3e f0 d4 ba 3d ec f8 74 3e 6c 66 ca bd
       0.15085927 0.09122646 0.23923081 -0.09882817
000380 d0 84 dd 3d 34 0c f1 bd 72 c9 60 be de 5d 5d 3e
       0.108163476 -0.11769906 -0.21951845 0.21617839
000390 d0 d4 b1 bc 20 0c b2 3d c0 b9 aa bc 2a 3c 62 be
       -0.021707922 0.08693719 -0.020840526 -0.22093263
0003a0 da 12 78 3e 58 3d 4a 3d c8 bc 2a 3e 90 97 3a 3d
       0.24225941 0.04937491 0.16673577 0.045554698
0003b0 be 06 47 be 40 06 08 3d 40 f3 38 bc 8c 75 ff bd
       -0.19436166 0.033209085 -0.011288464 -0.12473592
0003c0 b0 03 d3 bd 08 6b 03 bd d4 b4 f9 3d 70 e9 cf 3d
       -0.10303438 -0.032084495 0.12192693 0.101519465
0003d0 10 3c ae 3c 54 a9 ad 3d e8 69 61 3d e0 78 6e 3c
       0.021268874 0.084795624 0.05503264 0.014555186
0003e0 98 e5 e6 bd a4 ed a0 bd 14 cd 70 be 1e 01 6a 3e
       -0.1127426 -0.07857826 -0.23515731 0.22851989
0003f0 98 07 d8 3d c0 8c 2a bc f8 fb 3e bd 6e 30 7b be
       0.105483234 -0.010409534 -0.046627015 -0.24530193

fc1.bias f4 [128]
000000 1e a6 2a 3e 6e 5a 6b 3e 1a d9 1e be f0 13 82 3d
       0.16664931 0.22983715 -0.15512505 0.06351459
000010 1e aa 30 3e 34 1a a5 bd 4c 17 10 be 00 7a 77 bd
       0.17252395 -0.080616385 -0.14071387 -0.060419083
000020 24 91 65 be 60 5c bd bc f8 b1 76 be a8 4f 19 3d
       -0.22418648 -0.023115337 -0.24091327 0.03742948
000030 d6 86 04 be 10 c5 62 be f2 59 62 3e 48 83 ba 3d
       -0.12942061 -0.22145486 0.22104624 0.09107071
000040 a8 37 7c be 22 53 3b be 70 46 bf 3c f2 41 66 3e
       -0.24630606 -0.18293431 0.023349017 0.22486094
000050 60 dd ae 3d b0 39 34 3e 20 78 ac 3c a4 bb c1 3d
       0.08538318 0.17600131 0.021053374 0.09459618
000060 38 55 20 3d 18 77 fd bd c0 54 b3 bc 84 b9 a5 3d
       0.03914377 -0.12376231 -0.021890998 0.08092025
000070 3c 28 a8 bd dc 9c 88 3d 40 68 54 3e 0c 1a a7 bd
       -0.08210799 0.066705436 0.20742893 -0.08159265
000080 80 16 8f 3d 30 d4 8b bc c0 d1 d3 bc 18 96 6f 3e
       0.069867134 -0.017068952 -0.025856853 0.233971
000090 00 d5 f7 bb 82 79 13 3e 60 f7 e4 bc 26 ae 29 be
       -0.0075632334 0.1440182 -0.027949989 -0.16570339
0000a0 56 e8 59 3e 50 28 2b 3d ca 74 31 3e 8a 10 31 3e
       0.21280035 0.041786492 0.17329708 0.17291465
0000b0 3c e5 b3 3d d0 28 2d 3e b2 31 43 3e 1a 36 4b be
       0.08783957 0.169101 0.19061926 -0.19844857
0000c0 70 72 0f be 62 47 5c 3e d0 ac 1c be 50 41 db 3c
       -0.14008498 0.21511605 -0.15300298 0.026764542
0000d0 70 4e 45 be 18 11 5f bd c0 ea 90 bc c0 bd 68 3d
       -0.19268203 -0.05445966 -0.017690063 0.056821585
0000e0 6c c5 ef bd f0 b1 20 3d b8 f5 61 3e e2 d9 5d be
       -0.11707577 0.039232194 0.2206639 -0.21665147
0000f0 08 ba 4a bd f0 7f 38 be ea 9e 2d be 10 1f e9 3c
       -0.04949382 -0.18017554 -0.16955152 0.028457195
000100 68 cf eb bd c8 71 e8 3d 1a 01 65 be 34 ee cc bd
       -0.11514169 0.11349827 -0.22363701 -0.10006371
000110 fc a0 e1 3d bc 49 64 be 64 29 4c 3e 68 cd b0 3d
       0.110170335 -0.22293752 0.19937664 0.08632928
000120 9c 66 bc bd c0 c2 52 3c b8 6e d0 bd e0 f9 9e bd
       -0.09199259 0.012863815 -0.10177368 -0.077625036
000130 f0 97 f8 3c 40 e8 c6 bb a6 f2 57 3e 90 f6 a5 3d
       0.030345887 -0.006070167 0.21088657 0.08103669
000140 76 f0 5d 3e b2 13 6f 3e a4 ca 0c 3e d4 7b 83 3d
       0.2167376 0.23347357 0.13749176 0.06420103
000150 80 6f a6 bc 80 0d 40 bb ec 20 81 3d 80 ee ba 3b
       -0.02031684 -0.0029304922 0.063051075 0.005704701
000160 2c ad 06 3e dc 44 9f bd 1c db 94 bd e2 39 43 3e
       0.13151997 -0.07776806 -0.07268354 0.1906505
000170 86 1a 22 be 60 12 83 bc 9c be a6 bd 9e ef 2a be
       -0.1583043 -0.015999973 -0.081418246 -0.16692969
000180 e0 0f a7 3c c4 97 88 3d a0 0b ef bd b8 59 2d bd
       0.020393312 0.06669572 -0.11672139 -0.04232189
000190 b4 03 9e 3d 1e c5 3d be 60 b0 33 bc 80 dd 11 bb
       0.0771555 -0.18532225 -0.010967344 -0.0022257268
0001a0 a8 3d 04 bd 30 4d 80 3d 4c ef 0d be 78 09 13 bd
       -0.032285362 0.06264722 -0.13860816 -0.035897702
0001b0 7e 6f 5f be f8 b7 ed 3d 4a ff 35 3e ea d0 2f 3e
       -0.21819875 0.11607355 0.17773166 0.17169538
0001c0 ae d4 21 3e 52 4e 0a 3e d0 f7 f5 bd 3e 40 38 be
       0.15803787 0.1350644 -0.12010157 -0.17993256
0001d0 a0 eb b0 3c 94 3e 40 be a0 bc 6f 3d 16 53 2d be
       0.02159673 -0.18773872 0.058529496 -0.16926226
0001e0 00 3f 1b 3e 8e 9d 30 be 00 9d 69 3e a0 bf 2c 3d
       0.15160751 -0.17247602 0.22813797 0.042174935
0001f0 80 28 f7 bc 86 8c 27 be fa de 32 3e 20 c9 b9 bc
       -0.03017068 -0.16362199 0.17467871 -0.022678912

fc2.weight f4 [128, 128]
000000 60 de fe bc 12 1e 48 3d 1c ea 82 bd 46 7a 22 bd
       -0.031111896 0.048856802 -0.06392309 -0.03966739
000010 0c ba 8a bd 26 5b 84 bd 50 0a e1 bc 36 ae 6d 3d
       -0.06773767 -0.06462698 -0.027470738 0.05802747
000020 55 5c a1 3d 70 56 c2 bb be 85 38 3d 0b e3 90 bd
       0.07878939 -0.0059307143 0.04504942 -0.07074555
000030 f2 df 0d 3d db 92 81 3d 9b f9 81 bd 51 49 b3 bd
       0.0346374 0.063268386 -0.063464366 -0.08754218
000040 10 05 2a bd 57 31 64 bd 83 d6 23 bd 8b d4 ab bd
       -0.041508734 -0.055711117 -0.039999496 -0.08390149
000050 23 1b 02 bd 06 ac 12 3d 38 16 91 bd a6 ad 3f 3d
       -0.03176416 0.035808586 -0.07084316 0.046796463
000060 74 84 c6 3c 24 c9 13 3d bc 2d 62 bd 2c c2 c0 bc
       0.02423308 0.036080495 -0.055219397 -0.023530088
000070 71 a3 76 bd 08 8c ec 3c 78 66 7d bc 50 44 1a 3c
       -0.060214464 0.028875366 -0.015466325 0.009415701
000080 88 ad 95 bd c0 34 a3 bd 37 2a a2 bd 98 2b 31 3c
       -0.07308489 -0.07969046 -0.07918208 0.010813616
000090 ed 64 a2 3d 3c 57 1f bd ec 9d b9 bc b3 ab 95 3d
       0.07929406 -0.038901553 -0.02265831 0.0730814
0000a0 97 ef ab 3d 51 25 95 3d 40 36 b5 bc 5d d6 5f bd
       0.083953075 0.07282508 -0.022120595 -0.054647792
0000b0 af 54 86 bd 8d 58 b1 bd d0 ae f7 3b 2f e6 93 3d
       -0.06559121 -0.08659468 0.007558681 0.072216384
0000c0 b7 d0 9f 3d 08 2f 0d 3d 64 ee 27 bd 37 2a a1 bd
       0.07803481 0.03446868 -0.04099883 -0.0786938
0000d0 2a af 87 bd c4 c7 70 bd b0 e4 ef 3c 61 01 9e 3d
       -0.06625207 -0.05878426 0.029283851 0.07715107
0000e0 16 6e a3 bd d8 0a e4 bc 3c 32 ce 3c 08 60 0a bc
       -0.079799816 -0.027837202 0.025170438 -0.008445747
0000f0 86 4c 09 3d d8 c9 b4 bc f4 cf bb 3c 51 d4 92 3d
       0.033520244 -0.022068903 0.022926308 0.071694024
000100 f5 1d 88 bd 79 e9 1d bd 91 ee aa 3d fd 5f 8c 3d
       -0.06646339 -0.038552735 0.08346284 0.06854246
000110 30 98 8f 3b 00 bf 67 bb 96 ff 45 3d 1d 52 92 3d
       0.004382156 -0.0035361648 0.04833945 0.07144568
000120 4a b3 74 3d 2d c8 a6 3d a0 48 3d 3b c6 05 79 3d
       0.059741296 0.08143649 0.00288824 0.06079652
000130 76 aa 6c 3d 9a 3f 4d 3d c6 4f 51 3d 31 6c ae 3d
       0.05777975 0.050109483 0.05110147 0.085167296
000140 9f 3f 82 3d ae 4a 37 3d 70 af a9 3b f7 52 b4 3d
       0.06359791 0.044748954 0.0051783845 0.08804887
000150 d1 b4 b3 3d f0 db b0 bd 60 34 47 bb 0a ab 91 bd
       0.08774722 -0.086357 -0.0030396208 -0.07112701
000160 4b da a3 3d b8 89 13 3c e8 1b 9b bd 20 a6 74 3c
       0.080006205 0.009005003 -0.07573682 0.014932185
000170 09 0e 8d 3d 95 50 ac 3d 5e 23 d5 bc 62 c3 3d bd
       0.068874426 0.08413807 -0.026017841 -0.04632891
000180 4b e6 05 bd 80 ee b9 3a c1 2b ad 3d 8c b6 97 bc
       -0.032690328 0.0014185458 0.08455611 -0.018519662
000190 ab bb aa bd 4a aa 78 3d 35 1d 47 bd a0 aa 7b bb
       -0.08336576 0.060709275 -0.04861184 -0.003840126
0001a0 6a 6a 76 3d e8 02 6c 3c e0 30 e8 3b ba 9f 19 3d
       0.060160078 0.01440499 0.0070859045 0.037505843
0001b0 15 92 6c bd e4 f6 59 bd 90 92 a2 3c e2 27 49 3d
       -0.057756502 -0.05321397 0.019845277 0.0491103
0001c0 63 07 36 bd 9b 8e 88 3d 48 af 6a 3c da 31 07 3d
       -0.04444064 0.06667825 0.014324017 0.033006527
0001d0 91 37 a7 3d 90 a2 99 3c 74 3d af bc 23 1c 64 bd
       0.08164895 0.018754274 -0.021391608 -0.055690896
0001e0 dd 38 4d bd 96 58 db bc 21 84 9d bd 30 4b c7 3c
       -0.050103057 -0.02677564 -0.07691217 0.024327844
0001f0 d0 b0 ea 3b 70 02 8d bd e0 0b 07 3c 50 23 54 bd
       0.007162191 -0.068852305 0.008242577 -0.05179149
000200 96 bb d6 bc 2a 71 6b 3d 58 49 8a bc 80 47 8a bd
       -0.026212495 0.05748097 -0.016880676 -0.06751919
000210 54 0c 5f bd 68 a3 43 3c 9c e9 e0 3c 59 5b b0 3d
       -0.054455116 0.011940815 0.027455144 0.08611173
000220 14 4f e0 bc ff f4 9c 3d 1e 2c 75 3d 93 cb 82 3d
       -0.027381457 0.07663917 0.059856527 0.06386485
000230 30 01 5c bd b4 78 87 bd 81 42 69 bd c0 93 9e bc
       -0.05371207 -0.06614819 -0.05694819 -0.019357562
000240 25 e8 88 bd 31 c8 a6 3d 88 13 38 3c 1a 19 57 bd
       -0.06684903 0.08143652 0.011235125 -0.052514173
000250 b7 96 9c 3d 4a f3 a6 bd 21 94 35 bd 31 2f 99 3d
       0.07645934 -0.081518725 -0.04433072 0.07479704
000260 5a d5 46 3d b1 49 95 bd f0 32 89 bc 34 2e 8a 3c
       0.04854331 -0.07289446 -0.016747922 0.016867734
000270 67 03 24 bd c2 8b 1a 3d b8 7a ae bc 28 33 3c 3c
       -0.040042307 0.03773094 -0.021298751 0.011486806
000280 50 89 b1 bb c0 a0 80 bb ea 63 79 3d 4e 5e 54 3d
       -0.0054179803 -0.003925413 0.0608863 0.05184775
000290 a3 64 a9 bd 80 30 f4 3a d3 fe 88 3d 3e a8 5f 3d
       -0.08271148 0.0018630177 0.06689229 0.054603808
0002a0 c8 55 40 bc 7f 5e 9e bd c0 39 88 bc 98 de 91 bc
       -0.011739202 -0.077328674 -0.0166291 -0.017806336
0002b0 3e a4 01 3d d0 b8 61 bc a8 b9 e0 bc a0 6b 3d 3b
       0.031650774 -0.013776973 -0.027432278 0.002890326
0002c0 60 bf a0 3c f8 cc c3 bc b8 3c 95 3c 4f 66 ac 3d
       0.019622505 -0.023901448 0.01821743 0.08417951
0002d0 00 70 4b b8 8d df a3 bd 34 d4 c1 bc f5 76 84 bd
       -4.850328e-05 -0.08001623 -0.023660757 -0.06468002
0002e0 0a bb 43 3d 00 a0 59 3b 30 73 b4 bd 53 8c a1 3d
       0.047785796 0.003320694 -0.08811033 0.07888093
0002f0 ff b6 ad 3d 00 be 3c 3a 2f f1 94 3d 40 8c ed 3c
       0.08482169 0.0007199943 0.072725646 0.02899754
000300 c0 d6 13 3c cc f4 21 bd 5e d2 6f 3d 9a 23 53 3d
       0.009023368 -0.039540097 0.05855023 0.051547624
000310 00 9f 67 3b 06 e4 50 3d 31 ef b3 3d f8 26 74 bc
       0.0035342574 0.05099871 0.087858565 -0.014901869
000320 ab 68 85 3d 7c 85 36 bd e7 cb 54 bd 40 9b 2d 3c
       0.065141045 -0.044560894 -0.05195227 0.0105960965
000330 ae e9 2a bd b6 2d 83 bd 70 2f 1f 3c 3f a2 94 3d
       -0.04172676 -0.06405203 0.0097159 0.072575085
000340 82 d3 46 3d 8c 0f 67 bd 1c 2c 01 3d 13 59 a9 3d
       0.048541553 -0.05641131 0.031536207 0.08268943
000350 50 56 fd 3b 43 0c 8e 3d 30 b4 07 bd 47 99 82 bd
       0.0077312365 0.069359325 -0.033130825 -0.063768916
000360 52 e3 69 3d b5 19 aa 3d 17 e9 aa 3d e5 7e 08 bd
       0.057101555 0.083056845 0.083452396 -0.03332414
000370 c8 73 b4 bd 23 a7 81 3d 4c 2e c1 bc 33 83 9c bd
       -0.08811146 0.06330707 -0.023581646 -0.07642212
000380 f3 59 aa 3d 0a d8 3b 3d a0 64 6c 3b 2c a6 b9 3c
       0.08317938 0.045860328 0.003607072 0.022662245
000390 dc a5 df 3c f8 09 69 bc e3 2e 83 bd 12 e8 48 3d
       0.027300768 -0.014223568 -0.06405427 0.049049444
0003a0 8e c6 77 3d e2 33 42 bd f4 36 03 3d fc a5 ba 3c
       0.06049209 -0.04741276 0.03203483 0.022784226
0003b0 ec 66 fa 3c 20 bd 86 bc 93 08 a6 bd 85 f6 ac 3d
       0.030566655 -0.016447604 -0.08107104 0.08445457
0003c0 c8 23 03 3c 5a cf 67 bd 58 2a 93 bd 9f c9 83 bd
       0.008004136 -0.05659423 -0.07185811 -0.064349405
0003d0 04 f0 bb bc 6e 0c 8d bd b5 60 ad bd 26 92 1a 3d
       -0.022941597 -0.068871364 -0.08465711 0.037737034
0003e0 40 90 0c bb 78 d0 a1 bd bf 5f 86 3d e3 64 83 bd
       -0.0021448284 -0.079010904 0.06561231 -0.06415727
0003f0 52 4d 69 3d cd 98 97 3d 70 d0 ad bc 43 60 af 3d
       0.056958504 0.07402191 -0.021217555 0.08563282

fc2.bias f4 [128]
000000 66 72 79 3d d0 77 da 3b 52 06 2d 3d 40 9e ad 3b
       0.060900114 0.006667115 0.042242356 0.005298406
000010 da 12 31 3d 11 cd 80 3d e8 65 8d bc f8 88 2d 3c
       0.04323087 0.06289113 -0.017260507 0.010591738
000020 f2 ae 63 3d 09 f3 87 3d 74 75 e2 bc c2 98 da bc
       0.055586763 0.06638152 -0.027643897 -0.026684169
000030 48 91 ca bc 88 0d 47 3c 04 92 9c 3c da cf 64 3d
       -0.024727479 0.012149222 0.019112594 0.055862285
000040 2e ef 78 bd 94 4a 15 3d 57 5a 10 bd 6e 83 6e bd
       -0.060774975 0.036448076 -0.035242405 -0.05823081
000050 62 f3 72 3d ca 69 75 3d 6e 66 36 3d 80 de ab bb
       0.05931414 0.05991534 0.04453128 -0.00524503
000060 b8 c8 ed bc f6 43 0f 3d 10 f2 1e 3c f8 de b2 bd
       -0.029026374 0.034976922 0.009701267 -0.08733934
000070 23 f5 ab bd a5 5e 97 bd c0 0e cf 3c 00 0d 90 ba
       -0.083963655 -0.07391099 0.025275588 -0.0010990202
000080 60 66 d3 3c 19 45 81 3d 5c b7 76 bd 66 1c 93 bd
       0.025805652 0.063120075 -0.06023346 -0.07183151
000090 7a cd 22 3d 80 9e a2 3b 80 c7 19 ba 63 6a a1 3d
       0.03974674 0.0049627423 -0.00058662146 0.0788162
0000a0 cb f3 a3 bd 31 a5 a0 3d c5 1a a9 3d 40 1f 95 ba
       -0.08005484 0.07844008 0.08257059 -0.0011377111
0000b0 30 a1 be 3c db 42 8c bd 80 7f c7 3c 10 e5 e3 bc
       0.02327022 -0.06848689 0.024352789 -0.027819186
0000c0 c4 e9 90 bd 80 36 6e 3b 6e 02 db bc 38 63 9a bc
       -0.07075837 0.0036348403 -0.026734557 -0.01884614
0000d0 dd 50 9d 3d 57 d1 00 bd 5c 68 b3 bd 7f d7 34 bd
       0.07681439 -0.031449642 -0.08760139 -0.044150826
0000e0 43 90 7a bd 50 6e c5 bc bd 10 81 3d 13 57 ad 3d
       -0.061172735 -0.024100453 0.06302021 0.08463874
0000f0 aa 2b 49 3d 94 56 b5 3c cf 75 aa bd 8e f8 9f bd
       0.049113907 0.02213601 -0.083232515 -0.0781108
000100 9c 75 98 bd c0 88 0a 3c 0f 43 a1 bd 4a 41 e5 bc
       -0.07444307 0.008455455 -0.078741185 -0.027985234
000110 20 49 10 bb 57 cc 01 bd 2a 03 5b 3d 77 a4 9c 3d
       -0.0022016242 -0.031689014 0.053469814 0.07648557
000120 94 55 a2 bd b4 62 8b bd d4 b9 9e 3c f5 b5 40 bd
       -0.07926479 -0.068059355 0.01937572 -0.047048528
000130 60 01 99 bb ee 0e 3c 3d 8c 66 07 3d 42 90 36 3d
       -0.0046693534 0.045912676 0.03305678 0.04457117
000140 00 93 60 3b 18 f3 46 3c 25 bc ac 3d fe f6 8a bd
       0.0034267306 0.012142919 0.08434323 -0.06785391
000150 4c d8 ef 3c 02 fd 61 3d 10 20 08 bc 86 74 2e 3d
       0.029277943 0.055172928 -0.008308426 0.042591594
000160 c0 a5 92 bd dc 5a ad 3c 03 ca 95 3d 40 b0 54 3c
       -0.071605206 0.02116149 0.07313921 0.012981474
000170 0d 2a a3 3d 25 80 ad bd b0 c4 3e 3c dc 2e 87 3c
       0.07967005 -0.08471707 0.011643574 0.016501836
000180 b0 f2 6a bd c3 c5 84 bd e0 be aa bd cb 1c 5f bd
       -0.05736035 -0.064830326 -0.08337188 -0.05447082
000190 23 d2 73 bd 5c 8b ba bc 4f 6b 82 3d d7 1e 65 bd
       -0.059526574 -0.02277153 0.06368124 -0.055937614
0001a0 6c 66 06 3d 30 07 9e bd 40 4f 58 bb 4b db a2 3d
       0.03281252 -0.07716215 -0.003300622 0.07951983
0001b0 50 26 eb 3c cd 14 9e 3d 60 10 b0 bc b0 97 c0 3c
       0.028704792 0.07718811 -0.021492183 0.02350983
0001c0 7a 61 73 bd a4 04 3d bd f4 53 9a bc b6 f1 3a 3d
       -0.059419133 -0.046147004 -0.01883886 0.04564067
0001d0 24 81 06 3d a8 cc 18 3c 74 8d 8d bd 25 20 a3 3d
       0.032838 0.009326138 -0.06911746 0.079651155
0001e0 00 db 8d 3a de 11 22 bd 8d d7 25 bd 4e 94 3c 3d
       0.0010822713 -0.03956782 -0.04048877 0.046039872
0001f0 5a ed 62 3d cd cc 86 3d c6 7e 1c 3d 22 0e a2 bd
       0.055402137 0.065820314 0.038206838 -0.07912852

fc3.weight f4 [2, 128]
000000 10 7f 86 bd 00 95 a4 3c f8 00 c3 bc 88 7f 18 bc
       -0.06567204 0.02009058 -0.023804173 -0.00930775
000010 4e e5 43 bd f6 b9 77 3d 13 eb ab 3d 98 d1 5d bc
       -0.047826104 0.06048008 0.08394446 -0.013538741
000020 1e 7f 17 bd 40 15 f7 3b be a8 5f 3d 26 a6 f8 bc
       -0.036986463 0.007540375 0.054604284 -0.030352663
000030 7c f7 29 bd 8f 3a 89 3d cc c1 79 bd a9 00 ab bd
       -0.041495785 0.06700622 -0.060975835 -0.08349735
000040 ce 01 a2 bd e5 ca 8a bd e0 86 2f bc b5 5e 86 3d
       -0.079105005 -0.0677698 -0.010713309 0.06561033
000050 f2 dd 2d 3d 0d e5 2a bd d5 14 a1 3d cd 3b 98 3d
       0.04244799 -0.041722346 0.078653015 0.07433281
000060 de d8 54 3d 79 a4 b3 bd 80 33 78 bc 66 a6 75 3d
       0.051964633 -0.08771605 -0.015148997 0.059973143
000070 1a e7 5e 3d 61 33 b2 bd 00 b8 af 3b f2 a7 58 3d
       0.054419614 -0.08701206 0.0053625107 0.05289454
000080 50 8a 59 bc c7 be b1 3d af 1e 9a bd 58 00 38 3c
       -0.013277605 0.08678966 -0.07525384 0.011230551
000090 1e 8f a4 bd 30 18 90 bb f6 e9 3b 3d 4c 74 cf 3c
       -0.0803511 -0.0043974146 0.04587742 0.02532401
0000a0 28 c2 f1 3c a2 11 59 3d a8 eb b7 bc aa 4b 56 3d
       0.029511526 0.05299533 -0.022451237 0.052318253
0000b0 fb 86 87 3d ae 2f fd bc 75 c4 8b 3d 38 dc 02 3d
       0.06617542 -0.030906525 0.068245806 0.0319483
0000c0 c8 4f 48 bd d2 ec 49 bd a0 cc 1e bc f8 d6 13 bc
       -0.04890421 -0.049298115 -0.009692341 -0.0090234205
0000d0 bf 21 56 bd 84 94 81 bc 77 0e 11 bd 70 ab 03 3c
       -0.052278277 -0.015817888 -0.035414185 0.008036479
0000e0 40 6a 8a 3a 78 b1 18 3c ca 62 2b 3d e6 50 0a 3d
       0.001056023 0.009319656 0.04184226 0.033768557
0000f0 ac 80 81 bc 78 c0 52 bd 9b 17 10 bd 35 96 9a bd
       -0.015808426 -0.051453084 -0.035178762 -0.07548181
000100 b0 09 b8 3c 8c 0c f4 3c 00 2b 34 3a ff 58 8f bd
       0.022465557 0.029791139 0.00068728626 -0.069993965
000110 f2 95 50 3d 51 38 ad bd 45 f8 83 bd 69 f8 9d 3d
       0.05092425 -0.08458007 -0.06443838 0.07713396
000120 50 c6 a5 3b f8 d4 44 3c d9 62 64 bd 00 f8 e0 bb
       0.005059041 0.012013666 -0.05575833 -0.0068655014
000130 ac e3 86 bc c0 4b dc bb 3e 22 1a 3d 90 c3 ef 3c
       -0.016465984 -0.0067228973 0.037630312 0.029268056
000140 1d 7f b2 3d b8 19 5a 3c 6e 0f 75 3d 27 2a 61 bd
       0.08715651 0.013311796 0.059829168 -0.05497184
000150 a1 d8 ae 3d 84 ea 4c bd 8c 1e 86 3c 18 ff 3e bc
       0.085374124 -0.05002834 0.016371988 -0.011657499
000160 c0 b5 c1 3a 18 95 b8 bc c6 39 36 3d e5 dc 88 3d
       0.0014778897 -0.022532031 0.04448869 0.06682757
000170 d4 26 ab 3c 6a 40 83 bd b7 54 98 3d ed 99 2d bd
       0.020892538 -0.064087704 0.07438033 -0.042383123
000180 ae d9 44 3d b8 06 09 bc ab b0 3f bd f4 84 c6 3c
       0.048059158 -0.008363418 -0.046799343 0.024233319
000190 42 4f 91 bd 7e db ab bd 48 a2 3d bd d9 5f 54 bd
       -0.07095195 -0.08391474 -0.04629734 -0.05184922
0001a0 a0 6a 3a 3b b8 53 ed bc d0 7e 92 bb 28 17 5f bc
       0.00284449 -0.028970584 -0.0044706836 -0.013616361
0001b0 e5 c7 5e bd 6e 4d 91 bd ac 17 9a bc 78 7d 7a bc
       -0.054389853 -0.07094847 -0.018810116 -0.015288703
0001c0 ff 57 9c 3d 22 3f 02 3d 25 2d a7 3d 08 c0 99 bd
       0.076339714 0.03179849 0.081629075 -0.0750733
0001d0 53 ad a9 bd 90 ad 9d 3b 74 b7 9a bd c8 a9 ab bc
       -0.08285012 0.00481195 -0.07554522 -0.020954981
0001e0 46 57 1a 3d f0 37 42 3c 08 84 04 3c 54 3f 4a bd
       0.037680887 0.011854157 0.008088119 -0.0493768
0001f0 e2 6e 50 bd c8 f2 27 3c 28 ca bf 3c 92 29 82 bd
       -0.050886996 0.010250755 0.023411825 -0.06355585
000200 62 5e 01 3d da ad 77 3d 8c d2 92 3c d2 2a d7 bc
       0.03158415 0.060468532 0.017922662 -0.026265536
000210 79 42 ab 3d 98 96 a3 bd da 3d af bd 61 cf 20 bd
       0.08362288 -0.07987708 -0.08556719 -0.039260272
000220 1a a2 0b 3d f0 5c 5d bc 70 87 c8 3c b2 b3 68 3d
       0.03409014 -0.013510928 0.024478644 0.056811996
000230 e6 14 72 3d 04 ce ff 3c b9 d8 9a 3d 30 94 99 3b
       0.05910196 0.031226166 0.07560868 0.004686855
000240 87 2f 8e 3d 04 3e 72 bd 41 8a 8e 3d f6 f7 28 3d
       0.06942659 -0.059141174 0.069599636 0.0412521
000250 a7 90 82 3d 1e a1 ac bd e8 5f 87 bd 70 3c cb 3c
       0.063752465 -0.08429168 -0.066100895 0.024809092
000260 a3 74 93 3d c0 a9 55 3c 03 c5 5e bd 2a bc 4c 3d
       0.07199981 0.01304096 -0.054387104 0.049984135
000270 40 fd c8 bc f8 7c 25 3c d9 b1 b2 bd 51 51 b4 3d
       -0.024534822 0.010100596 -0.08725328 0.088045724
000280 6e 66 41 3d f0 45 da bc cb 28 83 bd 90 50 8f bc
       0.047216825 -0.026644677 -0.06404265 -0.01749447
000290 bb d3 84 3d 7e 4b 70 3d aa 54 2d bd ef 58 9b bd
       0.06485697 0.058665745 -0.04231707 -0.07585322
0002a0 60 1c 02 3d 50 d7 6f 3c 50 2d ed 3c f0 e1 34 bc
       0.03176534 0.014638737 0.02895227 -0.011040196
0002b0 ba 37 d7 bc d1 ab b2 3d 68 33 7b bd 04 3e c0 3c
       -0.02627169 0.08724178 -0.06132832 0.023467071
0002c0 ae b3 9d bd cb 89 80 3d b0 3e b2 bc bc 88 cf 3c
       -0.07700287 0.06276282 -0.021758407 0.025333755
0002d0 56 13 40 3d 32 0e 81 bd 48 2a 52 bc e6 d4 7e bd
       0.04689344 -0.06301536 -0.012827463 -0.062214755
0002e0 f2 bb 01 3d ad 68 a6 bd 90 21 ad bb 10 d7 eb bb
       0.03167338 -0.08125434 -0.005283542 -0.0071972683
0002f0 1b 99 81 3d c0 e1 13 bc b5 c6 91 3d a8 0d 7f bc
       0.06328031 -0.009025991 0.071179785 -0.015567221
000300 60 f9 5d bb e7 e1 69 bd 40 b2 8b 3b 76 b3 93 bd
       -0.0033870563 -0.057100203 0.0042631924 -0.07211964
000310 d6 00 f0 bc 50 5e 9f 3b 94 df 44 bd 57 ea a3 3d
       -0.029297274 0.004863538 -0.048064783 0.08003681
000320 d5 ce 41 bd e8 7a 25 3c 6f 43 a0 3d 32 35 54 3d
       -0.04731639 0.010100104 0.07825362 0.051808544
000330 63 a1 17 bd b0 0f 4a 3c 1a 12 af bd a0 cb ea 3b
       -0.037019145 0.012332842 -0.085483745 0.0071653873
000340 95 a2 a5 3d 0c bb b5 bc 23 0a 9f bd 06 3e f4 bc
       0.08087651 -0.022183917 -0.07765605 -0.029814731
000350 af 96 a5 3d e0 71 d5 bb e0 36 3d 3b 14 d5 cb 3c
       0.08085381 -0.006513819 0.002887182 0.024881877
000360 a6 af 41 3d 61 5f b4 3d d4 d4 0d 3d a8 0e 7b 3c
       0.047286652 0.088072546 0.034626797 0.015323319
000370 b4 0b 0d 3d e7 81 4d bd 30 d6 83 bd b6 bc a4 bd
       0.03443499 -0.050172713 -0.064373374 -0.08043806
000380 2f 37 57 bd c0 b3 b3 3c 3b 70 8b 3d 81 b5 91 3d
       -0.05254286 0.021936297 0.06808516 0.07114697
000390 7a 4a 2e 3d 19 d3 98 3d 36 c9 75 bd d6 db a0 bd
       0.042551495 0.07462139 -0.060006343 -0.078544304
0003a0 40 bf 33 3c 94 62 1b bd 79 17 8d bd 6a f2 5a 3d
       0.0109708905 -0.03793581 -0.06889243 0.05345384
0003b0 44 a0 f8 3c 5e 4e 20 bd bf bd 20 bd 35 8a 8b 3d
       0.030349858 -0.039137237 -0.039243456 0.0681347
0003c0 08 8b 6f bc b1 6d 96 3d 50 ee c2 bb 3e d6 5a 3d
       -0.01462055 0.07345141 -0.005948819 0.053426974
0003d0 de ae 2c bd 84 5e 21 bd 83 83 8f 3d a7 55 9e 3d
       -0.042158954 -0.039396778 0.07007506 0.07731181
0003e0 7f df 86 3d 5c 5b 89 3c d8 1a bd bc 35 72 84 3d
       0.06585597 0.016767196 -0.02308409 0.06467096
0003f0 47 2b 88 3d 35 b5 89 bd d0 cd 08 bc e8 ef 51 3c
       0.066488795 -0.067240156 -0.008349851 0.012813546

fc3.bias f4 [2]
000000 b6 1e 87 bd 00 18 ad 39
       -0.065976545 0.00033015013

fc1.weight f4 [128, 16]
000000 1a d5 25 be 36 1e 9c 3c b5 15 38 be 51 65 dd 3d
       -0.16194573 0.019057374 -0.1797703 0.1081034
000010 a2 35 18 3e 22 e1 73 bd da 00 f9 bc 49 60 b9 3d
       0.1486421 -0.059540875 -0.030395914 0.09051568
000020 0a d5 67 3c b9 85 22 be 23 55 06 bd 0e ab 5d 3e
       0.014149914 -0.15871324 -0.032796036 0.21647283
000030 92 43 8c 3c ba f8 46 3e b3 f2 3f 3e d2 93 d2 bd
       0.017122064 0.19430819 0.18744926 -0.10282101
000040 ad ac 0b bd 1b 36 e6 bc bd 99 40 be 39 15 7d 3e
       -0.034100223 -0.028101971 -0.18808647 0.24715127
000050 a9 aa e7 bd f9 96 5e be e4 d4 49 be 40 9e 82 bd
       -0.11311848 -0.21737279 -0.19710118 -0.0637784
000060 59 29 81 3e cc c2 c8 3c fc 9e 98 3e 68 1a 2f be
       0.25226858 0.024506949 0.29808795 -0.17099917
000070 7f 4b 06 3d 2f da 00 3e 48 fb 03 bd a8 ff a7 be
       0.032786842 0.1258323 -0.032222062 -0.32812238
000080 2b d5 61 be 52 0c 0e be f6 a9 3f 3e 89 a4 3a 3d
       -0.22053973 -0.13871887 0.18717179 0.04556707
000090 42 5a 05 be b7 f8 13 be 56 05 0b 3e bd 3c 7a bd
       -0.13022712 -0.14450346 0.13576254 -0.06109308
0000a0 25 e9 44 bd 0b 1a 48 3e 4b cc 0d be 4c f2 41 bd
       -0.048073906 0.19541185 -0.13847463 -0.047350213
0000b0 e1 83 0d 3e 40 de da 3c 00 e4 bc 3d 9f 63 e1 3d
       0.13819839 0.026717305 0.09223175 0.11005329
0000c0 09 a9 17 be e6 70 4c be 78 2b 5f 3e dd 80 4a be
       -0.14810576 -0.19964942 0.21793926 -0.1977572
0000d0 4a 1f 7c be fb ea cf 3d 32 ee 88 bb 1f 01 a0 3d
       -0.24621311 0.10152241 -0.0041787857 0.07812714
0000e0 cf d3 92 bc 1c 14 1c bd 57 63 23 be bb 16 c4 3d
       -0.017923264 -0.038105115 -0.15955864 0.09574648
0000f0 79 bb a7 bd ed 5c 9e bd 78 ad 32 3d cc 52 82 3d
       -0.081900544 -0.07732568 0.043622464 0.063634485
000100 5e cd 26 be 88 09 ae bd 3b 32 50 3e 34 75 53 3e
       -0.16289279 -0.08497912 0.20331661 0.20650178
000110 03 24 4e 3e f7 1a 63 3e 90 ac fc bd fc 0c 5c bd
       0.20130925 0.22178255 -0.12337601 -0.05372332
000120 c5 4d ab bd a2 3a 2d be 27 69 46 3d 63 6e f2 bd
       -0.08364443 -0.16916898 0.048440125 -0.11837461
000130 8f bc 73 3b 8b b2 69 be 9b 57 5b bd cd 51 87 3e
       0.0037191247 -0.22822015 -0.053550344 0.26429597
000140 22 8f 5d 3e 95 c4 0b be c3 fd 05 3e 05 4b a0 bd
       0.21636632 -0.13649209 0.13085084 -0.07826809
000150 90 46 4e 3c 2f ec ee 3c 1f 58 b5 bd 11 2a 21 3d
       0.012590066 0.029165355 -0.088546984 0.03934676
000160 10 dd 1e 3d 46 b4 dd bd 00 00 14 be 6f ec 36 be
       0.03878504 -0.108254 -0.14453125 -0.1786363
000170 45 4e 18 be 6a 98 21 be 4f 56 e7 bd bc c2 3f 3e
       -0.14873607 -0.15780798 -0.11295759 0.18726629
000180 64 a8 f3 39 c3 e5 8a bd 24 b7 29 be cd a0 07 3c
       0.00046474033 -0.06782105 -0.16573769 0.008278084
000190 53 df 86 3e f6 16 a2 3e 5d 3c 26 be f2 a3 ab bd
       0.26342258 0.31658143 -0.16233964 -0.083808795
0001a0 e9 fa ab 3b e9 71 37 be f8 2e 8d bd 89 fa c0 bd
       0.0052484167 -0.17914547 -0.06893724 -0.09422786
0001b0 fc 0f 70 bd b2 1f 48 3d a0 d6 a7 3d af 92 2f 3e
       -0.058608994 0.048858352 0.08195233 0.17145799
0001c0 20 4a 50 3e 72 66 15 3c da 67 4a 3c ca 16 0b bd
       0.20340776 0.009118663 0.012353862 -0.03395728
0001d0 f0 f2 41 3d d4 8f a2 bd f3 16 ab bc 3e 97 53 be
       0.047350824 -0.07937589 -0.020884966 -0.20663163
0001e0 17 03 3b 3e 9f 75 2f be 37 0e 7b 3e b4 28 65 3e
       0.18262897 -0.17134713 0.24517141 0.22378808
0001f0 98 88 83 bd 34 fc 6f 3e 6c 01 01 be b6 f1 77 be
       -0.064225376 0.23436052 -0.12598199 -0.24213299
000200 96 33 02 be 82 bd 7d 3e a8 a5 33 be 64 21 e7 bc
       -0.12714991 0.24779323 -0.17543662 -0.028214164
000210 c1 ab 8c bd 09 d8 6d 3e 2a ae c7 bd f8 fb 3a 3e
       -0.06868697 0.23226942 -0.09750016 0.18260181
000220 8a 86 9b bd 55 be 75 3e b5 4f 79 3d 49 34 60 be
       -0.07594021 0.23998387 0.06086703 -0.21894945
000230 b0 81 22 3e 79 de 3b 3e ad de 8b 3e e6 cb 7f 3c
       0.15869784 0.18346585 0.27318326 0.015612578
000240 83 1d 70 be 8e 7f d2 3d 19 aa fc bd 27 5a 80 be
       -0.23448758 0.102782354 -0.12337131 -0.2506878
000250 77 06 0f 3b 5c c5 78 3e 26 54 25 bd 93 b0 fe 3d
       0.0021823922 0.24294037 -0.040363453 0.124360226
000260 b0 c4 3d be 1a 75 ef bd aa a1 83 3d 96 ef b9 3d
       -0.18532062 -0.11692257 0.06427319 0.090789005
000270 ef 73 2a 3e d0 49 4b be 84 fc fc 3d 0b ff b6 3d
       0.16645788 -0.19852376 0.12352851 0.08935364
000280 20 a9 b6 3d 58 ef 84 3d c3 8f 8c 3d e1 84 53 3e
       0.08918977 0.06490964 0.06863358 0.20656158
000290 d7 81 4b be 3c 98 23 3e 50 53 8d 3c 3d 34 25 be
       -0.19873749 0.15976042 0.01725164 -0.16133209
0002a0 88 42 63 be 8a be 61 be 4c 89 35 be 03 6d 99 bd
       -0.22193348 -0.22045341 -0.17728156 -0.074914955
0002b0 bb 52 d1 3d f5 8b ee 3d d8 94 16 be 8d 76 ae 3c
       0.10220858 0.116477884 -0.14705217 0.021296764
0002c0 3d 1b aa 3d 05 19 a1 bd 5e dd a6 bd ba d6 3f bd
       0.083059765 -0.078661 -0.08147691 -0.04683564
0002d0 f1 34 4f be aa 69 53 3e a0 4f 5e be d0 cc 4c 3e
       -0.2023504 0.20645776 -0.21710062 0.20000005
0002e0 f6 a9 00 be 59 80 0c be 5b b2 c4 3d ab 2c 56 bc
       -0.12564835 -0.13720836 0.09604331 -0.013072173
0002f0 76 44 78 bd 24 6b 32 be fe 22 f0 bd f8 d4 68 bd
       -0.060612164 -0.17423683 -0.11725424 -0.056843728
000300 8c c8 37 be 50 d0 08 be 59 d2 87 bc c8 bf 12 be
       -0.17947596 -0.13360715 -0.016579794 -0.14330971
000310 6c 47 98 3e 3f 61 65 be b2 a4 54 be c9 b1 1c bd
       0.2974199 -0.22400378 -0.20765951 -0.038255487
000320 63 76 56 bd a2 82 04 3e 7d 70 5a be 41 f2 48 3e
       -0.052358996 0.12940457 -0.21331973 0.19623663
000330 d0 85 8d 3d b2 7f b4 3c b5 65 3a 3e db db d2 bd
       0.06910288 0.022033546 0.1820286 -0.1029584
000340 d8 5a fc bd c3 09 4d be 8c 16 26 bd 67 ab 7f be
       -0.123220146 -0.20023255 -0.040548846 -0.24967729
000350 e4 d9 13 3e e5 9d 6b 3e 56 07 b4 bd b2 09 49 3e
       0.14438587 0.2300945 -0.08790462 0.19632605
000360 c2 d6 03 3e fc 45 5a be cd 2a 9e bc 6c 2e 5b bd
       0.12874892 -0.2131576 -0.019307518 -0.05351107
000370 fd 30 2f 3e 4e e4 91 3c 50 51 87 be 60 5f 5d 3c
       0.17108531 0.01780906 -0.26429224 0.013511509
000380 42 08 5b 3d bf ff 15 be 89 a6 cb bd 0b b9 40 3e
       0.053474672 -0.1464834 -0.099438734 0.18820588
000390 03 cb 7d 3d 49 98 b3 3d 61 f4 43 be 80 a3 70 3e
       0.061961185 0.087692805 -0.19136192 0.2349987
0003a0 63 70 29 be be d2 17 be e8 35 81 3e c4 da 0f bd
       -0.16546778 -0.14826486 0.2523644 -0.03512074
0003b0 7c 84 34 3e f6 9b 84 be 00 ca d9 3c 24 c2 24 be
       0.17628664 -0.2590024 0.026585579 -0.16089684
0003c0 a3 b0 2d be f0 65 3c bd 31 32 ff bd 6d 15 e6 bd
       -0.16961913 -0.045995653 -0.12460745 -0.112345554
0003d0 53 75 53 be 61 fb 0c 3e ce 9c 1e bd b3 f6 61 3e
       -0.20650224 0.13767768 -0.03872376 0.22066765
0003e0 97 6a 1c bc 4d 4a 35 be 96 92 dc 3d f2 f5 08 3e
       -0.009546897 -0.17704125 0.107701465 0.1337507
0003f0 e9 51 9e bb e9 9b e1 3c c6 3c 8f 3b a0 e3 36 3d
       -0.004831542 0.027540164 0.0043712584 0.044650674

fc1.bias f4 [128]
000000 dd fb 3d be b0 9f 2f be 72 03 59 3e 4c 69 05 be
       -0.1855311 -0.1715076 0.2119272 -0.13028449
000010 78 bd 13 bd 44 d0 26 3e 40 0a c1 3d 0a cf 4d 3d
       -0.036069363 0.16290385 0.09425783 0.050246276
000020 38 c6 18 be 42 95 72 3e 67 91 27 3e 50 f2 ea bd
       -0.14919364 0.2368975 0.1636406 -0.11471999
000030 1d 59 75 3e fb 48 3f be 0b b0 cf 3d 6e 0a 4c 3e
       0.23959775 -0.18680184 0.101409994 0.19925854
000040 b4 4c 30 3e eb 98 16 3e 00 66 0b bd f9 97 82 be
       0.1721676 0.14706771 -0.03403282 -0.2550657
000050 d1 7a c8 3d 1b 2b ae bd af ad 6d 3e 6e 30 85 3e
       0.0978905 -0.085043155 0.23210786 0.2601351
000060 54 e0 fe 3d 90 e3 47 be bc 32 46 3e c6 b5 69 3e
       0.12445131 -0.19520402 0.19355291 0.22823247
000070 5d da 0d be 63 31 2e 3c a9 79 9b bd cc 0e 36 be
       -0.1385283 0.010631892 -0.07591564 -0.17779082
000080 19 86 c2 3d 08 02 14 be f6 38 6f be 20 c1 cf 3c
       0.09498233 -0.144539 -0.23361573 0.025360644
000090 03 97 4e be 70 44 23 be 07 0e 51 3e 16 e1 0d be
       -0.20174794 -0.15944076 0.20415507 -0.13855395
0000a0 68 3c 94 bd 79 47 c0 bd 89 f0 f1 3b 83 a0 02 be
       -0.07238084 -0.09388632 0.0073834104 -0.12756543
0000b0 75 bb 47 3d 8f 4f b4 bd 3e f0 be 3d f5 0d 95 3c
       0.048762757 -0.08804237 0.09323166 0.018195132
0000c0 94 8e 6f bc 88 10 d3 bd 11 24 22 3d b1 5d 28 3e
       -0.014621396 -0.103058875 0.039585177 0.1644199
0000d0 5c eb 08 3e 1a fc 5a 3e f6 20 52 be e1 0b bd bd
       0.13371032 0.21385232 -0.20520386 -0.09230781
0000e0 7e 74 42 bc 97 b7 5c 3e 87 5d 28 3d 1e 3c d5 bd
       -0.011868594 0.21554409 0.04110482 -0.10411857
0000f0 a7 a3 8a 3e 13 5f 54 be a7 56 b0 bd e5 55 6d be
       0.27077982 -0.20739393 -0.086102776 -0.23177297
000100 45 bc 08 3e ec 11 34 3e 2b 3a 68 be 21 18 3d 3e
       0.13353069 0.17584962 -0.2267844 0.18466236
000110 88 9e 31 3d 8a ed 04 be 8e 6d 13 bd 02 61 58 3e
       0.043364078 -0.12981239 -0.03599315 0.21130756
000120 55 25 62 3d a0 44 2e be da 4f c0 3b 9c f4 54 bc
       0.055211384 -0.17018366 0.005868894 -0.012997773
000130 dd a7 62 be be 1e c5 3d aa 20 98 3d c6 3d 5f 3e
       -0.22134347 0.09625004 0.07428105 0.21800908
000140 c3 2e 2b bd 62 7b 02 be b0 19 26 3e fe 76 ea bc
       -0.041792642 -0.1274238 0.16220737 -0.028621193
000150 1c 40 e8 3d fc 2a 45 3c 28 e8 3a 3e 99 83 70 bd
       0.11340353 0.012034174 0.18252623 -0.05871925
000160 da 67 6f 3d 29 24 f7 bb d7 c5 48 be 78 fe 80 bd
       0.05844865 -0.0075421524 -0.1960672 -0.06298536
000170 0b 66 7c 3d 1b 17 84 3d 73 18 41 3e 98 73 47 3e
       0.061620753 0.064497195 0.18856983 0.1947769
000180 6e 4d d8 3b cb 21 39 be 6a 79 5a 3e 62 2f 5f 3e
       0.006601027 -0.18079297 0.21335378 0.21795419
000190 4d b8 fc bb f7 21 69 be ca 1d d5 bd 2f 60 b6 3d
       -0.0077124 -0.22766863 -0.104060724 0.08905064
0001a0 51 12 18 bd 1e 9b 6d bd 43 70 d9 bc b3 f2 9d 3d
       -0.037126843 -0.05800926 -0.026542788 0.07712307
0001b0 3b 5f 73 be 6c ff bf bd d2 b5 e5 bd 78 75 76 be
       -0.23766796 -0.0937489 -0.1121632 -0.24068248
0001c0 6d 53 bb 3d e0 92 54 bc 69 b5 7f 3e 68 22 79 be
       0.091467716 -0.012974471 0.24971546 -0.24329531
0001d0 c7 7a 23 be 10 13 80 3d a0 3a f5 bd 64 e0 04 be
       -0.15964805 0.06253636 -0.119740725 -0.12976223
0001e0 54 f9 51 be 22 bc 34 be 85 c1 4a 3e 36 ac 68 be
       -0.20505267 -0.17649892 0.19800384 -0.22721943
0001f0 59 b4 49 3d 49 13 92 bd 92 1a 71 bd 59 47 55 bd
       0.04924426 -0.071325846 -0.05886323 -0.052069996

fc2.weight f4 [128, 128]
000000 74 83 5d 3d 55 20 8f 3c 5c bc 44 bd bb 48 46 bd
       0.05408044 0.017471472 -0.048031196 -0.048409205
000010 8e b3 c0 3c 56 54 1a bd 1f 02 8f bd 8e 5d 82 bc
       0.023523118 -0.037678085 -0.069828264 -0.015913751
000020 03 c4 45 bc 04 33 01 bd 77 b3 7e bd 67 4e 2f bc
       -0.012070659 -0.031542793 -0.06218287 -0.010699845
000030 c3 7e 9c 3d 82 05 c7 bc d5 6d 8c bc e4 41 4f 3d
       0.076413654 -0.024294619 -0.017142216 0.050599948
000040 77 be 2c bd 70 7e 99 3c 3c 9b 9d 3d cb 8a 85 bd
       -0.04217383 0.018737048 0.07695624 -0.06520613
000050 70 61 ae 3d 49 4d 8a bd 89 f4 b4 bd 85 f4 cb bc
       0.085146785 -0.06753022 -0.08835704 -0.02489687
000060 af 0c 7e bd 80 3a 69 bd c1 0a 2d 3c 77 98 3c 3d
       -0.062023815 -0.056940556 0.010561646 0.04604384
000070 36 f7 2d bc 81 b2 2b 3d eb a2 cb 3c 75 1c 29 bd
       -0.010618022 0.04191828 0.024857959 -0.041286904
000080 5d 6c 1e 3b 37 94 f2 ba 28 fe 65 3c 68 94 5f bc
       0.0024173476 -0.0018507306 0.014037646 -0.013646223
000090 85 ce 14 3d b2 ab 4f 3b c7 8d 0e 3c 0f 96 3a 3d
       0.036329765 0.0031688032 0.008700795 0.045553263
0000a0 9e 6c 76 bd 8a fd 36 bd b7 eb 9e 3d d4 c3 68 bd
       -0.06016218 -0.044675387 0.07759803 -0.05682738
0000b0 ad 7d 64 3d 32 b0 78 3d f9 47 91 3d 72 29 99 3d
       0.055783916 0.060714908 0.07093806 0.07478608
0000c0 c8 79 e8 bc 23 41 1d bd 82 40 38 3d ba a9 72 3c
       -0.028378382 -0.038392197 0.044983394 0.014810974
0000d0 82 48 5a 3d 4f f1 05 bd 13 ad c1 bd 77 73 17 bd
       0.053291805 -0.032700833 -0.094568394 -0.03697535
0000e0 c6 a1 5d bd dd ee 27 bc 2b d5 68 3d bd bd 29 bd
       -0.054109357 -0.010249821 0.056843918 -0.041440714
0000f0 e0 d7 3b 3d 1d 52 f4 3c d3 57 37 bd c9 87 5d 3d
       0.04586017 0.02982431 -0.04476149 0.054084573
000100 cd 1c 28 3d 8e 21 bd 3d 28 f6 1b 3d 5c bb 65 3c
       0.04104309 0.09234916 0.03807655 0.014021721
000110 5f 50 ad bd 42 37 a9 bd b4 60 71 bd eb 51 88 bd
       -0.08462595 -0.08262493 -0.058930114 -0.066562496
000120 d4 d8 89 bd d8 e8 32 bd 9c 46 ab 3d 01 02 75 bc
       -0.0673081 -0.04367909 0.08363077 -0.014954091
000130 e5 e1 6b 3d 3b 80 b0 bd 70 6e d2 bc 0f 60 6b 3d
       0.057588477 -0.08618208 -0.025687426 0.057464655
000140 2f 7a 8a bd b0 26 de bc 59 b7 a3 bd af 52 d3 bc
       -0.06761586 -0.027118057 -0.07993955 -0.025796263
000150 2f 90 06 bd d3 de 75 bc 0f 96 92 bd 11 24 69 bd
       -0.032852348 -0.015006739 -0.07157528 -0.05691916
000160 12 fb 09 bd 32 b5 58 3d a9 b2 21 3a f5 4a 0d bd
       -0.033686705 0.052907176 0.0006168285 -0.034495313
000170 35 44 88 bc 4c c1 b1 3d dc ab ac 3d 91 4c a0 bd
       -0.016634086 0.086794466 0.08431217 -0.07827104
000180 71 53 d4 ba 9b a4 4c bd 47 c9 83 3c cc 8c 93 3c
       -0.0016199184 -0.049961668 0.016087187 0.018011473
000190 a3 2a d4 3c 33 7e 91 bd 32 d5 b2 3b 36 18 40 bb
       0.025899237 -0.07104149 0.005457544 -0.0029311306
0001a0 59 f0 a5 3d 4b 79 8e bd ac 85 73 bd 09 ee 36 3c
       0.08102483 -0.069567285 -0.05945365 0.01116515
0001b0 d3 58 ad 3d dc 59 50 bd 0d d2 87 3d 12 dc 72 3d
       0.084642075 -0.050866947 0.06631861 0.059291907
0001c0 01 17 b2 bb 9b 94 55 3d ae 87 db 3c 98 bf 0e bd
       -0.005434871 0.052143674 0.026798096 -0.034850687
0001d0 5d 1d 89 bd 76 a1 e3 bc 0d 11 8f bd 1b 9c 47 3d
       -0.06695054 -0.027786952 -0.06985674 0.04873286
0001e0 ed 41 17 3c 0f 8b 64 bc 2c 30 97 3d 6c 29 09 3c
       0.0092320265 -0.01394917 0.07382235 0.008371692
0001f0 e9 07 30 bc 6c ee ae bd fd 7c c6 bd f2 7b 2e bc
       -0.010744073 -0.08541569 -0.096918084 -0.010649668
000200 af 28 7d bd da 04 0a bd 0c 81 b9 bc 18 89 d6 bd
       -0.061806377 -0.033696033 -0.022644542 -0.10475367
000210 31 87 e1 3c 9b 46 7c 3d 68 cf c1 3d e2 56 f8 3c
       0.027530285 0.061590772 0.09463388 0.030314866
000220 d8 dd 89 3d e9 18 10 bb 48 c6 e5 3d 38 99 8d bd
       0.067317665 -0.0021987504 0.1121946 -0.0691399
000230 b5 35 31 bd 1f b7 e3 bd b1 df a6 bd ca 42 96 bd
       -0.04326411 -0.11118912 -0.081481345 -0.07336958
000240 0a 69 2f bd 12 71 b9 3d 9e d2 dc 3c e5 43 7e bd
       -0.042824782 0.090547696 0.026955899 -0.062076468
000250 05 74 5e 3d 50 1d 2c bd 9a 8f 30 bd 42 c2 65 bd
       0.054309864 -0.042020142 -0.0431057 -0.05609346
000260 af 92 d9 3c 88 e0 c0 bd f7 23 19 3d f6 34 30 bd
       0.026559202 -0.09417826 0.037387814 -0.043019257
000270 b4 c9 c3 bd ed ad 2b 3c 9a 1c 9c bd ec 41 ff ba
       -0.09559956 0.010478479 -0.07622643 -0.0019474602
000280 78 ea 68 bc b5 56 b2 3c 32 3e 18 bd 3c 90 83 bc
       -0.014216058 0.02176986 -0.03716869 -0.016059987
000290 6e f2 be bc fe 6a 6a bd 9c 48 6c bd ac 99 3c bd
       -0.023308959 -0.057230942 -0.057686433 -0.04604499
0002a0 8e e5 25 3d 21 35 f5 bc 22 fb 80 3d 4c 0e a9 3d
       0.040502124 -0.02993256 0.062979 0.0825468
0002b0 ad 13 8a bc 7e d9 a9 bd 83 cc 9d bb da 7e 27 3d
       -0.016855085 -0.082934365 -0.0048156395 0.04089246
0002c0 7d 87 d5 bd ff 10 18 3c 5a 44 c1 3d 9d 35 6f 3d
       -0.10426233 0.009281396 0.09436865 0.05840074
0002d0 a0 75 2f 3d c5 82 32 bd 74 62 1b 3b d1 64 21 3d
       0.042836785 -0.043581743 0.0023709806 0.039402787
0002e0 6d ee b2 bd b8 66 be bb 97 72 90 bd 54 64 28 bd
       -0.08736882 -0.005810585 -0.07053106 -0.041111305
0002f0 72 e2 41 3d 16 52 84 3d d1 50 c2 bd ce a3 c2 bc
       0.047335096 0.06460969 -0.09488071 -0.023759749
000300 c0 51 c1 3c 00 de 5a 3d d8 d0 61 bc de 8f 46 3d
       0.023598552 0.053434372 -0.013782702 0.048477046
000310 bd 45 86 bd ce 37 5a bc ea 11 7d 3d 17 11 9b 3d
       -0.0655627 -0.013318969 0.061784662 0.07571619
000320 d4 01 b9 bd e4 47 d4 bd c3 f9 79 3d 05 5b b0 3d
       -0.09033552 -0.103652745 0.061029207 0.086111106
000330 7a b7 e3 3c 07 be 22 bd 49 8c 81 bd a1 dc 0b bc
       0.02779745 -0.039732005 -0.063255854 -0.008536489
000340 c5 b8 b5 bc 6a 1f fe bc 0f 09 24 bd 27 16 6d bc
       -0.022182832 -0.031020839 -0.0400477 -0.014470614
000350 c9 22 88 3b e1 6c f2 3a b7 2f eb bd 82 22 82 bd
       0.0041545373 0.0018495583 -0.1148371 -0.06354238
000360 ba 7a c7 3b f5 6b 0c 3d 32 e2 7e bd ce d7 32 bc
       0.006087628 0.034282643 -0.062227435 -0.01091571
000370 d4 08 ed 3c b2 35 ba 3d 25 bc 21 bd fa 02 85 bd
       0.028934874 0.09092273 -0.03948607 -0.06494708
000380 85 51 47 3d d1 32 00 be 2e 5e b6 bd 35 c5 2b 3d
       0.048661727 -0.12519385 -0.08904682 0.04193612
000390 e4 3d 09 bd 60 8b 10 3d 8f de 1d bd a3 59 6d 3c
       -0.03350629 0.03528917 -0.038542327 0.014486703
0003a0 5c ec c4 bd 79 f1 86 3d 00 a4 16 3b a4 b7 16 bd
       -0.096153945 0.06589026 0.0022985935 -0.036796227
0003b0 6f b8 db 3c b9 36 59 bd 9f 8d 8f 3d d8 e3 94 bc
       0.026821343 -0.053030703 0.07009434 -0.01817505
0003c0 86 ad 8f bd 62 39 c6 bd c0 4b b6 bc 18 41 70 bd
       -0.07015519 -0.09678914 -0.022252917 -0.05865583
0003d0 40 27 94 bd cc 18 95 bd 93 67 44 bc 6e c1 55 3d
       -0.07234049 -0.0728012 -0.011987585 0.052186422
0003e0 0b 1c 20 3d 6f 8c 07 bd 0d 2b be bc 56 cc a1 3d
       0.039089244 -0.033092912 -0.023213888 0.07900302
0003f0 e2 28 d5 bd 43 4c 58 bd c3 50 59 3c 64 9e a6 3d
       -0.104081884 -0.052807104 0.013263884 0.08135679

fc2.bias f4 [128]
000000 d6 77 4f 3d 67 4b 9d bc 08 19 98 bd db 5a c5 bc
       0.050651394 -0.019200994 -0.07426649 -0.024091175
000010 66 f7 c0 ba fa 33 79 3d 7a 97 4d 3d d8 21 83 3d
       -0.0014722168 0.060840584 0.050193287 0.064029396
000020 15 f7 9a 3d 68 f3 15 bc 06 7a 95 3d a3 bb a1 3d
       0.075666584 -0.009152271 0.07298665 0.07897117
000030 e1 21 a7 3d 8c 30 49 3d 9a ed 73 3d 9a bd 5c 3d
       0.08160759 0.049118564 0.059552766 0.053891756
000040 a6 d8 a0 bb 24 93 04 3d b4 04 4d bd 7e 62 29 bc
       -0.004908639 0.032366887 -0.050053313 -0.010338424
000050 94 86 9e 3d c8 4c 4d bd e0 8e 8e bd 75 ce a0 3c
       0.077405125 -0.050122052 -0.06960845 0.019629696
000060 48 ed 6e bd 70 12 9b 3d 53 27 b0 bc 54 ef 83 3c
       -0.058331758 0.07571876 -0.021503126 0.016105331
000070 9f bf 14 bd a5 8d 0b 3d c7 93 77 bd ec ae 95 3d
       -0.036315557 0.03407063 -0.060443666 0.07308754
000080 28 dc 13 3d 33 3c 16 3c d8 61 ac 3d e0 cd 14 3c
       0.03609863 0.009169626 0.084171 0.009082288
000090 a3 96 87 3c 7d 21 b0 bc 3f d2 a8 3d d8 b7 13 bd
       0.016551321 -0.021500343 0.08243226 -0.036064
0000a0 52 84 4d 3d 46 6d 9c bd a7 b4 a5 bd e0 39 a8 bb
       0.05017502 -0.0763803 -0.08091097 -0.0051338524
0000b0 3c df b9 bd 5e 69 b5 3d 86 28 62 3d 8e ff 7e bc
       -0.09075782 0.08857988 0.055214427 -0.015563859
0000c0 d0 4b 09 bd d8 55 97 bd 80 0d 24 bd 7a b7 ab 3d
       -0.033519566 -0.0738942 -0.040051937 0.08384605
0000d0 55 c2 b5 3d 9e da 0f bd f6 28 e9 bc d2 da 09 3d
       0.088749565 -0.0351206 -0.028461915 0.03365595
0000e0 e3 1e a6 bc 44 da 53 3d d2 f6 ac bc 2e d0 37 bc
       -0.0202784 0.051721826 -0.021113787 -0.0112190675
0000f0 fd 70 49 bd b2 96 12 3d 86 b2 82 bd 40 eb b2 3c
       -0.04918002 0.035788245 -0.06381707 0.021840692
000100 6e f8 a3 3c 07 d0 a1 3c 7b 26 34 bd b2 8c 12 3d
       0.020015921 0.019752515 -0.04398201 0.03577871
000110 ec ae c1 3c 4e ca 69 3c 75 a3 ae bd 14 cc 62 bd
       0.02364298 0.014269425 -0.08527271 -0.055370405
000120 4c 02 34 bd 82 9a 0b bd 40 af eb bb d6 30 c5 3c
       -0.043947503 -0.034082897 -0.0071925223 0.024071138
000130 e2 7c e5 bc de a8 90 bd 30 c1 42 bd a8 5b a7 3d
       -0.02801365 -0.07063459 -0.04754752 0.08171779
000140 7c 3e 8d 3c 54 80 85 bd a4 ad 40 3c 4d fc ca b8
       0.017241709 -0.06518617 0.011760149 -9.679105e-05
000150 34 f6 9c bd 3a 3b 7c bd a0 79 6d bc 47 61 de 3c
       -0.07664147 -0.06157992 -0.01449433 0.027145995
000160 b0 a1 a6 3d b0 35 cc 3c e2 15 8a bd fd ac fa 3c
       0.08136308 0.024927944 -0.06742455 0.030600065
000170 59 cc eb 3c 4e 07 b7 bc ac 8b a5 bd c6 29 3f bc
       0.028783964 -0.02234235 -0.08083281 -0.011667674
000180 7d dd 66 3d c1 a4 be 3c 76 69 b0 bc ae 95 9d bd
       0.05636357 0.02327192 -0.021534663 -0.07694565
000190 bd 8c 0f 3d dc bc 28 bc ed 77 9e bd 9b ca 7a 3d
       0.035046328 -0.010298934 -0.07737718 0.061228376
0001a0 a9 ab 64 bd d6 3f 91 3d c7 45 92 bb a4 f3 49 3d
       -0.05582777 0.07092254 -0.0044638845 0.04930462
0001b0 84 e8 53 bd ac bb 36 bd 9f 08 46 bd 5b 4d 2b bc
       -0.051735416 -0.04461257 -0.048348065 -0.010455455
0001c0 da af ab 3d 98 e9 57 3c b3 42 62 bb f3 9a 83 3c
       0.083831504 0.013178252 -0.003452462 0.016065096
0001d0 df 2b 6b bd 38 3d 82 bd fc 43 8a 3d b4 28 ac bd
       -0.057414886 -0.06359333 0.06751248 -0.08406201
0001e0 ee 7d 9a 3d 34 3b 88 bd 50 6a cb 3c d5 6a da 3c
       0.075435504 -0.06651917 0.024830967 0.02666227
0001f0 c5 50 eb bc d4 d2 7e 3d 4f 96 6d 3b eb 9a a3 3d
       -0.028725037 0.06221278 0.003625292 0.07988533
