customTrainer/results/AgentBall00/RollerBall/RollerBall-50674.pt (torch, 312756 bytes, 24 tensors)

fc1.weight f4 [128, 16]
00000000: 227a 23be 4077 8abc 7e26 063e f286 6bbe
00000010: a88e d13d 0808 003e d478 5b3e fca5 e5bd
00000020: 78b1 413e 9256 0ebe 5ae1 2fbe c02c fabc
00000030: c064 213c 1805 e2bd 1a48 263e 5808 eabd
00000040: d827 77bd 10b0 da3c 58a4 6e3d 4091 d9bb
00000050: f829 163e 9cdd d73d 4446 ce3d 30ae 923c
00000060: 3ce9 6cbe 286e de3d a465 0d3e f840 3cbe
00000070: 10c8 7e3e 28ff 8dbd 6049 5e3c 7430 71be
00000080: 5a80 5d3e a07a 5c3c 84b0 2dbe c4b1 c33d
00000090: c05f 8e3d 9804 423d 8aa0 0bbe dc5f 8dbd
000000a0: dec0 7abe c4bf a4bd 00a1 0bbb 744d 8ebd
000000b0: d4a2 02be e8c1 203d 9a4d 243e 3e1e 46be
000000c0: cc0d 113e e243 303e 80cf 8a3b 5062 5b3d
000000d0: 2a58 143e a8fd 7b3d d484 54be 20ec 933d
000000e0: 00d0 7cbb c0e1 13bd d096 00bd 1057 873d
000000f0: e29f 293e c038 ecbc fef6 273e 487b d13d
00000100: babe 073e e6be 31be 9011 28bd 6668 04be
00000110: b2f8 5d3e 702c 38bd e4d4 aabd 18c5 cbbd
00000120: a04a 69bd 80a3 193e 9a87 7fbe 4c46 61be
00000130: 68fb 52be d2a1 6a3e 70b7 4f3e e8ef dd3d
00000140: 40e1 1cbc 9881 19bd 282c 113e 4008 3bbd
00000150: 7ccf a23d 80d0 ca3d a68f 093e 3443 2f3e
00000160: 8856 e9bd 0e5f 03be 2a10 453e 56e9 55be
00000170: 102e 03bd fa4f 1e3e 7054 453d e273 15be
00000180: ea8c 463e e8de 29bd f882 e1bd f258 623e
00000190: 4081 af3c 5e87 683e 2413 1e3e e04e 323e
000001a0: fe2f 76be 885d 37be 0028 80b9 5a0b 5c3e
000001b0: 8260 5ebe b073 10bd 48a1 0a3e 00b0 c73a
000001c0: fa14 713e 0ca2 80bd d240 7f3e 34e7 d8bd
000001d0: 08eb c3bd 6a94 0abe 4c6f 183e bedc 1c3e
000001e0: 5adb 1dbe 96b9 4dbe 849b c9bd 88af a7bd
000001f0: 04d2 08be 783e 243e 36fd 4abe 5c5f 233e
00000200: f828 0e3e fae4 5dbe 14fb ed3d 8ce5 11be
00000210: 80d7 cbbd e426 38be 4c32 2a3e a87e 6f3e
00000220: 044e debd c89a 4fbe f49a d43d d039 77be
00000230: 6018 543d 64c9 a3bd cc05 fdbd 60d1 18bd
00000240: e04d 143d a007 8c3d 268b 16be c0cb 2f3c
00000250: b8b8 1e3d 8056 483e 1c4c 90bd 24a5 5ebe
00000260: f831 df3d 0c7d 133e 7859 753d 88cd 30be
00000270: 7092 dc3c 70d0 9d3c 029a 2fbe e092 85bc
00000280: c0ec 7fbc 9003 023d 0828 5ebd c0c5 f6bb
00000290: 54dc 0f3e 6066 853d 88bb 55be b426 d83d
000002a0: 0863 b93d a261 49be 00e3 063c 9e2d 1dbe
000002b0: 6c0f 0e3e f866 273d 180d 05be 5e1c 74be
000002c0: c0b3 35be 0ea0 73be 7875 863d d0bd 43bd
000002d0: 0054 13be 0a62 0d3e 48a4 873d a815 55be
000002e0: 6870 26bd 2002 b2bc 44fe c7bd e803 6dbe
000002f0: 1008 733d 78fb 05be 40b5 fd3c 5869 19be
00000300: b841 853d fc47 ffbd 703c 1d3e 0a22 23be
00000310: 3c85 e4bd 20d2 103e c0f1 683e b2e0 7b3e
00000320: 38e2 673d 5e9f 4a3e 04d7 f9bd 10e2 e6bc
00000330: ae6d 3ebe f0cc d0bd e84d 6a3e bc7f 19be
00000340: e08a 55bc 801a 41be dae5 333e 30b8 613e
00000350: 427c 383e 44ac 97bd 20e6 153e 9667 433e
00000360: 7eee 403e 84ad ffbd e809 2d3e b068 1e3e
00000370: 42cb 3dbe c633 51be 4ead 573e ac8b f83d
00000380: bab4 4b3e 2a0c 6e3e 4ed0 093e 7c7b 713e
00000390: 4863 c03d 92e8 4abe ce2e 05be 0073 14bb
000003a0: 80f9 fc3d 906d 9fbd 0008 05bc 1803 ee3d
000003b0: 50e0 62be e0c2 6fbc 10ab 55bd d0c0 313d
000003c0: 901a ef3d a029 95bc 0cff 113e 44b8 debd
000003d0: 54c5 a33d 5482 9fbd cc60 113e 701f 7abd
000003e0: c05e eabd 8e22 7e3e 24dd efbd 9491 d1bd
000003f0: 4450 4abe 0072 a83b be36 633e 6ef5 2ebe
-0.15964559 -0.016902566 0.13100621 -0.23000696 0.10232288 0.12503064 0.21432811 -0.112133
0.18915355 -0.13900211 -0.17175809 -0.030538917 0.009850681 -0.11036128 0.16238442 -0.11427373
-0.060340732 0.026695281 0.0582622 -0.0066396296 0.14664447 0.105403155 0.10071996 0.017905325
-0.23135847 0.108608544 0.13808304 -0.18384159 0.24881005 -0.06933433 0.013567299 -0.2355364
0.21630993 0.01345697 -0.16961867 0.095553905 0.069518566 0.047367662 -0.1363546 -0.06903049
-0.24487635 -0.08044389 -0.002130568 -0.06948367 -0.12757427 0.039247423 0.16045228 -0.19347474
0.1416542 0.17213395 0.0042361617 0.053560555 0.14486757 0.061521202 -0.20753795 0.07222772
-0.0038576126 -0.036103964 -0.031393826 0.06608403 0.16564897 -0.028835654 0.16402814 0.10228592
0.1325635 -0.17357978 -0.041032374 -0.1293045 0.21676901 -0.044964254 -0.08341387 -0.09949702
-0.056955934 0.15003777 -0.24954072 -0.21999472 -0.20603716 0.22913292 0.2028482 0.10836774
-0.009575188 -0.037477106 0.14177 -0.045662165 0.07949731 0.099030495 0.13433704 0.1711548
-0.11393458 -0.12829229 0.19244447 -0.20889792 -0.03202635 0.15460196 0.04817623 -0.14594987
0.19389692 -0.041472346 -0.110113084 0.22104242 0.021423936 0.22707888 0.15436989 0.17412901
-0.24041745 -0.17906773 -0.00024443865 0.21488705 -0.21716502 -0.03526658 0.13538086 0.0015234947
0.23543158 -0.06280908 0.2492707 -0.105909735 -0.09566313 -0.13533178 0.14886206 0.15318581
-0.15415707 -0.20090327 -0.098441154 -0.08187777 -0.13361365 0.16039455 -0.19823155 0.15954345
0.13882816 -0.21669379 0.11620155 -0.14247721 -0.09953213 -0.17983586 0.16620749 0.2338816
-0.10854724 -0.20273888 0.103811175 -0.24143147 0.05178106 -0.079973966 -0.12354621 -0.03730905
0.03620708 0.06837392 -0.14701518 0.01072973 0.03875038 0.19564247 -0.07045767 -0.21742684
0.10898203 0.1440317 0.059899777 -0.17265904 0.026925296 0.01926443 -0.17148593 -0.016305387
-0.01562041 0.03174168 -0.054237396 -0.007530898 0.14048892 0.06513667 -0.20872319 0.10554257
0.09052092 -0.1966615 0.008232832 -0.15349433 0.1387307 0.040869683 -0.12993276 -0.23838946
-0.1774435 -0.23791525 0.06565374 -0.04778844 -0.14387512 0.1380693 0.06623131 -0.20809042
-0.040634543 -0.021729529 -0.09765294 -0.23146021 0.05933386 -0.13084209 0.030970216 -0.14981592
0.065066755 -0.12464902 0.15355086 -0.15930954 -0.11158225 0.14142656 0.2274847 0.24597433
0.056612223 0.19787356 -0.12199214 -0.028183967 -0.18596527 -0.10195339 0.22881281 -0.14990133
-0.013033599 -0.18857765 0.1756815 0.22042918 0.1801615 -0.07405904 0.14638567 0.19082484
0.18840978 -0.12484267 0.1689831 0.15469623 -0.18534568 -0.20429906 0.21062204 0.12136015
0.1989316 0.23246828 0.13458368 0.23582262 0.093939364 -0.19815281 -0.13006136 -0.0022651553
0.12352276 -0.07784569 -0.008119583 0.11621684 -0.22155881 -0.014633864 -0.05216509 0.04339677
0.11674988 -0.018208325 0.14257449 -0.1087499 0.07996622 -0.0778853 0.14197081 -0.061065137
-0.114438534 0.24817869 -0.11712101 -0.10232845 -0.19757181 0.005140543 0.22188851 -0.17085811

fc1.bias f4 [128]
00000000: 8814 463e 5ab7 643e 76c6 2bbe c09c 5bbe
00000010: fc86 003e 4086 9a3b 20c6 61be 82ba 433e
00000020: 5248 423e 00f7 aeba d046 2e3d 78a6 b8bd
00000030: 44a6 7c3e e687 503e d01e 5fbe d04f f73c
00000040: 80a8 36be 96a4 1c3e fc51 7bbe d81d 693d
00000050: d0ed 033e 9a1c 613e 965d 553e e0a6 303d
00000060: 8cb3 b8bd a88a 233d 2a68 78be f0f3 20be
00000070: 824d 70be ba13 14be aca2 833d f4fa f53d
00000080: 06ba 603e e8dd 633d 68e4 0fbe 4cb0 0a3e
00000090: 5e30 04be b08d 92bc 8422 743e 6808 8abd
000000a0: 581d dfbd 3c4b e53d 9e45 413e 4084 babd
000000b0: bc05 fd3d 689b 6f3d fca7 9e3d 9c9b 263e
000000c0: 4cf8 91bd c0cf a0bd b00b 4e3e b02a 60bd
000000d0: f8ab 483e d89a f5bd ec5e c23d bc63 bf3d
000000e0: dc60 d0bd 9017 ecbd 4647 1d3e 9028 713d
000000f0: cc32 35be 4079 9d3c 489a fe3d bc29 d9bd
00000100: c831 1e3d 1cfd 34be f219 5b3e 38f5 453e
00000110: d075 f5bc 183e ab3d 1cff c8bd b8ba 6e3e
00000120: 78b2 87bd 1035 c93c b098 ac3c 347d 143e
00000130: 0026 60bc ae5d 363e 60be 1f3e f470 363e
00000140: c87e b1bd 8aff 14be d62c 6a3e d0f7 73be
00000150: d8a5 f6bd 1ca0 80bd 807f 08bb cccd dcbd
00000160: a09a 8a3c 10d8 78bd f496 bfbd 589d bf3d
00000170: 1027 753e d497 8e3d 7c9e 2bbe 7a7b 303e
00000180: 308a 683d 20ef 7d3d 865c 60be f2dd 3e3e
00000190: d482 52be 8830 3b3e 9078 ae3c ea91 64be
000001a0: 8082 4bbd 78d9 a43d b411 f03d 30f3 14be
000001b0: f68f 363e 708d 6cbd ea66 74be 0881 513e
000001c0: 00ec e9ba 5023 60be 487d a63d a0f1 733d
000001d0: d8e9 013d c0e2 2a3e 403f e73d 80e0 b33b
000001e0: 50df 0a3e 6021 4c3c 7263 2bbe 9c8a 3fbe
000001f0: e66c 783e 141a e6bd 5e13 45be 6200 403e
0.1934377 0.22335568 -0.16774926 -0.21446514 0.12551492 0.004715711 -0.22048235 0.19114116
0.189729 -0.0013348758 0.042548 -0.090161264 0.246728 0.20364341 -0.21789098 0.030189425
-0.17837715 0.1529716 -0.24542993 0.056913227 0.12883687 0.21983567 0.20836481 0.043127894
-0.09018621 0.039927155 -0.24258485 -0.15718055 -0.23467067 -0.1446065 0.064275116 0.12010756
0.21945962 0.05563155 -0.14051974 0.13543814 -0.12909076 -0.017889827 0.23841292 -0.067398846
-0.10894269 0.111959904 0.18874213 -0.09107256 0.12354609 0.058497816 0.07746884 0.16270298
-0.07127437 -0.07852125 0.20121646 -0.05472821 0.19596851 -0.11992425 0.09490761 0.09345195
-0.101747245 -0.11527932 0.1535922 0.058876574 -0.17695159 0.019222856 0.124317706 -0.10603663
0.038621694 -0.17674679 0.21396616 0.19331825 -0.029963404 0.08361453 -0.09814283 0.23313415
-0.06625837 0.024561435 0.0210689 0.14500886 -0.013680935 0.17809173 0.15599966 0.17816526
-0.0866676 -0.14550605 0.22868666 -0.23825002 -0.12043351 -0.062805384 -0.002082795 -0.1078144
0.016919434 -0.06075293 -0.09354964 0.09356183 0.23940682 0.06962553 -0.16759676 0.17234603
0.05677241 0.061995625 -0.21910295 0.18639353 -0.2055772 0.18280232 0.021297723 -0.22321287
-0.049685 0.08049291 0.117221266 -0.14545894 0.17828354 -0.057752073 -0.23867384 0.20459378
-0.0017846823 -0.2188847 0.08129364 0.059556603 0.03171715 0.16688061 0.11291361 0.005489409
0.1356175 0.012459129 -0.16737154 -0.18705219 0.24260291 -0.11235443 -0.19245669 0.18750146

fc2.weight f4 [128, 128]
00000000: 0010 08b9 dc40 f63c 5ecf 2dbd 44bc acbc
00000010: 3cce 0c3d 5a28 223d 6c33 df3c a065 00bb
00000020: b502 873d 402c a5bb 3ae8 6d3d 977b 883d
00000030: 04e5 fcbc a61a 3bbd 5290 99bd 788d 2a3c
00000040: 0060 35b9 bdbd a83d d060 2fbc fea5 313d
00000050: 9e16 7a3d 6746 b43d 54d8 0b3d 646e d83c
00000060: ebf7 813d fd13 90bd ae64 3d3d 7078 e13b
00000070: 7a6f 1a3d 13ff 94bd 90c5 e53b d0df cf3b
00000080: 40ca 05bb 80fb b03a 0c55 10bd 3722 97bd
00000090: 1443 ea3c 7077 97bc a571 63bd 9086 ddbc
000000a0: 4bfb 1fbd b0a0 343c adc7 4bbd ef62 823d
000000b0: 0fdc 88bd 48d4 b93c c83b 5bbd e95b afbd
000000c0: 90df aa3c 497f 5cbd ae93 b0bd 6ab7 233d
000000d0: c09f b73c 51c9 b43d 2c7b d13c 3661 5b3d
000000e0: e1d0 973d 3eb5 703d 3adf 3a3d afa0 913d
000000f0: f9c2 0bbd 70d6 063c d072 8bbb 53f2 7bbd
00000100: 406f 843c 532b 15bd 3ec6 31bd f044 343c
00000110: 18ea 7abc 901a 9b3c 663e abbd ea1b 063d
00000120: fe4e 2f3d fb54 ab3d 881d 5f3c 0038 993b
00000130: 20e9 81bd 702d ca3c 2f33 913d 58e6 89bd
00000140: 6c31 90bc 585c 37bc e5a6 b4bd d6b1 403d
00000150: b0fa eebb b850 123c 9011 93bc 06d8 463d
00000160: 4723 863d 7060 9abc db37 a53d 3422 a5bd
00000170: 8284 02bd 00c0 4237 2982 05bd defa 5a3d
00000180: f8d6 9fbc dfa9 ac3d 03c2 24bd 20ad 68bc
00000190: 97f9 88bd d89a 84bc 182d 41bd 50cd 05bc
000001a0: ac49 023d b990 97bd 69a3 b23d 9ddd 893d
000001b0: 2b03 963d ac07 aebd 5c5f fe3c a8ac 5a3c
000001c0: be72 94bd d43f 85bc a61f 5b3d b446 0cbd
000001d0: baab 5a3d 514a afbd fb4a 9a3d 4c0b 073d
000001e0: c759 a8bd 047a ba3c c028 513b 7972 923d
000001f0: 3d17 8f3d b832 413c d0a2 62bc 8041 7a3a
00000200: 6c85 ce3c b0b2 92bb ebf1 ae3d 6742 52bd
00000210: a689 613d 0096 c439 9c3b 2abd 6e72 ffbc
00000220: 28bf 843c 5c9b b33c 15d9 9d3d 7ca9 9bbc
00000230: 0185 963d b605 5fbd b7ef 953d 9f0f 70bd
00000240: 0ebf 3b3d 900a b4bb 4d6d 55bd de05 693d
00000250: 8687 b0bd 99b9 30bd 4442 b63c 000d dc3b
00000260: 6a14 a2bd 0ed8 9fbd ca42 a3bd e30e 8dbd
00000270: 7835 74bc 3ce8 c73c a232 16bd 3a42 663d
00000280: e6e2 8dbd 0966 11bd 4843 4dbc ba8c 3b3d
00000290: 583e ce3c ba04 323d b1a7 b33d fef4 54bd
000002a0: f48d e3bc 1082 58bc 2022 b5bb 2858 e6bc
000002b0: 0fff ae3d e0c9 f0bb d0ea adbd 70cb a33b
000002c0: 3f72 06bd 7153 8d3d 3894 e53c 980e 1ebc
000002d0: 1210 a2bd c16b 80bd 6df5 25bd 80f6 3cbc
000002e0: 9cfe f3bc c171 9fbd 2ac4 653d 0074 083d
000002f0: bed9 97bd 883d 99bc 27e7 77bd 00d2 473b
00000300: 2d76 863d f0ef 9bbc 6e9e edbc 300c ec3b
00000310: de1d febc 0c39 cbbc 1fdd a2bd a954 abbd
00000320: a219 5c3d 2c9e e73c 77b0 81bd 80a1 283c
00000330: 00cb 94bc 3344 8c3d a4b5 15bd 32ce 583d
00000340: 6c36 acbc 2112 a63d a354 a5bd 00ae 38bb
00000350: 42c1 073d 6625 5c3d 4a76 553d 6dc2 b3bd
00000360: 2911 9b3d 7c5c ce3c 0071 8f39 0c71 95bd
00000370: e540 b43d 70e0 14bd ca7b 90bd 6fb5 a33d
00000380: 1091 97bc e2db 25bd f630 1a3d 0939 0abd
00000390: ecd8 a1bd 2c6e a5bd e060 9ebb f75c 5abd
000003a0: 0aac 1dbd 2213 613d 85cf b33d 1bc9 76bd
000003b0: 482b a43c beb4 83bd 9ba2 923d e0ee 93bc
000003c0: f0e5 9cbc 95fb ad3d 704d 09bd 70cc 843c
000003d0: d8c4 133c 7831 88bc 8ab3 f4bc d584 9d3d
000003e0: 387d 39bc f07a 3fbc c906 9c3d 73bc 9a3d
000003f0: d6e8 3a3d 183d 81bd a985 32bd a0e7 71bc
-0.00012975931 0.030060224 -0.04243409 -0.021085866 0.034376368 0.039589263 0.0272462 -0.0019591823
0.06592313 -0.0050406754 0.058082797 0.06664198 -0.030870922 -0.04567971 -0.0749823 0.010409705
-0.00017297268 0.08239315 -0.010704234 0.043371193 0.061056726 0.08802491 0.034141853 0.026419826
0.06346115 -0.070350625 0.046238594 0.0068808123 0.03770397 -0.07275214 0.0070120767 0.006343819
-0.002041474 0.0013502687 -0.035237357 -0.07379573 0.028596438 -0.01848957 -0.0555283 -0.027041703
-0.03905801 0.011024639 -0.049750973 0.06366526 -0.06682598 0.022684231 -0.05352381 -0.08562452
0.020858556 -0.053832326 -0.08621918 0.03996984 0.022415042 0.088274606 0.025571428 0.053559504
0.07412887 0.058766596 0.04562304 0.07110726 -0.034121487 0.008229837 -0.00425563 -0.061510395
0.01616633 -0.03641827 -0.04340195 0.011002764 -0.015314601 0.018933564 -0.08361511 0.032741465
0.042799942 0.08365818 0.013617881 0.004675865 -0.06343293 0.02467987 0.070898406 -0.06733388
-0.017601691 -0.01119145 -0.08820895 0.047044598 -0.007293068 0.008930378 -0.01795271 0.04854586
0.06549697 -0.018844813 0.08067294 -0.08063164 -0.03186465 1.1608005e-05 -0.032594834 0.0534619
-0.019511685 0.08430838 -0.040224086 -0.0142014325 -0.066882305 -0.016187117 -0.047162145 -0.008166626
0.03180854 -0.074006505 0.08722574 0.067317225 0.07324823 -0.08497557 0.03105133 0.0133468285
-0.07248448 -0.016265787 0.05349698 -0.034247115 0.053386427 -0.085590966 0.07533833 0.032969758
-0.08220249 0.02276326 0.0031915158 0.0715074 0.06986854 0.011791877 -0.013832763 0.00095465034
0.025210105 -0.0044768676 0.08542236 -0.051332857 0.055062912 0.00037495792 -0.041560754 -0.031182494
0.016204432 0.021924667 0.07707421 -0.019001715 0.07349587 -0.054448806 0.073211126 -0.058608647
0.0458365 -0.005494423 -0.05210619 0.05689036 -0.08619599 -0.04314575 0.022248395 0.006715417
-0.0791405 -0.07804881 -0.079717234 -0.06887605 -0.014905326 0.02440273 -0.03666938 0.056215502
-0.06928043 -0.0354977 -0.012528248 0.045788504 0.025176212 0.04346154 0.08772219 -0.051991455
-0.02777765 -0.013214603 -0.0055277497 -0.028118208 0.08544742 -0.007348284 -0.084920526 0.004998617
-0.032823797 0.06900681 0.028024778 -0.009647034 -0.079132214 -0.062705524 -0.04051726 -0.01153338
-0.029784493 -0.07785369 0.05609528 0.03331375 -0.07414578 -0.018706098 -0.06052318 0.003049016
0.06565509 -0.01903531 -0.02900621 0.0072036013 -0.031020101 -0.024807476 -0.07952332 -0.08365757
0.053735383 0.028273664 -0.06332486 0.010292411 -0.018163204 0.068489455 -0.03655018 0.05293102
-0.021022044 0.081089266 -0.08072784 -0.0028179884 0.03314329 0.053746603 0.052114762 -0.08777318
0.075716324 0.025190584 0.00027359277 -0.072969526 0.0880144 -0.036346853 -0.07054861 0.0799359
-0.018501788 -0.0404929 0.03764435 -0.0337458 -0.07902703 -0.08077654 -0.0048333257 -0.053311314
-0.038494147 0.054949887 0.087798156 -0.060250383 0.02004017 -0.06430958 0.07159921 -0.01805824
-0.019152611 0.08495251 -0.033521116 0.016210765 0.009019099 -0.016625151 -0.029870767 0.07691351
-0.011321358 -0.011687025 0.07618482 0.07555475 0.045632206 -0.06310481 -0.0435845 -0.014764696

fc2.bias f4 [128]
00000000: 2ac2 85bd 80d5 f3ba e42f f83c 0fc1 af3d
00000010: 7a89 5e3d e4a3 b73c b857 0f3c dfa9 a63d
00000020: c60d 0e3d 921f 313d 7025 b8bc 8055 053d
00000030: 1ccd 8b3c 08fe ca3c 9c23 0f3d 852f 28bd
00000040: 661b 99bd a4b5 acbc df79 853d 1806 4a3c
00000050: 22b1 363d a29a 12bd 1ca8 a93c 1643 f9bc
00000060: 001a 88ba 32dc 2a3d 96b4 3b3d 03c7 b2bd
00000070: 30b8 92bd 45e4 2dbd 1a6e adbd 676a a13d
00000080: 171c 8fbd 90ed 823b 58af 88bd 649b efbc
00000090: 3711 943d 3d07 2ebd 22bf 683d 14f0 9ebc
000000a0: c036 ee3b 5e84 193d 12e8 783d 6ea8 7fbd
000000b0: 1964 a83d 8e04 15bd be7b aebd c716 b03d
000000c0: 00c6 54b9 10be 603c 5160 893d d874 dd3c
000000d0: 1078 7b3c 9349 24bd 0418 b63c 6568 9bbd
000000e0: 708a e9bb f8fb 023c f3b5 a03d 0bf6 2ebd
000000f0: 70db 9abc 22a8 d7bc d866 3dbc 6ad2 313d
00000100: 714b a13d e5ed 893d 01f5 65bd fb62 6abd
00000110: 3866 94bc 7eac 91bd a052 abbb ab03 3dbd
00000120: 8173 adbd 86be 5c3d c0db f7ba 9eaa eabc
00000130: d27a 463d a20f 6d3d b693 7d3d dd91 8f3d
00000140: e6ad 273d 5722 933d 46dd 393d 2367 933d
00000150: 0641 503d 7233 513d c04f 60bb 2828 583c
00000160: 414c 99bd 281d f2bc d924 853d 612c 29bd
00000170: 50ab 8fbd ee95 603d dc55 023d 831d a03d
00000180: 3371 79bd 059f 973d 447d 98bd bebf 513d
00000190: bc06 a23c c8a0 69bc 4745 a13d b6b0 633d
000001a0: 2000 113b b2e3 2e3d 382b 7c3c 7286 413d
000001b0: de0b 96bd c22a 693d 2101 65bd b862 1ebd
000001c0: 12f6 503d 99c6 8e3d da5e a9bd a723 b1bd
000001d0: 9a8d 1a3d f080 a5bd 00d9 23ba d98e 48bd
000001e0: 36ff 9dbd f691 8bbd dada 17bd 1b6c 95bd
000001f0: 4c3b b3bc f358 913d acb7 9fbc ed82 9e3d
-0.065311745 -0.0018603057 0.030296274 0.08581745 0.054330327 0.022417016 0.008748941 0.08137869
0.034681104 0.043243 -0.02247879 0.032552242 0.017065577 0.024779335 0.03494607 -0.041060943
-0.07475929 -0.021082707 0.06517386 0.012330554 0.04460252 -0.035792 0.020710044 -0.030427497
-0.0010383725 0.0417139 0.045826517 -0.08729365 -0.07164037 -0.042454023 -0.08468266 0.07881623
-0.069877796 0.003995605 -0.06674069 -0.0292489 0.07229846 -0.04248737 0.056822903 -0.019401588
0.0072697103 0.03747975 0.060768194 -0.062416486 0.08222217 -0.036381297 -0.08519696 0.085980944
-0.00020291656 0.013717189 0.06707824 0.027033255 0.015348449 -0.04010923 0.022228248 -0.07588271
-0.0071270987 0.007994644 0.07847204 -0.042715114 -0.018903464 -0.02632529 -0.011560164 0.043413557
0.078757174 0.06734828 -0.056141857 -0.0572233 -0.018115148 -0.071129784 -0.0052283555 -0.046146076
-0.08469296 0.053892635 -0.0018910095 -0.02864581 0.048456974 0.057876237 0.061908446 0.07010243
0.040937327 0.07184284 0.04537704 0.07197406 0.05084326 0.051074453 -0.0034227222 0.013193168
-0.074852474 -0.029554918 0.06501169 -0.04130209 -0.07015097 0.054830484 0.031820163 0.07818129
-0.06089897 0.074033774 -0.074457675 0.05120825 0.019778602 -0.014259525 0.07874542 0.055588447
0.0022125319 0.042697616 0.0153911635 0.047247358 -0.07326482 0.056925543 -0.05590928 -0.038668364
0.05101592 0.06971473 -0.082700446 -0.08649378 0.037732698 -0.080812335 -0.0006250292 -0.048964355
-0.07714693 -0.06814949 -0.037073947 -0.0729601 -0.02187886 0.07097044 -0.019496761 0.07739816

fc3.weight f4 [2, 128]
00000000: a2f1 a9bd 50e5 b43b 401c 97bb 02de 16bd
00000010: 37c1 98bd d28c 483d 6cc3 6cbd 5047 4bbd
00000020: c8f1 1bbc 1bdb 9f3d 1fda a0bd 8b62 933d
00000030: 8af6 a5bd 3ca4 b3bc aa20 733d 161d 7a3d
00000040: 0032 873a 3017 72bd c460 9bbc 8015 263c
00000050: 715b 45bd a0d8 bb3c 2364 a43d 523e 8cbd
00000060: 589c 0c3d e9cc a93d 27eb 9c3d 800e 3fbc
00000070: b054 563c 4e6f 653d 3fe0 b23d 780f e43c
00000080: 1818 cdbc 328a 483d 6641 0fbd 4706 1bbd
00000090: 5fcb a3bd 073e b4bd 29f7 a4bd a421 fc3c
000000a0: 391b 823d 448d 9abd 2cd4 3abd f07d f0bb
000000b0: b4e5 c43c 6bac 4bbd 2570 a53d 4fdd 823d
000000c0: 60e3 133b 34e4 95bd c063 eebb c2ba 333d
000000d0: 20b5 40bc 7c3b 55bd 4bb6 9bbd a0fe 2c3b
000000e0: 7c69 47bd 59a2 9e3d 028b 603d 64c2 c9bc
000000f0: 133f 2bbd 0032 44ba 36b7 713d a83b 1b3c
00000100: d8cf ecbc b7c5 96bd 0a6d 773d 6c46 d63c
00000110: fd8c 933d 9cb8 f73c 060a 97bd 70df f5bc
00000120: 105d 9f3c d0d8 6abd d525 3bbd 1b08 b23d
00000130: 20eb 42bc 3c2d 65bd 6d81 a93d 38ea 2f3c
00000140: 648a 3cbd 5416 d93c f640 1b3d 1ff9 ab3d
00000150: 7ec9 1a3d 8970 8fbd f3b5 81bd 9802 3f3c
00000160: 985b 963c c4b8 83bd 3e04 93bd 9233 263d
00000170: 163d afbd 8873 40bc aa2e 233d 58e9 aebd
00000180: 76c5 0f3d 813b 8b3d fef9 6f3d 91bf 963d
00000190: 363b d8bc 0036 fc39 1473 1cbd c524 993d
000001a0: aed6 2c3d eff0 853d e866 ed3c b20f 693d
000001b0: 4e11 313d 5eb3 77bd 31a9 5abd 807a ce3c
000001c0: 20b1 92bb 969b 693d c1d9 ae3d 4d8c b23d
000001d0: c0e4 81bc f48f c8bc 2072 babb a4d8 113d
000001e0: 304e afbb 9778 a63d fec3 a9bd d41a a53c
000001f0: d8c5 15bc 8b41 b13d 1295 683d d4aa bdbc
00000200: 742a 82bd 257e 30bd c1d3 af3d 4194 5cbd
00000210: deb2 b0bd acba 913c d041 e13c 2452 8a3c
00000220: 2d2a 863d 70e7 6dbd 42f0 723d 8011 ac3a
00000230: e0a2 673b 4272 94bd d70c 863d de29 6bbd
00000240: 6a7d 91bd b400 14bd 8a2a 003d da5e 93bd
00000250: 905a 32bc b186 8dbd dd85 923d 1f93 a03d
00000260: d05b a13c 9f22 8d3d 0997 9c3d d0a6 a43b
00000270: 8021 b83c a8ef a23c 0365 79bd 2475 85bc
00000280: c0be 15bb 0ab9 603d f065 d6bc 409f c9ba
00000290: 15fb 8e3d 487b a2bd ff8d 46bd 2205 253d
000002a0: b6f1 febc 60f3 f03b 5014 b1bc cbab afbd
000002b0: 3081 553c 8d7b 36bd b4a9 e43c 18d2 dc3c
000002c0: e9fc 863d d05b a33b 60a5 593c bb08 adbd
000002d0: cc25 24bd 4c4c 21bd c8b6 8cbd dfae a03d
000002e0: fde0 3abd 346f f73c 48b9 363c 1032 613c
000002f0: 1ba9 afbd 7269 2c3d bb49 873d 721c 51bd
00000300: 6147 73bd 20e5 adbb ef88 a43d 305b adbb
00000310: 485a 803c c025 873a da79 623d 8a34 693d
00000320: 6629 6a3d 624b 59bd a434 973c b466 db3c
00000330: 2ba2 55bd 5d88 923d 9e25 ffbc 5817 713c
00000340: a74e ae3d 1d9c 8d3d 6058 b0bd 1b20 813d
00000350: 62f8 523d 884c 093d 9b75 803d 191d b13d
00000360: 3adf 17bd 7225 793d 9841 113d ddef 5dbd
00000370: ee77 e1bc 20ff 0e3c 4d27 98bd 30ff 973b
00000380: 6a67 7c3d 0189 98bd ff82 71bd 4e3b 523d
00000390: 9f22 91bd 9326 b43d f9d8 923d c3fe a93d
000003a0: 088b ad3c 3a52 30bd 8007 b2bb c09a 64bb
000003b0: 2443 fc3c 4244 ebbc dee3 11bd 0152 aa3d
000003c0: 2067 e73b 712c a1bd 8f6f 0fbd f625 583d
000003d0: 90de cdbc 2c2f 933c 048a 92bd b4ca bf3c
000003e0: f590 35bd 6c44 863c b4cf a63c 009f 9e3c
000003f0: e0de 93bc 5b25 1ebd a78f 39bd 3f51 873d
-0.08298041 0.0055205002 -0.004611522 -0.036832817 -0.07458728 0.04896242 -0.057803556 -0.049628556
-0.009518094 0.07805463 -0.07854103 0.0719653 -0.08103664 -0.021928899 0.059357323 0.061062895
0.0010314584 -0.059104145 -0.01896704 0.010136962 -0.04818291 0.022930443 0.08026912 -0.06847824
0.03432879 0.08291037 0.07662039 -0.011661172 0.0130817145 0.05601435 0.08734178 0.027839407
-0.025035903 0.04895992 -0.03497448 -0.037847783 -0.07997774 -0.08800893 -0.080549546 0.03077776
0.063528486 -0.075464755 -0.0456125 -0.0073392317 0.024035312 -0.049724977 0.080780305 0.063898675
0.0022565946 -0.07318917 -0.0072750747 0.043879278 -0.011761934 -0.05205868 -0.07603129 0.0026396886
-0.048684582 0.07745809 0.05482007 -0.024628825 -0.0418082 -0.0007484257 0.059012614 0.009474672
-0.028907701 -0.0736193 0.060406722 0.026156627 0.07204626 0.030239396 -0.07374959 -0.03001377
0.019453555 -0.057335675 -0.045690376 0.08692952 -0.0118968785 -0.055951342 0.08276639 0.010736994
-0.046030417 0.026499905 0.03790375 0.083971255 0.037789814 -0.07003886 -0.06333532 0.011658333
0.018354222 -0.064317256 -0.071785435 0.040576525 -0.08556573 -0.011746295 0.039839424 -0.085406005
0.035100423 0.06798459 0.05858802 0.07360757 -0.026395421 0.0004810542 -0.038195685 0.07477716
0.042196922 0.06540095 0.028979734 0.056899734 0.043229394 -0.060473792 -0.05338401 0.025204897
-0.0044766814 0.057033144 0.08537627 0.087181665 -0.015856147 -0.024482705 -0.0056898743 0.035606995
-0.005349897 0.081284694 -0.08289336 0.020154394 -0.009141408 0.086550795 0.05678279 -0.023152746
-0.063557535 -0.04308905 0.08585311 -0.053852323 -0.08627866 0.017789207 0.027497202 0.01688487
0.06551013 -0.058082044 0.05931116 0.0013127774 0.0035344884 -0.072483554 0.06545418 -0.057412975
-0.07103999 -0.036133483 0.03129057 -0.07195826 -0.01088585 -0.06910456 0.07154439 0.07840561
0.0196971 0.06891369 0.07645995 0.0050247684 0.022476912 0.019889668 -0.060887348 -0.016291209
-0.0022849292 0.054863967 -0.026171654 -0.0015382543 0.06981484 -0.0793367 -0.04847526 0.0402881
-0.031121116 0.0073532313 -0.021616131 -0.08577689 0.013031289 -0.04455142 0.027912952 0.02695565
0.065912075 0.00498531 0.013284057 -0.08448931 -0.04007511 -0.039379403 -0.068708 0.07845854
-0.04562472 0.030204393 0.011152573 0.013744846 -0.08577176 0.042092748 0.0660586 -0.05105252
-0.059394244 -0.005306855 0.080339305 -0.0052904114 0.01566805 0.0010310933 0.055291988 0.05693487
0.057168387 -0.053050406 0.018457718 0.026782371 -0.05215661 0.071549155 -0.031145867 0.014715038
0.085110955 0.06914542 -0.08610606 0.06304952 0.051506408 0.03352025 0.062724315 0.08648128
-0.03707812 0.060826726 0.035462946 -0.05418383 -0.027523007 0.008727819 -0.07429371 0.004638575
0.06162206 -0.074480064 -0.05896282 0.05132609 -0.070866816 0.0879642 0.071702905 0.08300545
0.02118446 -0.043047167 -0.005433023 -0.0034882277 0.030793734 -0.028719071 -0.0356177 0.08316422
0.007061854 -0.07869805 -0.0350185 0.052770577 -0.02513054 0.01796683 -0.07155231 0.023412086
-0.044327695 0.016390048 0.020362712 0.019362926 -0.018050611 -0.038609844 -0.045303013 0.06607293

fc3.bias f4 [2]
00000000: e0ea a03c 5875 95bd
0.019643247 -0.07297772

fc1.weight f4 [128, 16]
00000000: 254e 183e 9dd6 54be 47f6 11bd 74b2 093e
00000010: a635 6d3d c447 c33d df7e 023e 1bf4 fa3d
00000020: ea7c 023e bbf2 c93d df1e 14be cb89 a8bd
00000030: 2fa8 83bd 3a9e f5bd dabf 16be fa4d ecbd
00000040: 2f50 06be 1617 073d c9dc 863e 1007 acbd
00000050: 84e2 cc3d 532e 67be 8250 763d ad44 8d3e
00000060: db40 a03d 1f76 773c a805 92be a085 403e
00000070: 0110 d73d b989 82be e11b 6dbd b64d 553e
00000080: f1b8 e9bd 979c 30be 8343 333e 3f22 00be
00000090: 267c 553e 8912 28be 9a16 09bd 2efa 793d
000000a0: febc 0c3d b600 73bd ccdd 473c 7e39 7cbe
000000b0: e0b0 6e3c 5460 433e 49ce 6e3e c2a4 8f3e
000000c0: 4cd1 093e bea0 5fbe e022 4b3e 702d f93c
000000d0: 8a79 753e 024c 023e 4000 e4bb 449d 1fbe
000000e0: 502e 6a3d 181a 0c3d 58ca f53d 7689 523e
000000f0: 5a3e 093e c0ef 56bc e05f 793d 9aab 0f3e
00000100: e2de 43be 053c 9b3d f46d 78be da7d 6abe
00000110: 6c04 01be 3879 2b3e 461b 2f3e 46c7 1d3e
00000120: 1fbb 4b3e 99f4 a5bd 233b 53be 4a1b 513e
00000130: 833e d4bd 6032 083c 9931 c53d 78ef 233d
00000140: 7742 8a3d 347a 063e a80c 773e b245 abbc
00000150: c55e f73d c152 20be 3a73 db3d d833 283e
00000160: 9238 713c 682a 56be ef54 cc3d 5625 16be
00000170: a47a 87bd 4f2f bfbc 6b4c 36be 3a96 f33d
00000180: 22ca f43d cc83 533c d91f 3d3c 882d b73c
00000190: 8700 b43d 1785 6f3e d351 363c 2e2e f8bd
000001a0: b57b 7bbe fb4a c73d a8c3 52be f745 39be
000001b0: b6c3 5bbd a8f2 783e 9b11 433e ce9b 04be
000001c0: e2bf 4bbe aad7 98bd 49b7 7b3e 3ac5 36bd
000001d0: 00f0 8d3d 8bce afbd 1d00 1a3e 5c75 123e
000001e0: 4545 b93d b661 f6bd b034 f0bd 0744 0cbd
000001f0: 09e6 3abd e405 8a3d e3e9 adbe 8b1e 8bbe
00000200: 44f9 803b 826e f2bd ba9b 693d 827d 07be
00000210: ca12 3dbe 8dc3 733d 46dd 843e cdc2 aabd
00000220: ecc5 54be 3182 62be 539c 133d 68ab c93d
00000230: 57c0 1abe 6efa 4bbe 0081 d3bd 0019 91bb
00000240: 5a6b fd3d c24a 3fbe 4b46 883c eae5 803e
00000250: cfc5 783c 80dd 203e 3c2b 653e 2692 08be
00000260: 380d 983d d1b1 48be c47f 1c3d d3ec 163b
00000270: 8a9a 553e 439c 173e c834 3a3e 8429 e1bd
00000280: 109f b3bd cfe9 7cbe ffc5 1abd aa55 053b
00000290: 3a47 8bbc e347 00be d298 c6bd d36b 40be
000002a0: b4c2 2dbe 7019 3b3e 1704 17bd 10ab 2a3d
000002b0: 2bb2 7bbe 1034 ed3d d832 833d 3ce3 2c3e
000002c0: 540b 3abe 7338 273e 7c81 5ebe 8e0d 85be
000002d0: e12e 55be 66e6 83be 6108 2a3e a60b d0bd
000002e0: 6bb6 f3bd a19f 42be ff98 bd3d 1053 abbd
000002f0: 0cd6 3abe 3099 de3d b558 38be 3c85 6b3e
00000300: cf77 6d3e e34f 40bd f01d 38be 14a2 ab3d
00000310: ebd4 77bd cb0f 0d3e 10da 32be fa03 71be
00000320: dc8c e1bd e1ef 773e bf17 283e 6051 6ebe
00000330: 0940 ecbb 774b 403e a1f2 2bbe de30 0e3e
00000340: 800e 593e 2763 ca3d 33dd 0fbe 94c9 42bd
00000350: 55a2 44be bea1 c3bd aba4 f5bd 5fcf 843c
00000360: 037a ad3d 4edb 6abe 881a 3fbe d299 183e
00000370: a1ef e43d 2547 a93d 4012 1b3d 949c 4dbe
00000380: 7dc2 49be 6bf6 c4bd add2 493c 3752 6cbe
00000390: 474e 3ebe 46b9 fc3c de45 7f3e 708c 033e
000003a0: d317 cbbc 0ca3 05be c34f 553e 1fc9 743c
000003b0: b0c7 64be 2ada 53bb d451 92be 7eda 4ebe
000003c0: 804b 3d3e 6c90 9c3d cadf edbd 7f0f 423e
000003d0: 1b5f 4f3c a023 5f3e 4ac5 6fbe 306f 19be
000003e0: 3af0 12be be8a 703e 5366 d23d ad19 3e3e
000003f0: 6d4d 7dbe 5491 773e 4296 023e c622 ecbd
0.1487356 -0.20784993 -0.03563526 0.1344698 0.05791249 0.095351726 0.1274371 0.12253591
0.12742963 0.0986075 -0.14464901 -0.08229407 -0.06428563 -0.1199307 -0.14721623 -0.1153831
-0.13116525 0.032981 0.2634032 -0.083997846 0.10004142 -0.22576265 0.060135372 0.27591458
0.0782487 0.015103846 -0.2851994 0.18800974 0.105010994 -0.254957 -0.057887916 0.20830426
-0.11412228 -0.17247234 0.17506222 -0.12513064 0.2084814 -0.1641332 -0.03346882 0.061029606
0.034359924 -0.05932685 0.012198877 -0.24631307 0.0145685375 0.19079715 0.23320879 0.28055388
0.13458747 -0.21838662 0.19837523 0.030417174 0.23972145 0.12724307 -0.0069580376 -0.15587336
0.057173073 0.034204572 0.12001485 0.2056025 0.13402691 -0.013118684 0.06088245 0.14030305
-0.19127992 0.07579807 -0.24260694 -0.22899571 -0.12599343 0.1674546 0.17100248 0.15408048
0.198956 -0.08103294 -0.20628028 0.20420566 -0.10363486 0.008312792 0.096286006 0.040023297
0.067509584 0.13132554 0.24125922 -0.020907257 0.12078623 -0.15656568 0.10715337 0.16426027
0.01472296 -0.20914614 0.09977137 -0.1466268 -0.06615189 -0.023337988 -0.17802589 0.11893888
0.11952616 0.012909841 0.011543238 0.022360578 0.08789163 0.23390613 0.011127907 -0.12118183
-0.24558909 0.09731098 -0.2058245 -0.18093096 -0.05365344 0.24311316 0.19049685 -0.1295006
-0.19897416 -0.0746301 0.24581636 -0.044621684 0.06930542 -0.08584317 0.15039106 0.14302582
0.09046415 -0.12030356 -0.11728799 -0.034244563 -0.045629535 0.06739405 -0.33967504 -0.2717174
0.003935965 -0.11837484 0.057033278 -0.13231471 -0.18464199 0.059512664 0.25950068 -0.083379366
-0.20778626 -0.22119977 0.036037754 0.09847146 -0.15112434 -0.1991975 -0.10327339 -0.004428029
0.12373991 -0.18680862 0.01663508 0.2517541 0.01518388 0.15709496 0.22379774 -0.13337001
0.07424396 -0.19599082 0.038207784 0.0023029342 0.20859733 0.14805703 0.18184197 -0.109942466
-0.08770573 -0.24698566 -0.03778648 0.002034525 -0.017001737 -0.12527423 -0.09697117 -0.18791132
-0.16968805 0.18271422 -0.036869135 0.041667044 -0.24579684 0.11582196 0.06406182 0.16883558
-0.18168384 0.16330127 -0.21729082 -0.25986904 -0.20818664 -0.25761718 0.16604759 -0.10158472
-0.11900028 -0.19006206 0.09257697 -0.08365452 -0.18245715 0.10869062 -0.18002589 0.23000044
0.23190235 -0.046951186 -0.1798017 0.08380523 -0.06050579 0.13775556 -0.17465997 -0.23536673
-0.11013195 0.242126 0.16415308 -0.2327323 -0.007209782 0.18778788 -0.16791774 0.13885829
0.21196938 0.09882193 -0.14049225 -0.04755552 -0.1920255 -0.09552334 -0.119942985 0.016212163
0.084705375 -0.2293522 -0.18662465 0.14902428 0.11178518 0.08265523 0.0378592 -0.20079261
-0.19703098 -0.09617313 0.012318295 -0.23078237 -0.18584548 0.030850064 0.24928996 0.12846541
-0.024791634 -0.13050479 0.20831208 0.014940529 -0.223418 -0.003232608 -0.28578055 -0.20200536
0.18485832 0.07644734 -0.1161495 0.18951224 0.012656952 0.21790934 -0.23415104 -0.14983821
-0.14349452 0.23490426 0.10273423 0.18564482 -0.24736567 0.24176532 0.12752631 -0.1153007

fc1.bias f4 [128]
00000000: f8bd dbbb bf28 23be 6d29 27be 709c 7abe
00000010: b85c 1dbe f458 703e f96c 86ba 15fa 843e
00000020: 2992 75be a3fb b13d e872 a5bc 04b7 76be
00000030: 0e62 b3bd abc7 0d3e 6024 6c3e cdbb 3bbe
00000040: e528 0a3d 9ddd 1d3d 8305 6dbe b410 133d
00000050: 6f42 7bbe b00a 33be 9740 3d3d 4631 5b3e
00000060: a9f5 b1bd c21c 133e e407 00be 33a7 603e
00000070: 308f d33d d0b5 7abe 2d71 51bc 5ccd 963d
00000080: 90c3 603e e9fd 223d 68c3 1ebe 3f55 58bd
00000090: 68a3 e9bd 105f 6f3e f322 72be 3387 5dbd
000000a0: e187 b93d da83 553e ae02 21be ff2b 0b3d
000000b0: 9a9c 393e 371e cabd a1cb 363d 726f 3cbe
000000c0: 42f0 1bbe d6d4 74be 8e49 16bd 722f 293e
000000d0: d14f 7c3a 4c41 60be b7eb 073c eb47 3d3d
000000e0: 92e0 14bd fc7a 263e cf24 903d 76b0 f9bd
000000f0: 185c 15be da09 f43c 8b49 56be 3955 0bbe
00000100: 0627 56be 0834 1b3b 2ab0 6dbe 6be6 573e
00000110: 073e 36be 7ac7 213d 77b7 80be e020 743e
00000120: 9d1f 76be b214 1cbe 001e 51be 1109 493d
00000130: 946f 953d 6cf7 d5bb 88f6 9cbb 9937 433e
00000140: 39bc 4d3e 5d48 eabb a11d a2bd 4151 2f3d
00000150: 7678 4dbc 6730 f93d ee85 d3bd bd71 cfbc
00000160: babb b93d 9776 3c3e adb7 13be e3bf 853d
00000170: 4ae1 f9bc 78ce 0f3e 603f 2abe 7959 2ebd
00000180: cf7b 70bd 1858 8f3d 2bf6 b83d b216 61be
00000190: 829f 81be 0d0b 093e e502 5bbe c96c b83b
000001a0: 3fe1 103e 4f27 793e 2997 5fbe 6b0a ffbb
000001b0: 2595 c2bd 7d95 993d 92df 02be db8f cfbd
000001c0: 7d20 2b3e 5a19 a93c a4d1 613d 214b 4b3e
000001d0: 26ad 17be 1046 8e3e 41f5 233e d5f1 453e
000001e0: 1668 383d deee 5bbd 2fed 543b 2bb4 42be
000001f0: 2680 20bd 3144 493e c3c3 16bc 5266 fe3d
-0.0067059956 -0.15933512 -0.16324396 -0.24473739 -0.153674 0.23471433 -0.0010255865 0.25972047
-0.23981537 0.08690574 -0.020196393 -0.24093252 -0.08758937 0.13845699 0.23060751 -0.18333359
0.033730406 0.038541425 -0.23146634 0.0359046 -0.24537061 -0.17484546 0.046204176 0.21405515
-0.08689434 0.14366439 -0.1250301 0.21938781 0.10330045 -0.24483418 -0.012783331 0.07363388
0.21949601 0.03979293 -0.15504229 -0.052815672 -0.114081204 0.23376107 -0.23646145 -0.054084014
0.0905912 0.20851079 -0.15723678 0.033977505 0.18126145 -0.09869044 0.04462779 -0.18401888
-0.1522837 -0.23909315 -0.03669124 0.16522005 0.00096249307 -0.21899909 0.008295945 0.046211164
-0.03634698 0.16257852 0.07038271 -0.121918604 -0.14585912 0.029789854 -0.20926492 -0.13606729
-0.20913324 0.0023682136 -0.23211733 0.21083991 -0.17797099 0.039496876 -0.25139973 0.23840666
-0.24035497 -0.1524227 -0.204216 0.049080912 0.072966725 -0.006529739 -0.004790131 0.19064178
0.20091332 -0.0071497397 -0.079158075 0.0428021 -0.012540927 0.12167435 -0.103282794 -0.02532279
0.09069009 0.18404613 -0.14425536 0.0653074 -0.030502934 0.14043605 -0.16625738 -0.042565797
-0.058711823 0.069992244 0.09031328 -0.21981314 -0.25317007 0.13383122 -0.21387823 0.0056282026
0.14148425 0.24331401 -0.21835007 -0.0077832243 -0.09501103 0.07499216 -0.12780598 -0.1013486
0.16711612 0.020641971 0.05513157 0.19852878 -0.14812145 0.27787828 0.16011526 0.19330533
0.04502114 -0.0536946 0.0032490005 -0.19014041 -0.039184712 0.19654919 -0.009201947 0.1242186

fc2.weight f4 [128, 128]
00000000: c985 673d 6ea0 ba3d b24a ac3d 4470 9d3c
00000010: d739 ed3d b6aa 93bd f39e be3c ab93 f5bb
00000020: b684 d3bd 1591 0ebd f9e4 ecbb 7c15 52bd
00000030: 13d3 bbbc fbf3 9b3d c4c4 5cbd 9edd e43d
00000040: 3ca8 01bd 17a0 4a3d dad6 2b3d 15d9 093b
00000050: ccb6 d73c 6e29 313d efc2 353d e15e b4ba
00000060: f354 ba3d 1a20 85bd 0d9a 95bc 4629 b63d
00000070: 4edf 52bc 13c9 1b3c 104e c4bb f1ef 9bbd
00000080: 7818 11bd 8ed9 46bd 23c4 a23d f719 5f3d
00000090: df84 143d 187a 433c dd6d c7bc dad5 363d
000000a0: ad5f b43d ad80 38bd 9f68 ba3d fcb5 a5bd
000000b0: d0ef d93c 99c2 b63d c163 753d de4b eebc
000000c0: a8d6 eebc f2f4 6f3d a791 e53d 5544 923c
000000d0: d992 f33a ea6e 7bbc fc69 2c3d 49a4 213d
000000e0: da80 883d 7810 21bd aaea 6c3c 8e9e 293d
000000f0: 3e91 abbd 3f3f 1f3c e660 a7bd a106 783b
00000100: 73e2 70bd 0a58 de3d 508a 82bb 5e71 0d3d
00000110: 9ca2 c2bc 91d2 353d 7067 c6bc 7d63 94bd
00000120: 9364 6e3d bdfe 2bbd 16b1 903d a0a4 383c
00000130: e2e0 423d e294 57bd 5752 89bd 750c cd3b
00000140: 696a 703b fdcb 8dbd 115b d73d 3435 4a3c
00000150: 0320 c03c 3610 f0ba 4cb6 9fbc 6616 d23d
00000160: 93c2 96bc a5ab 423d a6f2 a63d 57e7 823c
00000170: 1da3 fdbc 5f7e 36bd ae57 a93d d616 d3ba
00000180: 187f d93d 4a5f 843d dcbf 853d 5565 733d
00000190: f11e 073d 785e 05bc 5a95 35bd e461 2e3d
000001a0: 8ef3 c4bd 55dc bb3b b4c3 c23d c855 25bd
000001b0: 096a c1bc cff7 0c3c f15e b63d 5582 26bd
000001c0: e33b a43d 54d1 60bd 05b5 0dbd b18f 0bbd
000001d0: 695c bd3d 92d3 60bb 2f10 663d ebfa 98bc
000001e0: c34e 013d e645 b43c dcc2 303d a062 f53d
000001f0: c7a0 f63d 6a30 5b3d df26 b4bd bb7e 82ba
00000200: 93fe 643d f352 153c 48e5 933d 2b23 9fbd
00000210: 13a5 483d 3107 cbbc bce3 adbc 489f ec3c
00000220: 9026 8bbd 3db9 9f3d a776 843c 9051 b7bd
00000230: a6cc 9e3b 4ba9 92bd 3e8c c8bc 623c 1ebd
00000240: dab1 673d 9c40 d03c 73b0 43bd 9bcd 8a3d
00000250: bf8c 5abc e7e1 7cbc beb6 cbbd 9692 a33b
00000260: 6e36 213d 3568 a53c f9ac 463d 8cd4 93bd
00000270: 2df3 333d ad18 c53b 5053 a93d d0d9 903c
00000280: 2804 363c 873d 343d ee7d 213d 2d95 a13d
00000290: 4821 163d 11ae c9bd 73bb 16bd d414 fa3c
000002a0: 2967 31bd fae7 473d 0796 4abd 07d9 863d
000002b0: b48c 73bc 4df6 97bd 6daf e5bd 64f7 4bbd
000002c0: c7c5 a6bd 67c3 0a3d 208b dbbd 23ef dfbc
000002d0: b5f9 8dbc 964f 2bbd 32c3 ddbd 56f8 6fbd
000002e0: e264 95bd 6b3b bbbd 4464 8dbc b03e ae3c
000002f0: eff8 59bd e979 023d 012a 553d e107 9cbd
00000300: aa58 613c a32e 6c3b e79a 53bc e1e8 373d
00000310: 9ad2 f9bd 10a8 91bd 4a8d fdbc 3221 66bc
00000320: a3a1 a1bd 94a1 4bbd ce19 a43c 6c43 20bd
00000330: c87f 973b 9a7e 23bd 38fc 833d c6e1 44bc
00000340: e46e 90bb 32cf 86bd d098 b1bd 0942 93bd
00000350: ca60 1bbd 285f 723d 7c69 abbd 23db 803d
00000360: 7e66 993d 965d 83bd 88cc 89bd c397 3e3d
00000370: c0a3 7cbd 17e8 903d 3944 8dbd d778 93bd
00000380: 77d8 443d f9f0 963d 2e11 013d b8e0 80bd
00000390: d4ec c5bc 781c aebd 8f8c 2dbb 8c11 eb3c
000003a0: 46c3 593a 1dc4 a5bd 4a8a a03c 4f48 00be
000003b0: 06a7 823d 718d 0c3d df10 023d 0781 b53d
000003c0: 0013 a6bd 2110 c9bc 9b97 0bbe 25cc 893c
000003d0: 9e64 a0bd 1062 12be 4079 3ebd 22dd b1bd
000003e0: fcfc 813d 0caf 993d f118 583c 3743 3abd
000003f0: 10c5 a1bd a8a6 fd3b 6629 0d3c 9fc0 9a3d
0.05652407 0.09112631 0.084126845 0.019218571 0.11583298 -0.07210295 0.023269152 -0.00749441
-0.10328047 -0.03480633 -0.007229444 -0.05129002 -0.022927796 0.07614895 -0.053898588 0.111750826
-0.03165458 0.04946908 0.041952945 0.0021033932 0.026332282 0.0432524 0.044375356 -0.0013761186
0.09098234 -0.065002635 -0.018261934 0.08894591 -0.012870623 0.009508389 -0.005990751 -0.076141246
-0.035423726 -0.04854732 0.07947566 0.05446812 0.03625953 0.011930965 -0.02434438 0.04463754
0.08807311 -0.04504459 0.09101986 -0.080913514 0.02660361 0.08923835 0.059909586 -0.02908891
-0.02915509 0.058583207 0.112094216 0.017854849 0.0018583193 -0.015346268 0.042093262 0.039463315
0.066652015 -0.039322346 0.014460245 0.041410975 -0.08377312 0.009719669 -0.08172779 0.0037845748
-0.05880971 0.10856636 -0.0039837733 0.034531944 -0.023759179 0.044390265 -0.024219245 -0.072455384
0.058201384 -0.041990984 0.070650265 0.011269718 0.047577746 -0.05263222 -0.06705158 0.0062575885
0.003668452 -0.06923673 0.105154164 0.012341786 0.023452764 -0.0018315378 -0.019496106 0.102581784
-0.018403327 0.047526974 0.0815175 0.015979452 -0.030961568 -0.04455411 0.08268677 -0.0016104828
0.10619944 0.064634874 0.06530735 0.05942281 0.032988492 -0.008140199 -0.044331886 0.042573825
-0.09616767 0.0057330527 0.09509984 -0.04036501 -0.023610132 0.008604004 0.089048274 -0.040651638
0.08019235 -0.05488713 -0.03459646 -0.03407258 0.092461415 -0.0034305793 0.056167778 -0.018674335
0.031569254 0.022005986 0.043154582 0.11981702 0.120423846 0.053512968 -0.087964766 -0.0009955982
0.055906843 0.009114015 0.07221466 -0.0777038 0.048985552 -0.024783703 -0.021226756 0.028884545
-0.067944646 0.07799003 0.01616986 -0.08951104 0.0048461733 -0.07161196 -0.024480935 -0.038631804
0.056566097 0.025421433 -0.047775697 0.067774974 -0.013339221 -0.015434719 -0.09946965 0.0049918396
0.03935855 0.020191291 0.048504803 -0.072182745 0.043933082 0.0060149045 0.08267844 0.017681986
0.011109389 0.04400399 0.039426737 0.07889781 0.036652833 -0.09847654 -0.03679986 0.03052751
-0.04331127 0.048805214 -0.049459483 0.065843634 -0.014865089 -0.07420025 -0.112151004 -0.049796477
-0.08143192 0.033877756 -0.10719895 -0.027335709 -0.017330984 -0.041823946 -0.10828246 -0.05858644
-0.072946325 -0.091421925 -0.017259724 0.021270126 -0.053215917 0.031854544 0.05204201 -0.0761869
0.013754049 0.003603854 -0.01291535 0.044899825 -0.12198372 -0.071121335 -0.030951161 -0.014046
-0.07892158 -0.04971464 0.020031836 -0.0391268 0.004623387 -0.03991566 0.06444591 -0.012016719
-0.0044077504 -0.06582488 -0.08671725 -0.071903296 -0.037934102 0.05917278 -0.08369729 0.06291797
0.07490252 -0.064143345 -0.06728464 0.04653145 -0.0616796 0.070755176 -0.06897778 -0.07200783
0.048058 0.07370181 0.031510524 -0.06292862 -0.02416078 -0.08501524 -0.0026481485 0.02869489
0.0008306991 -0.08094046 0.019597191 -0.12527584 0.063795134 0.034314577 0.03175437 0.08862501
-0.08109093 -0.024543824 -0.13632052 0.016820977 -0.07831691 -0.1429522 -0.04650235 -0.08684756
0.06347081 0.07504091 0.01318954 -0.045474257 -0.07898915 0.0077408142 0.008615827 0.07556271

fc2.bias f4 [128]
00000000: 4249 abbd 5144 0dbd 3c79 453d 320f 5cbd
00000010: e603 9d3d a926 e83a 2e8d af3d 4d70 a2bc
00000020: e277 333d 860c c53d e98f 96bd 3a53 8bbd
00000030: 35f0 46bd c8ba 52bd be4f 68bd 227a 84bd
00000040: 89d6 fb3c 701d 9d3d 4e9c 393d c46f 093c
00000050: 5ad2 8abd ce44 a3bd 84de 7f3d 92eb ae3c
00000060: 7529 93bc d796 41bc a7a0 cb3d 5dec 023d
00000070: b9c3 8d3d 35d9 2dbd a058 633c c12a eebc
00000080: 24cb cab7 6486 febc 5649 9ebd bdde 5a3b
00000090: 3ba4 dd3c 5208 15bd 8d55 18bd 113e 833c
000000a0: 024c b9bd 04b8 813d ad2d 6cbd d34d b73d
000000b0: 7d4b 193d de02 6fbd 15e7 49bd ed1a 99bd
000000c0: 37c7 bc3d f105 96bd 4a58 813c c821 bbbd
000000d0: 4530 1abd 5de3 603d ed4b 1e3d 347d 47bd
000000e0: 3e65 47bd 04d6 623d f4b8 d33c c422 993d
000000f0: d3ef 68bb 73b6 84bc 4098 8b3d 3daf 5b3d
00000100: a334 a9bd 7b39 553c c561 1b3d ffec 94bb
00000110: ee6c cbbb 3e62 46bd 868c 19bc 56f4 2f3c
00000120: 98ba c53b e6e5 0cbd 24ef 92bd 802b 35bd
00000130: fef5 50bd b1f6 77bd fcdd 593d 6bfd 47bd
00000140: d1a8 803d 017d a23d b7bf 92bb 4441 7a3d
00000150: 5b3c a3bd 3bc4 2ebc 4243 82bc 4b34 20bd
00000160: dfdd 973c c393 89bd dc4f 9bbd d96d 7abd
00000170: 6a89 45bd 554d 35bd 20ea 86bd 2c1c 38bd
00000180: 88e0 47bc 3718 aa3d c34e f23c ca53 fc3c
00000190: dc68 acbc d63c 73bd 1c80 a13d 5e3b 3fbd
000001a0: c01e 873d eb15 8e3d 7483 b0bd bde3 4e3d
000001b0: 69f4 af3d e263 8e3d 1855 ed3c fbe9 96bb
000001c0: 1bf0 86bc aa22 153d d243 ac3d d5ce d43c
000001d0: bdb4 053d 4127 163d 7cff 773c fc72 3bbd
000001e0: 7778 7d3d 387b 3e3d b9d4 20bb 0cdb 633d
000001f0: daf4 a73c 9a85 733d a180 7bbd 90cf 73bd
-0.08363582 -0.03448898 0.04821132 -0.05372543 0.07666759 0.0017711717 0.0857185 -0.01982894
0.0438155 0.09621529 -0.073516674 -0.068029836 -0.048568923 -0.05144766 -0.056716673 -0.064686075
0.030741947 0.076716304 0.04531508 0.008388463 -0.067784026 -0.07972108 0.062468067 0.021352563
-0.017964104 -0.011815748 0.099427514 0.031963695 0.06922097 -0.042443473 0.01387611 -0.029073121
-2.4174871e-05 -0.031069942 -0.077288315 0.0033396923 0.02705585 -0.036384888 -0.037190963 0.016020807
-0.090477005 0.06333926 -0.057660747 0.08950391 0.037425507 -0.058352344 -0.049292643 -0.07475839
0.09217685 -0.07325352 0.01578917 -0.09137303 -0.03764369 0.05490433 0.038646627 -0.048703387
-0.048680536 0.055379882 0.025845028 0.07477334 -0.0035543337 -0.01620028 0.06816149 0.053633917
-0.08261993 0.013014193 0.037935037 -0.0045448537 -0.006208054 -0.048433535 -0.009371882 0.010739407
0.0060342066 -0.034398936 -0.07174519 -0.044230938 -0.051015846 -0.060537998 0.053190216 -0.048825663
0.06282199 0.07933999 -0.0044784206 0.0610974 -0.07970496 -0.010666902 -0.015901212 -0.03911237
0.018538414 -0.067176364 -0.07583591 -0.061139915 -0.04822675 -0.044263203 -0.065876245 -0.04494874
-0.0121995285 0.083054 0.029578572 0.030801672 -0.021046095 -0.05938419 0.07885763 -0.046687476
0.06597662 0.06937774 -0.08618823 0.050510157 0.085915394 0.06952645 0.02897124 -0.0046055294
-0.016471913 0.03641001 0.08411373 0.025977531 0.03264307 0.03665853 0.015136596 -0.045763955
0.061882462 0.04650423 -0.0024540855 0.05562882 0.020502497 0.059453584 -0.061401967 -0.05952412
