customTrainer/results/AgentBall07/RollerBall/RollerBall-0.pt (torch, 156484 bytes, 12 tensors)

fc1.weight f4 [128, 16]
0.034779668 -0.12159413 0.14167547 0.15026861 0.1329064 -0.24853209 0.20820603 -0.23212472
-0.0569849 -0.044688463 -0.23330796 -0.096185386 0.21149704 -0.08818096 -0.079832494 0.14558265
0.20751357 0.021770984 0.13369939 0.07554579 0.1502367 0.16152272 0.12966543 0.24330369
0.21445146 0.075696915 -0.24082613 0.018057585 -0.21633333 -0.072518885 -0.08217889 0.08079082
-0.1679534 0.063767165 0.18208131 0.028583556 -0.18401834 -0.14490458 0.23016876 -0.24205858
-0.027063638 0.11363071 0.04653564 0.12254202 0.067661315 -0.17266402 0.21112537 0.13492781
0.110387295 0.16428804 -0.049044013 0.1221374 -0.085929275 0.1930111 -0.118294805 -0.16573417
0.005712658 -0.22005394 0.09307316 0.2068527 -0.01408264 -0.22943306 0.16310775 -0.018744469
-0.1987701 0.22069317 -0.09495005 -0.22880384 0.15802613 -0.16224569 -0.08737162 -0.1905387
0.121824175 -0.0030657947 -0.2262134 0.24963433 -0.13172862 -0.21569061 0.11726931 -0.22065383
-0.2272794 0.17570272 -0.10831764 -0.06434128 -0.0016854703 -0.15491271 0.1652449 0.18620527
-0.049785554 0.009972721 0.17140752 0.22143519 -0.24977589 -0.061511368 -0.23904464 0.02625528
-0.014007062 0.06524703 0.008238763 -0.10263005 0.1905942 0.05775827 0.24336898 -0.09608957
-0.23469853 0.09569657 -0.047185987 0.20291716 0.14701465 0.20474559 -0.018882632 0.22120905
-0.09920806 -0.111673295 0.13072675 0.23351678 0.24787384 0.22988737 0.07526818 -0.20431584
0.103345364 -0.097412735 0.21641254 -0.12966713 0.16218156 0.23388419 0.17113644 0.1907551
0.24927136 -0.2427099 -0.08573413 -0.14959937 -0.0044578016 -0.042406768 -0.09131345 0.16889858
0.18232337 -0.21019354 0.14363027 -0.13962573 0.13316116 0.06902698 0.13152084 0.18836826
0.06201902 0.030966103 -0.060962617 -0.14061227 -0.16320056 -0.16648412 0.025945693 -0.037686884
-0.13473082 -0.10802755 -0.1646159 0.10430375 -0.17735371 -0.012550801 0.1331375 0.1708847
-0.04199159 -0.20732954 0.20154232 -0.08082366 -0.13297564 0.100822955 -0.0247612 0.0043836534
0.09781653 -0.24114153 -0.17747119 -0.15896073 -0.045426458 -0.15793043 0.08303118 0.24406958
0.008905351 -0.03421372 -0.24893865 -0.019964129 0.117801785 0.24063355 0.14619908 0.11243871
-0.10643157 -0.24528676 0.021521717 0.20049691 -0.15905759 -0.17932051 0.1710661 -0.22428113
0.18025422 0.07594097 -0.08725166 0.23731515 -0.03844866 -0.013504624 0.038596153 0.13909036
-0.05401951 -0.027978957 -0.0424425 0.2072055 0.17969707 -0.11467913 -0.16870803 -0.17536503
0.03588465 -0.058895648 -0.0034142137 0.14052233 0.24611884 -0.16733024 -0.16528785 0.007525891
-0.060712278 0.12695065 0.069517106 -0.16097209 0.23251557 -0.21842512 0.014456153 -0.22954759
0.015002936 0.1521503 -0.07303509 -0.053866595 0.1865834 -0.07074219 -0.04003775 -0.15064502
-0.22151944 0.18660367 0.13458067 0.05364567 0.0878872 -0.034321308 0.07338902 0.09769145
-0.01981464 -0.21458551 -0.18004516 0.18180534 0.13396937 -0.20501032 -0.04499525 0.19753063
-0.13183331 -0.17386556 0.20511505 0.06497204 0.22420293 -0.1560292 0.0017454624 -0.02791214
00000000: 2075 0e3d 5806 f9bd 6013 113e 04e0 193e
00000010: 9e18 083e 327f 7ebe f633 553e 1ab2 6dbe
00000020: 0069 69bd 400b 37bd 48e8 6ebe d8fc c4bd
00000030: ae92 583e 3898 b4bd 387f a3bd 9e13 153e
00000040: 707e 543e 1059 b23c 7ee8 083e c0b7 9a3d
00000050: a6d7 193e 3666 253e 04c7 043e 9a24 793e
00000060: 2a99 5b3e fc06 9b3d 209b 76be 80ed 933c
00000070: 7c86 5dbe c884 94bd 684d a8bd a875 a53d
00000080: fafb 2bbe 5c98 823d 8673 3a3e 1028 ea3c
00000090: 4e6f 3cbe de61 14be 5cb1 6b3e 34de 77be
000000a0: 90b4 ddbc 38b7 e83d 289c 3e3d 50f7 fa3d
000000b0: 0492 8a3d d6ce 30be 4031 583e 842a 0a3e
000000c0: bc12 e23d 203b 283e 60e2 48bd 2c23 fa3d
000000d0: b0fb afbd b4a4 453e 8c44 f2bd 38b6 29be
000000e0: 4031 bb3b d255 61be 249d be3d 32d1 533e
000000f0: e0ba 66bc 80f0 6abe b805 273e 008e 99bc
00000100: 648a 4bbe 64fd 613e 2c75 c2bd 8e4b 6abe
00000110: 9ad1 213e bc23 26be e4ef b2bd 941c 43be
00000120: f47e f93d 80eb 48bb 7ca4 67be 24a0 7f3e
00000130: dee3 06be 00de 5cbe e42a f03d 14f3 61be
00000140: eebb 68be 6aeb 333e a4d5 ddbd 5cc5 83bd
00000150: 00eb dcba 70a1 1ebe f635 293e 98ac 3e3e
00000160: f0eb 4bbd a064 233c 7485 2f3e e8bf 623e
00000170: 40c5 7fbe 58f3 7bbd 1ec8 74be 5015 d73c
00000180: e07d 65bc 3ca0 853d e0fb 063c b42f d2bd
00000190: 202b 433e f093 6c3d b835 793e 9cca c4bd
000001a0: d054 70be 90fc c33d 1846 41bd 84c9 4f3e
000001b0: 028b 163e d4a8 513e c0af 9abc a084 623e
000001c0: 982d cbbd f8b4 e4bd 3cdd 053e 061f 6f3e
000001d0: a4d2 7d3e 9867 6b3e 3426 9a3d 2c38 51be
000001e0: bca6 d33d 5480 c7bd 409b 5d3e 76c7 04be
000001f0: ec12 263e 567f 6f3e 643e 2f3e 4e55 433e
00000200: fe40 7f3e f288 78be 6095 afbd 9430 19be
00000210: c012 92bb b8b2 2dbd 8c02 bbbd c0f3 2c3e
00000220: fab2 3a3e fa3c 57be d013 133e 0cfa 0ebe
00000230: 665b 083e 045e 8d3d 66ad 063e 9ce3 403e
00000240: a807 7e3d a0ac fd3c f0b3 79bd aafc 0fbe
00000250: 0c1e 27be d07a 2abe 108c d43c 905d 1abd
00000260: e0f6 09be 8c3d ddbd 1291 28be 349d d53d
00000270: 369c 35be e0a1 4dbc 3255 083e 66fc 2e3e
00000280: 60ff 2bbd 324e 54be 1c61 4e3e e086 a5bd
00000290: c42a 08be 447c ce3d 00d8 cabc c0a4 8f3b
000002a0: 0854 c83d ceed 76be 02bb 35be 9ac6 22be
000002b0: 1811 3abd 84b8 21be 400c aa3d 60ed 793e
000002c0: c0e7 113c b023 0cbd c6e9 7ebe d08b a3bc
000002d0: 1042 f13d a468 763e 36b5 153e 4446 e63d
000002e0: ccf8 d9bd 742c 7bbe 504e b03c 104f 4d3e
000002f0: fedf 22be cc9f 37be f42b 2f3e f4a9 65be
00000300: 9094 383e f086 9b3d 00b1 b2bd be02 733e
00000310: 587c 1dbd 8042 5dbc 0017 1e3d b46d 0e3e
00000320: 9043 5dbd 2034 e5bc 30d8 2dbd ae2d 543e
00000330: 8202 383e e4dc eabd ccc1 2cbe e492 33be
00000340: c8fb 123d 903c 71bd 00c1 5fbb 16e5 0f3e
00000350: 9406 7c3e 9e58 2bbe 3841 29be c09b f63b
00000360: 70ad 78bd 5aff 013e fc5e 8e3d ded5 24be
00000370: 9018 6e3e d6aa 5fbe 80d9 6c3c 860e 6bbe
00000380: e0ce 753c 4acd 1b3e 6c93 95bd 38a3 5cbd
00000390: b80f 3f3e 48e1 90bd a0fe 23bd b042 1abe
000003a0: fed5 62be 0815 3f3e 84cf 093e 90bb 5b3d
000003b0: 34fe b33d 8094 0cbd fc4c 963d 7412 c83d
000003c0: 5052 a2bc 4ebc 5bbe c25d 38be 2e2b 3a3e
000003d0: 442f 093e 3aee 51be f04c 38bd 7845 4a3e
000003e0: 50ff 06be d009 32be ae09 523e 1010 853d
000003f0: 7495 653e 1ec6 1fbe 00c8 e43a 00a8 e4bc

fc1.bias f4 [128]
0.031392395 0.2200265 -0.03339854 -0.23839977 -0.2259728 0.0028447509 0.03302437 0.09236354
0.14576262 0.06801313 0.1707657 -0.15068087 0.14938322 -0.010293096 0.088680536 -0.08492419
-0.2356849 0.16940612 0.21605137 0.06957352 0.09909323 -0.1679996 -0.19244024 0.08119577
0.1872662 0.16978002 0.0020300448 -0.01163736 0.10691917 0.18110147 0.10638291 0.17212686
-0.07611042 -0.101814896 0.010072976 0.16143018 0.041912675 0.19089866 -0.058529228 0.15816295
0.045158267 -0.0691922 -0.20619711 -0.19420516 -0.17028603 0.20165986 -0.04142341 0.0920749
0.173377 0.04717487 0.008015782 0.012986779 -0.0034135282 0.014541894 -0.248759 0.24685818
-0.043207675 -0.12570006 -0.17335859 -0.24160603 0.2300584 -0.099796146 -0.110591054 0.19793624
-0.0072082877 0.120206594 -0.10982835 0.23386562 0.23180199 -0.029891968 -0.030566067 0.19493252
0.11078584 0.10606441 0.0964804 0.16042596 0.16575298 0.04129246 0.108332366 -0.081395954
0.047423184 0.15878883 0.08991635 -0.1513263 -0.030585915 0.08898473 0.13342723 -0.18667564
0.020738035 0.024428785 0.15177512 0.09801081 -0.17649841 0.0396837 -0.058913976 0.13434875
-0.10428733 0.13624346 0.024970919 -0.20034221 0.00483799 -0.0014537871 -0.11764598 0.106745124
-0.23811716 -0.06326684 0.22172779 -0.018714726 0.040712178 0.11440134 0.111392885 0.14480585
0.23022011 -0.033480436 -0.09322232 0.17594156 -0.046798885 0.24053833 -0.056839705 -0.16500708
-0.11763704 -0.19646302 -0.0054956377 -0.17488521 0.2118352 0.10806045 0.24140406 0.2211461
00000000: 5095 003d a04e 613e e8cc 08bd 121f 74be
00000010: 6a65 67be 006f 3a3b 9044 073d 1829 bd3d
00000020: cc42 153e 784a 8b3d 34dd 2e3e 164c 1abe
00000030: eaf7 183e 60a4 28bc 249e b53d bcec adbd
00000040: 6257 71be cc78 2d3e 923c 5d3e 907c 8e3d
00000050: 64f1 ca3d 1608 2cbe 0e0f 45be f849 a63d
00000060: b6c2 3f3e d0da 2d3e 800a 053b a0aa 3ebc
00000070: 70f8 da3d aa72 393e 48df d93d 0642 303e
00000080: c8df 9bbd 5484 d0bd 2009 253c f44d 253e
00000090: a0ac 2b3d f07a 433e 58bc 6fbd 78f5 213e
000000a0: e0f7 383d a4b4 8dbd 5625 53be b8dd 46be
000000b0: 765f 2ebe ec7f 4e3e 98ab 29bd c491 bc3d
000000c0: be89 313e 703a 413d a054 033c 80c6 543c
000000d0: 80b5 5fbb 2041 6e3c aeba 7ebe 64c8 7c3e
000000e0: 88fa 30bd 84b7 00be ea84 31be 9267 77be
000000f0: 6e94 6b3e ec61 ccbd 907d e2bd ccaf 4a3e
00000100: 8033 ecbb e02e f63d b0ed e0bd 787a 6f3e
00000110: 805d 6d3e 00e0 f4bc b065 fabc 649c 473e
00000120: b0e3 e23d 4c38 d93d 8497 c53d b446 243e
00000130: 26bb 293e 4822 293d 5cdd dd3d ecb2 a6bd
00000140: d03e 423d 8a99 223e 1026 b83d 48f5 1abe
00000150: 508f fabc a03d b63d 26a1 083e e627 3fbe
00000160: d0e2 a93c e01e c83c f06a 1b3e e4b9 c83d
00000170: 00bc 34be 608b 223d c84f 71bd b892 093e
00000180: 9894 d5bd 6883 0b3e d08f cc3c 8226 4dbe
00000190: 0088 9e3b 008d beba 60f0 f0bd 309d da3d
000001a0: fcd4 73be 0c92 81bd 9c0c 633e a04f 99bc
000001b0: d0c1 263d 404b ea3d f421 e43d fc47 143e
000001c0: d2be 6b3e c822 09bd 58eb bebd 062a 343e
000001d0: 30b0 3fbd ae4f 763e c0d0 68bd 9ef7 28be
000001e0: b0eb f0bd 9a2d 49be c014 b4bb 1c15 33be
000001f0: 54eb 583e cc4e dd3d a032 773e 2074 623e

fc2.weight f4 [128, 128]
0.044911034 -0.08072616 0.023919225 -0.021432325 -0.055743895 -0.037250523 0.043811895 0.06866745
-0.0022778884 -0.01324255 -0.0693977 0.050920807 0.07019349 0.009404846 0.085818596 0.02524551
0.07169447 -0.05907885 -0.00370498 0.07786652 -0.06637326 -0.05476437 -0.022230998 0.076736085
0.02393467 -0.040530853 0.07880146 -0.018329687 0.0340603 0.0037515014 0.06480133 -0.035213493
-0.054309078 -0.017744884 -0.05510319 -0.0750257 -0.046670794 0.027757026 -0.04552493 0.037912063
0.045987554 -0.018855467 -0.0024763942 -0.014859349 0.07740461 -0.038850386 0.0650003 0.028403088
-0.037648253 -0.074163176 0.066855066 0.07068782 0.04664857 0.013544373 0.06723722 -0.06259584
0.029035658 0.02791743 0.046768017 0.07131579 0.04377783 -0.07723977 -0.05766324 0.010504387
0.04361228 -0.050048444 -0.0033575743 -0.048588328 -0.056579497 0.07842826 -0.04588657 -0.0812222
-0.07984418 -0.029980235 -0.08690975 -0.0840044 -0.017801471 -0.023404226 -0.04159952 0.043516494
-0.07519768 0.06465281 -0.02026023 0.010844998 0.038567163 0.036823697 -0.062040463 -0.06944885
0.025418177 0.02880346 0.040737934 -0.022885889 0.06897365 0.0031763092 0.011798285 0.030852653
0.017759226 -0.025324464 -0.025044635 -0.021823816 0.056429915 -0.05693463 -0.044328894 -0.07114997
-0.059368934 0.082662426 -0.07775498 0.0516276 0.027189985 -0.085881546 -0.046136048 -0.048321214
0.006347105 -0.0636577 -0.059217356 -0.024043567 0.030413471 0.08396699 0.08716097 0.08615073
-0.023568898 -0.012186602 0.07901091 -0.050171755 0.054481126 -0.029662572 0.01321663 0.045365788
0.009684131 0.06610859 0.0155273825 0.07886297 -0.0033435598 -0.08104071 0.0840885 -0.006483406
-0.026113704 0.053036146 0.030041777 0.07232671 0.021343797 0.07812194 -0.075136736 -0.006266549
0.01974757 0.048185773 0.0048856214 0.034878403 -0.029128939 0.08493266 -0.060727224 0.058896177
-0.036128648 -0.02097816 0.033210598 0.012301393 -0.048132703 -0.082832135 0.037477992 -0.004045084
-0.06665249 -0.06171287 -0.068614185 0.06991883 -0.023192897 -0.08071007 -0.043977477 -0.0068692937
-0.04032271 -0.057008028 0.013015568 0.005292751 0.016068928 -0.016485758 -0.04883746 -0.029470805
0.022307768 -0.066081986 0.005698107 0.04675395 0.022126071 0.005527191 0.012875184 0.014549829
0.07256583 0.07911875 -0.038590442 0.07327991 0.08359828 0.013412051 -0.030710027 -0.06270099
-0.06705665 -0.06488988 0.0021925196 0.08189761 -0.058435753 0.06790199 -0.03326891 0.08076411
0.04832772 -0.070588164 -0.07357866 -0.033823878 0.047840677 0.040983267 0.014467433 -0.0014985129
-0.017851412 -0.044149794 0.014036857 0.06790165 -0.047460176 0.058532797 -0.014698565 0.08291296
-0.00061316043 0.07220345 -0.021172918 -0.023706317 -0.08430015 -0.0012302175 0.04185287 -0.018121839
0.046977766 0.05704748 0.02760391 0.015885435 0.026406854 0.015552744 -0.0757632 -0.014965989
-0.056299064 0.05590292 -0.051562242 -0.05322341 0.024635516 -0.07069877 -0.0006611645 -0.0174926
-0.050578903 -0.023765378 0.0785621 0.04832556 0.016583733 0.023908198 0.056462787 -0.06866949
0.05128645 -0.025186822 -0.079938665 -0.087884404 -0.07634975 0.0071259066 -0.05339008 -0.013066724
00000000: a2f4 373d c253 a5bd 40f2 c33c d892 afbc
00000010: b653 64bd 0194 18bd 1a74 333d 85a1 8c3d
00000020: a048 15bb 48f7 58bc 6220 8ebd 5692 503d
00000030: 9bc1 8f3d c816 1a3c a9c1 af3d accf ce3c
00000040: 8dd4 923d aafc 71bd 40cf 72bb 7b78 9f3d
00000050: b4ee 87bd 9b50 60bd c81d b6bc cf27 9d3d
00000060: a412 c43c ae03 26bd a962 a13d 2428 96bc
00000070: d082 0b3d c0db 753b 8fb6 843d 063c 10bd
00000080: 3273 5ebd b85d 91bc e2b3 61bd 13a7 99bd
00000090: e029 3fbd b462 e33c 5978 3abd ae49 1b3d
000000a0: 725d 3c3d c876 9abc 004b 22bb a074 73bc
000000b0: 4f86 9e3d 9521 1fbd e11e 853d 98ad e83c
000000c0: 0e35 1abd dde2 97bd 4feb 883d c7c4 903d
000000d0: 9212 3f3d 38e9 5d3c abb3 893d 3f32 80bd
000000e0: 30dc ed3c 18b3 e43c d28f 3f3d 030e 923d
000000f0: 6250 333d e22f 9ebd 4a30 6cbd 981a 2c3c
00000100: caa2 323d 99ff 4cbd c00a 5cbb 8e04 47bd
00000110: e7bf 67bd ff9e a03d 8ef3 3bbd d357 a6bd
00000120: 5885 a3bd 1c99 f5bc bdfd b1bd 800a acbd
00000130: 64d4 91bc 38ba bfbc 4264 2abd 5a3e 323d
00000140: 3e01 9abd b168 843d c8f8 a5bc 38af 313c
00000150: 9af8 1d3d 72d4 163d 241e 7ebd 333b 8ebd
00000160: c839 d03c 3cf5 eb3c d2dc 263d 307b bbbc
00000170: 0f42 8d3d a029 503b 984d 413c b4be fc3c
00000180: cc7b 913c 4075 cfbc 682a cdbc dcc7 b2bc
00000190: 0e23 673d 4934 69bd 3792 35bd 13b7 91bd
000001a0: d72c 73bd eb4a a93d 013e 9fbd 7677 533d
000001b0: 88bd de3c aae2 afbd 27f9 3cbd 77ec 45bd
000001c0: 60fb cf3b f85e 82bd e68d 72bd 04f7 c4bc
000001d0: ac25 f93c e3f6 ab3d 7381 b23d cb6f b03d
000001e0: 9013 c1bc 50aa 47bc 79d0 a13d e680 4dbd
000001f0: 9a27 5f3d ecfe f2bc 908a 583c 7ad1 393d
00000200: 30aa 1e3c f163 873d 9066 7e3c e982 a13d
00000210: a01f 5bbb acf8 a5bd 9736 ac3d c072 d4bb
00000220: 68ec d5bc 6e3c 593d 2c1a f63c 0720 943d
00000230: 30d9 ae3c 65fe 9f3d 4ae1 99bd a057 cdbb
00000240: a8c5 a13c 725e 453d 9017 a03b a8dc 0e3d
00000250: d09f eebc 2df1 ad3d 1cbd 78bd 1e3d 713d
00000260: a2fb 13bd 64da abbc d607 083d c88b 493c
00000270: cc26 45bd e5a3 a9bd 8682 193d a08c 84bb
00000280: 1a81 88bd a2c6 7cbd 9885 8cbd 9b31 8f3d
00000290: 08ff bdbc 524b a5bd ba21 34bd d017 e1bb
000002a0: 6d29 25bd 4081 69bd 403f 553c d06e ad3b
000002b0: fca2 833c 240d 87bc ca09 48bd c26c f1bc
000002c0: c8be b63c fe55 87bd 30b7 ba3b 1281 3f3d
000002d0: bc41 b53c 701d b53b 70f2 523c 6862 6e3c
000002e0: 659d 943d 0309 a23d 0311 1ebd c713 963d
000002f0: 9335 ab3d 38be 5b3c 9893 fbbc 6069 80bd
00000300: ff54 89bd fce4 84bd 60b0 0f3b efb9 a73d
00000310: 545a 6fbd 3310 8b3d fb44 08bd a767 a53d
00000320: 4af3 453d 8790 90bd 69b0 96bd e88a 0abd
00000330: 96f4 433d 12de 273d d008 6d3c c069 c4ba
00000340: 203d 92bc 6ad6 34bd d8fa 653c 0510 8b3d
00000350: 9a65 42bd 16c0 6f3d 40d2 70bc 45ce a93d
00000360: 80bc 20ba 67df 933d d472 adbc c033 c2bc
00000370: 8fa5 acbd 403f a1ba ea6d 2b3d 4074 94bc
00000380: c26b 403d 9eaa 693d 9821 e23c 2c22 823c
00000390: 3053 d83c f0d0 7e3c bd29 9bbd e833 75bc
000003a0: d999 66bd 76fa 643d ee32 53bd ca00 5abd
000003b0: 6cd0 c93c 84ca 90bd 0052 2dba a44c 8fbc
000003c0: d32b 4fbd 9caf c2bc 2be5 a03d 06f1 453d
000003d0: 9cda 873c 20db c33c 8645 673d 97a2 8cbd
000003e0: be11 523d 9854 cebc e2b6 a3bd bdfc b3bd
000003f0: 425d 9cbd 7080 e93b 8eaf 5abd d015 56bc

fc2.bias f4 [128]
1.6339123e-05 0.058455683 -0.020673722 0.03631381 0.061362185 0.07910859 -0.051119342 -0.055215742
-0.040600996 0.029062182 0.0525072 0.0068322346 0.07192553 0.037865512 -0.05014455 -0.008001581
0.036176287 0.03352569 -0.0762191 -0.08134709 0.05164767 -0.03952992 -0.03523708 0.019054897
0.016246095 -0.02673303 -0.035589967 0.0010935739 0.036366194 -0.016527578 0.0343102 0.064909615
0.019754209 -0.04979155 -0.03214833 0.0049937665 -0.011706412 -0.02431985 -0.083523855 -0.072564535
0.00034059584 -0.054180373 -0.05407686 -0.06593571 -0.03800968 -0.0065341517 -0.07589171 0.062121816
-0.036632553 0.027191922 0.0051350743 0.013016947 0.07503406 -0.026278634 0.08427886 -0.06687727
0.0046451613 0.010288455 0.031394437 -0.069409266 0.027548477 0.06036306 0.004872881 -0.004949495
0.046627052 0.017769687 0.04260438 0.07550097 -0.060442097 -0.0070942417 0.08625292 -0.037662223
-0.016140692 -0.046885103 0.02275902 0.08451427 0.042934485 -0.08035161 0.072324134 0.06060394
0.039122067 -0.019311398 0.053329535 -0.004910812 -0.023475803 -0.062790185 -0.0005105436 -0.030499589
-0.03608125 0.052724965 -0.065018035 -0.041616566 -0.04819784 -0.016219996 -0.03541804 0.07846319
-0.08080797 0.083735846 -0.05845593 -0.0539257 -0.04891799 0.08282014 -0.008696593 0.044179194
0.078120045 -0.06058956 0.07908174 0.06405162 -0.06311732 -0.053161304 0.08466125 -0.059050336
-0.030961137 0.05191607 0.055385895 -0.036974587 0.012041874 0.009495117 -0.07000275 0.0347891
-0.034208026 -0.07122239 0.088212304 0.007791221 -0.06720964 0.053027935 -0.06915174 0.013204902
00000000: 0010 8937 3a6f 6f3d f05b a9bc cabd 143d
00000010: ea56 7b3d af03 a23d 8462 51bd e729 62bd
00000020: 3b4d 26bd d013 ee3c ca11 573d f0e0 df3b
00000030: b14d 933d de18 1b3d 5f64 4dbd 1019 03bc
00000040: 962d 143d 3c52 093d c218 9cbd 4e99 a6bd
00000050: 828c 533d 20ea 21bd c254 10bd 0419 9c3c
00000060: 8816 853c 3aff dabc c9c6 11bd 4056 8f3a
00000070: b8f4 143d d864 87bc da88 0c3d 55ef 843d
00000080: 94d3 a13c 39f2 4bbd f8ad 03bd c0a2 a33b
00000090: 40cc 3fbc 6c3a c7bc 8e0e abbd b79c 94bd
000000a0: 0092 b239 3dec 5dbd b37f 5dbd 4d09 87bd
000000b0: 0ab0 1bbd 701c d6bb 1d6d 9bbd 7273 7e3d
000000c0: 040c 16bd 98c1 de3c 2044 a83b 0845 553c
000000d0: 75ab 993d 4a46 d7bc 659a ac3d f3f6 88bd
000000e0: 7036 983b e890 283c 7497 003d 7226 8ebd
000000f0: 58ad e13c 423f 773d b0ac 9f3b 602f a2bb
00000100: 02fc 3e3d bc91 913c ee81 2e3d 41a0 9a3d
00000110: 2292 77bd d076 e8bb 5fa5 b03d b443 1abd
00000120: 7c39 84bc 980a 40bd 2071 ba3c d115 ad3d
00000130: 12dc 2f3d 638f a4bd ad1e 943d d63b 783d
00000140: 763e 203d f032 9ebc 1270 5a3d e0ea a0bb
00000150: 5450 c0bc 2498 80bd 00d6 05ba 46da f9bc
00000160: efc9 13bd 22f6 573d 2d28 85bd 2276 2abd
00000170: 196b 45bd ccdf 84bc 8212 11bd 4fb1 a03d
00000180: a67e a5bd b37d ab3d 7c6f 6fbd 32e1 5cbd
00000190: 3b5e 48bd 9b9d a93d 287c 0ebc 3ef5 343d
000001a0: 67fd 9f3d c22c 78bd 9bf5 a13d 7f2d 833d
000001b0: a743 81bd abbf 59bd e162 ad3d c4de 71bd
000001c0: 36a2 fdbc f2a5 543d 52dc 623d aa72 17bd
000001d0: 484b 453c 6891 1b3c 9a5d 8fbd 047f 0e3d
000001e0: b71d 0cbd 0bdd 91bd a7a8 b43d 804d ff3b
000001f0: 35a5 89bd d233 593d 6d9f 8dbd 6059 583c

fc3.weight f4 [2, 128]
-0.07351606 0.05274277 0.016981758 -0.050970502 0.014217161 0.0032591447 -0.03893643 0.04112176
-0.011434495 0.04560519 -0.025941815 0.027384304 0.029354878 -0.046552658 -0.031832978 -0.03489326
0.051121585 0.07521229 -0.0299213 -0.057548665 -0.07911678 -0.071051314 0.02893503 -0.06842399
0.084935896 0.018568486 -0.05862888 -0.047885206 0.048556782 0.05514332 0.07741869 0.05645985
-0.016450524 0.020160481 -0.037801214 -0.027428579 0.03435804 -0.07683303 0.015443392 0.071279965
0.02894479 0.06318342 0.04368008 0.044041373 -0.03812705 0.08333009 -0.044785544 -0.075701006
0.05439361 0.07136237 -0.07134133 0.08083377 -0.018794008 -0.060405526 -0.055350445 -0.07008813
-0.017110154 0.08826443 -0.08834349 -0.033300057 0.061112262 -0.0010839924 0.06973096 -0.027724724
0.022083916 0.049798317 -0.085020214 -0.025129229 -0.013485439 -0.0007502064 -0.014006756 0.07899738
-0.015258178 0.031654358 0.016674787 -0.030398384 -0.04052841 -0.046836633 -0.0077218115 -0.032342006
-0.0849302 -0.078999005 -0.045000147 0.07150755 -0.036948275 0.07272718 -0.022532709 0.0021393076
-0.076999255 0.06230577 0.055005185 0.08203072 0.08430082 -0.052497502 -0.07669946 0.07555709
0.08831779 0.007566951 -0.05910968 -0.054577123 -0.08830015 -0.07669387 0.044111393 -0.004704319
-0.07218053 0.08370251 0.05155074 0.03784717 -0.026744924 -0.04706312 -0.08413099 -0.041202873
-0.012220554 0.010860845 0.0784817 -0.07170642 0.016159914 -0.030051198 0.08484105 0.07662236
0.043783225 0.0035927147 -0.0535466 -0.07233944 0.004280381 -0.03299449 0.041244783 -0.060038332
-0.082539566 -0.0545843 0.08313104 0.069706 0.024493873 -0.067966916 0.009292372 0.01896663
0.005268976 0.053988285 -0.04911211 -0.08594155 0.052229263 -0.04758457 -0.04711359 -0.012813054
0.055477865 -0.07179925 -0.07603498 0.04718002 -0.037637137 0.0076888725 0.00077691674 -0.08234612
-0.0508731 0.04231108 -0.04708258 0.027896643 -0.050253056 -0.05114221 0.05842366 0.060650207
-0.0343746 0.03218878 -0.07121033 -0.006521024 -0.032640174 -0.041118655 -0.049708202 0.074337445
-0.018528186 0.02454488 -0.058774337 -0.003544964 -0.042798113 0.00907933 -0.0389021 0.07515817
-0.03850518 -0.011611417 0.008031748 0.059681214 0.03363335 0.01342164 0.08059702 0.009779058
0.05798734 -0.01752697 0.03232935 -0.009097472 -0.04756924 -0.061100844 -0.08603219 0.08822658
0.014956579 0.087159686 -0.046527654 0.061497875 0.06874459 0.003556259 0.07334419 -0.026438307
0.064517744 -0.013337158 -0.087625116 0.0129074305 0.012628615 -0.02350346 -0.07457566 -0.002341181
-0.048059523 0.086785994 -0.08249453 -0.055508096 0.055015244 0.010340959 0.047203936 -0.032736003
0.047523476 -0.014806822 0.081154145 -0.0037684217 -0.030461393 -0.08065474 0.04790599 -0.03665425
0.071257375 0.050467946 0.0119399205 0.024967663 -0.049130518 -0.055114318 0.07412588 0.028532848
0.066412486 0.07873177 0.028085448 -0.029389702 -0.07445612 -0.034692094 0.044824205 0.029248804
-0.042483244 -0.05622437 -0.030975256 -0.059547912 0.064619996 -0.075778924 0.051832758 0.08256381
0.01087673 0.03287413 0.058176838 -0.0154668465 0.08484819 -0.08637341 0.007024415 0.08585479
00000000: 978f 96bd ce08 583d 541d 8b3c 72c6 50bd
00000010: 18ef 683c 6097 553b ce7b 1fbd 4a6f 283d
00000020: c057 3bbc 82cc 3a3d ee83 d4bc 0c55 e03c
00000030: a479 f03c 00ae 3ebd 4c63 02bd 3cec 0ebd
00000040: de64 513d e708 9a3d 841d f5bc 26b8 6bbd
00000050: fa07 a2bd 5a83 91bd 2809 ed3c e021 8cbd
00000060: dff2 ad3d f01c 983c d624 70bd 4723 44bd
00000070: 7ae3 463d f6dd 613d b18d 9e3d 7242 673d
00000080: 40c3 86bc 9827 a53c 72d5 1abd e6b1 e0bc
00000090: 04bb 0c3d a35a 9dbd 4806 7d3c 3bfb 913d
000000a0: a01d ed3c 4f66 813d e2e9 323d ba64 343d
000000b0: 1c2b 1cbd f7a8 aa3d 0c71 37bd 2109 9bbd
000000c0: d6cb 5e3d 6f26 923d 671b 92bd 2d8c a53d
000000d0: e4f5 99bc c96b 77bd 26b7 62bd 5e8a 8fbd
000000e0: 982a 8cbc fbc3 b43d 6fed b4bd a465 08bd
000000f0: da50 7a3d c014 8eba 1bcf 8e3d f61e e3bc
00000100: 54e9 b43c 52f9 4b3d 141f aebd d0db cdbc
00000110: 08f2 5cbc 80a9 44ba 987c 65bc 61c9 a13d
00000120: 70fd 79bc 00a8 013d 9099 883c 0806 f9bc
00000130: 1e01 26bd c5d7 3fbd 4007 fdbb 0d79 04bd
00000140: e2ef adbd 3bca a1bd 1352 38bd 8d72 923d
00000150: 1357 17bd fdf1 943d 8496 b8bc a033 0c3b
00000160: c9b1 9dbd 5634 7f3d 1e4d 613d b9ff a73d
00000170: e9a5 ac3d 9f07 57bd 9b14 9dbd adbd 9a3d
00000180: f5df b43d 30f4 f73b fe1c 72bd 438c 5fbd
00000190: b6d6 b4bd ad11 9dbd 26ae 343d b026 9abb
000001a0: 63d3 93bd 396c ab3d de26 533d a205 1b3d
000001b0: 2c18 dbbc 42c5 40bd de4c acbd 58c4 28bd
000001c0: b838 48bc b0f1 313c 03bb a03d d1da 92bd
000001d0: cc61 843c ee2d f6bc 25c1 ad3d 2fec 9c3d
000001e0: 0a56 333d c073 6b3b ae53 5bbd b326 94bd
000001f0: 7042 8c3b 3b25 07bd 4af0 283d c1ea 75bd
00000200: 810a a9bd c993 5fbd 9b40 aa3d 05c2 8e3d
00000210: 60a7 c83c 3d32 8bbd 083f 183c e85f 9b3c
00000220: 60a7 ac3b d222 5d3d c829 49bd 2002 b0bd
00000230: 5aee 553d 0ae8 42bd 2efa 40bd d8ed 51bc
00000240: c23c 633d 7c0b 93bd 3ab8 9bbd d63f 413d
00000250: 6629 1abd f0f2 fb3b 00aa 4b3a 15a5 a8bd
00000260: 5060 50bd 624e 2d3d aad9 40bd 8087 e43c
00000270: 26d6 4dbd 7e7a 51bd a64d 6f3d 5a6c 783d
00000280: 61cc 0cbd 62d8 033d b9d6 91bd 50ae d5bb
00000290: b4b1 05bd 096c 28bd d49a 4bbd 3b3e 983d
000002a0: 6cc8 97bc 5812 c93c 5cbd 70bd a052 68bb
000002b0: 134d 2fbd 78c1 143c cf57 1fbd 87ec 993d
000002c0: 9cb7 1dbd d03d 3ebc 9897 033c 4a74 743d
000002d0: 20c3 093d 70e6 5b3c 0d10 a53d 5838 203c
000002e0: 2284 6d3d b894 8fbc c86b 043d 900d 15bc
000002f0: f7d7 42bd e144 7abd a531 b0bd 23b0 b43d
00000300: 700c 753c c780 b23d c893 3ebd 32e5 7b3d
00000310: f7c9 8c3d 2010 693b 7b35 963d 2695 d8bc
00000320: e121 843d 1884 5abc cc74 b3bd b079 533c
00000330: 40e8 4e3c 548a c0bc 20bb 98bd 806e 19bb
00000340: 10da 44bd dbbc b13d e4f2 a8bd 755c 63bd
00000350: aa57 613d 206d 293c ea58 413d 3016 06bd
00000360: faa7 423d 5098 72bc 2534 a63d a0f7 76bb
00000370: 2c8a f9bc 502e a5bd 1239 443d c422 16bd
00000380: 63ef 913d 7ab7 4e3d a89f 433c fc88 cc3c
00000390: 153d 49bd 8dbf 61bd 4fcf 973d b8bd e93c
000003a0: 4503 883d 1f3e a13d 7413 e63c acc2 f0bc
000003b0: 737c 98bd 4c19 0ebd 9699 373d 309b ef3c
000003c0: e902 2ebd 864b 66bd d2bf fdbc 83e8 73bd
000003d0: 7d57 843d fb31 9bbd 964e 543d 3717 a93d
000003e0: 5034 323c 06a7 063d d64a 6e3d a868 7dbc
000003f0: e3c4 ad3d 8be4 b0bd 102d e63b a3d4 af3d

fc3.bias f4 [2]
-0.026537016 -0.009455174
00000000: 2864 d9bc e0e9 1abc

fc1.weight f4 [128, 16]
0.03431505 -0.070120364 -0.1600951 0.19019952 0.16046286 -0.21217376 0.15729433 -0.1361655
-0.12758797 -0.06441802 -0.0868693 0.034199536 -0.17661309 0.055806458 -0.13314137 0.23986244
-0.11897963 0.18542817 -0.18119532 -0.036344737 -0.23827153 -0.08720946 -0.21857011 0.16106683
-0.12888145 -0.20985502 0.056361616 0.0915041 -0.1617471 0.07902178 0.24705932 0.028130949
0.13170546 0.24776703 -0.093005806 -0.22912234 0.09169403 0.0067375004 0.055932403 -0.0026447475
-0.13405114 0.22992656 -0.17947948 0.03732142 -0.18570846 0.079484254 0.2125946 0.125278
-0.16219953 -0.07702136 -0.2084195 -0.14181998 0.068113625 -0.23288912 0.1687338 -0.1875847
-0.20802626 -0.17320594 -0.24299452 -0.18501213 -0.13498735 -0.12654799 -0.15696928 0.15789154
-0.1513764 -0.033379704 0.14352548 -0.21460211 -0.15801474 -0.059359133 0.010410279 0.23571128
-0.023115158 -0.2421638 -0.24536195 -0.24172938 -0.07367754 0.2251943 0.18840834 -0.034821957
0.112069756 -0.04049182 0.116065025 0.046207577 0.029916346 0.03363645 0.012079269 -0.009741306
0.20076138 0.034204006 0.11373711 0.18076244 0.0006211102 0.08514342 0.0034592748 0.24638829
-0.11398998 -0.0848355 -0.14868474 0.18896243 0.05809158 -0.21530002 0.1881491 -0.14539436
-0.073468715 0.15673211 0.10039896 0.14375776 0.22725952 -0.1753847 0.04118234 0.20018181
-0.03817326 -0.06164792 -0.15556458 -0.1270037 0.16872045 0.21324697 0.040061563 -0.24408081
-0.08208668 0.047614068 0.14724466 -0.21748215 0.13873613 0.17590031 0.05530423 -0.22440067
0.14057842 -0.10828751 -0.18742397 0.21207577 -0.038701087 -0.1813286 0.18762502 -0.235291
-0.18987188 0.022151172 0.09975669 0.23092395 0.103782475 -0.06525862 0.013334304 -0.0099261105
-0.2060518 0.24929792 -0.17981559 0.105035305 0.025456965 0.24573386 -0.18942201 0.16993088
-0.2485938 0.11733663 0.06779572 0.1793859 -0.13880613 0.13946739 0.11145452 0.055725604
0.20648721 0.05661881 0.0061520636 0.055594236 -0.15221724 -0.051878154 0.23342538 -0.023329794
-0.11324355 0.23287949 0.079538375 0.1288164 0.23366803 0.20004898 0.22764596 0.07606262
-0.13482243 0.05863577 -0.077003896 0.19005615 -0.19585922 -0.11073229 0.13210607 0.23987386
0.17628199 0.08386341 -0.13370845 -0.0024605095 0.12943822 -0.11169484 -0.09491715 -0.061234772
0.19487837 0.06390077 0.1430265 0.20168528 0.054291427 -0.1312257 0.13740227 0.24604934
0.052330077 -0.08355707 0.088650614 -0.06203398 0.2355797 -0.2107329 -0.12085888 -0.2065911
0.09066731 0.06405866 -0.10750353 0.022904426 0.07116747 -0.13236049 -0.01030007 -0.06084156
0.05683899 -0.14334038 0.041878223 -0.1513992 -0.12501436 0.1012561 0.18199259 0.06981319
0.04258284 -0.21488449 -0.22216618 -0.18638566 0.20025009 0.09928292 -0.03178355 0.18307763
0.020824015 0.17577592 0.13759688 0.037333935 -0.13917652 0.1665583 0.0024622679 0.16398138
0.16063505 0.02993244 0.018640399 -0.1593667 0.18793347 0.17089775 -0.24040091 0.24780867
-0.1934664 0.067025214 0.20716688 -0.1585949 -0.23346096 0.24757117 -0.20557371 -0.04868722
00000000: f08d 0c3d 449b 8fbd f8ef 23be aac3 423e
00000010: 6050 243e 1444 59be c411 213e f86e 0bbe
00000020: 6ca6 02be 98ed 83bd 88e8 b1bd d014 0c3d
00000030: 10da 34be 5095 643d 3656 08be 809e 753e
00000040: 98ab f3bd e2e0 3d3e 448b 39be 38de 14bd
00000050: 74fd 73be e09a b2bd d8d0 5fbe b4ee 243e
00000060: 80f9 03be 3ce4 56be 70db 663d 8066 bb3d
00000070: 08a1 25be 2cd6 a13d 1efd 7c3e e072 e63c
00000080: ccdd 063e a4b6 7d3e d479 bebd 0c9f 6abe
00000090: 14ca bb3d 40c6 dc3b 6019 653d 8053 2dbb
000000a0: b444 09be de71 6b3e 78c9 37be 58de 183d
000000b0: 5c2a 3ebe a4c8 a23d 66b2 593e e048 003e
000000c0: a217 26be 60bd 9dbd ec6b 55be 4239 11be
000000d0: 287f 8b3d 7c7a 6ebe 8ec8 2c3e 3416 40be
000000e0: d604 55be e65c 31be 8ed3 78be d273 3dbe
000000f0: 203a 0abe cc95 01be 8ebc 20be 52ae 213e
00000100: 6a02 1bbe 28b9 08bd 58f8 123e a8c0 5bbe
00000110: 9ece 21be 9022 73bd e08f 2a3c 4c5e 713e
00000120: 005c bdbc caf9 77be 2a40 7bbe e887 77be
00000130: 40e4 96bd 5699 663e 1eee 403e 78a1 0ebd
00000140: d484 e53d c0da 25bd 80b3 ed3d 2844 3d3d
00000150: 2013 f53c 60c6 093d 20e8 453c 009a 1fbc
00000160: 6494 4d3e 8019 0c3d 00ef e83d ca19 393e
00000170: 00d2 223a ac5f ae3d 00b5 623b 364d 7c3e
00000180: 9473 e9bd 3cbe adbd d040 18be 5e7f 413e
00000190: 70f1 6d3d 9c77 5cbe 28aa 403e 42e2 14be
000001a0: c476 96bd 627e 203e f89d cd3d 3c35 133e
000001b0: b8b6 683e 0c98 33be d0ae 283d 76fc 4c3e
000001c0: 905b 1cbd 8882 7cbd 524c 1fbe 420d 02be
000001d0: 0ec5 2c3e 6a5d 5a3e 9817 243d 52f0 79be
000001e0: 101d a8bd f806 433d 4ec7 163e a4b3 5ebe
000001f0: d810 0e3e 361f 343e b086 623d 4ac9 65be
00000200: caf3 0f3e d8c5 ddbd 12ec 3fbe 642a 593e
00000210: 0885 1ebd 34ae 39be c620 403e 20f0 70be
00000220: c66d 42be 6076 b53c 3c4d cc3d 5477 6c3e
00000230: e88b d43d 50a6 85bd 2078 5a3c 20a1 22bc
00000240: 3eff 52be f447 7f3e 9421 38be c01c d73d
00000250: 208b d03c a8a1 7b3e d8f7 41be 5c02 2e3e
00000260: 608f 7ebe 304e f03d 7cd8 8a3d f0b0 373e
00000270: 3223 0ebe 8ad0 0e3e 4442 e43d 8840 643d
00000280: 6271 533e 20e9 673d 4097 c93b c8b6 633d
00000290: d6de 1bbe 307e 54bd 1007 6f3e 201e bfbc
000002a0: 3cec e7bd f677 6e3e 04e5 a23d 72e8 033e
000002b0: ac46 6f3e a4d9 4c3e 061c 693e b8c6 9b3d
000002c0: e40e 0abe 102c 703d 38b4 9dbd 149e 423e
000002d0: 528f 48be 9cc7 e2bd d046 073e 7ea1 753e
000002e0: 4483 343e 94c0 ab3d deea 08be 8040 21bb
000002f0: 748b 043e 44c0 e4bd ec63 c2bd 50d1 7abd
00000300: 328e 473e 68de 823d 8a75 123e 9686 4e3e
00000310: b060 5e3d 0860 06be 2eb3 0c3e 5cf4 7b3e
00000320: 1058 563d f81f abbd 748e b53d 5817 7ebd
00000330: ce3b 713e 5eca 57be dc84 f7bd 9e8c 53be
00000340: c8af b93d 3031 833d d02a dcbd 10a2 bb3c
00000350: 40c0 913d 8289 07be a0c1 28bc 0035 79bd
00000360: 00d0 683d d2c7 12be 8088 2b3d 6408 1bbe
00000370: c403 00be 5c5f cf3d 445c 3a3e 38fa 8e3d
00000380: 586b 2e3d ae0a 5cbe 887f 63be e2db 3ebe
00000390: 5c0e 4d3e d854 cb3d 782f 02bd b478 3b3e
000003a0: 2097 aa3c 9afe 333e 32e6 0c3e 78eb 183d
000003b0: 4a84 0ebe 428e 2a3e 005e 213b bcea 273e
000003c0: 847d 243e e034 f53c c0b3 983c 0631 23be
000003d0: a271 403e d2ff 2e3e a82b 76be 8ec1 7d3e
000003e0: 0e1c 46be 8444 893d 8e23 543e b466 22be
000003f0: 6410 6fbe 4c83 7d3e ea81 52be 406c 47bd

fc1.bias f4 [128]
0.03094253 0.09703469 0.23344657 -0.11404073 -0.0035872161 -0.23363924 -0.15885341 0.15919334
0.10516214 -0.07689458 0.19367093 0.08971304 -0.106045395 0.18481967 -0.17136109 -0.20464629
0.01767981 -0.06281814 -0.1738128 -0.06887755 -0.13400432 0.18330473 0.15528426 -0.10433003
0.065220326 -0.24935326 -0.07702148 0.13324943 -0.20869485 -0.14773181 -0.17876059 0.08957702
-0.045336515 0.14618614 0.24036118 0.040578008 0.119271815 0.17306182 0.03180626 0.24296603
-0.23952284 0.15139514 0.098593384 -0.15820956 -0.1958214 0.14602026 0.17572603 -0.17904651
0.23382902 -0.19472125 0.11948839 -0.040219605 0.08326334 -0.122080445 -0.08793095 0.20044592
-0.0843384 -0.044390887 0.037587106 -0.14182243 -0.24896845 0.15893671 0.02210918 -0.031523287
0.14742121 0.15967277 0.22118315 -0.0024439394 0.08270836 0.23193836 -0.08799371 0.025198191
-0.15940762 -0.041640878 0.110993 -0.10788572 0.049788535 -0.14618844 -0.18329614 -0.13369685
0.23358387 0.2081382 -0.08927807 -0.07940149 -0.14639899 0.22131419 0.106502265 0.025402099
0.15637079 -0.019326657 -0.22307938 -0.19798931 0.008740038 0.22296304 -0.20636117 -0.1031498
-0.16050118 -0.08591509 -0.10056004 -0.23405829 -0.056884438 -0.05408746 -0.015986651 0.03886795
-0.1031605 0.24534327 -0.1697421 0.04387027 0.05594328 -0.11841068 -0.21333072 -0.096141815
-0.22944906 0.12356502 -0.22677577 -0.21095702 0.002141416 -0.18420729 -0.16336042 0.069909304
0.24552196 -0.15735123 -0.056229383 0.097569406 -0.1772978 -0.014425933 0.21837634 0.18275788
00000000: 307b fd3c 20ba c63d 9e0c 6f3e 308e e9bd
00000010: 8017 6bbb 203f 6fbe 78aa 22be 9403 233e
00000020: 405f d73d e87a 9dbd ac51 463e 78bb b73d
00000030: 542e d9bd 5e41 3d3e 4879 2fbe cc8e 51be
00000040: 40d5 903c cca6 80bd fcfb 31be ac0f 8dbd
00000050: 6e38 09be 3cb4 3b3e d602 1f3e fcaa d5bd
00000060: 3c92 853d 7656 7fbe 70bd 9dbd 8a72 083e
00000070: 1ab4 55be 0247 17be 040d 37be 2874 b73d
00000080: c8b2 39bd d2b1 153e 3e21 763e 2035 263d
00000090: c844 f43d 1e37 313e 4847 023d 16cc 783e
000000a0: 7a45 75be 5407 1b3e 54eb c93d b001 22be
000000b0: 6885 48be 5686 153e 86f1 333e f857 37be
000000c0: e070 6f3e 0265 47be 54b6 f43d 50bd 24bd
000000d0: f885 aa3d 5005 fabd 2415 b4bd b241 4d3e
000000e0: 9cb9 acbd 38d3 35bd f0f4 193d e639 11be
000000f0: 96f1 7ebe 4ec0 223e 501e b53c 901e 01bd
00000100: 96f5 163e 4281 233e d67d 623e 802a 20bb
00000110: 0063 a93d 4081 6d3e 0c36 b4bd 706c ce3c
00000120: c03b 23be a08f 2abd 4c50 e33d 30f3 dcbd
00000130: 10ef 4b3d 6cb2 15be fcb1 3bbe d4e7 08be
00000140: 9c30 6f3e 2e22 553e 6cd7 b6bd 409d a2bd
00000150: 9ee9 15be 30a0 623e dc1d da3d 1018 d03c
00000160: aa1f 203e f052 9ebc ec6e 64be b6bd 4abe
00000170: 6032 0f3c 6c50 643e 5850 53be 3440 d3bd
00000180: 6c5a 24be 40f4 afbd 6cf2 cdbd faac 6fbe
00000190: a8ff 68bd d08a 5dbd 70f6 82bc 0034 1f3d
000001a0: d045 d3bd 443b 7b3e e0d0 2dbe 50b1 333d
000001b0: c824 653d 4c81 f2bd 5e73 5abe 00e6 c4bd
000001c0: b2f4 6abe a80f fd3d e837 68be 1e05 58be
000001d0: 0057 0c3b d6a0 3cbe f447 27be 9c2c 8f3d
000001e0: 1c6a 7b3e ae20 21be c850 66bd 78d2 c73d
000001f0: 8e8d 35be c05a 6cbc 0c9e 5f3e e224 3b3e

fc2.weight f4 [128, 128]
0.026510648 -0.06517707 0.046342812 0.069804095 -0.022202946 -0.023788147 0.034223855 -0.053632263
0.08662035 0.015326925 0.022640847 -0.077403635 -0.0010611936 0.03436563 0.01011923 0.053539746
0.025690973 -0.04383307 0.057440616 0.043412723 0.044270597 -0.014577709 -0.051203594 -0.069277205
0.01681675 -0.020179383 9.670854e-06 -0.063353516 0.070670284 -0.06528722 -0.022106156 0.037161358
-0.0272694 0.017238416 -0.0072295964 0.02272378 0.0075729117 0.012313433 -0.037241176 -0.07361804
0.06894118 -0.052147176 -0.018310845 -0.006845705 -0.0072228983 -0.05973693 -0.012254439 0.060499243
0.050838508 -0.004985094 0.029454082 -0.053256556 -0.006645538 -0.014597625 0.04504194 0.052634694
0.08789315 -0.010111421 0.044865333 0.037699558 -0.013455674 0.0052444786 0.04137624 -0.069924645
0.035478197 -0.0034880936 -0.059226982 -0.069507085 0.03466069 0.04736986 -0.08255796 -0.057191037
0.0151082575 0.038494952 0.033495083 0.07123735 -0.055375203 -0.041434135 -0.033667322 0.059575446
-0.015621878 0.030525789 -0.009915508 0.06021131 -0.058739334 -0.0103060305 -0.05820388 0.06580197
-0.032712802 0.04601053 -0.07719383 0.027077034 -0.029681709 0.08376961 0.06873722 0.08498093
-0.08716402 0.035288647 -0.047662765 0.07839685 -0.042450864 -0.02692249 -0.0046849623 -0.06231188
0.019650072 -0.050326467 0.086143486 0.027062587 0.042470627 -0.02834034 -0.083960354 0.041730992
0.07668821 0.08126608 -0.0005203262 -0.024024695 -0.03695281 -0.0394655 -0.04105572 -0.08282574
-0.06899895 0.012811348 -0.06773231 0.008823708 0.051139064 -0.05464241 0.04827272 0.06857327
0.019118465 0.0026851892 -0.05499874 -0.00030889362 -0.025406696 -0.082016535 -0.031245101 -0.005271949
0.0005561486 0.044969164 0.08636022 -0.05737266 0.06583875 -0.027336888 -0.077684954 -0.07734461
-0.04170574 0.0039819703 -0.0107910335 -0.049071617 -0.0626107 0.038652636 -0.061762527 -0.081814334
-0.080064416 -0.006026149 -0.080539614 0.034989975 0.040177636 -0.0741664 0.015911259 0.07749929
0.0089016035 0.04451608 -0.03913436 0.04198628 0.034299262 0.049903356 -0.023761548 0.056971513
0.08477383 -0.0448899 0.026350185 -0.06368828 0.010067858 0.010281526 0.0013657585 -0.018611543
-0.060839415 0.030912124 -0.038153645 0.075646706 -0.006353639 -0.082477406 0.05497963 -0.056618948
-0.0038360506 0.06313742 -0.017191224 0.0019116551 0.05364471 -0.074114166 0.04193265 0.04516623
-0.026753418 0.06645336 0.028285086 0.023094736 -0.018911272 0.07049335 0.060665883 -0.0026711822
0.056425996 0.08630184 0.069306456 -0.00800284 -0.08080898 -4.74602e-05 0.0630847 0.017474577
-0.04562116 0.07963354 0.037594624 0.056683443 -0.027626667 -0.014257401 0.008799054 0.05296854
-0.036075182 0.07018759 0.0026008785 0.08479137 0.025653414 0.03511706 0.0714099 0.004093893
0.054772697 0.041138954 0.066279344 -0.068205886 0.011965424 0.0682312 -0.0061505735 0.024044462
0.031678274 -0.054076944 -0.065883175 0.055111445 -0.085717544 0.07250444 0.02186378 0.07592889
-0.063421056 0.041850112 0.068781786 -0.081539944 0.04888571 0.027818166 0.08706475 0.06791144
0.06112682 0.032054856 0.043618567 -0.080040425 -0.01747065 -0.0009627789 0.08401071 0.030360594
00000000: dc2c d93c 8e7b 85bd f6d1 3d3d 73f5 8e3d
00000010: f4e2 b5bc 5cdf c2bc 502e 0c3d 81ad 5bbd
00000020: 0366 b13d c81d 7b3c 4c79 b93c cc85 9ebd
00000030: c017 8bba fac2 0c3d 20cb 253c 7e4c 5b3d
00000040: e075 d23c 4e8a 33bd da46 6b3d 8ad1 313d
00000050: 1655 353d 58d7 6ebc dcba 51bd 35e1 8dbd
00000060: 48c3 893c 3c4f a5bc 0040 2237 7dbf 81bd
00000070: 95bb 903d 4eb5 85bd f817 b5bc 8236 183d
00000080: 1464 dfbc 9437 8d3c 40e6 ecbb 3827 ba3c
00000090: 3026 f83b 48be 493c 348a 18bd 0ec5 96bd
000000a0: 0931 8d3d 4798 55bd a000 96bc f051 e0bb
000000b0: 10ae ecbb b6ae 74bd d8c6 48bc 0ece 773d
000000c0: 0a3c 503d 005a a3bb b049 f13c 8c23 5abd
000000d0: d0c2 d9bb e02a 6fbc e67d 383d 7a97 573d
000000e0: 5301 b43d 60aa 25bc b6c4 373d da6a 1a3d
000000f0: 3075 5cbc e0d9 ab3b 227a 293d a734 8fbd
00000100: 9651 113d 8098 64bb fe97 72bd bb59 8ebd
00000110: 5ef8 0d3d e606 423d 2614 a9bd 2641 6abd
00000120: a088 773c e2ac 1d3d 2432 093d e3e4 913d
00000130: 1cd1 62bd d7b6 29bd bfe6 09bd 6205 743d
00000140: e8f2 7fbc 3811 fa3c a874 22bc 22a0 763d
00000150: a898 70bd a0da 28bc 3167 6ebd 2fc3 863d
00000160: dcfd 05bd 8a75 3c3d cc17 9ebd a8d0 dd3c
00000170: 0e27 f3bc 678f ab3d 19c6 8c3d 7b0a ae3d
00000180: 0d83 b2bd d48a 103d 083a 43bd 878e a03d
00000190: f5e0 2dbd 8e8c dcbc 5084 99bb be3a 7fbd
000001a0: 30f9 a03c 2023 4ebd ff6b b03d 5cb2 dd3c
000001b0: aef5 2d3d 002a e8bc 68f3 abbd 1eee 2a3d
000001c0: b50e 9d3d d56e a63d 8066 08ba 70cf c4bc
000001d0: d45b 17bd 93a6 21bd 0b2a 28bd 8ba0 a9bd
000001e0: 524f 8dbd b0e6 513c 3db7 8abd 5091 103c
000001f0: 3277 513d b8d0 5fbd 9eb9 453d 2570 8c3d
00000200: 549e 9c3c 00fa 2f3b 5c46 61bd 00f3 a1b9
00000210: b421 d0bc 49f8 a7bd baf5 ffbc 50c0 acbb
00000220: 80ca 113a 9631 383d a1dd b03d 98ff 6abd
00000230: 77d6 863d 9cf1 dfbc 4a19 9fbd da66 9ebd
00000240: a3d3 2abd 307b 823b e0cc 30bc 52ff 48bd
00000250: 0a3a 80bd 3a52 1e3d b4fa 7cbd 468e a7bd
00000260: d0f8 a3bd 0077 c5bb f4f1 a4bd a651 0f3d
00000270: 4e91 243d 8ee4 97bd 5458 823c f3b7 9e3d
00000280: 08d8 113c 7e56 363d 5a4b 20bd cef9 2b3d
00000290: 627d 0c3d 7667 4c3d 94a7 c2bc f65a 693d
000002a0: e79d ad3d 79de 37bd 58dc d73c 006f 82bd
000002b0: a8f3 243c d873 283c 4003 b33a 3c77 98bc
000002c0: c032 79bd 6c3b fd3c ff46 1cbd a9ec 9a3d
000002d0: 3032 d0bb eae9 a8bd 5232 613d 45e9 67bd
000002e0: 4066 7bbb 314e 813d 9cd4 8cbc 8090 fa3a
000002f0: 8eba 5b3d 2bc9 97bd 92c1 2b3d 3a00 393d
00000300: fc29 dbbc b318 883d 20b6 e73c 2c31 bd3c
00000310: d0eb 9abc d15e 903d ca7c 783d 000f 2fbb
00000320: f21e 673d 05bf b03d 8bf0 8d3d 581e 03bc
00000330: 2e7f a5bd 0010 47b8 8d32 813d d826 8f3c
00000340: 41dd 3abd e916 a33d d2fc 193d e62c 683d
00000350: 5251 e2bc e097 69bc e829 103c 8af5 583d
00000360: 92c3 13bd 83be 8f3d 8073 2a3b 19a7 ad3d
00000370: 1c27 d23c e8d6 0f3d 5b3f 923d 1026 863b
00000380: 5659 603d 5281 283d 77bd 873d 87af 8bbd
00000390: a00a 443c cdbc 8b3d c08a c9bb e4f8 c43c
000003a0: 14c1 013d c97f 5dbd c2ed 86bd 8abc 613d
000003b0: ae8c afbd 357d 943d ac1b b33c 9b80 9b3d
000003c0: e6e2 81bd 066b 2b3d 77dd 8c3d 6afe a6bd
000003d0: 623c 483d ece2 e33c 014f b23d 2715 8b3d
000003e0: 1e60 7a3d f44b 033d 62a9 323d 3cec a3bd
000003f0: 9c1e 8fbc 0063 7cba cf0d ac3d c8b6 f83c

fc2.bias f4 [128]
0.06413279 -0.081250675 -0.0028736964 -0.07374015 -0.048695795 -0.033385456 0.009819731 -0.0733307
0.059525557 -3.5338104e-05 0.032924518 -0.0138929635 -0.007880062 -0.06790348 0.0762207 0.048223548
-0.00583525 0.06390958 0.055749036 -0.08684821 0.043889903 -0.034230933 0.004838921 0.040941335
-0.049582005 0.004643865 0.058123864 0.06177818 -0.0524763 -0.014743127 0.01614438 -0.03391861
0.058818944 -0.039002903 -0.024720147 -0.039967034 -0.0450008 -0.051644176 -0.00042214245 0.08363914
-0.0109227 0.009422235 0.03116262 -0.038193103 -0.015442349 -0.009952314 0.04203961 0.08564628
0.04976528 -0.019548342 0.004993938 0.059670173 -0.08084541 -0.03386393 0.05378551 -0.035251517
-0.05114407 -0.059025154 0.019874208 -0.075514846 0.011464626 0.0640016 -0.076690555 0.024849989
0.07076632 -0.043730475 -0.054395374 0.079117216 -0.07816632 0.029449783 0.008776523 0.0719144
-0.014304049 0.033295758 -0.07658411 0.05863782 -0.029985406 0.07007905 -0.08671377 0.0076920763
0.067890964 -0.08531352 -0.06136877 0.07310329 -0.06792164 -0.02660111 -0.07302769 -0.050293222
0.01529666 -0.053344063 0.0776116 0.0582067 0.076905586 -0.035080772 -0.08800957 0.04460893
-0.033818115 -0.04359593 0.024940327 0.047607787 0.080603324 -0.014946021 -0.040600806 0.028483577
0.0031611174 0.03950437 0.08546648 -0.0044203624 0.070511766 0.018912472 -0.037703685 0.030365974
0.013274401 -0.0042588413 -0.038339734 0.02878365 0.030756705 0.088140406 0.06060628 -0.07687323
-0.019169062 -0.011534803 -0.005143225 0.034855023 -0.011136673 0.0069036186 0.00037457794 0.014808193
00000000: 0d58 833d c166 a6bd a054 3cbb 1305 97bd
00000010: 3e75 47bd 30bf 08bd f0e2 203c 682e 96bd
00000020: 12d1 733d 0038 14b8 dcdb 063d 509f 63bc
00000030: 601b 01bc fb10 8bbd 9919 9c3d 0e86 453d
00000040: a035 bfbb 07e3 823d 1a59 643d 79dd b1bd
00000050: e6c5 333d bc35 0cbd d08f 9e3b 1ab2 273d
00000060: 8016 4bbd 902b 983b 4a13 6e3d 1e0b 7d3d
00000070: 64f1 56bd 288d 71bc 3841 843c 3eee 0abd
00000080: 22ec 703d 82c1 1fbd e881 cabc 79b4 23bd
00000090: c252 38bd d888 53bd 0053 ddb9 ff4a ab3d
000000a0: 20f5 32bc b85f 1a3c c048 ff3c 5f70 1cbd
000000b0: e801 7dbc 080f 23bc ba31 2c3d 5167 af3d
000000c0: aed6 4b3d d823 a0bc 30a4 a33b b668 743d
000000d0: 4792 a5bd e7b4 0abd 324e 5c3d e563 10bd
000000e0: 727c 51bd 5cc4 71bd 3ccf a23c 87a7 9abd
000000f0: 20d6 3b3c 4513 833d f00f 9dbd 3492 cb3c
00000100: efed 903d ba1e 33bd afcd 5ebd 3508 a23d
00000110: aa15 a0bd ac40 f13c 68cb 0f3c db47 933d
00000120: 885b 6abc 2261 083d 21d8 9cbd 362e 703d
00000130: f4a3 f5bc 9b85 8f3d fd96 b1bd d00d fc3b
00000140: 6b0a 8b3d dbb8 aebd d25d 7bbd 2db7 953d
00000150: 801a 8bbd 92ea d9bc 8b8f 95bd 4400 4ebd
00000160: d89e 7a3c 4e7f 5abd d5f2 9e3d 266a 6e3d
00000170: ad80 9d3d dbb0 0fbd 5d3e b4bd dab7 363d
00000180: dd84 0abd a591 32bd a84f cc3c 6200 433d
00000190: 5b13 a53d 28e0 74bc 084d 26bd 6456 e93c
000001a0: c02a 4f3b 56cf 213d 0d09 af3d b0d8 90bb
000001b0: 7968 903d 54ee 9a3c 2e6f 1abd 10c2 f83c
000001c0: e07c 593c c08d 8bbb 200a 1dbd b0cb eb3c
000001d0: 7cf5 fb3c f582 b43d 4a3e 783d b66f 9dbd
000001e0: 7008 9dbc 78fc 3cbc 8088 a8bb 24c4 0e3d
000001f0: 9876 36bc c037 e23b 0063 c439 109e 723c
