customTrainer/results/AgentBall10/RollerBall.onnx (onnx, 76482 bytes, 6 tensors)

fc1.weight f4 [128, 16]
000000 fe db 63 be 70 3f 69 3e 70 5f 25 bd 84 62 5e be
       -0.22251889 0.22778106 -0.04037422 -0.21717268
000010 50 fc 40 be 14 cd 40 be e4 6d ee 3d 8c 8e 4b 3e
       -0.1884625 -0.18828231 0.11642054 0.19878596
000020 96 ea 03 be 5c 57 ad 3d 44 dc 46 be 1c a8 4d 3e
       -0.12882456 0.08463928 -0.19419962 0.2008366
000030 54 d8 80 bd 4c 9d 47 be 60 aa 40 3e b0 52 34 3e
       -0.06291261 -0.19493598 0.18814993 0.17609668
000040 0c 3d cc bd 30 54 1a 3e e8 56 fe 3d 2e c6 42 be
       -0.09972581 0.15071177 0.1241892 -0.19020912
000050 40 01 c8 3d d0 49 c5 3d 66 2e 04 be 16 57 78 3e
       0.097658634 0.09633219 -0.12908325 0.2425197
000060 a8 c9 42 be 46 15 7d 3e f8 96 38 be f8 30 27 be
       -0.19022238 0.24715146 -0.1802634 -0.16327274
000070 7e 63 57 3e 50 ae b3 3d 90 a0 44 3e 10 77 b5 3c
       0.21034047 0.08773482 0.19201875 0.0221515
000080 46 0e 60 3e a0 4e d9 bc 52 9b 56 3e 10 0a 59 bd
       0.21880445 -0.02652675 0.20957687 -0.052988112
000090 0e 25 2d 3e 38 63 0c be 48 e5 56 be ba 69 74 3e
       0.16908666 -0.13709724 -0.20985901 0.23868456
0000a0 98 99 af bd 94 a0 a9 bd 80 45 7c bd c0 e5 f4 3d
       -0.085742176 -0.08282581 -0.061589718 0.11957884
0000b0 44 01 3d 3e d6 ce 64 be 40 da 40 be fc bb 4a be
       0.18457514 -0.22344527 -0.18833256 -0.19798273
0000c0 0c 4a d5 3d e8 39 d7 bd 44 35 08 3e 80 32 b1 bc
       0.10414514 -0.105090916 0.13301569 -0.021630526
0000d0 b2 70 05 3e 92 81 24 be 38 ae 69 be 08 b4 87 bd
       0.13031271 -0.16065052 -0.22820365 -0.06626135
0000e0 ac 98 2c be c0 e9 60 be 78 cf 07 3e 00 ab 4e 3e
       -0.16855115 -0.21964169 0.13262737 0.20182419
0000f0 ac 3d de bd cc c6 5b 3e 40 21 b4 bd 4a 6d 31 3e
       -0.10851607 0.21462554 -0.087954044 0.17326847
000100 da b9 1b be f6 38 0c 3e b8 42 4d 3e 40 61 32 3e
       -0.15207615 0.13693604 0.20044982 0.1741991
000110 5e 5c 49 3e fa 6d 69 be de 6a 7e be 40 0a e5 3d
       0.19664142 -0.22795859 -0.24845454 0.11183596
000120 6c 87 20 3e 90 f8 4d bd fa 1c 7b 3e 06 9f 14 3e
       0.1567666 -0.050285876 0.24522772 0.14513788
000130 ac 7f 94 3d 56 b9 3a 3e 7c 07 9d bd 38 86 0c 3d
       0.07250914 0.18234763 -0.07667443 0.03430769
000140 88 47 89 3d 8a d4 77 be 98 a0 51 be b6 ca 5c 3e
       0.06703097 -0.24202171 -0.20471418 0.21561703
000150 e0 f0 da 3d fc fe 4c be 08 60 13 be 90 3e c1 3c
       0.106904745 -0.20019144 -0.14392102 0.023589402
000160 e0 78 f6 3d 44 d7 eb 3d 32 08 55 3e 66 28 3d 3e
       0.12034774 0.11515668 0.20803908 0.18472442
000170 4a 5b 28 3e 72 1b 4a be 70 b9 af 3d 66 59 4e 3e
       0.16441074 -0.19737032 0.08580291 0.2015129
000180 d8 b3 20 3e 0c 5f d1 bd a0 c0 38 be b8 49 a7 bd
       0.15693605 -0.10223207 -0.1804223 -0.081683576
000190 70 86 17 bd ec bd 38 3e 3e 00 2b be 38 45 4d 3d
       -0.036993444 0.180412 -0.16699311 0.05011484
0001a0 48 74 dd 3d a0 c8 39 3c 78 c4 45 3e 42 82 53 be
       0.108131945 0.011339337 0.19313228 -0.20655158
0001b0 1c 4c d7 3d 98 dd 22 be e0 08 3d bc f2 2f 3d be
       0.105125636 -0.15904844 -0.0115377605 -0.18475321
0001c0 d0 7f 3d 3d 90 ff 27 3d 60 bd 7c 3c c6 19 44 be
       0.04626447 0.041015208 0.01542601 -0.19150457
0001d0 86 71 47 3e d2 9d 68 3e a0 89 a5 3d 40 41 86 bb
       0.194769 0.22716454 0.080828905 -0.004097134
0001e0 88 4d 10 3d f6 eb 01 be 00 70 da b9 3e 50 0f 3e
       0.03523019 -0.12687668 -0.00041663647 0.13995454
0001f0 00 d0 41 3e 40 37 b9 3b f0 fc 92 3d 7a b3 6d be
       0.18927002 0.0056523383 0.0717715 -0.23212996
000200 76 d7 2f 3e a6 00 53 3e 56 95 4d be 74 22 32 3e
       0.17172036 0.20605716 -0.20076498 0.17395955
000210 40 be 57 bd d0 3f 4d 3e dc 27 dc bd 04 94 f5 3d
       -0.05267167 0.20043874 -0.1074979 0.11991122
000220 00 cf 99 bd b8 02 bd bd ce 8c 6c be 88 25 90 bd
       -0.07510185 -0.09229034 -0.23100588 -0.070384085
000230 9e d1 7f be 80 5c 71 3e 98 4f 5c 3e c0 7b 21 bd
       -0.24982306 0.23570442 0.21514738 -0.039424658
000240 fa 3d 6c be 68 8a 6a bd 74 fb c6 3d 58 e8 c7 3d
       -0.23070517 -0.0572609 0.097159296 0.09761113
000250 68 4f 12 3d a6 e6 24 3e 10 d7 88 bc 40 aa fd bc
       0.03572026 0.1610361 -0.016704112 -0.03096497
000260 00 2e c8 bc 10 04 f0 bd f4 49 95 3d 0c 3b b6 3d
       -0.024435997 -0.11719525 0.07289496 0.08897981
000270 b0 6e 94 bc 4e 9f 66 3e 68 6e e5 3d be 9f 1d be
       -0.018119186 0.22521707 0.11202699 -0.15392968
000280 f0 e2 e6 3c f4 a3 d6 3d a4 20 0d 3e 9a 4a 5c be
       0.028184384 0.1048049 0.13781983 -0.21512833
000290 a4 d5 63 be 00 06 f4 3d d8 b4 09 3e 24 ca 83 3d
       -0.22249466 0.11915207 0.13447893 0.0643504
0002a0 42 ea 65 be c2 61 64 be 4c 72 92 bd e0 15 32 3e
       -0.22452644 -0.22302917 -0.07150707 0.17391157
0002b0 12 c3 6a 3e 8a c1 13 3e 4c 5e 48 be b8 c6 14 3d
       0.22925976 0.14429298 -0.19567221 0.036322325
0002c0 dc 91 5e be 88 52 fb 3d 68 bb a0 3d 2c 0c 06 be
       -0.21735328 0.12271601 0.07848245 -0.1309058
0002d0 e8 db 26 be 74 2c e1 bd a8 20 15 3d d0 45 33 3d
       -0.16294825 -0.10994807 0.036408097 0.04376775
0002e0 f0 d2 fa bd 16 7f 7b 3e e2 e2 3b be 00 f8 74 39
       -0.122472644 0.24560198 -0.18348268 0.0002336204
0002f0 e8 ec 68 3e 94 c4 3a be 02 fe 05 be c0 a0 e8 3b
       0.22746623 -0.18239051 -0.13085178 0.007099241
000300 64 ac f1 bd 66 04 38 3e d0 1f 3a 3e a0 34 41 3d
       -0.11800459 0.17970428 0.18176198 0.047169328
000310 88 01 3d bd ec 4e 91 3d 64 18 db bd b0 08 ee bc
       -0.04614404 0.07095131 -0.106980115 -0.029056877
000320 82 7d 6f be be dc 46 be 1c 9d af 3d bc 42 88 3d
       -0.23387721 -0.19420144 0.08574888 0.066533536
000330 90 0d 68 3e 56 17 2e 3e 28 ec dc 3d 58 74 1a be
       0.22661424 0.1700109 0.10787231 -0.15083444
000340 60 fb a7 3c c0 a6 43 be 1a 0c 2d 3e 64 56 63 3e
       0.020505607 -0.19106579 0.16899148 0.22200924
000350 b4 e9 39 be ba 0f 3b be 10 df 14 be 00 c7 df bb
       -0.18155557 -0.18267718 -0.14538217 -0.0068291426
000360 28 24 f5 3d 30 17 d9 bc 40 f1 54 be 2e c1 48 3e
       0.11969787 -0.026500314 -0.20795155 0.19604942
000370 92 c1 3a be a0 2c 28 3d 78 cb 1d be e6 4d 5b be
       -0.18237904 0.041058183 -0.15409648 -0.21416435
000380 c8 e3 38 bd f6 d8 0a be 14 98 9f bd d8 b3 0b 3d
       -0.045139104 -0.13559327 -0.077926785 0.03410706
000390 a0 44 96 3d c0 38 60 3d c0 09 17 3e 42 7d 60 be
       0.07337308 0.05474162 0.14749813 -0.21922782
0003a0 ae 20 2f 3e 8a 46 7f be 4c 6d e7 bd 50 36 6d 3e
       0.1710231 -0.24929252 -0.113001436 0.2316525
0003b0 8c 3a aa bd e4 28 d5 3d 64 c8 9e 3d 84 d6 7c 3e
       -0.08311948 0.1040819 0.07753065 0.24691206
0003c0 3c 3a 91 bd 14 92 8a 3d c0 72 94 bb 5a 33 2b 3e
       -0.070911855 0.067661434 -0.004530281 0.16718808
0003d0 90 12 fd 3c f4 e0 d4 bd 18 fc 64 3e c8 3b 2e 3e
       0.03089264 -0.10394469 0.22361791 0.17014992
0003e0 76 7a 5f be 00 22 2b bd be a9 1c 3e fa 95 32 be
       -0.21824059 -0.04178047 0.15299127 -0.17440024
0003f0 00 43 8a 3d f0 66 9b 3d ec 15 20 3e 54 77 c1 3d
       0.067510605 0.07587993 0.15633363 0.09446588

fc1.bias f4 [128]
000000 a8 d1 40 bd 6c 9c eb 3d 10 e8 d5 bd 3e 22 37 3e
       -0.047074944 0.115044445 -0.10444653 0.17884156
000010 20 32 8b bc f4 79 f2 3d c0 c4 a4 3b 38 4d 36 3e
       -0.016991675 0.11839667 0.0050283372 0.17802894
000020 00 23 99 bb a4 93 e8 3d 08 7b 4f 3e e2 9e 6a 3e
       -0.004673362 0.11356285 0.20261776 0.22912171
000030 f0 72 9a 3c c0 47 12 3e 18 db 1c 3e 84 94 11 3e
       0.018853635 0.14285183 0.15317953 0.1421681
000040 e0 28 3e 3e f4 94 34 3e c0 fd 6f 3d 26 bf 40 be
       0.1857028 0.17634946 0.058591604 -0.18822917
000050 90 5c 6a bd 94 a0 31 3e 4c 8a 29 3e fa d1 20 3e
       -0.05721718 0.17346412 0.16556662 0.157051
000060 00 02 c7 3a 88 ce 20 3e d8 ad 47 bd a4 cf b5 bd
       0.0015183091 0.15703785 -0.048749775 -0.08877495
000070 30 36 cf bd e0 2d 93 3c 00 06 25 ba 98 83 9c bd
       -0.10117757 0.01796621 -0.00062951446 -0.07642287
000080 74 30 3d 3e f8 ad 5c be 94 e6 ca bd e0 e0 09 be
       0.18475515 -0.21550739 -0.099072605 -0.13464689
000090 5e 26 01 3e e0 d1 40 3d cc c8 46 be 84 e3 9c bd
       0.12612292 0.047075152 -0.19412535 -0.07660583
0000a0 00 a1 c0 bb 98 b1 b3 3d 08 1d 36 be 40 b9 33 3e
       -0.0058785677 0.08774108 -0.17784512 0.17551136
0000b0 28 28 05 3e a4 2a bb bd 44 84 aa 3d 54 e9 e4 bd
       0.130036 -0.091389924 0.08326009 -0.11177316
0000c0 9c b2 99 bd a2 63 77 3e cc 9f c1 bd 60 ea 3c be
       -0.0750477 0.241591 -0.09454307 -0.18448782
0000d0 48 08 33 be c0 d2 9b 3b a4 73 1f 3e 58 32 2f 3d
       -0.17483628 0.004755348 0.15571457 0.04277262
0000e0 0c 07 61 3e 34 f4 66 3e a0 4b 5d 3d 10 3d 19 be
       0.21975344 0.22554094 0.0540272 -0.149647
0000f0 b0 6d 01 3d 0c 58 2e be ce 9a 0c be 60 88 58 be
       0.031598747 -0.17025775 -0.13730928 -0.21145773
000100 b6 dd 7b be 70 aa 43 bd 36 ef 56 be 00 22 29 3e
       -0.24596295 -0.047769964 -0.20989689 0.16516876
000110 0c 0f 7b 3e 10 32 aa bd 54 90 24 3e dc 7f 3b be
       0.24517459 -0.0831033 0.16070682 -0.18310493
000120 20 b5 ec 3c d8 00 1d be 40 b2 d3 bc 80 c3 a7 bb
       0.02889496 -0.15332353 -0.025841832 -0.005119741
000130 4e 3b 3e be 04 f1 85 bd 58 7c d5 3d 74 cb 29 be
       -0.1857731 -0.06540111 0.10424107 -0.16581517
000140 da 0a 2f be ac 37 56 3e 90 e7 5e 3e 5c 15 ea 3d
       -0.17093983 0.20919675 0.21768022 0.11429855
000150 ec 8c 39 3e a0 8a a7 bc 70 76 cd 3d c2 56 48 3e
       0.18120164 -0.020451844 0.10032356 0.19564345
000160 78 0c 3d bd d0 e2 89 3d b0 c7 60 3d 60 f0 a6 bd
       -0.04615447 0.06732714 0.054877937 -0.08151317
000170 90 64 44 3e 2c c8 39 be 78 b2 4b be 70 99 df bd
       0.19178987 -0.18142766 -0.19892299 -0.10917938
000180 84 f7 ff bd 7c cc 41 be c8 9d 1d be e6 af 41 3e
       -0.12498382 -0.18925661 -0.1539222 0.18914756
000190 38 1f 54 bd aa 83 4d 3e 78 bb 2c be 00 02 a7 bc
       -0.051787585 0.20069757 -0.16868389 -0.020386696
0001a0 64 12 af 3d e0 e7 60 be b2 32 68 3e 6e 69 38 3e
       0.085484296 -0.21963453 0.22675589 0.18008968
0001b0 40 8a f1 bc e4 49 77 3e 32 58 27 be da ef 25 3e
       -0.029484868 0.24149281 -0.16342238 0.16204777
0001c0 38 8e 3c 3e e8 5d 50 3e 0c 9b 34 3e 22 b4 4a be
       0.18413627 0.20348322 0.1763727 -0.19795278
0001d0 ba 9e 72 be dc fe f6 3d da 10 49 be 98 e6 9c 3d
       -0.23693362 0.12060329 -0.19635335 0.0766117
0001e0 20 5c b6 bd a0 ad 8b 3d 20 de 00 bc cc c5 d1 3d
       -0.0890429 0.06820226 -0.007865459 0.10242805
0001f0 f8 55 47 be c6 01 21 be 1c 81 0b 3e 8a a5 0a be
       -0.19466388 -0.15723333 0.1362347 -0.1353971

fc2.weight f4 [128, 128]
000000 db 5b af 3d 9b 7f 3a bd 18 22 b4 bc b8 de 6d bd
       0.08562442 -0.04553185 -0.021988913 -0.05807373
000010 7a e2 37 3d f6 b3 0d 3d 00 93 70 bd ec a2 b2 3c
       0.04489372 0.034595452 -0.05873394 0.021806203
000020 67 a8 a0 3d 30 91 cf 3b 22 01 1a 3d 07 d8 80 bd
       0.0784462 0.0063344464 0.037598737 -0.06291204
000030 5a ca 98 bd 3c 90 53 bd dd 48 80 3d b0 d5 29 bc
       -0.074604705 -0.051651224 0.062638976 -0.0103658885
000040 60 4f 8b bb 30 d8 dc bc 5e 04 17 bd 20 7f ae bb
       -0.0042514056 -0.026958555 -0.0368694 -0.005325213
000050 69 e5 b2 bd 80 9b 68 ba 6b 3c 4b bd b0 eb b9 3b
       -0.08735163 -0.0008873269 -0.049618166 0.005673848
000060 78 dc cd 3c bb 9c b0 3d 4a 3a 11 3d d6 b6 7b 3d
       0.025129542 0.08623644 0.03545598 0.061453663
000070 f7 ce 8e 3d 9d 84 b0 3d 98 bd eb bc 08 57 c4 3c
       0.06973069 0.08619044 -0.028776929 0.023967281
000080 e2 53 93 bd f8 72 e9 3c 6b cd a9 3d 25 8f 5f bd
       -0.07193734 0.028497204 0.082911335 -0.054579873
000090 fe b9 15 3d a0 38 23 3c 7e 3b 3c 3d b0 7b 70 bd
       0.03655433 0.009962231 0.045955174 -0.058711708
0000a0 67 3e 82 3d 40 63 b9 3a 1c 1c 24 bd 47 c5 9f bd
       0.063595586 0.0014143959 -0.04006587 -0.078012995
0000b0 b0 d0 bb 3b 70 45 e9 3c d4 f8 ee 3c 68 8d 2d bd
       0.0057316646 0.028475493 0.029171385 -0.042371184
0000c0 8c 67 f7 3c 4f f1 83 3d c4 68 06 bd e4 49 c6 3c
       0.030200742 0.0644251 -0.032814756 0.024205156
0000d0 5f 5c aa 3d 3b 62 a8 3d 62 d9 2e 3d 25 e1 87 bd
       0.083184 0.08221861 0.04268778 -0.0663474
0000e0 1c e9 96 3c 58 b9 d3 3c 1a 2d 11 3d 38 ba 44 bc
       0.018421702 0.025845215 0.035443403 -0.012007289
0000f0 f2 a6 21 3d 6a 55 4c 3d d8 8e 97 bc ae e8 42 bd
       0.039465852 0.049886145 -0.01850073 -0.047585182
000100 f7 e7 76 bd 0a c2 4f 3d 42 48 07 3d 46 25 50 3d
       -0.060279813 0.05072216 0.033027895 0.050816797
000110 89 b6 24 bd e0 07 5a bc 33 a0 a2 3d 22 f0 7d 3d
       -0.04021314 -0.013307542 0.07940712 0.061996587
000120 0a ab 3a bd fe 6a 48 bd a0 bb 1e 3b 9e 86 7b 3d
       -0.04557327 -0.04893016 0.002422072 0.061407678
000130 69 71 03 bd 40 aa a1 ba 54 82 a4 bc 16 e3 7d 3d
       -0.03209058 -0.0012334064 -0.020081677 0.061984144
000140 a0 bb 43 bc 77 c7 47 bd c0 f2 ef ba 00 4a 1c bd
       -0.011946589 -0.04877421 -0.0018306598 -0.03815651
000150 78 11 2d 3c 0a f2 25 3d 10 00 91 3c 7a 19 39 3d
       0.010563247 0.04051403 0.017700225 0.045190312
000160 28 46 00 3d db 8f a3 3d 5f 97 8d 3d 15 0b 39 bd
       0.031316906 0.07986423 0.06913637 -0.045176584
000170 c2 c6 06 3d b1 bd 1e bd c4 c2 bc bc c2 4a a2 bd
       0.032904394 -0.038755123 -0.02304209 -0.07924415
000180 ab eb b4 3d 3a 26 43 3d a0 69 78 3b 7d 00 2a bd
       0.088340126 0.047643878 0.0037904754 -0.041504372
000190 5e 6a 2a bd 64 05 93 bd a9 40 0c bd 58 8d e4 3c
       -0.041605346 -0.071787626 -0.034241352 0.02789943
0001a0 6e 67 8a bd 7a 77 ec bc 20 fc 48 bd 85 fe 62 bd
       -0.06758009 -0.028865565 -0.04906857 -0.05541851
0001b0 3f c6 b1 bd f9 ee 30 bd 57 8f 51 bd 5e ed 52 bd
       -0.086803906 -0.043196652 -0.05116209 -0.051495902
0001c0 ea 8a 83 bd c5 19 9c bd c9 60 61 bd 42 9a 87 bd
       -0.0642298 -0.07622103 -0.055023942 -0.06621219
0001d0 09 b9 83 3d 28 92 bb bc 50 8f 71 bd 1e 54 4b bd
       0.06431777 -0.022896841 -0.058974564 -0.049640767
0001e0 75 20 b4 3d a0 80 63 bb b6 bc 16 3d eb 09 90 3d
       0.08795253 -0.0034714118 0.036801063 0.07033142
0001f0 28 f3 74 bd d0 29 e2 3c d1 a4 a7 3d b3 46 5d bd
       -0.059802204 0.027607828 0.08185733 -0.054022502
000200 60 39 0f bb fe dd 4e 3d f8 9a e3 bc 02 e7 fc bc
       -0.0021854267 0.050504677 -0.027783856 -0.030871872
000210 80 ce 26 3b 00 04 8b 38 1b 6c 97 bd b0 27 9a bd
       0.0025452673 6.6287816e-05 -0.07393666 -0.07527101
000220 a0 ab 51 bd 58 82 db 3c f7 e7 35 bd 96 35 27 3d
       -0.051189065 0.026795551 -0.044410672 0.040822588
000230 da 73 4f bd 1a 5c 6a 3d e9 5c a2 3d ea 6b 54 3d
       -0.050647594 0.05721674 0.079278775 0.051860727
000240 20 d9 25 bc 82 78 5b 3d 4f c2 82 3d a5 08 2e bd
       -0.010122567 0.053581722 0.06384718 -0.042488713
000250 6c 82 a7 bc 9e 99 17 3d df 82 ad bd a6 5f 17 bd
       -0.020447932 0.037011735 -0.08472227 -0.03695645
000260 14 37 9d bc fe 1a 13 3d 04 2c b2 bd 09 59 62 bd
       -0.019191302 0.035914414 -0.086998016 -0.05526069
000270 7a 21 77 3d 92 38 92 bd 10 aa e5 3b 30 5b e0 bc
       0.06033466 -0.07139696 0.0070087984 -0.027387232
000280 f7 05 a3 3d 40 af 2e 3b 90 33 4b 3c 38 85 84 bc
       0.07960122 0.002665475 0.01240243 -0.016176805
000290 56 22 03 bd f0 76 5b 3c 29 56 a7 3d 29 d8 a1 bd
       -0.032015167 0.013395056 0.081707306 -0.079025574
0002a0 33 de 95 bd 1f 8f 48 bd b8 2d 90 3c bf 94 80 3d
       -0.07317772 -0.048964616 0.017599925 0.06278371
0002b0 f8 00 33 3c 20 2c 11 bb 49 71 a5 3d c8 71 4b bc
       0.010925524 -0.0022151545 0.08078248 -0.012417264
0002c0 18 24 54 3c 0a 7a 12 3d eb be a7 3d 5c b5 d4 3c
       0.012948059 0.035760917 0.081907116 0.025965385
0002d0 4a a4 6a bd 56 8b 74 3d 55 a3 88 3d 00 8d 01 3c
       -0.057285585 0.059703194 0.06671778 0.007907152
0002e0 90 84 2e bc 14 c1 88 bc 6d d9 56 bd a8 45 2a bc
       -0.010651723 -0.01669363 -0.052453447 -0.010392584
0002f0 34 94 70 bd b2 3a 81 bd 4c f1 a6 3c 80 f9 82 bc
       -0.058735088 -0.06310023 0.020378731 -0.015988111
000300 a1 58 b2 bd 59 0b a4 3d c0 65 9c bc 80 ea 73 ba
       -0.08708311 0.08009977 -0.019091487 -0.00093046576
000310 d8 d9 19 bc 78 00 97 3c 40 0b e7 3a 8a ef 36 bd
       -0.009390317 0.01843284 0.0017627254 -0.044662036
000320 90 ce ac 3c 48 f0 ec bc 3b 3a ae 3d f4 75 ec bc
       0.02109459 -0.028923169 0.085072 -0.028864838
000330 ae 33 1d bd ef 66 81 3d e6 92 67 3d 0e b4 55 bd
       -0.038379364 0.06318461 0.056536578 -0.052173667
000340 a6 9e 57 3d 9a b4 df bc 7d fe 3a bd 5d d8 8a 3d
       0.052641533 -0.027307797 -0.045652855 0.06779549
000350 42 f0 40 3d 8d 09 a2 bd 40 84 f2 ba 42 97 1a 3d
       0.047104128 -0.07911978 -0.0018502548 0.037741907
000360 82 72 1f 3d 89 6b 09 bd 38 ab ff 3c 92 e2 10 3d
       0.038927563 -0.03354982 0.031209573 0.035372324
000370 48 91 6f 3c 5e 15 63 bd 20 eb c2 bc 88 4f 6d bc
       0.01462204 -0.0554403 -0.023793757 -0.014484294
000380 cf 03 1a bd dd 11 9e bd 18 8d bc 3c 2c 7e 0b 3d
       -0.03760129 -0.07718251 0.023016497 0.034055874
000390 7a 03 90 bd 46 55 23 3d a0 20 13 bc c6 41 47 3d
       -0.07031913 0.039876245 -0.008979946 0.04864671
0003a0 a6 59 22 bd 26 43 5b 3d 2e e0 79 3d 4f 47 98 3d
       -0.039636277 0.053530835 0.06100481 0.07435476
0003b0 18 08 18 bc ca 9d 1d bd 08 ce 44 bc 48 89 a7 3c
       -0.009279273 -0.038480558 -0.012012012 0.020451203
0003c0 7f d0 05 bd b6 d5 4d 3d ef a5 9f 3d 41 83 b0 3d
       -0.03266954 0.05025264 0.07795321 0.08618785
0003d0 e0 79 58 3b 0f 5b b0 bd d0 cd 9c 3c 4e 63 4d 3d
       0.0033031628 -0.08611118 0.019141108 0.050143532
0003e0 bc df 9b 3c 98 f8 d7 3c 20 62 cb bc d3 21 8d bd
       0.019027583 0.026363656 -0.024827063 -0.06891217
0003f0 e2 0b 5c 3d a0 7d b5 3c 98 44 22 bc bc e2 a1 bd
       0.05372227 0.02215463 -0.009904049 -0.07904574

fc2.bias f4 [128]
000000 61 5d 91 3d ba 9f 79 bd 60 01 31 3b 14 bf a5 bd
       0.07097889 -0.060943343 0.0027008876 -0.08093086
000010 d4 a9 a5 bd b0 f2 c7 bc 6a cd 38 3d 68 ec 39 3c
       -0.08089033 -0.024407715 0.045117773 0.011347868
000020 77 2e 8e bd 00 01 b5 b9 20 f5 e2 3b 70 47 90 3b
       -0.06942456 -0.00034523755 0.006926194 0.0044030473
000030 47 18 95 3d 02 8e 20 3d a8 eb cd 3c 7c ff ba 3c
       0.07280021 0.03919793 0.025136784 0.022826903
000040 ae aa 26 3d ec bd d0 3c 5a 31 1b 3d de 82 54 3d
       0.040690117 0.025481187 0.037888862 0.051882617
000050 3f de ac 3d 6f 9e 44 bd 8a d3 a0 bd b8 f3 b3 3c
       0.084408276 -0.048002657 -0.07852848 0.0219668
000060 28 6c 2c 3c 53 ff a8 3d 03 ac 16 bd 31 a8 aa 3d
       0.010523833 0.08251824 -0.036785137 0.08332861
000070 fb 9d aa 3d e0 07 1b 3c 4a 9c 84 bd 90 13 57 3c
       0.08330914 0.009462327 -0.06475122 0.013127223
000080 fe 7b da bc 25 8e 1b bd 90 24 36 3c ef 5b 81 3d
       -0.026670452 -0.037977356 0.011117116 0.06316363
000090 1a 1d 3e 3d 0f 2d 8e 3d 78 13 3b bd b3 63 b4 3d
       0.046414472 0.06942188 -0.045672864 0.088080786
0000a0 76 cc 52 3d 43 f7 a2 bd 50 22 ec bb 37 81 a1 3d
       0.05146452 -0.07957318 -0.007206239 0.07885974
0000b0 10 33 30 bc 66 06 68 3d 4f f4 b2 bd 7a ea 1c 3d
       -0.010754362 0.056646727 -0.087380044 0.03830955
0000c0 06 ee 01 3d 14 76 87 bc d4 19 d3 bc 88 9a d0 3c
       0.031721137 -0.016535796 -0.025769152 0.025464311
0000d0 f1 06 83 3d 3b 27 a7 3d 7e 8c 84 bd 80 ba d4 3a
       0.06397808 0.081617795 -0.06472109 0.0016229898
0000e0 cf cd 92 3d 96 09 66 bd 80 b0 fa bb fa 4f 4d 3d
       0.07168161 -0.056161486 -0.007650435 0.0501251
0000f0 30 ef ad bd 60 fe 1b bb 7c 88 4c bd 91 55 af 3d
       -0.08492887 -0.0023802742 -0.04993485 0.08561242
000100 51 70 ad bd b8 bf b1 bd f2 88 1c 3d 95 26 97 3d
       -0.08468688 -0.086791456 0.03821654 0.07380406
000110 40 0e 79 bb 80 5b 57 bb b9 ca 8c bd 5e b6 b0 bd
       -0.0038002878 -0.0032860935 -0.06874604 -0.08628534
000120 b4 68 80 3c 18 a4 7e bd b1 50 93 3d b7 38 8d 3d
       0.015674926 -0.06216821 0.07193125 0.06895583
000130 97 25 9e bd 4a cf 29 bd 3e 32 3d 3d ef ce a6 3d
       -0.077220134 -0.041457452 0.046190493 0.08144938
000140 00 84 b3 39 50 b8 48 bd 17 63 9d 3d 22 4f 68 3d
       0.00034239888 -0.0490039 0.076849155 0.056716092
000150 d0 a4 a2 bb f4 a3 5a bd fc c5 ba 3c 70 5d 01 bc
       -0.004963495 -0.053379014 0.022799484 -0.007895812
000160 f8 d0 5a 3c db 6b 95 3d fe 28 83 bd f2 ef 1a 3d
       0.013355486 0.072959624 -0.06404303 0.037826486
000170 a5 25 8e 3d 02 67 75 3d ba 7e 0b bd 6e f1 f1 bc
       0.06940774 0.05991269 -0.034056403 -0.029534068
000180 75 3d 8c bd 7a f7 e9 bc 65 37 8e 3d 58 b2 9c 3c
       -0.068476595 -0.028560389 0.069441594 0.01912801
000190 80 17 5a bc 50 f4 f3 bc e0 2d cb 3c 96 54 55 bd
       -0.013311267 -0.029779583 0.024802148 -0.05208262
0001a0 7c b3 d8 3c 32 a0 9f bd 90 20 b7 bc 80 ec 1c bc
       0.026452772 -0.07794227 -0.022354394 -0.00957787
0001b0 d5 9b 91 3d 66 6a 6b bd c0 77 4a 3b 41 b5 13 bd
       0.07109801 -0.057474516 0.003089413 -0.03606153
0001c0 0b 14 a0 bd c8 e7 39 3c b4 9c 9a 3c c2 72 0f 3d
       -0.07816323 0.011346765 0.01887355 0.03502155
0001d0 59 6d 99 3d b8 b3 00 bc d4 f1 df 3c cb 9b 90 3d
       0.074915595 -0.007855348 0.027336992 0.07060965
0001e0 bb 12 a5 3d c4 ab 3a bd e2 e4 1a 3d e9 a3 8f bd
       0.08060213 -0.045573965 0.037815936 -0.07013685
0001f0 6e e7 f2 bc 1a 95 7c bd 4f 0d 92 bd ff b4 8f bd
       -0.02965137 -0.06166563 -0.07131445 -0.07016944

fc3.weight f4 [2, 128]
000000 a6 24 1f 3d 2d f0 91 3d 90 31 e7 bc a5 ae b4 bd
       0.03885331 0.07125888 -0.028221875 -0.08822373
000010 70 58 4d bd e1 f0 0f bd 31 7a af 3d 60 f7 12 bc
       -0.05013317 -0.03514183 0.08568228 -0.008970112
000020 7d 2b 17 bd b3 e4 8a 3d f4 0a bf 3c 10 67 cd 3c
       -0.036906708 0.06781902 0.023320653 0.025073558
000030 de 53 29 3d 36 1b 03 bd 40 cb 90 3b 5d 0f 21 bd
       0.041339748 -0.032008372 0.0044187605 -0.039321292
000040 60 8c f6 bb 31 2d ac bd e7 b5 94 3d ca 2f 53 3d
       -0.007524058 -0.08407057 0.072612576 0.051559247
000050 f2 c7 21 3d 92 2a 29 3d 61 a0 80 3d 29 0b 0d bd
       0.039497323 0.041300364 0.0628059 -0.03443447
000060 c6 84 38 3d b8 15 92 bd 11 15 86 3d 70 34 c9 3c
       0.045048498 -0.07133049 0.06546987 0.024561137
000070 3c d4 91 3c 23 06 1f bd 1a 1f 20 3d 46 27 fb bc
       0.017801397 -0.03882421 0.03909216 -0.030658375
000080 fd 85 06 bd f0 2d 80 bc c2 b0 96 bd 08 45 f8 3c
       -0.032842625 -0.015646905 -0.073579326 0.030306354
000090 8c 6a 3a bd 40 c2 d3 ba b9 6d 91 3d aa 76 ad bd
       -0.045511767 -0.0016155913 0.07101006 -0.08469899
0000a0 66 7e 46 3d c6 ab 0d 3d e7 29 ae 3d ee 01 87 bd
       0.048460387 0.034587644 0.08504086 -0.06592165
0000b0 14 d6 b6 3c b2 94 24 3d 0d 2e 22 bd aa b7 01 3d
       0.022318877 0.04018087 -0.0395947 0.031669296
0000c0 aa c0 39 bd 54 5f ce 3c 20 a3 07 bb c8 8b 90 3c
       -0.045349754 0.02519194 -0.0020696595 0.017644778
0000d0 fa 74 31 3d 40 e8 92 bd 02 c0 70 3d 60 5e 2e 3c
       0.04332445 -0.071732044 0.058776863 0.010642618
0000e0 0f 2c 8a 3d 61 5b 59 bd 7d a7 b3 bd d8 06 37 bc
       0.06746685 -0.05306566 -0.0877218 -0.011171065
0000f0 58 aa 01 3d 70 f0 01 3c a0 7b 42 3b f0 a8 aa 3b
       0.031656593 0.00793086 0.0029675737 0.005208127
000100 ca b3 12 bd ba d8 2a 3d f7 1c 21 bd 28 4a 5d 3c
       -0.03581599 0.041710593 -0.039334264 0.01350645
000110 48 9c 93 bd 44 3f 70 bd 79 57 8d 3d 86 a6 59 3d
       -0.07207543 -0.058654085 0.0690145 0.053137325
000120 68 bb 68 3c 34 54 e4 3c 35 6a 29 bd c2 8c 5c 3d
       0.014204837 0.027872182 -0.041361053 0.053845175
000130 80 d5 aa 3b 79 61 43 bd cb bf 28 bd 71 fb b2 3d
       0.0052134395 -0.04770038 -0.041198533 0.08739365
000140 61 a6 a9 3d a4 f2 bb bc 50 71 37 bd cc 0e 92 3c
       0.082836874 -0.022942849 -0.044785798 0.017829321
000150 0c 1d b7 bc 8a 8f ec bc 65 42 91 3d a0 4e 9d 3b
       -0.022352718 -0.028877039 0.07092742 0.0048006326
000160 c0 cd 34 bd 1d b1 a4 3d 4d f6 3e bd b8 81 33 3c
       -0.04414153 0.08041594 -0.04662161 0.01095622
000170 a9 15 85 3d ac d7 da 3c 33 1a a8 bd a0 f7 ce bb
       0.06498272 0.026714168 -0.08208122 -0.0063161403
000180 dc eb 80 3c 75 48 ad 3d e0 f2 b8 3b 88 3d b6 bc
       0.015737467 0.08461086 0.0056441873 -0.022246137
000190 5f d0 88 3d 4a a8 5e 3d 1c dc f8 3c fe 9e ef bc
       0.06680369 0.05435971 0.030378394 -0.029250618
0001a0 16 a3 9a bd 39 61 80 3d 6a c9 45 3d 4d a2 53 bd
       -0.075506374 0.06268544 0.048287787 -0.051668454
0001b0 56 a0 9e bd 5d 47 8d 3d 86 38 31 3d f8 8f 9f bc
       -0.077454254 0.06898377 0.043266796 -0.01947783
0001c0 b0 fb 7e bd 71 ac 84 bd ba 38 b4 bd 80 28 f9 3c
       -0.062251747 -0.06478203 -0.08799882 0.03041482
0001d0 40 51 19 3b 40 cb 94 3c 86 9f 69 3d d6 e5 71 bd
       0.0023394376 0.018163323 0.0570369 -0.05905708
0001e0 70 9d 0e 3d 16 ca 85 bd 72 bb 2b 3d 70 e4 51 bc
       0.034818113 -0.065326855 0.04192681 -0.012810811
0001f0 d3 4f 8f 3d 25 b9 9c bd bd 10 9d bd f8 5b 93 bc
       0.06997647 -0.07652501 -0.07669208 -0.01798819
000200 3f 77 a5 3d 15 67 87 bd b4 fa 83 bc cb b0 a9 3d
       0.08079385 -0.06611458 -0.016110756 0.08285674
000210 98 d3 fd 3c c1 7a b0 3d 89 86 88 bd e2 83 69 3d
       0.030984685 0.086171634 -0.066662855 0.05701054
000220 34 c3 b1 bc a0 0c 95 bb 50 c2 1d 3c 22 17 6d 3d
       -0.021699525 -0.004548624 0.009628847 0.05788339
000230 78 fb 2d bc 81 84 a6 3d 06 1b 67 3d 83 13 96 3d
       -0.010619037 0.08130742 0.056422256 0.0732794
000240 d6 c5 08 3d 58 c2 63 3c 9f 30 ac bd a0 5c 8c bd
       0.033391796 0.013901316 -0.08407711 -0.06853604
000250 40 2f f7 ba 4b 14 93 bd 08 06 ef 3c 63 5c 89 3d
       -0.0018858686 -0.07181605 0.02917768 0.067070745
000260 da 45 5b 3d 48 c4 96 bc 90 c9 8d 3c 4c 95 b3 3c
       0.053533413 -0.018404141 0.017308027 0.021921776
000270 f0 18 3d 3c 16 e9 01 bd 67 75 9b 3d ac f8 f1 3c
       0.01154159 -0.03171643 0.07590752 0.029537521
000280 38 f7 20 3c 72 26 9c bd 2c 40 f0 3c fc ce 0d bd
       0.009824567 -0.0762452 0.029327475 -0.034621224
000290 4a bb 34 3d b8 d3 6e bd b1 b4 ab bd de 5b 87 bd
       0.044123925 -0.05830738 -0.083840735 -0.06609319
0002a0 10 3d e3 3b 3d ad 3e bd 84 52 9e bc 59 df 98 bd
       0.0069347695 -0.04655193 -0.019326456 -0.07464475
0002b0 e0 14 85 3c a7 d8 ab 3d 99 66 9a 3d 6d 98 8d bd
       0.016245306 0.083909325 0.075391 -0.069138385
0002c0 22 94 7c 3d d0 47 98 bd 98 54 af 3c db a8 a3 bd
       0.061664708 -0.07435572 0.021402642 -0.07991191
0002d0 42 fd b2 bd 17 3e b0 3d ac 42 86 bd 20 c2 ad 3c
       -0.08739711 0.08605593 -0.065556854 0.02121073
0002e0 16 92 47 3d e8 f7 7f bc 0e 5b d4 bc 07 2b 90 3d
       0.048723303 -0.01562307 -0.025922325 0.07039457
0002f0 1c 49 88 3c f9 30 a4 bd 2c 15 a8 3c 82 b3 6d 3d
       0.016636424 -0.08017153 0.020517908 0.05803252
000300 73 3e a6 3d 10 9b 0f bc ce f3 05 bd 5a 65 ac bd
       0.0811738 -0.008764997 -0.032703213 -0.08417769
000310 c0 34 b3 3a 7c 0b 9c bd e0 6a 7e bd 9f 92 85 3d
       0.0013672337 -0.07619378 -0.062113643 0.065221064
000320 b2 1d 63 3d 02 33 03 3d 6e 07 b2 bd 82 cd a4 bd
       0.05544824 0.032031067 -0.08692823 -0.0804701
000330 ba 90 42 3d 40 e9 f6 3b 00 14 75 b9 b9 62 93 3d
       0.047501303 0.00753513 -0.00023372471 0.07196564
000340 60 1e 6b bc 1e 46 91 bd ea 1b 21 3d 50 1c 6c bc
       -0.014350504 -0.07093452 0.03933326 -0.014411047
000350 db d1 0f bd 58 90 16 bc b0 ea 9c bd 50 63 d4 3c
       -0.035112243 -0.009189688 -0.076619506 0.025926262
000360 b6 01 34 3d 10 ba c2 bb 9d 60 90 bd 88 7d 0c bc
       0.043946944 -0.0059425905 -0.070496775 -0.008574851
000370 52 51 b2 bd 21 47 46 bd 02 6d 4e 3d d0 d0 5c bd
       -0.08706917 -0.048407678 0.050396927 -0.053910077
000380 ff 6e 7c bd b0 82 64 bc bd c2 6a bd 31 0c 8a 3d
       -0.06162929 -0.013947174 -0.057314623 0.067406066
000390 12 b6 67 bd f8 9b 5d bc 60 31 2c bb 00 e4 76 b9
       -0.05657012 -0.013525955 -0.0026274547 -0.00023545325
0003a0 1c 30 b5 3c fd aa 84 3d 8c 81 9a bc bb 40 62 bd
       0.022117667 0.06477926 -0.0188606 -0.055237513
0003b0 80 c2 65 ba 0b 3f 61 bd 2e 97 7d 3d 23 4c 82 3d
       -0.00087646395 -0.054991763 0.061911754 0.06362178
0003c0 03 de a2 3d e2 7c 6d 3d a0 83 f5 3c 4d 55 a3 3d
       0.079525016 0.057980426 0.02996999 0.07975254
0003d0 73 0d 8c 3d 31 90 94 3d 70 e7 30 bc ff ab a3 3d
       0.06838503 0.07254065 -0.0107973665 0.0799179
0003e0 65 c5 8e bd 0b 4c 94 bd 32 22 33 3d 00 2d de 3c
       -0.06971244 -0.072410665 0.043733783 0.027121067
0003f0 05 e6 af 3d 32 5a 3a 3d 66 4e 21 3d 6e f0 6f 3d
       0.085887946 0.045496173 0.039381407 0.0585789

fc3.bias f4 [2]
000000 f0 09 d7 3c 46 0b 2e bd
       0.026249856 -0.04249122
