customTrainer/results/AgentBall05/RollerBall.onnx (onnx, 76482 bytes, 6 tensors)

fc1.weight f4 [128, 16]
-0.13748345 0.036235034 0.082907885 -0.16831619 -0.024311423 0.23660368 0.19863945 -0.24991965
-0.13771957 -0.20793536 -0.18372488 0.2038778 0.1747607 0.15799743 0.06306541 0.095062226
0.18485558 0.17687955 0.12584704 0.17413107 -0.21882194 -0.19659972 -0.17073157 -0.11464319
-0.23810235 -0.005648613 0.06061849 -0.025862545 0.23563638 0.15666065 0.18106285 -0.11269191
0.17790356 -0.21955046 0.02793631 0.08172932 -0.18793178 -0.10749695 -0.0150946975 0.17068592
0.025340825 -0.11441913 0.18663871 0.20791045 0.24511755 0.17675403 -0.021772534 0.03925565
0.037919343 0.10760802 0.12706682 -0.03923446 0.16976991 0.23953146 -0.24883342 0.028016388
0.2356343 0.147928 -0.20324504 0.15902525 -0.23433974 0.08146337 0.22195464 -0.18634793
-0.19942713 0.22759825 0.20768505 -0.23748189 -0.010217458 -0.0031934083 -0.036374927 0.11209825
0.13318884 -0.22591993 0.0986284 0.02193749 -0.12350306 -0.011553496 0.23564252 -0.15590751
-0.2358194 -0.034460217 0.23797026 -0.14609525 -0.021820903 0.0070793927 -0.07612106 -0.08628479
0.0018506348 0.06682047 -0.24911353 0.020445704 -0.08271366 0.18604368 -0.045938253 -0.16024029
0.01698482 0.16616198 -0.19975576 0.1161426 -0.09791553 -0.14257857 -0.04835239 0.18207413
0.014440626 -0.18270722 0.013704628 0.21383065 -0.009931892 -0.05266002 -0.122270286 0.19876003
0.16780615 -0.039505184 -0.14750722 -0.19773999 -0.22691861 0.1373578 0.19624627 -0.20648447
-0.006838113 0.10653493 -0.16748053 0.16943616 0.16459015 0.013688028 0.16522783 0.00064879656
-0.09843284 0.089922935 -0.23604533 0.13394877 -0.13094532 -0.16063589 -0.07848218 -0.010628313
0.092880875 0.06353387 -0.06344774 0.19034389 0.042000413 0.21699649 0.21450078 -0.008529007
-0.082434684 -0.16796318 -0.21666962 0.18790486 -0.15381348 -0.2160052 -0.085793555 -0.06240192
0.20908728 -0.14913037 -0.11124018 -0.23241463 -0.14421237 -0.14721614 -0.23764026 -0.13869783
-0.13125446 -0.14525363 0.0007413924 0.037561715 0.06200275 0.07802057 -0.15560833 0.023345739
-0.049849838 -0.1666097 0.00013321638 0.06326464 -0.0391908 -0.15118235 -0.14575669 0.11040363
0.22151753 -0.0018895268 0.09113878 -0.19840184 0.028539896 0.20356894 -0.14220041 0.22852266
0.1669322 -0.19663873 0.08576906 -0.11781266 -0.06883484 -0.104243755 0.17601186 0.08844131
-0.22108346 -0.017014623 0.1168738 0.12094721 0.02571866 -0.24263826 0.081977844 -0.05431825
0.053635776 -0.13769925 0.04162562 0.16419992 -0.18852943 0.121791065 0.13054597 0.15951249
-0.042205155 -0.08835593 0.23743537 0.029356897 0.03650838 -0.10409936 -0.028897732 -0.05447966
-0.14967299 0.06878936 -0.24498707 0.03382224 0.18524802 0.059205353 0.053687662 -0.12284219
-0.084864944 -0.032201648 0.23675567 0.12477264 -0.18627605 0.23467025 -0.08771345 -0.14730173
0.15623844 -0.045574367 0.11298326 -0.07645461 0.20435515 -0.08523098 -0.0781638 0.021076888
0.14435786 -0.14205638 0.23298335 -0.041154563 -0.14155269 0.0830313 -0.16955373 0.035517365
-0.124953866 0.022374123 -0.017653435 0.044117242 0.00912869 0.23684323 -0.050193965 0.12409568
00000000: 76c8 0cbe 306b 143d 9ccb a93d 145b 2cbe
00000010: c028 c7bc 3c48 723e 2468 4b3e f0ea 7fbe
00000020: 5c06 0dbe 02ed 54be 6022 3cbe 58c5 503e
00000030: 78f4 323e 14ca 213e 7028 813d fcaf c23d
00000040: c84a 3d3e ea1f 353e 0cde 003e 6a4f 323e
00000050: dc12 60be 7051 49be 42d4 2ebe 0cca eabd
00000060: 1ad1 73be 0018 b9bb 184b 783d b0dd d3bc
00000070: aa4a 713e a66b 203e 8a68 393e 04cb e6bd
00000080: 5a2c 363e d6d1 60be b0da e43c b461 a73d
00000090: 3071 40be 5c27 dcbd c04f 77bc 4ac8 2e3e
000000a0: 9097 cf3c 9454 eabd 381e 3f3e 7ae6 543e
000000b0: 1800 7b3e 02ff 343e 505c b2bc 88ca 203d
000000c0: 5051 1b3d 9861 dc3d ce1d 023e 50b4 20bd
000000d0: 2ad8 2d3e bc47 753e 30ce 7ebe a082 e53c
000000e0: 1e4a 713e 707a 173e 781f 50be 84d7 223e
000000f0: c2f6 6fbe 44d6 a63d 1448 633e fed1 3ebe
00000100: a036 4cbe 840f 693e 64ab 543e 742e 73be
00000110: 2067 27bc 8048 51bb e0fd 14bd c493 e53d
00000120: a862 083e 8e57 67be b0fd c93d 40b6 b33c
00000130: 2cef fcbd e04a 3dbc 464c 713e 38a6 1fbe
00000140: a47a 71be 2826 0dbd 7aae 733e fe99 15be
00000150: c0c1 b2bc 40fa e73b 5ce5 9bbd 14b6 b0bd
00000160: 0091 f23a 2cd9 883d 9e17 7fbe c07d a73c
00000170: c865 a9bd 3c82 3e3e c029 3cbd 0816 24be
00000180: c023 8b3c 5e26 2a3e c68c 4cbe 2cdc ed3d
00000190: f087 c8bd 1e00 12be 280d 46bd a471 3a3e
000001a0: 6098 6c3c 9a17 3bbe 6089 603c 6cf6 5a3e
000001b0: 60b9 22bc 08b2 57bd d868 fabd c087 4b3e
000001c0: 60d5 2b3e 30d0 21bd 220c 17be 5a7c 4abe
000001d0: 5a5d 68be 86a7 0c3e c8f4 483e aa70 53be
000001e0: 4012 e0bb fc2e da3d 0480 2bbe ac80 2d3e
000001f0: 528a 283e c043 603c 7c31 293e 0014 2a3a
00000200: 2897 c9bd 8429 b83d deb5 71be de29 093e
00000210: 8816 06be bc7d 24be 44bb a0bd 6022 2ebc
00000220: 5438 be3d 0c1e 823d e4f0 81bd 82e9 423e
00000230: a008 2c3d 5434 5e3e 18a6 5b3e 40bd 0bbc
00000240: 84d3 a8bd 8afe 2bbe a4de 5dbe 226a 403e
00000250: 4881 1dbe 7830 5dbe 88b4 afbd 2899 7fbd
00000260: fa1a 563e a2b5 18be e4d1 e3bd 1afe 6dbe
00000270: 68ac 13be d4bf 16be f857 73be ce06 0ebe
00000280: 9267 06be 5ebd 14be 005a 423a 50da 193d
00000290: 98f6 7d3d 40c9 9f3d ca57 1fbe 903f bf3c
000002a0: 582f 4cbd bc9b 2abe 00b0 0b39 e490 813d
000002b0: 8886 20bd 8ccf 1abe 3e41 15be 4c1b e23d
000002c0: 7ed5 623e 00aa f7ba f8a6 ba3d da29 4bbe
000002d0: 80cc e93c 6074 503e fc9c 11be d801 6a3e
000002e0: 46f0 2a3e aa5b 49be b0a7 af3d c447 f1bd
000002f0: 48f9 8cbd c07d d5bd 743c 343e b820 b53d
00000300: b463 62be 4062 8bbc 885b ef3d 2cb3 f73d
00000310: f0af d23c 2a76 78be 00e4 a73d d07c 5ebd
00000320: 30b1 5b3d 0801 0dbe a07f 2a3d 0624 283e
00000330: dc0d 41be 986d f93d d8ad 053e 3e57 233e
00000340: 50df 2cbd f4f3 b4bd 4222 733e e07d f03c
00000350: d089 153d 0c32 d5bd f0ba ecbc 1026 5fbd
00000360: e043 19be 70e1 8c3d e4dd 7abe 3089 0a3d
00000370: a8b1 3d3e 5081 723d 98e7 5b3d b094 fbbd
00000380: accd adbd e0e5 03bd 1470 723e cc88 ff3d
00000390: 26bf 3ebe 664d 703e 1ca3 b3bd 44d6 16be
000003a0: f8fc 1f3e 30ac 3abd c463 e73d 3c94 9cbd
000003b0: 7a42 513e 948d aebd 5814 a0bd 70a9 ac3c
000003c0: 8cd2 133e 3a77 11be 3093 6e3e b091 28bd
000003d0: 30f3 10be 500c aa3d 7e9f 2dbe a87a 113d
000003e0: d0e7 ffbd f049 b73c f09d 90bc 48b4 343d
000003f0: 8090 153c 0887 723e 3098 4dbd e025 fe3d

fc1.bias f4 [128]
-0.03958252 -0.14212874 0.080556184 -0.10953033 -0.008984029 -0.10810739 -0.07988545 0.16199562
-0.1433196 -0.009309679 -0.12458289 0.23163855 0.14740962 -0.14681289 -0.024207085 0.20974779
-0.14562008 -0.16523239 0.11879265 -0.23249167 0.18947002 -0.034587562 0.03991744 -0.13237801
-0.04316041 0.17409474 0.17112485 0.013164282 -0.06499013 0.029580712 -0.051255316 -0.10526791
-0.053339988 -0.02141288 0.06027651 0.12711966 0.120275915 -0.24755225 -0.24851835 -0.040026575
0.012313694 -0.11201492 0.15195182 0.1563895 -0.12979662 0.22888678 0.18237963 0.11729586
-0.121047914 -0.23879477 0.14067593 0.034289658 0.0021113753 0.17847922 -0.21980667 -0.047867715
0.20960695 0.035649806 -0.20121798 0.012927741 -0.17494676 -0.06172815 0.13906083 -0.20093083
-0.20859641 -0.060288966 -0.19255131 0.14167523 0.15645206 -0.1631903 -0.16599387 0.1293211
-0.036917806 0.11901364 -0.11209956 -0.23241672 0.05049491 -0.22999415 0.008242816 0.017676443
0.09872627 -0.22360018 0.15298775 0.1101338 -0.03349182 0.10440722 0.19325134 -0.23504314
0.13426626 0.10121545 0.11632839 -0.0840438 -0.10512701 -0.11840713 -0.18392378 -0.20217368
0.123797655 -0.14806193 0.24927893 -0.054893017 0.1269035 0.1010679 0.19777516 0.19409367
0.038357466 0.2335999 -0.08001995 0.020920128 -0.023432344 0.20633867 0.046479106 0.20971248
-0.21573797 -0.08174983 0.10786763 0.09705123 0.07938883 0.059155703 0.09533426 0.15547106
0.06662223 0.0043874383 -0.017328352 0.06789479 -0.09098509 -0.055960476 -0.048156023 -0.14521456
00000000: 4821 22bd 328a 11be a4fa a43d 7051 e0bd
00000010: c031 13bc 6867 ddbd fc9a a3bd 2ee2 253e
00000020: 60c2 12be a087 18bc 5025 ffbd a832 6d3e
00000030: 8cf2 163e 1e56 16be f04d c6bc 20c8 563e
00000040: 6e1d 15be ae32 29be 9049 f33d 4c12 6ebe
00000050: 6e04 423e b0ab 0dbd 7880 233d 1a8e 07be
00000060: f8c8 30bd e445 323e 5a3b 2f3e 00af 573c
00000070: 8c19 85bd 4053 f23c 18f1 51bd b496 d7bd
00000080: 087b 5abd 106a afbc 80e4 763d a82b 023e
00000090: 3853 f63d 567e 7dbe 987b 7ebe e8f2 23bd
000000a0: 60bf 493c 1468 e5bd 4299 1b3e 9224 203e
000000b0: 68e9 04be 4c61 6a3e bac1 3a3e d038 f03d
000000c0: f8e7 f7bd 9e86 74be 5a0d 103e 5073 0c3d
000000d0: 005f 0a3b 42c3 363e 0015 61be f010 44bd
000000e0: 34a3 563e 8805 123d 160c 4ebe e0ce 533c
000000f0: 3e25 33be a8d6 7cbd f665 0e3e d0c0 4dbe
00000100: 4c9a 55be 90f1 76bd 2c2c 45be 5013 113e
00000110: f834 203e 5c1b 27be 4cfa 29be c06c 043e
00000120: 2037 17bd 6cbd f33d 7494 e5bd a6fe 6dbe
00000130: c0d3 4e3d 9683 6bbe e00c 073c 30ce 903c
00000140: 0031 ca3d 72f7 64be d2a8 1c3e d48d e13d
00000150: b82e 09bd 74d3 d53d aee3 453e 26af 70be
00000160: 187d 093e 0c4a cf3d 943d ee3d 281f acbd
00000170: d44c d7bd 707f f2bd 8456 3cbe 9e06 4fbe
00000180: a089 fd3d 8c9d 17be fa42 7f3e 80d7 60bd
00000190: fef2 013e b0fc ce3d 9285 4a3e 7ec0 463e
000001a0: b81c 1d3d d034 6f3e 80e1 a3bd b060 ab3c
000001b0: 30f5 bfbc 724a 533e e060 3e3d debe 563e
000001c0: 6aea 5cbe 746c a7bd b4e9 dc3d ccc2 c63d
000001d0: 9c96 a23d 404d 723d 9c3e c33d ce33 1f3e
000001e0: 3c71 883d 80c4 8f3b 30f4 8dbc 6c0c 8b3d
000001f0: 6456 babd d036 65bd 403f 45bd 20b3 14be

fc2.weight f4 [128, 128]
0.042083792 0.045423783 0.070650764 -0.0763833 0.0788955 0.076648705 -0.034201797 0.06100627
-0.028420672 0.08140316 0.0054195374 0.067761086 0.07708662 0.0487734 -0.029126663 -0.0155762285
0.005000241 0.0130330995 -0.058203943 -0.017037325 0.05674807 0.024925753 0.028612062 -0.06670912
-0.0071667656 -0.015798219 -0.037643816 -0.017125107 -0.026303153 0.0024481341 0.06397053 -0.010361001
-0.024930619 0.024578981 -0.051583264 0.07155327 -0.04888261 0.071246736 0.02491986 -0.06373795
0.06652213 0.008692943 0.01941333 -0.05502254 -0.024098799 -0.063248836 -0.027055338 -0.00891076
-0.081092305 0.057329573 -0.046065766 0.026449278 -0.062396795 0.017386101 0.059270866 -0.05120433
0.023623265 0.06540727 0.035350956 0.08394983 0.08604812 0.07316101 0.08613553 0.084078945
-0.076109715 0.060716905 -0.08364158 0.06595305 0.08560809 -0.02263739 -0.07347033 0.03240393
-0.008043714 0.030220963 -0.07926033 -0.028512765 0.024656095 -0.043055218 0.029478885 -0.023810305
0.04952755 -0.052214738 -0.032315884 -0.0782008 -0.06496141 -0.085252434 -0.057284437 0.039889835
-0.06371911 -0.0466216 -0.012545213 0.07832267 -0.01019901 0.03242342 -0.005077265 0.07359361
0.016051754 -0.062178392 -0.065247916 -0.004518248 -0.000725992 0.08453619 -0.007097274 -0.051919583
-0.012772687 -0.086030416 -0.00031355023 -0.051626906 -0.086354986 0.03481496 0.010269403 -0.022907339
0.0836995 0.044847973 -0.038630072 0.06445501 0.05974313 -0.08048375 -0.082356185 -0.039575733
-0.06912532 0.015444003 0.06763963 -0.04082428 -0.055080008 0.08809654 0.03220254 0.05989515
0.04579916 0.047006406 -0.060321115 0.044005282 0.0071594715 -0.002354689 0.065313004 -0.028402802
-0.050629437 -0.012664773 -0.07391754 0.085161276 -0.060047075 -0.046821576 0.023165666 -0.03039363
0.064469524 -0.084868275 -0.083968535 0.0365239 0.013556093 -0.0011966825 0.048580475 0.069912784
-0.041162763 -0.023515336 0.022102535 0.002796203 -0.083105184 -0.056011863 -0.046349984 -0.052496817
-0.08651848 0.06472064 0.04322783 -0.038691733 0.011219256 0.077801384 0.044737883 0.06776381
0.03295792 0.026024453 -0.0696083 -0.04830501 -0.08547542 -0.085987285 -0.039582253 -0.032935582
-0.03206393 0.015569732 0.057192244 -0.025303565 0.016189776 0.0093932375 -0.0060425326 0.026780136
-0.06081215 -0.034067214 0.081375904 0.0518715 -0.0058914945 -0.071220145 -0.025187522 -0.064965144
0.025044478 -0.077677906 0.059846886 -0.027663127 0.061704956 -0.08528751 0.084568776 0.058669575
0.04166972 -0.08701961 -0.01508265 0.015171781 -0.02961526 0.058880754 -0.07861069 0.025074512
0.059509553 -0.045663748 -0.06268994 0.011876635 0.042318784 -0.054567482 0.029591933 -0.0852715
-0.013060704 -0.060297072 0.035150327 -0.03840467 -0.043263298 -0.04471649 0.03813819 0.02656538
0.06959086 0.039391704 -0.030853685 0.043820642 -0.0848588 0.04029482 0.033375435 -0.07652623
0.0875364 0.022586524 -0.002442591 0.009852752 0.042295955 0.06435738 0.048890106 0.06242863
0.041945823 -0.08145798 -0.025943756 0.023902826 0.0005640313 -0.07221836 0.014078595 -0.0021119788
-0.057678003 -0.017327689 -0.0126365945 -0.079914756 -0.020676687 0.024676308 0.028588459 0.047397904
00000000: 0e60 2c3d 4a0e 3a3d 59b1 903d d96e 9cbd
00000010: f793 a13d fff9 9c3d 2f17 0cbd b6e1 793d
00000020: 78d2 e8bc b3b6 a63d 6096 b13b 53c6 8a3d
00000030: 97df 9d3d 9ec6 473d 0a9b eebc 7033 7fbc
00000040: 10d9 a33b c888 553c 4267 6ebd dc91 8bbc
00000050: aa70 683d 1831 cc3c d863 ea3c cb9e 88bd
00000060: 30d7 eabb 446b 81bc 6730 1abd f449 8cbc
00000070: b679 d7bc e070 203b fb02 833d 30c1 29bc
00000080: 4c3b ccbc dc59 c93c f948 53bd 858a 923d
00000090: 2239 48bd cfe9 913d bc24 cc3c 0b89 82bd
000000a0: c13c 883d d86c 0e3c b408 9f3c 515f 61bd
000000b0: d86a c5bc 9b88 81bd 28a3 ddbc 70fe 11bc
000000c0: b913 a6bd 6ad2 6a3d 75af 3cbd 28ac d83c
000000d0: c893 7fbd 4c6d 8e3c 02c6 723d a2bb 51bd
000000e0: 9485 c13c 3ff4 853d 2acc 103d e3ed ab3d
000000f0: ff39 b03d 71d5 953d d367 b03d 9531 ac3d
00000100: 69df 9bbd 4ab2 783d 474c abbd 6512 873d
00000110: 4b53 af3d 0c72 b9bc 9d77 96bd fcb9 043d
00000120: c8c9 03bc f491 f73c 3d53 a2bd 9a93 e9bc
00000130: 94fb c93c ab5a 30bd b47d f13c d40d c3bc
00000140: 66dd 4a3d 1fdf 55bd a95d 04bd be27 a0bd
00000150: 7d0a 85bd d498 aebd 16a3 6abd 8663 233d
00000160: 2a7f 82bd 4af6 3ebd 708a 4dbc a367 a03d
00000170: c019 27bc 6cce 043d 305f a6bb 3fb8 963d
00000180: f87e 833c c5ae 7ebd b3a0 85bd d00d 94bb
00000190: 8050 3eba 4f21 ad3d 4090 e8bb a1a9 54bd
000001a0: 8844 51bc b730 b0bd 0064 a4b9 bc76 53bd
000001b0: e2da b0bd 229a 0e3d 0041 283c 2ca8 bbbc
000001c0: a56a ab3d 82b2 373d 913a 1ebd fd00 843d
000001d0: 36b5 743d aad4 a4bd 5caa a8bd 2a1a 22bd
000001e0: 9391 8dbd d808 7d3c a586 8a3d 5c37 27bd
000001f0: 939b 61bd f56b b43d d0e6 033d 9e54 753d
00000200: e697 3b3d ca89 403d 4613 77bd e23e 343d
00000210: 009a ea3b 2051 1abb d3c2 853d feac e8bc
00000220: d060 4fbd e87f 4fbc 1462 97bd 0969 ae3d
00000230: ecf3 75bd fbc7 3fbd ecc5 bd3c 10fc f8bc
00000240: 9908 843d 6bcf adbd b2f7 abbd 169a 153d
00000250: 601a 5e3c 00da 9cba 52fc 463d 6f2e 8f3d
00000260: 499a 28bd 3ca3 c0bc 6010 b53c 8040 373b
00000270: 0d33 aabd b26c 65bd 7bd9 3dbd e706 57bd
00000280: 9a30 b1bd 418c 843d aa0f 313d 397b 1ebd
00000290: f8d0 373c 5556 9f3d 123f 373d c1c7 8a3d
000002a0: e2fe 063d 3c31 d53c cc8e 8ebd 79db 45bd
000002b0: bd0d afbd 1a1a b0bd 0021 22bd 76e7 06bd
000002c0: 7855 03bd 3018 7f3c 6a42 6a3d 6c49 cfbc
000002d0: 6ca0 843c 18e6 193c 7000 c6bb 0462 db3c
000002e0: 2916 79bd 108a 0bbd 69a8 a63d 3677 543d
000002f0: 700d c1bb dedb 91bd 1056 cebc 720c 85bd
00000300: 142a cd3c 9815 9fbd 0222 753d c89d e2bc
00000310: 56be 7c3d 38ab aebd 6532 ad3d 824f 703d
00000320: dead 2a3d 5637 b2bd 381d 77bc 1093 783c
00000330: b49b f2bc f22c 713d a4fe a0bd 1069 cd3c
00000340: 4ac0 733d e909 3bbd 9563 80bd 3896 423c
00000350: 7656 2d3d 2782 5fbd c86a f23c d3a2 aebd
00000360: 90fc 55bc 10fa 76bd caf9 0f3d 374e 1dbd
00000370: db34 31bd a328 37bd ca36 1c3d a49f d93c
00000380: a785 8e3d 3259 213d dec0 fcbc 467d 333d
00000390: 73ca adbd 2e0c 253d aeb4 083d c9b9 9cbd
000003a0: 4946 b33d 6007 b93c e013 20bb 706d 213c
000003b0: 863e 2d3d cdcd 833d fe40 483d 2ab5 7f3d
000003c0: 62cf 2b3d 71d3 a6bd 0088 d4bc dccf c33c
000003d0: 80db 133a 38e7 93bd e8a9 663c 2069 0abb
000003e0: c53f 6cbd ccf2 8dbc b809 4fbc 59aa a3bd
000003f0: 2862 a9bc f825 ca3c 5832 ea3c 4e24 423d

fc2.bias f4 [128]
-0.021219999 0.036648013 0.05341337 -0.025968265 0.03947247 0.023795627 0.08534569 0.06590354
0.07350852 -0.07545515 -0.02423603 0.043815963 -0.05306265 0.023994192 -0.031030543 0.087130435
0.07350171 -0.0169679 0.06771848 0.04971773 -0.027318671 0.07069153 0.018937275 -0.04364031
0.04529702 -0.009742938 -0.07336796 -0.04688093 -0.059125833 0.01389192 -0.057954326 -0.029135663
-0.03727071 0.02271951 0.019239552 0.020290293 0.024321511 0.027197726 -0.033706795 0.010711513
0.06509406 -0.008241177 -0.028833967 -0.020211183 -0.010439873 -0.05401043 0.045366727 0.013845757
-0.053708095 0.06594353 -0.026682284 0.038811646 -0.040397808 0.012175716 -0.045280043 0.021952473
-0.07894563 -0.042866454 -0.015871808 -0.034885548 0.05152995 0.026500002 -0.06787103 0.07943977
-0.055825945 -0.02350235 0.07158435 -0.0063412264 0.04738968 0.037342004 -0.054817148 0.059945233
0.027281255 0.07041783 0.065010466 -0.048209336 0.07202346 -0.03530514 -0.06883094 -0.018333077
-0.06854737 0.040625773 -0.05758532 0.06130954 0.009487793 0.034443602 0.0461848 0.057139717
-0.05899955 0.031912394 -0.031254437 -0.0034647956 -0.087780364 0.056484304 -0.0111361 0.0033992827
-0.062796816 0.05472187 0.0580338 -0.004159555 -0.013668694 0.05439944 0.013391495 -0.057367854
-0.056899574 0.022034153 -0.054159604 0.058728047 0.06523796 0.07504373 0.015657224 -0.06900616
-0.010115705 -0.06904834 0.03527224 -0.0494019 -0.032657526 -0.056287926 0.08170592 0.06789336
0.074157216 0.059447028 -0.054458257 0.05911327 -0.03149356 0.058717825 0.053475283 0.011835583
00000000: 90d5 adbc 3a1c 163d fac7 5a3d 66bb d4bc
00000010: e2ad 213d 0cef c23c b9c9 ae3d 6ff8 863d
00000020: a38b 963d 3b88 9abd a48a c6bc 5e78 333d
00000030: 3958 59bd 788f c43c c433 febc 7171 b23d
00000040: 1188 963d 4400 8bbc fdaf 8a3d d2a4 4b3d
00000050: 68cb dfbc b9c6 903d 5822 9b3c 2fc0 32bd
00000060: 5e89 393d d8a0 1fbc f141 96bd 3806 40bd
00000070: ee2d 72bd f09a 633c 8461 6dbd eaad eebc
00000080: 2ca9 18bd 441e ba3c 449c 9d3c d437 a63c
00000090: e83d c73c c4cd de3c 2310 0abd 587f 2f3c
000000a0: 0950 853d 0006 07bc 3635 ecbc ec91 a5bc
000000b0: 000c 2bbc 0a3a 5dbd 76d2 393d 50d9 623c
000000c0: 05fd 5bbd 670d 873d ce94 dabc f6f8 1e3d
000000d0: 2c78 25bd a87c 473c 9177 39bd acd5 b33c
000000e0: 3fae a1bd bc94 2fbd 9805 82bc 26e4 0ebd
000000f0: 1211 533d 8816 d93c f7ff 8abd 51b1 a23d
00000100: bfa9 64bd 0088 c0bc d19a 923d 10ca cfbb
00000110: ae1b 423d eef3 183d f287 60bd 2289 753d
00000120: f07c df3c 3937 903d 3524 853d 2777 45bd
00000130: 0981 933d 1f9c 10bd 3cf7 8cbd 402f 96bc
00000140: 9062 8cbd 3667 263d 96de 6bbd b61f 7b3d
00000150: b072 1b3c bc14 0d3d 462c 3d3d 560b 6a3d
00000160: 83a9 71bd 92b6 023d a704 00bd a011 63bb
00000170: 31c6 b3bd 165c 673d 3074 36bc 80c6 5e3b
00000180: 9e9b 80bd 0a24 603d dab4 6d3d e04c 88bb
00000190: a8f2 5fbc f2d1 5e3d 0068 5b3c 8efa 6abd
000001a0: 870f 69bd f880 b43c 76d6 5dbd d28c 703d
000001b0: 7b9b 853d 87b0 993d 9443 803c 1a53 8dbd
000001c0: 58bc 25bc 3769 8dbd a079 103d a659 4abd
000001d0: e6c3 05bd 2b8e 66bd 6f55 a73d ad0b 8b3d
000001e0: bddf 973d ba7e 733d 9f0f 5fbd c220 723d
000001f0: 64ff 00bd 1a82 703d e608 5b3d 08ea 413c

fc3.weight f4 [2, 128]
-0.0698566 0.04962396 0.06520357 0.04492078 -0.021491446 -0.06506425 0.018485934 -0.0041086674
-0.081932195 -0.016905636 -0.038373135 0.07453569 0.008318432 -0.04699835 -0.061848737 -0.030037701
-0.0695255 -0.07806126 -0.001460433 -0.011352636 0.08642159 -0.018123768 0.031118736 0.0010308698
-0.017876111 -0.035436805 -0.015361391 0.068988346 -0.044234253 0.088034086 -0.04417137 -0.01690171
0.017881192 0.07582215 -0.072918735 0.08751429 0.07997813 -0.033368103 -0.00028612465 0.011679016
0.023282185 0.032934576 -0.001961179 -0.042610254 0.029776372 -0.076967895 -0.07909779 -0.008130886
-0.022148661 0.064555295 0.019878447 -0.0073288307 -0.08710548 -0.056139916 -0.07748759 0.024390794
0.07859207 0.07675619 0.03743089 -0.008889183 0.017159171 0.057648756 -0.08018245 0.053050913
0.04398062 0.0293158 0.05511806 -0.040854298 -0.06405129 -0.0634477 -0.043385155 0.08657736
0.06469389 0.084887065 0.030747794 0.06277361 -0.07539254 0.011503227 -0.07546782 -0.08539482
0.07167763 0.004474625 0.017024294 0.011357069 0.060319595 -0.011133477 -0.024958923 -0.0667668
0.05173803 -0.036963027 0.045528315 0.041285582 0.022933342 0.033604674 0.01928068 -0.037185807
-0.043648247 0.02397921 0.0317211 -0.048706837 0.033298425 0.0235539 0.02413354 -0.07793844
0.023392245 -0.027613025 0.085027285 -0.0052524954 0.025805071 0.07186235 0.006891474 0.054123454
-0.020401202 -0.017161943 0.07215615 -0.030180208 0.0030145645 0.032009058 -0.008251734 0.0513997
0.04662084 -0.031538814 0.056862004 -0.08799047 -0.075391926 0.0489318 -0.008632317 0.06788533
0.024681486 -0.028356072 -0.04027205 -0.06133081 0.026833951 -0.014528029 -0.032031205 -0.06885974
0.0045885593 0.06815336 -0.032365143 0.05018755 -0.027695686 0.027550533 -0.006030157 -0.03085395
-0.086628705 -0.076424375 0.034045957 -0.037571903 0.022943519 0.007313624 0.08169339 -0.048439045
0.059036873 -0.04890286 0.07374772 -0.085787855 -0.07561731 0.04531119 0.06851178 -0.02982977
0.08530662 0.05389876 -0.041880786 -0.030602846 -0.06436639 -0.05887136 -0.07047002 -0.0870892
-0.04246145 -0.07471457 0.03537085 0.035200194 -0.01378838 -0.077330254 0.0130075365 0.05496026
0.002071254 -0.078358755 -0.074558616 0.035363294 -0.028751493 0.0036665127 -0.083194084 -0.057458974
0.020439737 -0.041236088 0.022957496 0.028488636 -0.07738525 0.009692699 0.0021634325 0.023649544
0.038411386 0.0029430538 0.020967625 0.06845776 0.052207522 0.036151044 0.06998969 -0.06662837
-0.019118018 -0.08676268 0.03418736 0.011458822 -0.032464124 0.05395145 -0.009212427 0.080715634
0.02679386 0.049656965 -0.01378376 -0.044465546 0.08700708 0.054011606 -0.0069197565 -0.043774664
-0.06772666 0.01654993 0.0040919185 0.080122165 0.06660318 0.025984004 0.041809596 0.012655847
0.06302481 0.0664516 0.012973219 0.0015942454 0.057058595 -0.030915197 -0.065462865 -0.05274033
0.060085528 -0.019613318 0.031767406 0.08622942 0.0864569 -0.033304 0.07612341 0.031496584
0.059550487 -0.0069348216 -0.04519748 0.07653833 0.011636816 0.08375377 0.07167608 0.005604148
0.03225451 -0.02699785 0.077597894 -0.060013108 -0.017289877 -0.08401032 0.04307296 0.0350027
00000000: fa10 8fbd 7e42 4b3d 7389 853d dafe 373d
00000010: d40e b0bc 6840 85bd d06f 973c 00a2 86bb
00000020: 11cc a7bd b07d 8abc 262d 1dbd 2ba6 983d
00000030: 084a 083c 5881 40bd 1a55 7dbd a011 f6bc
00000040: 6363 8ebd 95de 9fbd 006c bfba 6800 3abc
00000050: cdfd b03d 4c78 94bc b8ec fe3c 401e 873a
00000060: ec70 92bc 2f26 11bd 58ae 7bbc c349 8d3d
00000070: fa2e 35bd 374b b43d 0aed 34bd 7475 8abc
00000080: 947b 923c a548 9b3d 6b56 95bd b13a b33d
00000090: 93cb a33d feac 08bd 0003 96b9 5859 3f3c
000000a0: 48ba be3c 68e6 063d 2087 00bb 1788 2ebd
000000b0: 94ed f33c 58a1 9dbd 06fe a1bd 6837 05bc
000000c0: 1c71 b5bc 9135 843d 20d8 a23c b026 f0bb
000000d0: 5c64 b2bd f8f2 65bd d0b1 9ebd 34cf c73c
000000e0: e1f4 a03d 5932 9d3d 2251 193d f0a3 11bc
000000f0: 6491 8c3c 1a21 6c3d b236 a4bd ea4b 593d
00000100: 0625 343d b027 f03c 7ac3 613d d656 27bd
00000110: 532d 83bd def0 81bd a2b4 31bd 794f b13d
00000120: 3b7e 843d 45d9 ad3d cce2 fb3c 738f 803d
00000130: 6767 9abd 0878 3c3c df8e 9abd 7be3 aebd
00000140: b9cb 923d e09f 923b 8876 8b3c 0013 3a3c
00000150: ae11 773d 3069 36bc a876 ccbc 08bd 88bd
00000160: 42eb 533d 8b66 17bd e67b 3a3d 121b 293d
00000170: b4de bb3c 0ea5 093d 84f2 9d3c 2550 18bd
00000180: 81c8 32bd 0c70 c43c fced 013d d280 47bd
00000190: ee63 083d 1cf4 c03c b4b3 c53c 309e 9fbd
000001a0: 18a1 bf3c b634 e2bc c922 ae3d 201d acbb
000001b0: 2865 d33c 912c 933d e0d1 e13b 8eb0 5d3d
000001c0: 6c20 a7bc 3497 8cbc 9bc6 933d 7c3c f7bc
000001d0: 0090 453b ee1b 033d 4832 07bc 7e88 523d
000001e0: 7ef5 3e3d d82e 01bd 22e8 683d 5934 b4bd
000001f0: 1567 9abd b66c 483d 906e 0dbc 7707 8b3d
00000200: d430 ca3c fe4a e8bc 4ef4 24bd 0436 7bbd
00000210: e0d2 db3c f806 6ebc 2733 03bd 5606 8dbd
00000220: a05b 963b fd93 8b3d 5091 04bd 7691 4d3d
00000230: 10e2 e2bc a8b1 e13c a098 c5bb 6cc1 fcbc
00000240: 646a b1bd 6284 9cbd c673 0b3d ffe4 19bd
00000250: 0cf4 bb3c 20a7 ef3b dd4e a73d 0568 46bd
00000260: a6d0 713d 5e4e 48bd 0b09 973d 8bb1 afbd
00000270: 40dd 9abd 3a98 393d e74f 8c3d 905d f4bc
00000280: 3db5 ae3d f2c4 5c3d 308b 2bbd d2b2 fabc
00000290: 87d2 83bd 1823 71bd 9652 90bd d35b b2bd
000002a0: 0fec 2dbd f403 99bd 06e1 103d 142e 103d
000002b0: a8e8 61bc 535f 9ebd 901d 553c 021e 613d
000002c0: e0bd 073b 8e7a a0bd 30b2 98bd 1ad9 103d
000002d0: 4088 ebbc e049 703b a961 aabd 1a5a 6bbd
000002e0: 3c71 a73c 2ce7 28bd 5c11 bc3c 0061 e93c
000002f0: 287c 9ebd 20ce 1e3c 60c8 0d3b b0bc c13c
00000300: 4255 1d3d 40e0 403b 4cc4 ab3c 9533 8c3d
00000310: 8ed7 553d 1e13 143d c156 8f3d 7474 88bd
00000320: 649d 9cbc a2b0 b1bd 0c08 0c3d c8bd 3b3c
00000330: 1af9 04bd 32fc 5c3d b8ef 16bc 3d4e a53d
00000340: cc7e db3c 1a65 4b3d 48d5 61bc 8121 36bd
00000350: c530 b23d 463b 5d3d 20bf e2bb 104d 33bd
00000360: 46b4 8abd b893 873c 8015 863b 1717 a43d
00000370: 3f67 883d 68dc d43c 8a40 2b3d 785a 4f3c
00000380: 2713 813d c717 883d a08d 543c 00f6 d03a
00000390: 46b6 693d de41 fdbc 6511 86bd 3f06 58bd
000003a0: 3e1c 763d 1cac a0bc 8a1e 023d 0d99 b03d
000003b0: 5110 b13d c669 08bd 97e6 9b3d 9002 013d
000003c0: 36eb 733d 803d e3bb fe20 39bd 21c0 9c3d
000003d0: 58a8 3e3c 1987 ab3d e9ca 923d 00a3 b73b
000003e0: 4e1d 043d 982a ddbc a5eb 9e3d 4ed0 75bd
000003f0: 80a3 8dbc 9a0d acbd 466d 303d fe5e 0f3d

fc3.bias f4 [2]
0.03380207 -0.0070791095
00000000: 0a74 0a3d e0f7 e7bb
