customTrainer/results/AgentBall09/RollerBall/RollerBall-0.pt (torch, 156484 bytes, 12 tensors)

fc1.weight f4 [128, 16]
0	0x3e778358	0.24171197
1	0x3e360484	0.1777516
2	0x3e45eaa0	0.19327784
3	0x3e42b5ba	0.19014636
4	0xbd1d2590	-0.0383659
5	0xbe7735ac	-0.24141568
6	0xbe018de8	-0.12651789
7	0x3da8a250	0.08234084
8	0xbdc2cdac	-0.09511885
9	0x3e63a778	0.22231853
10	0xbcfbb370	-0.03072521
11	0x3e3b303c	0.18280119
12	0x3e2434b4	0.1603573
13	0x3d8400a0	0.06445432
14	0x3e31e15c	0.17371124
15	0x3d875b44	0.066092044
16	0x3e704d20	0.23466921
17	0x3d99f1d0	0.07516825
18	0x3d72be80	0.059263706
19	0x3dcd00c8	0.10009915
20	0x3d732368	0.059359938
21	0xbc9eeb90	-0.019399434
22	0x3e775700	0.24154282
23	0x3c9f4280	0.01944089
24	0x3d0e5a58	0.034754127
25	0xbe48ab50	-0.195966
26	0xbe34099a	-0.17581788
27	0x3e0c18f0	0.13681388
28	0xbe0eb942	-0.13937858
29	0xbcbef710	-0.023311168
30	0x3d72b658	0.059255928
31	0xbd6c2ea0	-0.057661653
32	0xbde269ec	-0.11055359
33	0xbc3e47a0	-0.011613756
34	0xbd992960	-0.07478595
35	0xbe2bf442	-0.16792396
36	0x3d86b460	0.065773726
37	0x3e2852ce	0.16437837
38	0xbcdcbc10	-0.026945144
39	0x3d4effb0	0.05053681
40	0xbe6a98e0	-0.2290988
41	0x3e103532	0.14082792
42	0xbd80ea80	-0.06294727
43	0x3deb48b4	0.114884764
44	0xbda2af20	-0.07943559
45	0xbe3de8c8	-0.1854583
46	0xbe412644	-0.18862253
47	0x3e146e4a	0.14495197
48	0x3b8b3180	0.004247844
49	0x3e15abf8	0.14616382
50	0x3d2c8a48	0.042124063
51	0x3e289f2e	0.16466972
52	0x3da24844	0.0792394
53	0xbe1ccbf4	-0.15312177
54	0xbc87d480	-0.01658082
55	0x3e5a5c50	0.21324277
56	0xbccd40b0	-0.02505526
57	0xbc1a0840	-0.009401381
58	0xbe160438	-0.14650047
59	0xbe62677c	-0.22109789
60	0x3d632908	0.055459052
61	0xbdf83a08	-0.121204436
62	0xbe20c5f0	-0.15700507
63	0xbd816534	-0.06318131
64	0xbb2e6f00	-0.0026616454
65	0xbe73cdd8	-0.23808992
66	0x3df06004	0.117370635
67	0xbe7a18be	-0.24423501
68	0xbe47ed30	-0.19524074
69	0xbe577bf4	-0.21043378
70	0x3e1d858e	0.15382978
71	0x3c4b2020	0.012397796
72	0xbe653862	-0.2238479
73	0xbe33c0d8	-0.17554033
74	0x3991bc00	0.00027796626
75	0xbdff114c	-0.12454471
76	0xbc1da760	-0.009622425
77	0x3d2d9090	0.042374194
78	0x3b478f00	0.0030450225
79	0x3e720556	0.23634848
80	0xbe651d96	-0.22374567
81	0xbd9fd858	-0.07804936
82	0xbe548290	-0.2075293
83	0xbd726450	-0.059177697
84	0xbe5e026c	-0.21680611
85	0xbe5fee26	-0.2186819
86	0x3cc009a0	0.02344209
87	0xbe2f4714	-0.17116958
88	0xbe7ede3c	-0.24889463
89	0xbcab3070	-0.02089712
90	0x3e5898d4	0.2115205
91	0x3e28318c	0.1642515
92	0xbc63adc0	-0.013896406
93	0x3ddb0c18	0.10695666
94	0xbc7b7760	-0.015348285
95	0x3b3e7480	0.0029061139
96	0x3e35da3c	0.17759031
97	0xbe6cbe5e	-0.23119494
98	0x3e2029cc	0.15640944
99	0x3df2ae68	0.118496716
100	0xbe6eb708	-0.23312008
101	0x3b5e4c80	0.003392011
102	0x3dd9dae4	0.10637453
103	0xbe096420	-0.13417101
104	0xbe3121ae	-0.17298004
105	0x3d8bedc8	0.068324625
106	0x3d9cb9ac	0.076526016
107	0x3e50bc70	0.20384383
108	0x3b327e80	0.0027236044
109	0xbe39c7c2	-0.18142608
110	0x3dc02524	0.09382084
111	0xbe3f6a5c	-0.18692917
112	0x3e553aa2	0.20823148
113	0xbd9b2580	-0.07575512
114	0x3d0df3a0	0.034656167
115	0x3e729164	0.23688275
116	0xbda2b2ac	-0.07944235
117	0x3da98c2c	0.08278689
118	0x3e40ae46	0.1881648
119	0x3e071852	0.13192871
120	0x3e31eb18	0.17374837
121	0x3e4ca6b2	0.19985464
122	0x3e752210	0.23938775
123	0xbe5c14fc	-0.2149238
124	0x3e537188	0.20648777
125	0xbd17cdb0	-0.037061393
126	0x3d833308	0.06406218
127	0x3e579330	0.21052241
128	0x3db8e1a4	0.090274125
129	0x3d1d19a0	0.038354516
130	0xbd0fcd68	-0.035108
131	0x3def26c0	0.11677313
132	0x3d680548	0.05664566
133	0x3e3ffed2	0.1874955
134	0xbd8c8344	-0.068609744
135	0xbe0b12d6	-0.13581404
136	0xbd531140	-0.051530123
137	0xbe33d0c8	-0.17560112
138	0xbe002fae	-0.12518188
139	0xbdad1be4	-0.08452585
140	0xbe1067ce	-0.14102098
141	0xbe7d9cc4	-0.24766833
142	0xbe692bb6	-0.2277058
143	0xbdbd65c0	-0.09247923
144	0x3d7873e0	0.060657382
145	0x3db3ab10	0.08772862
146	0x3d21bb90	0.039485514
147	0xbd12d0b0	-0.03584355
148	0x3e0c016a	0.13672414
149	0xbd123100	-0.03569126
150	0x3d5ccfd8	0.053909153
151	0xbe530ec4	-0.20611101
152	0x3e6bd3c0	0.23029995
153	0x3cd0ec40	0.025503278
154	0xbdf4e5c4	-0.11957887
155	0x3db9eeb4	0.09078732
156	0x3e396b90	0.18107438
157	0xbda27fc4	-0.079345256
158	0x3e3f0128	0.18652785
159	0x3e558736	0.2085236
160	0x3e596b0c	0.21232241
161	0xbde188d4	-0.11012426
162	0x3e5c338c	0.21504039
163	0x3e191b94	0.14951926
164	0xbe06254a	-0.13100162
165	0xbe35a944	-0.17740351
166	0xbb98a380	-0.0046581626
167	0x3e26093c	0.1621446
168	0x3e5c8896	0.21536478
169	0x3dca8608	0.09888846
170	0xbd11eef8	-0.03562829
171	0x3e3edae0	0.18638182
172	0xbcf5e000	-0.030014038
173	0xbe71c16e	-0.23608944
174	0x3e686d52	0.22697952
175	0x3df23740	0.11826944
176	0xbd20a678	-0.039221257
177	0x3e14b946	0.14523801
178	0xbcf9a470	-0.030473918
179	0xbde85b54	-0.113455445
180	0xbd807ca4	-0.06273773
181	0xbc993ea0	-0.01870662
182	0xbdda6d2c	-0.10665354
183	0x3b927c00	0.0044703484
184	0x3dbb4f84	0.09146026
185	0xbe5c8164	-0.21533734
186	0xbcebdc70	-0.028791636
187	0x3ce80f40	0.028327584
188	0x3deafad0	0.1147362
189	0x3dfc0030	0.12304723
190	0xbe718da6	-0.23589191
191	0x3e249898	0.16073835
192	0xbd6e5f50	-0.058196366
193	0xbe5c5bb2	-0.21519354
194	0xbc9e90c0	-0.019356132
195	0x3e6ebac0	0.23313427
196	0x3e06ab10	0.13151193
197	0xbd0e9508	-0.034810096
198	0x3d716600	0.058935165
199	0xbe7efd44	-0.249013
200	0xbe710bc6	-0.23539647
201	0xbcd02960	-0.025410354
202	0x3e08831c	0.13331264
203	0x3e11374a	0.14181247
204	0xbe2eb306	-0.1706048
205	0x3e38ea9c	0.18058246
206	0xbe27850c	-0.16359347
207	0xbe470c08	-0.19438183
208	0x3df17ed0	0.11791766
209	0x3e64c664	0.22341305
210	0xbd8999b8	-0.06718773
211	0x3e0aa712	0.13540295
212	0xbdb815d0	-0.089885354
213	0x3bb23580	0.0054385066
214	0xbe1148c8	-0.1418792
215	0x3ccec190	0.025238782
216	0xbe09ddfe	-0.1346359
217	0xbe4f2b5c	-0.20231384
218	0x3e60640a	0.21913162
219	0x3e4350aa	0.1907374
220	0x3e0dcfb8	0.1384877
221	0x3e20919a	0.15680543
222	0xbe02ad98	-0.12761533
223	0x3ca13630	0.019679159
224	0xbd4f37c8	-0.050590307
225	0x3d8a2838	0.06745952
226	0xbc3587a0	-0.011079699
227	0xbd0a8ca0	-0.033825517
228	0xbcb26770	-0.021777838
229	0xbe6b7008	-0.22991955
230	0xbdc142e8	-0.094365895
231	0xbdcdcb20	-0.10048509
232	0x3e25a020	0.16174364
233	0xbda0d258	-0.0785262
234	0xbc7cf660	-0.0154396
235	0xbe2186d4	-0.15774089
236	0x3e1883b0	0.14893985
237	0x3d4abfd0	0.049499333
238	0xba855800	-0.0010173321
239	0xbe4bd456	-0.19905218
240	0xbd128bf8	-0.035778016
241	0x3cb86c40	0.022512555
242	0x3e1524e2	0.14564851
243	0xbe384124	-0.17993599
244	0x3e3ce7d8	0.18447816
245	0x3df01788	0.11723238
246	0xbd9bc938	-0.07606739
247	0x3d96870c	0.07349977
248	0x3e161374	0.14655858
249	0xbd779da8	-0.060453087
250	0x3e0337b0	0.12814212
251	0x3e24f5b8	0.1610936
252	0x3dc7f890	0.097642064
253	0xbd96f9f4	-0.073718935
254	0x3de72428	0.11286193
255	0x3e5a6558	0.21327722

fc1.bias f4 [128]
0	0x3dc96ac8	0.0983482
1	0x3cf19b90	0.029493123
2	0xbe38e77a	-0.18057051
3	0x3ce2f390	0.02770403
4	0x3db101e4	0.08642939
5	0x3e59fa20	0.21286821
6	0xbdc53794	-0.09629741
7	0x3d2cf5b8	0.042226523
8	0x3e433184	0.19061857
9	0xbe143b38	-0.14475715
10	0xbe2c1a74	-0.16806966
11	0x3dd2bf9c	0.10290453
12	0xbe6f1302	-0.23347095
13	0xbe2bb6dc	-0.16768974
14	0xbd3e8a78	-0.046518773
15	0x3d89e568	0.06733209
16	0xbe4f08ce	-0.20218202
17	0x3e390cea	0.18071333
18	0xbe7ddaa8	-0.24790442
19	0xbdd80d48	-0.10549408
20	0x3e2c61fa	0.1683425
21	0x3cb2a790	0.021808416
22	0x3db4c9d0	0.08827555
23	0x3e075308	0.13215268
24	0x3bab0a80	0.0052197576
25	0x3e58fdc8	0.2119056
26	0x3e4ad1aa	0.19806543
27	0xbe41bb86	-0.18919191
28	0x3e56efac	0.20989865
29	0x3e24be80	0.16088295
30	0x3e1d6a82	0.15372661
31	0xbdb5d8b4	-0.088792235
32	0x3d4db208	0.050218612
33	0xbcae85a0	-0.021303952
34	0xbd84f0f8	-0.06491274
35	0xbd7779a8	-0.060418755
36	0x3e093bbc	0.13401693
37	0x3e5aa2b0	0.21351123
38	0x3d8574bc	0.06516406
39	0xbe39009a	-0.18066636
40	0x3d458718	0.04822454
41	0xbe73487a	-0.23758116
42	0x3ccdd640	0.025126576
43	0xbe5652fc	-0.20930094
44	0x3e0d4d38	0.13798988
45	0x3df32cb8	0.11873764
46	0xbc6a98a0	-0.014318615
47	0x3cfb1160	0.030647933
48	0xbd9b773c	-0.075911015
49	0xbdcfa81c	-0.10139486
50	0x3e017036	0.12640461
51	0x3e0d343c	0.13789457
52	0x3dcae1c0	0.0990634
53	0x3c1f9080	0.009739041
54	0x3e70bae8	0.23508799
55	0xbe5c8b18	-0.21537435
56	0xbe16960a	-0.14705673
57	0xbe1a081e	-0.15042159
58	0xbe06bce8	-0.13158
59	0xbe758520	-0.23976564
60	0x3d10f0c8	0.035385877
61	0x3e6994f8	0.22810733
62	0xbe213a56	-0.1574491
63	0xbe6be59a	-0.23036805
64	0xbe5bc85c	-0.2146315
65	0xbe667172	-0.22504213
66	0xbe12f5c2	-0.14351562
67	0xbe591638	-0.21199882
68	0x3d78dfd8	0.06076035
69	0x3d0aee10	0.03391844
70	0x3e1071d4	0.14105922
71	0x3e3af048	0.18255723
72	0x3d613dd8	0.05499062
73	0x3d20e168	0.039277464
74	0xbc834ea0	-0.016028702
75	0xbe23783a	-0.15963832
76	0xbe49957a	-0.19685927
77	0xbe1f7132	-0.15570524
78	0x3d4785c8	0.048711568
79	0x3cf834e0	0.03029865
80	0x3c2f4800	0.0106983185
81	0x3d0135e8	0.03154555
82	0x3d175f48	0.0369561
83	0xbe4bb8a8	-0.1989466
84	0x3e7173e4	0.23579365
85	0xbe3d0892	-0.184603
86	0xbe5c9614	-0.21541625
87	0x3dddfd04	0.108392745
88	0xbe206ba6	-0.15666065
89	0xbe34b2bc	-0.17646307
90	0x3d09e2e8	0.03366366
91	0xbdd09900	-0.101854324
92	0xbe124318	-0.14283407
93	0x3c82f8e0	0.015987813
94	0xbc9ac180	-0.018891096
95	0x3dd0646c	0.10175404
96	0xbe00afa0	-0.12566996
97	0xbe4992b0	-0.19684863
98	0xbe5e8a24	-0.21732384
99	0xbe79dd78	-0.2440089
100	0xbd220bb8	-0.039561957
101	0x3d03e9d0	0.032205403
102	0xbe6da5ec	-0.23207825
103	0x3e0238f8	0.12717044
104	0x3e53e974	0.20694524
105	0xbe3e2352	-0.18568161
106	0xbd358958	-0.044320434
107	0x3dd11b64	0.102103025
108	0x3e1ddea2	0.15416959
109	0xbe79d3ca	-0.24397197
110	0xbe370c96	-0.17875895
111	0xbe42ddbc	-0.19029897
112	0x3e21b436	0.15791401
113	0xbd76dcd0	-0.060269177
114	0xbe62d464	-0.22151333
115	0xbe3ed17e	-0.18634602
116	0x3c06f140	0.008236229
117	0x3d9a43e4	0.0753248
118	0xbdba193c	-0.09086844
119	0x3e338b1a	0.17533532
120	0xbd82c188	-0.063845694
121	0x3e494c7e	0.19658086
122	0xbdf3d040	-0.11904955
123	0xbd98b0d8	-0.07455605
124	0xbe6bab32	-0.23014525
125	0x3e26eb3e	0.16300675
126	0x3d9ca660	0.07648921
127	0x3d4478f0	0.047966897

fc2.weight f4 [128, 128]
0	0x3d8bc493	0.06824603
1	0xbd973596	-0.073832676
2	0xbc5e9b98	-0.013586901
3	0x3d9a8441	0.07544757
4	0xbd3d0e4a	-0.046156205
5	0xbd0a30d1	-0.03373796
6	0x3d9fa3d7	0.07794922
7	0x3cce4738	0.025180444
8	0x3da67053	0.08126893
9	0xbd14560e	-0.03621488
10	0x3d65a27a	0.056063153
11	0x3d0c6410	0.034275115
12	0xbd8fcad3	-0.070211075
13	0xbd893c9b	-0.06701013
14	0xbd450e8e	-0.048109584
15	0x3d56edba	0.052472807
16	0xbdb40129	-0.08789284
17	0x3c815af4	0.01579044
18	0xbca1f760	-0.019771278
19	0x3cda351c	0.026636653
20	0x3cdff80c	0.027339958
21	0x3d34b652	0.044119187
22	0xbd6d16ee	-0.057883196
23	0xbd216623	-0.039404046
24	0xbc18b968	-0.009321548
25	0xbcc3050c	-0.023806117
26	0xbc5ab4f8	-0.01334881
27	0xbc9b80a0	-0.018982232
28	0x3d50c922	0.050973065
29	0x3c36f7d8	0.011167489
30	0x3d88fcbf	0.066888325
31	0x3d26605a	0.04061923
32	0xbd0e1176	-0.03468462
33	0xbc9ed354	-0.019387878
34	0x3d68bf66	0.056823157
35	0x3d80cd97	0.06289213
36	0x3d7d259a	0.061803438
37	0xbd09cd04	-0.033642784
38	0xbc848c1c	-0.01618009
39	0xbd084cab	-0.03327624
40	0x3d97695d	0.07393143
41	0x3d6d96ae	0.058005027
42	0x3cd34918	0.02579169
43	0x3cbbc730	0.022922128
44	0x3c57b098	0.013164662
45	0xbd35d641	-0.04439378
46	0xbd93ae0e	-0.07210933
47	0x3aa47f80	0.0012550205
48	0x3d75a122	0.05996812
49	0x3da1a94b	0.07893618
50	0xbd518b79	-0.051158402
51	0x3b840260	0.0040286034
52	0x3d1a4602	0.03766442
53	0xbd65d677	-0.056112733
54	0x3d475dae	0.048673324
55	0x3d8bf483	0.06833746
56	0x3d56ce22	0.052442677
57	0xbda5479f	-0.08070301
58	0x3d18f1de	0.037340038
59	0xb8804c00	-6.117672e-05
60	0x3da2ae5f	0.07943415
61	0xbb836da0	-0.004010871
62	0x3d8186df	0.06324553
63	0x3d2f2436	0.042759143
64	0x3ccfe8dc	0.02537959
65	0xbd731b70	-0.05935234
66	0xbd548529	-0.051884804
67	0xbc915f4c	-0.017745636
68	0x3d1374c6	0.036000036
69	0x3c135548	0.008992501
70	0xbd73a91a	-0.05948744
71	0xbcda79a0	-0.026669323
72	0x3db38079	0.087647386
73	0xbda45880	-0.080246925
74	0x3dafa971	0.0857724
75	0x3d8301cf	0.06396829
76	0xbda8cb02	-0.08241846
77	0xbb247f40	-0.002510026
78	0x3d248352	0.0401643
79	0xbda8c88d	-0.08241377
80	0xbd5478dd	-0.051873077
81	0xbd53d22f	-0.05171412
82	0xbd2a4c1e	-0.041576497
83	0x3da3f5ef	0.080058925
84	0xbd96b074	-0.073578745
85	0x3c9d3b20	0.019193232
86	0xbd0ad5f8	-0.033895463
87	0xbc99c6e8	-0.018771604
88	0xbd07b915	-0.033135492
89	0xbdae5b8d	-0.08513556
90	0x3d7a8bc2	0.06116844
91	0xbd7726be	-0.06033968
92	0xbcf787f2	-0.030216191
93	0x3d76a5c2	0.060216673
94	0x3a535000	0.0008060932
95	0x3cd7c6e4	0.026339956
96	0xbc97c3b0	-0.018525928
97	0x3d81aa31	0.063312896
98	0xbd30f0ad	-0.043198276
99	0x3d38e476	0.045139752
100	0xbda833a3	-0.08212974
101	0xbd050320	-0.032473683
102	0x3a7e0e80	0.0009691492
103	0xbd9b0740	-0.07569742
104	0xbdaef716	-0.08543222
105	0x3c86d3a8	0.016458347
106	0x3a9c58c0	0.0011928305
107	0xbd67ce03	-0.056592952
108	0x3d846c79	0.06466002
109	0xbd6a284e	-0.057167344
110	0xbdaab914	-0.08336082
111	0x3d65e68a	0.056128062
112	0x3cb20134	0.02172909
113	0xbd8af040	-0.06784105
114	0xbd745505	-0.059651393
115	0xbd9a94a8	-0.07547885
116	0xbd68f196	-0.05687102
117	0x3cfd997c	0.030956976
118	0x3d5e5cfa	0.054287888
119	0x3cf7174c	0.030162476
120	0xbb9a6ff0	-0.004713051
121	0xbdae3e47	-0.08507972
122	0x3ce30ebc	0.027716987
123	0xbcd18bd0	-0.025579363
124	0x3d869cf5	0.06572906
125	0xbc414c40	-0.011797965
126	0x3d9788c3	0.07399132
127	0xbcbe7894	-0.023250856
128	0x3da404e7	0.080087475
129	0x3c184150	0.009292915
130	0xbc0b13c0	-0.0084885955
131	0x3d7988a2	0.06092132
132	0x3d54c2ae	0.051943474
133	0xbd55c679	-0.05219123
134	0x3d9b059b	0.075694285
135	0x3cfb6170	0.03068611
136	0xbc78d128	-0.0151865855
137	0x3b41eba0	0.0029589906
138	0xbafc1940	-0.0019233599
139	0x3d69c0f6	0.057068788
140	0x3c3b1490	0.011418477
141	0xbb8ddb20	-0.0043291003
142	0x3c51d218	0.012806438
143	0xbc3b64c8	-0.011437602
144	0xbb09cca0	-0.0021026507
145	0xbd640b9c	-0.055675134
146	0x3cb8ecbc	0.022573821
147	0xbd9de213	-0.07709136
148	0x3d02092a	0.03174702
149	0x3d412552	0.047154732
150	0xbda2da27	-0.079517655
151	0xbd02e274	-0.031954244
152	0xbcd516c4	-0.026011832
153	0xbc9a8a90	-0.0188649
154	0x3c949840	0.018139005
155	0x3cdfd28c	0.027322076
156	0xbd1d2e74	-0.03837438
157	0x3d28cc72	0.0412106
158	0xbd9768b7	-0.0739302
159	0x3d84ef57	0.06490963
160	0xbd958cdb	-0.07302257
161	0xbd9da4ca	-0.07697447
162	0x3d178cf2	0.03699965
163	0xbd3b2183	-0.045686256
164	0xbd9522ae	-0.07282005
165	0x3c2e9d50	0.010657623
166	0x3d988e73	0.07449045
167	0x3d13a1cc	0.036042973
168	0xbd8b6a19	-0.06807346
169	0x3bcfbd90	0.0063397363
170	0x3dae263d	0.08503387
171	0xbd26435d	-0.040591586
172	0xbd729a84	-0.05922939
173	0xbd8aeb69	-0.06783182
174	0xbd67387b	-0.05645035
175	0x3d04547a	0.032307126
176	0x3d5e345a	0.054249145
177	0xbcbbcc24	-0.02292449
178	0xbceda4d6	-0.029009264
179	0x3d365482	0.044514187
180	0xbd1fee52	-0.03904564
181	0xbd3b8813	-0.045784067
182	0xbd47c470	-0.04877132
183	0x3d11bab8	0.03557846
184	0xbd08130a	-0.033221282
185	0x3ccbfe44	0.024901517
186	0xbd6a92a8	-0.05726877
187	0xbcfb7de0	-0.03069967
188	0xbc20baf0	-0.009810194
189	0x3d80d9f9	0.06291575
190	0x3d1c1582	0.03810645
191	0xbbd61a70	-0.0065339133
192	0xbcb82340	-0.022477746
193	0x3c3ef7a0	0.011655718
194	0xbd02259d	-0.031774152
195	0x3cbaf808	0.022823349
196	0x3cbacb48	0.02280201
197	0xbc3c1c00	-0.011481285
198	0x3d836289	0.064152785
199	0x3dac844b	0.084236704
200	0x3daa9b03	0.083303474
201	0x3d77e016	0.06051644
202	0x3d357a66	0.04430618
203	0xbd8b5efe	-0.06805228
204	0xbd8b4ad6	-0.06801383
205	0x3c9cbd28	0.019133165
206	0x3d91f207	0.07126241
207	0x3d258bb6	0.04041644
208	0x3c243fe0	0.010024995
209	0x3d4deae6	0.050272845
210	0xbd6d772c	-0.05797498
211	0x3cb1ab3c	0.021688096
212	0x3ce99834	0.028514959
213	0x3d41e5be	0.04733824
214	0xbd9fb8d2	-0.077989236
215	0x3da40cb7	0.08010238
216	0x3d19f102	0.03758336
217	0xbd5ffb52	-0.054683037
218	0xbd7c53b8	-0.061603278
219	0xbc412878	-0.011789434
220	0xbda154c1	-0.07877494
221	0xbdb0a1f1	-0.08624638
222	0x3d12718a	0.03575281
223	0xbd1ba5e9	-0.03800002
224	0x3d53d5fa	0.051717736
225	0xbd4c57f0	-0.04988855
226	0xbd5ee258	-0.054415077
227	0x3d60ddd2	0.054899044
228	0x3d887e27	0.06664687
229	0x3c489fb0	0.012245104
230	0x3d59a60a	0.053136863
231	0xbcc29194	-0.023751058
232	0x3d738886	0.05945637
233	0xbd9913c0	-0.0747447
234	0x3c9206c4	0.017825492
235	0xbcf98c7e	-0.0304625
236	0x3d33d64a	0.043905534
237	0xbd764396	-0.06012305
238	0x3d43d932	0.047814555
239	0x3bd176a0	0.006392315
240	0xbbfe4ba0	-0.00776048
241	0x3d7d678a	0.06186632
242	0x3cf5ed64	0.030020423
243	0x3d0f05f2	0.03491778
244	0xbda7f80f	-0.0820161
245	0x3d1b60fe	0.037934296
246	0xbcae4824	-0.021274634
247	0xbcc9f3e8	-0.024652436
248	0xbd9d6491	-0.07685197
249	0xbd9fef87	-0.07809358
250	0xbd171759	-0.0368875
251	0xbd7c54d8	-0.06160435
252	0x3dad2b45	0.08455519
253	0x3d012a14	0.03153427
254	0xbd624b37	-0.05524751
255	0x3d5666ea	0.05234424

fc2.bias f4 [128]
0	0xbd50b2a2	-0.050951608
1	0x3cc735f4	0.024317719
2	0x3d458f66	0.04823246
3	0xbdb2e2ea	-0.08734687
4	0x3cd828fc	0.02638673
5	0xbd7b57b9	-0.061362956
6	0xbd43fe3b	-0.047849875
7	0x3ba6ced0	0.005090572
8	0xbce32d42	-0.027731542
9	0x3ac11d40	0.0014733449
10	0xbc0b5f08	-0.008506544
11	0x3d2ad792	0.04170949
12	0x3d2aa582	0.041661747
13	0x3d51cb86	0.051219486
14	0xbdab90fd	-0.08377264
15	0x3ccb4140	0.024811387
16	0xbd665789	-0.056235824
17	0x3d4a4d56	0.04939016
18	0x3d6f53de	0.05842959
19	0xbd9e7984	-0.07738021
20	0x3d935733	0.07194366
21	0xbd174029	-0.036926422
22	0x3d8046cb	0.06263503
23	0x3d1a09a2	0.037606843
24	0x3d1193f0	0.035541475
25	0xba3c0a80	-0.00071731955
26	0xbd0aae5a	-0.03385768
27	0x3c0c5e78	0.008567445
28	0xbd227583	-0.03966285
29	0x3d760146	0.06005981
30	0xbd941bc7	-0.072318606
31	0xbda126ba	-0.07868715
32	0x3d5c20be	0.053742163
33	0x3c65c4e8	0.014023997
34	0xbd42e7aa	-0.047584213
35	0x3d7566b2	0.05991239
36	0xbd55ebf6	-0.052226983
37	0x3d9ec273	0.07751932
38	0x3d85b509	0.0652867
39	0xbd9def00	-0.07711601
40	0xbabdd480	-0.0014482886
41	0x36b90000	5.5134296e-06
42	0x3c54d700	0.012990713
43	0x3d3921ee	0.045198373
44	0xbd16749a	-0.036732294
45	0xbc6908a8	-0.014223255
46	0x3c971cf8	0.01844643
47	0x3d00ffd8	0.03149399
48	0xbd8fe265	-0.07025603
49	0x3d31863e	0.043340914
50	0x3daee4ab	0.08539709
51	0xbc692690	-0.014230385
52	0xbd34e37f	-0.04416227
53	0xbd91c6c9	-0.071179934
54	0xbc874208	-0.016510978
55	0xbc23aec0	-0.009990394
56	0xbcc08c80	-0.023504496
57	0x3c0e8d98	0.008700751
58	0x3b708b80	0.0036704242
59	0x3cb3f52c	0.021967493
60	0x3d29b66a	0.04143373
61	0xbda2e2e7	-0.079534344
62	0x3db2def3	0.087339304
63	0xbd3d41af	-0.04620522
64	0x3d94dca1	0.07268644
65	0x3dad9d89	0.08477313
66	0xbd05ca35	-0.032663543
67	0x3d371f0a	0.044707336
68	0xbd5291f7	-0.051408734
69	0x3c19a888	0.00937856
70	0xbafa8e40	-0.001911588
71	0x3d47e462	0.048801787
72	0xbd6251fd	-0.05525397
73	0xbd9d914b	-0.07693728
74	0xbd93187f	-0.07182407
75	0x3c026ad0	0.007960036
76	0xbca26674	-0.019824244
77	0x3d96b751	0.073591836
78	0xbd643266	-0.055712126
79	0x3cba8c08	0.02277185
80	0x3c2508f0	0.010072932
81	0x37907000	1.7218292e-05
82	0x3d14590a	0.036217727
83	0x3da314e9	0.07962973
84	0xbd72080e	-0.059089713
85	0xbd8b7660	-0.068096876
86	0x3caad7b4	0.020854808
87	0xbd2a006c	-0.04150431
88	0x3d7d60de	0.061859958
89	0x3d3427d6	0.043983303
90	0x3d155a4a	0.03646306
91	0x3d6a0f02	0.05714322
92	0xbcdf6622	-0.02727038
93	0xbda85948	-0.08220154
94	0xbd416cd8	-0.047222942
95	0x3cdac4b0	0.026705116
96	0x3db3bf15	0.087766804
97	0x3d12fb32	0.03588409
98	0xbdaa407b	-0.0831308
99	0xbd90f236	-0.07077448
100	0x3c765ad0	0.0150363
101	0x3d930ed1	0.071805604
102	0x3db364d9	0.087594695
103	0x3cc28aa4	0.02374775
104	0x3d1725c6	0.036901258
105	0xbd354d5d	-0.044263232
106	0x3da8f71b	0.08250257
107	0x3ce483d8	0.0278949
108	0xbd938a83	-0.072041534
109	0x3cfefabc	0.031125419
110	0xbcfd4f42	-0.030921582
111	0xbdb4a0c1	-0.08819724
112	0xbce976f0	-0.028499097
113	0x3d0bc9de	0.034128062
114	0x3d971905	0.07377819
115	0x3db2f885	0.087388076
116	0x3c867dfc	0.016417496
117	0xbd0ed92d	-0.034875084
118	0x3ce595d4	0.028025545
119	0x3d8d05c5	0.06885866
120	0x3d47f076	0.048813306
121	0xbd12381a	-0.035698034
122	0xbcaf58a4	-0.021404572
123	0x3c03fe30	0.0080562085
124	0xbb89d760	-0.004206583
125	0xbdaddfc6	-0.08489947
126	0xbd84192a	-0.06450112
127	0xbd7eca1a	-0.062204458

fc3.weight f4 [2, 128]
0	0xb9cff600	-0.000396654
1	0x3c985020	0.018592894
2	0x3d973e31	0.07384909
3	0x3c56fa28	0.013121165
4	0x3daa6611	0.08320249
5	0x3d04585e	0.032310836
6	0xbca551ac	-0.020180546
7	0x3d17ecc2	0.037091024
8	0x3d3af41a	0.04564295
9	0x3d587fb2	0.052856155
10	0x3d790726	0.060797833
11	0xbd06e59d	-0.03293382
12	0x3c37e1b0	0.011223242
13	0x3d214856	0.039375626
14	0x3d8ddd39	0.069269605
15	0x3daaa607	0.083324485
16	0x3c500e68	0.012698747
17	0xbcf629e8	-0.03004928
18	0x3d2c89fe	0.042123787
19	0xbbad5810	-0.005290039
20	0x3d59dc1a	0.05318842
21	0xbd8f7636	-0.07004969
22	0xbd434a6a	-0.04767839
23	0x3d3bacd6	0.045819126
24	0x3d461a22	0.048364766
25	0x3d84651d	0.06464598
26	0xbd8b030f	-0.06787693
27	0x3bbb9de0	0.0057256073
28	0x3d68e606	0.056859992
29	0xbd7d5aaf	-0.06185406
30	0xbd536b00	-0.051615715
31	0xbd9257c5	-0.07145647
32	0xbdad78a7	-0.08470278
33	0xbad77fc0	-0.0016441271
34	0xbd898f6a	-0.06716807
35	0xbcec4ca2	-0.028845135
36	0xbcc9040c	-0.024538063
37	0x3cbe13c4	0.023202784
38	0xb88c0000	-6.67572e-05
39	0x3d052caa	0.032513298
40	0xbc1ee300	-0.009697676
41	0xbc486b88	-0.012232669
42	0xbcd4d946	-0.02598251
43	0xbd89bb3a	-0.06725164
44	0xbd1e1355	-0.038592655
45	0xbd177072	-0.03697247
46	0x3d7262b2	0.059176154
47	0x3d886fcd	0.06661949
48	0xbcaebb10	-0.021329433
49	0x3c971700	0.018443584
50	0xbc7596c0	-0.014989555
51	0xbda70100	-0.081544876
52	0x3c8f6c04	0.01750756
53	0x3b25a3a0	0.002527453
54	0xbd0336be	-0.032034628
55	0xbc405208	-0.011738308
56	0xbd186d0c	-0.03721337
57	0x3d012988	0.031533748
58	0xbd8ad134	-0.067781836
59	0xbd9a1929	-0.0752433
60	0x3d4eecee	0.050518923
61	0x3ca9204c	0.020645283
62	0x3d4b89fa	0.04969213
63	0x3c9f903c	0.019477956
64	0xbd9b297e	-0.075762734
65	0x3d9b7cb5	0.07592145
66	0x3d53bfb6	0.0516965
67	0xbcee9c20	-0.02912718
68	0x3d7a2b16	0.061076246
69	0xbd74a919	-0.059731577
70	0x3b8b81b0	0.0042574033
71	0x3d3dd08a	0.046341456
72	0x3d950f5b	0.072783194
73	0x3d8fd7db	0.07023593
74	0x3bd5a0e0	0.006519422
75	0x3d012ca0	0.0315367
76	0x3d27ca06	0.04096415
77	0x3da0a687	0.078442626
78	0x3da688b9	0.081315465
79	0x3d854393	0.065070294
80	0xbd9d884c	-0.07692012
81	0x3d5416b6	0.05177947
82	0x3d840203	0.06445696
83	0x3bb9ec00	0.0056738853
84	0x3d674cfe	0.05646991
85	0xbc80b7ec	-0.0157127
86	0x3bcf4eb0	0.006326519
87	0xba645a80	-0.00087109953
88	0xbd5307d4	-0.051521137
89	0x3d74fc32	0.059810825
90	0xbd0714a9	-0.032978687
91	0x3cb1b6b4	0.021693565
92	0x3d8c6537	0.06855243
93	0x3d05e08a	0.03268484
94	0x3d7120ba	0.0588691
95	0x3cca09b4	0.02466283
96	0x3daf2411	0.08551801
97	0xbceec480	-0.029146433
98	0x3c688a78	0.01419317
99	0xbdb2df73	-0.08734026
100	0x3d2a0fb2	0.041518874
101	0x3d23ba0e	0.039972357
102	0xbd138c9e	-0.036022775
103	0x3d61ee1e	0.055158727
104	0x3cb9cadc	0.022679739
105	0x3d44d9ae	0.048059158
106	0x3ab42300	0.0013743341
107	0xbd4d27f8	-0.050086945
108	0xbd991d5d	-0.07476304
109	0x3d89a18b	0.06720265
110	0x3d4b46a6	0.049627922
111	0x3d971a95	0.07378117
112	0x3d886eab	0.06661733
113	0x3cfa9608	0.030589119
114	0x3d285426	0.041095875
115	0x3c88c2a4	0.016694374
116	0xbd9aa855	-0.07551638
117	0x3da66bcb	0.081260286
118	0xbcc3f31c	-0.023919635
119	0xbc2ac028	-0.01042179
120	0x3b149420	0.0022671297
121	0xbc994768	-0.018710807
122	0xbce49d86	-0.027907144
123	0x3d9227cd	0.07136498
124	0x3d4cdc6a	0.05001489
125	0x3cbeeee8	0.023307279
126	0xbd29c3f4	-0.04144664
127	0xbd58178f	-0.052756842
128	0x3d0faebc	0.03507875
129	0x3d9bc92f	0.07606732
130	0xbd355392	-0.044269152
131	0xbc9e3b34	-0.01931534
132	0xbda1831d	-0.07886336
133	0xbd74edb6	-0.05979701
134	0xbd05a6b5	-0.032629687
135	0x3c082ec8	0.008311935
136	0x3d7ffce6	0.062497042
137	0x3d862809	0.06550605
138	0xbb7ea800	-0.003885746
139	0xbd5a9c71	-0.05337185
140	0x3c558a38	0.013033442
141	0xbdae054d	-0.08497105
142	0xbd9e199c	-0.07719728
143	0xbbf00710	-0.0073250607
144	0xbc7a4bd0	-0.015276864
145	0x3d6aff02	0.0573721
146	0xbd9b35cb	-0.075786196
147	0xbdad010f	-0.084474675
148	0x3daf1a45	0.085499324
149	0x3d83c26d	0.06433568
150	0x3d8434ed	0.06455407
151	0x3cdd6d08	0.02702953
152	0xbd5f7718	-0.054556936
153	0x3cacb730	0.021083444
154	0xbd3123e8	-0.043247133
155	0x3d0fe780	0.035132885
156	0x3ce8e9fc	0.028431885
157	0xbd8caea0	-0.068692446
158	0x3becfc30	0.0072322115
159	0x396bee00	0.00022500008
160	0x3d5d58d6	0.0540398
161	0x3da75b05	0.081716575
162	0x3d7a3c6e	0.061092786
163	0xbd44f5ce	-0.04808598
164	0xbd40c180	-0.047059536
165	0xbda9b182	-0.0828581
166	0x3d3bbf66	0.04583683
167	0xbd47df79	-0.048797105
168	0xbd89c332	-0.06726684
169	0xbaadb980	-0.0013254136
170	0x3d58b50e	0.052907042
171	0xbae1cc40	-0.0017227009
172	0xbd8849b7	-0.06654685
173	0xbd9a8f3a	-0.075468495
174	0x3d6bab2a	0.05753628
175	0x3d90ca7b	0.0706987
176	0xbcd1dfc4	-0.025619395
177	0x3d84d063	0.06485059
178	0x3cc162a4	0.023606606
179	0x3d2f04a2	0.042729028
180	0xbd9b4feb	-0.075836025
181	0xbba339f0	-0.004981272
182	0xbd5f842f	-0.05456942
183	0xbd82f27c	-0.063939065
184	0x3d0b9968	0.034081846
185	0x3db4ac53	0.08821931
186	0x3d571432	0.052509494
187	0x3d4883be	0.048953764
188	0x3dabc89f	0.08387875
189	0xbcd4bbe2	-0.025968496
190	0xbca711ec	-0.020394288
191	0x3d36840e	0.04455953
192	0x3cb2cf50	0.02182737
193	0xbdb4de0b	-0.08831414
194	0xbd57a0eb	-0.052643698
195	0xbd4173ae	-0.04722946
196	0xbd769360	-0.06019914
197	0xbd290347	-0.04126289
198	0x3d32cff2	0.043655343
199	0x3d9f2b39	0.07771916
200	0x3dad3293	0.08456912
201	0xbcee58ee	-0.02909514
202	0x3cb726d0	0.022357374
203	0x3d9a1e53	0.07525315
204	0xbd90feaa	-0.07079823
205	0x3daf16e9	0.08549292
206	0xbd300d38	-0.042981356
207	0xbca5a5a4	-0.020220585
208	0xbdb241b9	-0.08703942
209	0xbd1412ca	-0.03615073
210	0x3d200626	0.039068364
211	0x3cdac768	0.026706412
212	0x3d84e775	0.064894594
213	0xbda06558	-0.0783183
214	0xbdaed37f	-0.085364334
215	0x3c021408	0.007939346
216	0xbd881194	-0.06643978
217	0xbcd49180	-0.025948286
218	0x3bbb00d0	0.005706884
219	0xbd1b2282	-0.037874706
220	0x3c64e140	0.013969719
221	0xbd709c2c	-0.058742687
222	0x3c681b60	0.014166683
223	0x3cdc5488	0.026895776
224	0x3d083e1e	0.033262365
225	0x3d6a9e32	0.057279773
226	0x3c63a568	0.013894416
227	0x3d340d56	0.04395803
228	0x3cb3c28c	0.021943353
229	0xbd884379	-0.066534944
230	0xbd8360e2	-0.06414963
231	0xbd567384	-0.052356258
232	0x3d1775b2	0.036977477
233	0xbba78090	-0.0051117614
234	0x3d839029	0.06423981
235	0xbd0cd5e2	-0.034383662
236	0xbd7fb296	-0.062426172
237	0xbd921f95	-0.0713493
238	0x3d8d27db	0.068923675
239	0xbc9ec9e8	-0.019383386
240	0x3d2afefa	0.04174707
241	0xbd284f65	-0.04109134
242	0x3d5f0c62	0.05445517
243	0x3d9e8293	0.07739749
244	0xb69d4000	-4.686415e-06
245	0xbd701baa	-0.058620133
246	0xbd9bca93	-0.07606997
247	0x3d5b69da	0.053567745
248	0x3d1ed842	0.03878046
249	0xbd1ad52b	-0.03780095
250	0x3c187ad0	0.0093066245
251	0x3da077b5	0.07835332
252	0x3b418420	0.0029528216
253	0x3da11aff	0.07866477
254	0x3cecac0c	0.028890632
255	0xbda7f6e0	-0.082013845

fc3.bias f4 [2]
0	0xbda47a07	-0.08031087
1	0x3cb90224	0.022584029

fc1.weight f4 [128, 16]
0	0xbd9d2f48	-0.07675034
1	0xbe52414e	-0.20532724
2	0x3e167074	0.14691335
3	0x3e47f6f8	0.19527805
4	0x3df81954	0.12114206
5	0xbe46d2dc	-0.19416374
6	0x3df56db8	0.11983818
7	0xbdcbff60	-0.09960818
8	0xbdf2b5b0	-0.118510604
9	0x3e6d7cd8	0.23192155
10	0xbdd81bc4	-0.10552171
11	0x3e08acee	0.13347217
12	0xbe096150	-0.13416028
13	0xbd405df0	-0.046964586
14	0x3d2566e8	0.040381342
15	0x3e584b74	0.21122533
16	0xbe1996b8	-0.14998901
17	0x3dfa0760	0.12208438
18	0x3dea7fa0	0.11450124
19	0xbe785904	-0.24252707
20	0xbdaca164	-0.0842922
21	0x3dc26388	0.0949164
22	0x3d2c3620	0.042043805
23	0xbe75dd0a	-0.24010101
24	0xbde4ff90	-0.11181557
25	0xbdf087cc	-0.11744651
26	0xbe3602d8	-0.17774522
27	0x3e23ac30	0.15983653
28	0x3b68c900	0.0035520196
29	0x3df42000	0.11920166
30	0xbc291140	-0.010319054
31	0xbe094b1a	-0.13407555
32	0x3e1f2496	0.155413
33	0x3df0ea94	0.11763492
34	0xbde03284	-0.10947135
35	0x3e4c5db2	0.19957617
36	0xbe53c356	-0.20679983
37	0x3e78c120	0.24292421
38	0x3d3bf520	0.045888066
39	0xbbd88580	-0.0066077113
40	0xbdd694c0	-0.104775906
41	0x3e3965cc	0.18105239
42	0x3be48480	0.006973803
43	0xbdcddf3c	-0.10052344
44	0x3d6853f0	0.056720674
45	0x3d921cf4	0.071344286
46	0xbd497768	-0.04918614
47	0x3d237668	0.039907843
48	0xbc2e3de0	-0.010634869
49	0xbd855114	-0.06509605
50	0xbdf651cc	-0.1202732
51	0x3e57b78e	0.21066114
52	0xbd809afc	-0.06279561
53	0xbd50a088	-0.050934345
54	0x3e7c0de6	0.24614677
55	0x3e3e2480	0.18568611
56	0xbe34a9f4	-0.17642957
57	0x3e6b290a	0.22964874
58	0xbe7e8096	-0.24853739
59	0xbce1ec10	-0.027578384
60	0xbe4dd89c	-0.20102161
61	0x3e42fba8	0.19041312
62	0xbc244ee0	-0.010028571
63	0x3e0dd318	0.13850057
64	0xbd97dbfc	-0.074150056
65	0x3d4c3dc0	0.049863577
66	0xbe69dc02	-0.22837833
67	0x3e54f774	0.20797521
68	0xbdc4c754	-0.09608331
69	0x3e16240e	0.14662191
70	0xbe76a878	-0.24087703
71	0x3dc82d28	0.09774238
72	0xbda42974	-0.08015719
73	0xbe7f85f0	-0.24953437
74	0x3e4a4c4e	0.1975567
75	0xbe4eab62	-0.20182565
76	0x3e3e4cf8	0.18584049
77	0x3dc0a220	0.09405923
78	0x3e7ac872	0.24490526
79	0xbdbf207c	-0.09332368
80	0x3e64db28	0.22349226
81	0xbd6f9368	-0.058490187
82	0x3d1fbd48	0.038998872
83	0x3df203e0	0.11817145
84	0xbe547054	-0.20745975
85	0xbe6d79b8	-0.23190963
86	0x3d837470	0.06418693
87	0x3e0d051c	0.1377148
88	0xbe3d5c42	-0.18492225
89	0x3d0954d8	0.03352818
90	0x3e2e5b94	0.17027122
91	0x3e6e0eac	0.23247784
92	0x3e330184	0.17481047
93	0x3e734fb8	0.23760879
94	0xbca819b0	-0.020520061
95	0xbe07d72a	-0.13265672
96	0xbdcff1b0	-0.1015352
97	0xba53ac00	-0.0008074641
98	0x3dbd8a70	0.092549205
99	0x3e69e200	0.22840118
100	0x3d5cc970	0.053903043
101	0xbda6708c	-0.08126935
102	0xbd92d970	-0.07170379
103	0x3d127ff8	0.03576657
104	0xbd4d5398	-0.05012855
105	0x3d301508	0.042988807
106	0xbd3e2778	-0.04642436
107	0x3d161220	0.03663838
108	0xb85b8000	-5.2332878e-05
109	0x3e2981be	0.16553399
110	0xbdec341c	-0.115333766
111	0xbe5394ee	-0.20662281
112	0xbc02e080	-0.007988095
113	0xbe2ad8f6	-0.16684327
114	0x3da826b4	0.08210507
115	0xbdbdf5f0	-0.092754245
116	0x3d42c188	0.047547847
117	0x3e30378c	0.1720869
118	0xbe7f44be	-0.24928567
119	0xbe26af68	-0.1627785
120	0x3e185536	0.14876255
121	0xbdbe2ce0	-0.09285903
122	0x3c028be0	0.007967919
123	0xbe30e7d6	-0.17275938
124	0x3c9fb1b0	0.019493908
125	0x3d1f9730	0.038962543
126	0xbcf5cd70	-0.030005187
127	0xbdbbe2ac	-0.091740936
128	0x3d88e3c4	0.06684068
129	0x3e48f0c6	0.19623098
130	0xbe35f880	-0.17770576
131	0x3d1d0848	0.038337976
132	0xbe33a764	-0.17544323
133	0x3c6ffa20	0.014647037
134	0xbe0cdbde	-0.13755748
135	0x3e336bfe	0.17521665
136	0x3dd64b44	0.104635745
137	0x3e0009e2	0.1250377
138	0xbe24a9fa	-0.16080466
139	0x3d9982bc	0.07495639
140	0xbe7cbd8e	-0.24681684
141	0xbe71e92a	-0.23624101
142	0xbde1e704	-0.11030391
143	0xbe18d4e6	-0.14924964
144	0x3cb0f4c0	0.02160108
145	0xbdfe0410	-0.124031186
146	0x3e278ca2	0.16362241
147	0x3c199d00	0.009375811
148	0x3de68040	0.112549305
149	0xbe50903a	-0.20367518
150	0xbe1aa132	-0.15100554
151	0x3e2786c2	0.1636
152	0x3d855ec0	0.06512213
153	0xbcc6cef0	-0.024268597
154	0x3e465884	0.19369704
155	0x3e2b81fc	0.16748804
156	0x3e0ca72c	0.13735646
157	0xbe142ca8	-0.1447016
158	0x3e263a26	0.1623312
159	0x3c5e2700	0.013559103
160	0xbe698260	-0.2280364
161	0x3e395dcc	0.18102187
162	0x3d0b9908	0.03408149
163	0x3c1477c0	0.009061754
164	0x3e34a394	0.17640525
165	0xbc7e0540	-0.015504181
166	0xbe752cfe	-0.23942944
167	0xbdb7a070	-0.08966148
168	0xbe457af8	-0.1928519
169	0xbd18d7c0	-0.03731513
170	0x3e5b38f2	0.21408442
171	0xbda59afc	-0.080862015
172	0xbe101472	-0.140703
173	0xbd223b50	-0.039607346
174	0x3bb3c3c0	0.0054859817
175	0xbe1f8e1e	-0.15581557
176	0xbd52b9f0	-0.051446855
177	0xbe1cfcde	-0.15330836
178	0x3e1e5ef0	0.15465903
179	0x3e28664c	0.16445273
180	0x3e37c902	0.17947772
181	0xbe6ba766	-0.23013076
182	0x3e094da6	0.13408527
183	0x3e30da24	0.17270714
184	0x3e663d20	0.22484255
185	0x3c860040	0.016357541
186	0xbc2e9580	-0.010655761
187	0x3e50e596	0.2040008
188	0xbe5c0f6c	-0.21490258
189	0x3de8caac	0.113667816
190	0xbdc1d4c8	-0.09464413
191	0xbcf92e60	-0.030417621
192	0x3e44071c	0.19143337
193	0x3d1fa1e0	0.038972735
194	0x3d85dc1c	0.06536123
195	0x3e0bc738	0.13650215
196	0x3e630242	0.2216883
197	0xbcbeaaf0	-0.023274869
198	0xbe0d458e	-0.13796064
199	0xbdce98d8	-0.100877464
200	0x3e14205c	0.14465469
201	0xbe6360ce	-0.22204897
202	0x3e73453c	0.2375688
203	0x3cd082e0	0.025453031
204	0x3dad7e10	0.0847131
205	0x3e1c5d74	0.15270025
206	0xbe1e23c8	-0.15443337
207	0xbe1dc48a	-0.15407005
208	0xbdba076c	-0.09083447
209	0xbe07e72e	-0.13271782
210	0x3def802c	0.11694369
211	0xbe4b44fe	-0.19850537
212	0x3d53dd50	0.051724732
213	0x3cd02790	0.02540949
214	0x3c34da00	0.011038303
215	0x3dab1e68	0.08355409
216	0x3cec93e0	0.028879106
217	0xbe79e21e	-0.24402663
218	0xbe5ea5c4	-0.21742922
219	0xbe6577e0	-0.2240901
220	0xbe7ca166	-0.24670944
221	0x3d9bd968	0.07609826
222	0x3e0e59b6	0.1390141
223	0x3de904f0	0.11377895
224	0xbd03e3d0	-0.03219968
225	0x3e26ba8c	0.162821
226	0xbdf0f708	-0.117658675
227	0x3d0a1210	0.033708632
228	0x3de5cd48	0.11220795
229	0x3dd1cf48	0.10244614
230	0xbe230e7c	-0.15923494
231	0xbd1d4c88	-0.038403064
232	0x3e00067a	0.1250247
233	0x3da6b580	0.08140087
234	0x3e4f5b46	0.20249662
235	0x3df263f0	0.11835468
236	0xbe2adf66	-0.16686782
237	0xbda4a8f0	-0.08040035
238	0xbe20190e	-0.15634558
239	0x3dd8a69c	0.10578653
240	0xbe02b020	-0.12762499
241	0xbe5471e8	-0.20746577
242	0xbe020366	-0.12696609
243	0x3c1a0f40	0.00940305
244	0x3da15ad8	0.07878655
245	0x3e4e208c	0.20129603
246	0xbe2fe994	-0.17178947
247	0xbc5a5200	-0.013325214
248	0x3d83a57c	0.06428048
249	0xbe5a3bf4	-0.21311933
250	0xbde92de8	-0.11385709
251	0x3e7d8b48	0.24760163
252	0xbe120222	-0.14258626
253	0xbc974f10	-0.018470317
254	0x3d162bf8	0.036663026
255	0xbe7c5c9a	-0.246447

fc1.bias f4 [128]
0	0x3e6383f0	0.22218299
1	0xbe55bd82	-0.20873073
2	0x3d027ef0	0.03185934
3	0xbe7cb6c8	-0.246791
4	0x3e6d541e	0.2317662
5	0x3e06ef56	0.13177237
6	0x3e14d296	0.14533457
7	0x3c559c20	0.013037711
8	0xbdc0ea38	-0.09419674
9	0xbda6a00c	-0.08135995
10	0xbdaf29fc	-0.0855293
11	0x3e3a4348	0.18189728
12	0x3e1d4160	0.1535697
13	0xbe23b066	-0.1598526
14	0xbe3190dc	-0.17340416
15	0xbe36ddc0	-0.17858028
16	0x3ce337b0	0.027736515
17	0x3e36356a	0.17793813
18	0xbe2d07c6	-0.16897497
19	0x3e7ddaea	0.2479054
20	0x3e504234	0.20337754
21	0x3e2f5930	0.17123866
22	0xbc414740	-0.0117967725
23	0x3bc67ac0	0.0060571134
24	0xbe6b21b0	-0.2296207
25	0xbcad5fc0	-0.021163821
26	0xbe149272	-0.1450899
27	0x3e7a54f4	0.2444647
28	0x3e616278	0.22010219
29	0xbdd61f74	-0.10455218
30	0xbcea0290	-0.028565675
31	0x3e0e5f70	0.13903594
32	0xbdad7818	-0.08470172
33	0x3ceceb00	0.02892065
34	0xbe27af5c	-0.16375488
35	0xbdd241e0	-0.10266471
36	0x3df51a28	0.119678795
37	0x3e71b0dc	0.23602623
38	0xbe4470f6	-0.19183716
39	0xbe7ec58e	-0.24880049
40	0x3e25a2f6	0.16175446
41	0x3bca96c0	0.0061825216
42	0xbe2240f4	-0.1584509
43	0x3e38ee42	0.18059638
44	0xbe782edc	-0.24236625
45	0xbe39f436	-0.18159565
46	0xbc715f40	-0.014732182
47	0xbdebc1ac	-0.11511549
48	0x3e48aefc	0.19598001
49	0x3e434eea	0.19073072
50	0x3e102f04	0.14080435
51	0xbcb52330	-0.022111505
52	0x3d4f8e00	0.05067253
53	0xbe686968	-0.2269646
54	0x3dd2bcf4	0.10289946
55	0xbe5dc846	-0.2165843
56	0xbe37d76c	-0.1795327
57	0x3e4d3c04	0.20042425
58	0xbe0121fc	-0.1261062
59	0xbe5440f8	-0.20727909
60	0xbe008578	-0.12550914
61	0x3e351310	0.17683053
62	0xbd873268	-0.06601411
63	0xbe2c6f36	-0.16839299
64	0x3e79bd5c	0.24388641
65	0xbda80ed8	-0.08205956
66	0xbcaf6e30	-0.021414846
67	0xbdcdb1b0	-0.10043657
68	0x3e77c4ce	0.24196169
69	0x3e3b0f68	0.18267596
70	0x3e46761c	0.19380993
71	0x3e6a7fce	0.22900316
72	0xbca1e6c0	-0.01976335
73	0xbe420c34	-0.18949968
74	0x3e612ce0	0.21989775
75	0x3e71ac8e	0.2360098
76	0x3e33f8d8	0.17575395
77	0x3cc831c0	0.024437785
78	0xbe0a8ba6	-0.13529834
79	0x3e022bac	0.12711972
80	0xbded8628	-0.11597854
81	0xbd0e11a8	-0.034684807
82	0xbd50a648	-0.05093983
83	0xbe15237e	-0.1456432
84	0xbe304966	-0.172155
85	0xbded70ec	-0.11593804
86	0x3e2b327a	0.16718474
87	0xbe2e753a	-0.17036906
88	0xbe569774	-0.20956212
89	0xbdf47854	-0.11937013
90	0x3e4f90ac	0.20270032
91	0xbcf244c0	-0.029573798
92	0x3e3d7ea6	0.18505344
93	0xbc73efa0	-0.014888674
94	0x3e0154f2	0.1263006
95	0x3e3402ca	0.17579189
96	0x3c359320	0.011082441
97	0xbe0e08fc	-0.13870615
98	0xbd0263f8	-0.03183362
99	0x3d0a6610	0.03378874
100	0xbe2e4018	-0.17016637
101	0x3cc6b530	0.024256319
102	0x3e1756e8	0.14779246
103	0x3e7f1b66	0.24912795
104	0x3deb1708	0.11479002
105	0x3e64fb00	0.22361374
106	0xbda83d80	-0.08214855
107	0x3d382a78	0.044962376
108	0x3e52120a	0.20514694
109	0x3cfc7ed0	0.030822188
110	0x3e4451c8	0.19171822
111	0xbe681d4a	-0.22667423
112	0xbe7273ee	-0.23677036
113	0x3e353176	0.17694649
114	0x3e3bde78	0.18346584
115	0xbdb47980	-0.08812237
116	0xbe3979b2	-0.1811283
117	0xbdd456e8	-0.103681386
118	0xbe374618	-0.17897832
119	0x3d81ff14	0.063474804
120	0x3e5fec0a	0.21867386
121	0xbd42d968	-0.047570616
122	0xbde1e154	-0.11029306
123	0x3e62c020	0.22143602
124	0x3d94ac48	0.072594225
125	0x3d802798	0.06257552
126	0x3e518d1c	0.20463985
127	0x3e77f4ee	0.24214527

fc2.weight f4 [128, 128]
0	0x3d56eb2e	0.05247038
1	0x3da827dd	0.08210728
2	0xbc082750	-0.008310154
3	0xbb1b3be0	-0.0023686811
4	0xbd6418f4	-0.05568786
5	0xbd932e94	-0.071866184
6	0xbb9bbb90	-0.004752584
7	0x3d8a377d	0.06748865
8	0x3cc92040	0.02455151
9	0x3bebb620	0.007193342
10	0xbd90a38d	-0.07062445
11	0x3d969147	0.07351928
12	0xbd19b240	-0.037523508
13	0xbdb4f478	-0.08835691
14	0xbb868e70	-0.0041063353
15	0x3afa99c0	0.0019119307
16	0xbd1a54df	-0.037678596
17	0xbcb11d40	-0.021620393
18	0x3caa9f38	0.020827875
19	0x3d38f8a2	0.04515899
20	0x3d80f1e5	0.06296138
21	0xbd0fa33e	-0.03506779
22	0xbda4c2ee	-0.080449924
23	0xbb901860	-0.004397437
24	0x3d713b92	0.0588947
25	0x3c7a2ed0	0.01526995
26	0xbbe737d0	-0.007056214
27	0x3d8359ad	0.06413589
28	0xbdaa1ab8	-0.083058774
29	0x3d9b19d5	0.075732864
30	0xbda15962	-0.078783765
31	0xbd263b7f	-0.040584084
32	0xbd104044	-0.03521754
33	0xbda3095e	-0.07960771
34	0x3ce30b78	0.02771543
35	0x3d87dc9f	0.06633877
36	0xbc8eb3c8	-0.01741971
37	0x3c6a9430	0.014317557
38	0x3d3e8a62	0.04651869
39	0xbdadc050	-0.08483946
40	0x3d64c866	0.055855177
41	0x3d9c900d	0.07644663
42	0xbd05506e	-0.032547407
43	0x3d90b15f	0.07065081
44	0x3ce4a554	0.027910866
45	0xbd8b95ac	-0.06815657
46	0xbd0d92ca	-0.034563817
47	0xbd5cac62	-0.053875335
48	0x3cf97720	0.030452311
49	0x3bce4360	0.006294653
50	0xb9c95f00	-0.00038408488
51	0xbd86c991	-0.065814145
52	0x3d87eda9	0.06637127
53	0xbc832370	-0.016008109
54	0x3d374e92	0.044752665
55	0x3cb5e858	0.022205517
56	0x3cec889c	0.028873734
57	0xbd56cf3e	-0.052443735
58	0xbc6a2870	-0.014291868
59	0x3d960cdd	0.07326672
60	0xbaa9be80	-0.001295045
61	0xbccdc414	-0.025117911
62	0xbd1af1d4	-0.03782828
63	0x3d93ddb5	0.07220022
64	0x3c6a3948	0.0142958835
65	0xbd029312	-0.03187854
66	0x3d084a0a	0.033273734
67	0x3d18ac46	0.037273668
68	0x3ccb9f60	0.02485627
69	0xbd2439b8	-0.040094107
70	0xbd563ed0	-0.052305996
71	0x3ceb12bc	0.028695457
72	0x3d97b5ff	0.0740776
73	0xbcec4dac	-0.02884563
74	0xbd07a204	-0.033113495
75	0xbb127e80	-0.0022353232
76	0xbd6344e1	-0.05548561
77	0x3c998a74	0.018742777
78	0xbcf4915a	-0.029854465
79	0xbd19531c	-0.037432775
80	0xbd98b9fc	-0.07457349
81	0x3cdf4a40	0.027257085
82	0xbd54620c	-0.051851317
83	0x3b975710	0.004618533
84	0xb8fd6800	-0.000120833516
85	0x3cd1e2c4	0.025620826
86	0x3d62842a	0.055301823
87	0x3d8ed627	0.0697444
88	0x3cf460fc	0.029831402
89	0xbd5a641d	-0.05331813
90	0x3d954b1d	0.07289717
91	0x3d8ce13b	0.06878897
92	0xbd3b6f12	-0.04576022
93	0x3d20769e	0.039175622
94	0xbbfbac80	-0.0076804757
95	0x3d1f1a32	0.03884334
96	0xbc478628	-0.012177981
97	0xbd90c7d4	-0.07069364
98	0x3d92d561	0.07169605
99	0x3daa0653	0.083019875
100	0x3bfd0020	0.007720962
101	0xbd844f9d	-0.064604975
102	0xbd8df22f	-0.069309585
103	0x3d444d1a	0.047925092
104	0xbd752877	-0.059853043
105	0x3baa8bf0	0.00520467
106	0x3c862750	0.016376168
107	0xbd5605e1	-0.0522517
108	0x3da60b51	0.08107627
109	0x3d923daf	0.071406715
110	0xbd1b8562	-0.037969
111	0x3c67b840	0.01414305
112	0x3db38e83	0.08767416
113	0x3d1f2ad2	0.038859196
114	0x3c872798	0.016498372
115	0x3d53b096	0.051682077
116	0x3bc9c560	0.006157562
117	0xbd36c57a	-0.044621922
118	0x3d603c2e	0.05474489
119	0xbd092ba7	-0.033488896
120	0xbdab477f	-0.08363246
121	0xbdb466a4	-0.0880864
122	0xbd8e73df	-0.069556944
123	0x3ca3e500	0.020006657
124	0xbc94ba20	-0.018155158
125	0xbc60fdf8	-0.013732426
126	0xba038580	-0.00050171465
127	0xbc192868	-0.0093480125
128	0xbd95d027	-0.073150925
129	0xbd078df9	-0.03309438
130	0xbd2bb3a8	-0.04191938
131	0x3da72fe9	0.08163435
132	0xbc864a68	-0.016392902
133	0xbd83daf9	-0.0643825
134	0x3c618060	0.013763517
135	0x3b736920	0.0037141517
136	0x3da14de1	0.07876182
137	0xbc81c710	-0.01584199
138	0xbda00b43	-0.07814648
139	0xbd93913c	-0.07205436
140	0xba852000	-0.0010156631
141	0xbcdd9ac8	-0.027051345
142	0x3c209bf8	0.009802811
143	0x3da6aab7	0.0813803
144	0x3cbed088	0.023292795
145	0xbd8ce7ba	-0.06880136
146	0xbc219688	-0.00986255
147	0xbd785a9f	-0.060633298
148	0xbd400810	-0.04688269
149	0xbd9d4c06	-0.07680516
150	0xbc080370	-0.008301601
151	0xbd2f0f4d	-0.0427392
152	0x3cab67c8	0.02092351
153	0x3c436e28	0.011928119
154	0x3d42b34a	0.047534265
155	0x3ced39b0	0.028958172
156	0x3d24033e	0.040042154
157	0x3bad02b0	0.0052798614
158	0x3da99ac7	0.082814746
159	0x3d9fd33f	0.07803964
160	0x3bccf230	0.006254457
161	0x3b018ea0	0.001976885
162	0x3da2a8a5	0.07942323
163	0xbbc30c30	-0.0059523806
164	0xbd8e3a34	-0.06944695
165	0x3c4e3aa8	0.012587227
166	0x3cd457c4	0.025920756
167	0x3d526e2e	0.051374607
168	0x3d342ade	0.043986194
169	0x3d0919d2	0.03347189
170	0x3d91640b	0.0709916
171	0xbda3d878	-0.080002725
172	0x3d2ae12e	0.041718654
173	0x3d1b1e56	0.037870727
174	0xbda89865	-0.08232192
175	0xbd6fb952	-0.058526345
176	0x3b9eb6b0	0.0048435554
177	0xbda0d63a	-0.078533605
178	0x3c2f23f8	0.010689728
179	0xbcfa4d0c	-0.030554317
180	0x3d99d381	0.07511044
181	0x3ccea9a8	0.025227383
182	0x3d8eb35d	0.069678046
183	0xbcb7c8f8	-0.022434697
184	0xbd74b113	-0.059739184
185	0x3d90dd0d	0.07073412
186	0xbdad1748	-0.08451706
187	0x3d66393e	0.056206934
188	0xbc73a6e8	-0.0148713365
189	0x3d9749a9	0.073870964
190	0xbda37ecf	-0.07983171
191	0x3b33d040	0.002743736
192	0x3d0d38c8	0.03447798
193	0xbd1dbdf3	-0.038511228
194	0xbd2ddf03	-0.04244901
195	0x3d4b3776	0.04961344
196	0xbcd6853a	-0.026186574
197	0xbdb07791	-0.086165555
198	0x3d8250a5	0.06363038
199	0xbc4b04a0	-0.012391239
200	0x3ca6e960	0.020374954
201	0x3d465a92	0.04842622
202	0xbd5cdecf	-0.053923424
203	0x3d1157ea	0.035484232
204	0x3d76ddea	0.060270227
205	0xbd8a9dd1	-0.06768382
206	0xbc68c290	-0.014206544
207	0xbd069dbb	-0.032865267
208	0x3ae9ce80	0.0017838031
209	0x3d689d7a	0.056790806
210	0x3d836195	0.06415097
211	0x3d2569ba	0.04038403
212	0xbd8969c0	-0.06709623
213	0x3c743cd0	0.014907077
214	0x3c83183c	0.016002767
215	0xbd3e6d82	-0.046491154
216	0x3cc18a1c	0.023625426
217	0xbd853bc8	-0.06505543
218	0x3d9f36bb	0.07774111
219	0x3a5c0600	0.0008393228
220	0xbd37a94c	-0.04483919
221	0x3cfa6a78	0.030568346
222	0xbad69c00	-0.0016373396
223	0x3d8b2801	0.067947395
224	0xbd61bd81	-0.055112366
225	0xbc2ceae8	-0.010554053
226	0x3bbf0af0	0.0058301613
227	0x3d6f336a	0.05839864
228	0x3d1a17ea	0.037620462
229	0xbd8954f9	-0.067056604
230	0x3b0bce40	0.0021332651
231	0x3d80f52b	0.06296762
232	0x3d82ae7b	0.06380936
233	0xbda789aa	-0.08180554
234	0xbb4c81a0	-0.0031205192
235	0x3d0a0278	0.03369376
236	0xbca5e10c	-0.020248912
237	0x3d1e40fe	0.0386362
238	0x3d864589	0.065562315
239	0x3d7290be	0.05922007
240	0x3ca30eb4	0.019904472
241	0x3d4f2ee6	0.050581835
242	0xbba79f20	-0.0051154047
243	0xbd693b52	-0.056941338
244	0xbd89ca8d	-0.067280866
245	0x3d8b4389	0.06799991
246	0x3d3cac82	0.046062954
247	0xbd78ce77	-0.060743775
248	0xbcfe79ba	-0.031063903
249	0x3a58ab00	0.0008265227
250	0xbd90832e	-0.070562705
251	0xbd608ffe	-0.05482482
252	0xbc8a76c8	-0.016902342
253	0x3c155530	0.009114549
254	0x3bac9db0	0.0052678213
255	0x3cac1b28	0.021009043

fc2.bias f4 [128]
0	0x3d9227db	0.07136508
1	0x3d5023d2	0.05081541
2	0x3caa6040	0.020797849
3	0xbd63f4d6	-0.055653416
4	0xbd6d2792	-0.057899065
5	0x3d039b84	0.032130733
6	0x3bd547f0	0.0065088198
7	0xbbc633e0	-0.0060486645
8	0xbc44d340	-0.012013257
9	0x3d94cb37	0.07265323
10	0x3be181b0	0.006881915
11	0xbc555ae8	-0.013022162
12	0xbcbeaf68	-0.023277
13	0x3bf5c4b0	0.0075002536
14	0x3d2b121a	0.04176531
15	0x3da53331	0.080664046
16	0x3d21b0a2	0.03947509
17	0xbd890093	-0.06689563
18	0xbd1050dc	-0.035233364
19	0xbd2e94d9	-0.04262242
20	0x3d3a0656	0.0454162
21	0xbb911560	-0.004427597
22	0xbc383a10	-0.011244312
23	0x3d68822a	0.05676476
24	0x3cb9c330	0.02267608
25	0x3b4bf280	0.0031119883
26	0xbd064d4a	-0.032788552
27	0xbcae31cc	-0.02126398
28	0x3d978a4d	0.07399426
29	0xbda9397e	-0.08262919
30	0x3d6a829a	0.057253458
31	0xbd8e1554	-0.06937662
32	0x3da59e6d	0.08086858
33	0x3ccff104	0.02538348
34	0xbc7c9168	-0.015415527
35	0xbd05adfb	-0.032636624
36	0x3d96d1f7	0.07364266
37	0xbb90a520	-0.0044142157
38	0x3da6a537	0.08136981
39	0x3d030ae2	0.0319928
40	0xbd888c75	-0.06667415
41	0x3dacfff9	0.084472604
42	0xbd7dff5c	-0.062011108
43	0x3db2571d	0.08708022
44	0x3da4c253	0.08044877
45	0xbc842fe0	-0.01613611
46	0x3c9b0510	0.018923312
47	0xbc5ddbc8	-0.013541169
48	0x3cfc4df4	0.03079889
49	0x3d0166b4	0.031592086
50	0x3d8856eb	0.06657203
51	0x3da5609f	0.0807507
52	0x3d2f093a	0.04273341
53	0x3c97c58c	0.018526815
54	0xbd119613	-0.035543513
55	0xbd1deb07	-0.038554218
56	0x3d92e03f	0.07171678
57	0x3d8c0c25	0.06838254
58	0x3c6773a0	0.014126688
59	0xbbd9d130	-0.0066472515
60	0xbd10585c	-0.035240516
61	0x3cf59e4c	0.029982708
62	0xbd199630	-0.037496746
63	0x3dabbb27	0.08385306
64	0xbc7b6970	-0.0153449625
65	0x3d8822dd	0.06647275
66	0x3d4287e2	0.04749287
67	0x3c4dea78	0.012568109
68	0x3c000148	0.0078128055
69	0xbd2b7b47	-0.041865613
70	0xbd2be511	-0.0419665
71	0xbc193fb0	-0.009353563
72	0x3d8d76d7	0.069074325
73	0xbdb42c33	-0.08797493
74	0xbda0e501	-0.07856179
75	0xbd7df24a	-0.061998643
76	0x3d691396	0.056903444
77	0x3d424f86	0.04743912
78	0xbb48c320	-0.0030633882
79	0x3d5b9d46	0.053616785
80	0xbd0733d4	-0.03300841
81	0xbc3e38f0	-0.011610255
82	0x3d4651be	0.0484178
83	0xbc96e730	-0.018420786
84	0xbdb31aa3	-0.08745315
85	0xbd974959	-0.07387037
86	0xbcf00132	-0.029297445
87	0x3d7748ae	0.060372047
88	0xbd75f09c	-0.060043916
89	0x3da84079	0.08215422
90	0xbd798672	-0.060919233
91	0xbd746a46	-0.059671663
92	0x3d7f5f3e	0.06234669
93	0x3d49c3ee	0.04925912
94	0x3bf2cd30	0.007409714
95	0x3c908774	0.017642714
96	0x3d997353	0.074926995
97	0xbd389a4c	-0.045069024
98	0x3bac0450	0.0052495375
99	0x3d834bc3	0.06410935
100	0x3d479276	0.04872366
101	0x3db32667	0.08747559
102	0x3da0e1a1	0.07855535
103	0x3d40ed42	0.047101267
104	0x3cac8cd4	0.021063246
105	0x3d3ae952	0.045632668
106	0x3c787240	0.015163958
107	0x3d8bc2cd	0.06824265
108	0x3c8be64c	0.017077588
109	0x3b5f8940	0.0034108907
110	0xbc5bb728	-0.013410367
111	0x3d9162c9	0.0709892
112	0x3d946daf	0.07247483
113	0x3d948445	0.07251791
114	0xbb36cd00	-0.0027893186
115	0xbd6c16c2	-0.05763889
116	0x3c0f9a90	0.008764878
117	0xbc8bd7d8	-0.017070696
118	0xbce19d68	-0.027540877
119	0xbd198f31	-0.037490074
120	0xbd8035f2	-0.06260289
121	0x3cf193e8	0.029489473
122	0xbd5a37b9	-0.053275798
123	0x3caf1428	0.021371916
124	0xbbf3b910	-0.0074378327
125	0xbcdbbf72	-0.026824687
126	0x3cff8b04	0.031194218
127	0xbda8fc4e	-0.08251248
