customTrainer/results/AgentBall11/RollerBall/checkpoint.pt (torch, 156450 bytes, 12 tensors)

fc1.weight f4 [128, 16]
0	0x3d722a68	0.059122473
1	0x3e3ba2bc	0.18323797
2	0x3cdf42e0	0.027253568
3	0xbe60cb96	-0.21952662
4	0x3d542c88	0.05180028
5	0x3e4f62e2	0.20252565
6	0xbd1c8330	-0.038211048
7	0xbe53cb08	-0.20682919
8	0xbe260c3c	-0.16215605
9	0xbe05df1c	-0.1307339
10	0xbdd0b740	-0.10191202
11	0x3d9d7e38	0.0769009
12	0x3e37af02	0.17937854
13	0xbd365e80	-0.044523716
14	0xbe5b7e1e	-0.21434829
15	0xbe069c64	-0.13145596
16	0xbe54781e	-0.20748946
17	0xbd125620	-0.035726666
18	0x3dc2d400	0.09513092
19	0x3e2b2730	0.16714168
20	0x3e0a2a00	0.13492584
21	0x3e517464	0.20454556
22	0xbe1fa806	-0.1559144
23	0x3d02e718	0.03195867
24	0x3e7eb2ee	0.24872944
25	0xbd889f60	-0.06671023
26	0x3d6b91a0	0.057511926
27	0xbe4f2a10	-0.2023089
28	0x3e04383a	0.12912074
29	0xbdc65c1c	-0.09685537
30	0x3d8346a8	0.06409961
31	0x3e7b41d0	0.24536824
32	0x3e5835ec	0.2111432
33	0x3d44b330	0.04802245
34	0x3aff6200	0.0019484162
35	0xbd2f0f40	-0.042739153
36	0x3d67aec0	0.05656314
37	0xbe630238	-0.22168815
38	0x3de94014	0.11389175
39	0x3de001d8	0.10937852
40	0x3de94138	0.113893926
41	0x3e7bc288	0.24585927
42	0x3e2b8102	0.16748431
43	0x3e3c9de2	0.18419603
44	0x3d953fe0	0.07287574
45	0x3dfb3fc4	0.12268022
46	0xbdc326fc	-0.0952892
47	0x3e3ae736	0.18252262
48	0x3c99d000	0.01877594
49	0xbcde5c60	-0.027143657
50	0xbe73375e	-0.2375159
51	0xbe6232ea	-0.22089735
52	0x3e0794a4	0.13240296
53	0xbd1de658	-0.03854975
54	0x3e1e3328	0.15449202
55	0x3e60f016	0.21966586
56	0x3d96820c	0.07349023
57	0x3ce9f8f0	0.028561085
58	0x3dbb2448	0.091377795
59	0x3c9a9840	0.018871427
60	0xbe735674	-0.23763448
61	0xbc6e8a80	-0.014559388
62	0xbe24828c	-0.16065425
63	0x3e6e6e48	0.23284256
64	0x3b4f3180	0.0031615198
65	0xbe6cef4a	-0.23138157
66	0x3e46b2ac	0.19404095
67	0xbda5c288	-0.080937445
68	0xbdf64794	-0.12025371
69	0xbd1583f0	-0.03650278
70	0x3e794364	0.24342114
71	0xbe096b04	-0.1341973
72	0xbdc834fc	-0.09775731
73	0x3e004bd0	0.1252892
74	0xbd5d95c8	-0.05409792
75	0x3e730742	0.23733237
76	0x3e029e6c	0.12755746
77	0x3e17fc62	0.1484237
78	0xbc5a8ac0	-0.013338745
79	0x3d1a98e0	0.03774345
80	0x3e7bcba8	0.24589407
81	0xbe35bf94	-0.17748863
82	0x3e5714c0	0.21004009
83	0x3de33bf8	0.110954225
84	0x3de0f500	0.1098423
85	0x3c47f640	0.012204707
86	0x3db2ba94	0.08726993
87	0xbe00ee54	-0.12590915
88	0xbe61f410	-0.22065759
89	0xbdaea290	-0.085271
90	0x3dd81de4	0.10552576
91	0xbe1f6418	-0.15565526
92	0xbe3b7b5a	-0.18308774
93	0x3e6dfd5e	0.23241183
94	0x3c154a40	0.009111941
95	0x3e75ff94	0.24023277
96	0xbc9f1ca0	-0.01942283
97	0xbccee360	-0.025254905
98	0xbe372582	-0.17885402
99	0x3d82160c	0.06351861
100	0x3e314b9c	0.17313999
101	0x3e27ce62	0.16387323
102	0x3d8eb314	0.0696775
103	0x3e524184	0.20532805
104	0x3da1a2ec	0.07892403
105	0xbe577dc6	-0.21044073
106	0x3da7c4d8	0.08191842
107	0xbdd59d9c	-0.10430452
108	0xbd1e7540	-0.038686037
109	0xbe3c30b6	-0.18377957
110	0xbd808a14	-0.06276336
111	0x3dd10c7c	0.10207459
112	0x3e7b2ea0	0.24529505
113	0x3e391a86	0.18076524
114	0xbe065920	-0.13119936
115	0xbe796b56	-0.24357352
116	0xbe660508	-0.22462857
117	0x3ddacbc8	0.106833994
118	0x3e5a8372	0.21339205
119	0x3d56dd18	0.052456945
120	0xbe42764a	-0.18990436
121	0xbd20f7c0	-0.039298773
122	0xbc0369a0	-0.008020788
123	0x3e1cb006	0.15301523
124	0x3dbd125c	0.092320174
125	0x3e3e20e2	0.18567231
126	0x3d696d58	0.056989044
127	0xbd380958	-0.044930786
128	0x3e3634b8	0.17793548
129	0xbdbfbe94	-0.09362522
130	0x3e44e912	0.19229534
131	0xbe745374	-0.2385996
132	0xbe31d3c4	-0.17365938
133	0xbdde4468	-0.10852891
134	0xbe3ea63a	-0.18618098
135	0x3e1f9a7c	0.15586275
136	0x3e1c868c	0.152857
137	0x3d51a400	0.051181793
138	0x3e36ae20	0.17839861
139	0x3e5d8f38	0.21636665
140	0x3de06248	0.10956246
141	0xbe6946b2	-0.22780874
142	0x3dc45e7c	0.09588334
143	0xbe1166e4	-0.14199406
144	0x3e60395e	0.21896884
145	0x3db095f8	0.08622354
146	0x3dc157fc	0.0944061
147	0xbdb92424	-0.090400964
148	0xbd9951ec	-0.074863285
149	0x3e73d27e	0.23810765
150	0xbe3b8a6c	-0.18314523
151	0x3e784c0e	0.24247763
152	0x3d04b1a8	0.03239599
153	0x3d284930	0.041085422
154	0xbdaa035c	-0.08301422
155	0xbe18f4ca	-0.1493713
156	0x3df53b5c	0.119742125
157	0xbe7c5f18	-0.2464565
158	0x3dfa0924	0.12208775
159	0xbe0bb036	-0.13641438
160	0x3ddfaed0	0.10922015
161	0xbdec6450	-0.115425706
162	0xbdcb4b7c	-0.09926507
163	0xbe5a630c	-0.21326846
164	0x3871e000	5.7667494e-05
165	0xbe0ae07c	-0.13562196
166	0xbe42ba8c	-0.19016474
167	0x3e73d11a	0.23810235
168	0xbc898050	-0.016784817
169	0x3e07d71c	0.13265651
170	0xbe45cdea	-0.19316831
171	0x3cb63640	0.022242665
172	0x3d948e44	0.072536975
173	0xbdaa7714	-0.083234936
174	0x3de14924	0.110002786
175	0x3b73a400	0.003717661
176	0x3db07944	0.086168796
177	0xbe0db564	-0.13838726
178	0xbce37ac0	-0.027768493
179	0xbe503a32	-0.203347
180	0x3d687380	0.056750774
181	0xbe02b232	-0.12763289
182	0x3e7640ba	0.24048129
183	0x3a8d6500	0.0010787547
184	0xbcba3a20	-0.022732794
185	0x3de25400	0.11051178
186	0x3e67a8e4	0.2262302
187	0x3bc3f2c0	0.005979866
188	0xbd41f750	-0.047354996
189	0xbe57fc22	-0.21092275
190	0x3d8ff880	0.070298195
191	0xbd200320	-0.03906548
192	0xbe33fe8e	-0.17577574
193	0x3d7757c0	0.06038642
194	0x3dc73014	0.09725967
195	0xb9dbc000	-0.00041913986
196	0x3e59d594	0.2127288
197	0xbe1e7066	-0.15472564
198	0x3e639d46	0.22227964
199	0x3d344810	0.044014037
200	0xbde29974	-0.11064425
201	0xbe4afa34	-0.19822007
202	0xbe05f504	-0.13081747
203	0xbe4229a8	-0.18961203
204	0xbd57e308	-0.05270675
205	0x3ded6880	0.115921974
206	0x3e0b90d4	0.13629466
207	0xbdf19e50	-0.11797774
208	0x3d9e8d9c	0.077418536
209	0x3db92e0c	0.09041986
210	0x3ddafb8c	0.1069251
211	0x3d571810	0.052513182
212	0xbe2e4670	-0.17019057
213	0x3e1ede78	0.15514553
214	0x3d1219c8	0.03566912
215	0xbe6fcd6a	-0.23418203
216	0x3dc625d4	0.09675184
217	0x3e28e528	0.16493666
218	0x3dabc69c	0.08387491
219	0x3e674f4e	0.22588846
220	0xbd8e3fd0	-0.06945765
221	0xbe697fd2	-0.22802666
222	0x3e4d5a40	0.20053959
223	0xbdcd3e34	-0.1002163
224	0xbdee0130	-0.1162132
225	0xbe4c1df2	-0.19933298
226	0xbe155a0a	-0.14585128
227	0xbd215d28	-0.03939548
228	0xbe2c4110	-0.16821694
229	0x3d124da8	0.03571859
230	0x3e60cf4c	0.21954077
231	0xbdd3f85c	-0.10350105
232	0x3d7ad878	0.061241597
233	0x3e4d0f38	0.20025337
234	0x3dae1044	0.08499196
235	0x3d87f610	0.066387296
236	0xbe7781ae	-0.24170563
237	0xbe248b4c	-0.16068763
238	0x3d1963a8	0.037448555
239	0x3e51b002	0.20477298
240	0xbe21fc52	-0.15818909
241	0x3e4098e8	0.18808329
242	0x3e3427c0	0.17593288
243	0xbd6c1540	-0.057637453
244	0x3b71d780	0.003690213
245	0x3d8d9d84	0.06914809
246	0x3dfd869c	0.1237919
247	0xbe07907a	-0.13238707
248	0xbdd481c8	-0.10376316
249	0x3d318c28	0.043346554
250	0xbe3c34d8	-0.18379533
251	0x3e040118	0.12891042
252	0xbe532fe4	-0.20623738
253	0x3e7516b6	0.23934445
254	0x3dec36cc	0.11533889
255	0x3dc4b07c	0.09603974

fc1.bias f4 [128]
0	0x3cb9cb70	0.022680014
1	0x3e602076	0.21887383
2	0x3e65c832	0.2243965
3	0x3e242468	0.16029513
4	0x3e29057e	0.16506001
5	0xbd102498	-0.03519115
6	0xbce2d2a0	-0.027688324
7	0x3e6bdd28	0.23033583
8	0x3dba1d24	0.090875894
9	0xbc8cbc80	-0.017179728
10	0xbe6bdf42	-0.23034385
11	0xbce9fad0	-0.02856198
12	0x3d17a180	0.037019253
13	0x3d884f48	0.06655747
14	0x3e708d8e	0.23491499
15	0x3e108af8	0.14115512
16	0xbe03dbae	-0.1287677
17	0x3e7a8452	0.24464539
18	0xbe7565b2	-0.23964575
19	0x3ce547b0	0.027988285
20	0xbd4ec9d8	-0.050485462
21	0x3e72af64	0.23699719
22	0x3b3c9600	0.002877593
23	0x3d475ff8	0.048675507
24	0x3e35bc94	0.17747718
25	0xbd4bdab0	-0.049769104
26	0x3d97eec0	0.07418585
27	0xbdc95308	-0.0983029
28	0xbc939e90	-0.018019944
29	0xbd87ac58	-0.06624669
30	0x3d940a20	0.07228494
31	0xbe33d434	-0.17561418
32	0x3d12f560	0.03587854
33	0xbd86d164	-0.06582907
34	0x3e53f9e6	0.20700797
35	0x3d864454	0.06556001
36	0xbe49f676	-0.19722924
37	0x3cd6d4f0	0.026224583
38	0x3e06157e	0.13094136
39	0xbd381da8	-0.044950157
40	0xbdadc34c	-0.084845155
41	0xbe00e3a2	-0.12586835
42	0x3e67fca4	0.22654969
43	0xbd8442e4	-0.06458071
44	0x3e57ced8	0.21074998
45	0xbe38f902	-0.18063739
46	0x3daa2ba0	0.08309102
47	0xbe4cbc62	-0.19993737
48	0x3cf916c0	0.030406356
49	0x3b4c7b00	0.0031201243
50	0x3e3f4848	0.18679917
51	0x3e6a46ae	0.22878525
52	0x3c47fac0	0.01220578
53	0xbe3a4c12	-0.18193081
54	0xbda43308	-0.08017546
55	0x3cbcfe10	0.023070365
56	0xbdcfd8cc	-0.101487726
57	0xbd5cef08	-0.053938895
58	0xbd841078	-0.06448454
59	0xbe656860	-0.22403097
60	0x3e0ac454	0.13551456
61	0xbe6fc9ec	-0.23416871
62	0xbe7821ca	-0.2423164
63	0x3db06f80	0.08615017
64	0x3db8395c	0.089953154
65	0xbddce230	-0.10785329
66	0xbda1484c	-0.07875118
67	0x3e3eca40	0.1863184
68	0x3e240d8a	0.1602079
69	0xbbac24c0	-0.0052534044
70	0x3d2962b0	0.04135388
71	0x3d5838a0	0.052788377
72	0x3df86e64	0.1213043
73	0xbdac72c0	-0.08420324
74	0x3e461e58	0.19347513
75	0xbe5a503e	-0.21319672
76	0x3d4badc0	0.049726248
77	0x3e71b956	0.23605856
78	0xbd1d7d28	-0.038449436
79	0x3e5f3488	0.21797383
80	0x3d9f9a04	0.07793048
81	0xbd78c458	-0.060734123
82	0x3d647108	0.055771858
83	0x3e35b63e	0.17745301
84	0x3e75f0e6	0.24017677
85	0xbe4d9f18	-0.2008022
86	0x3dfe0eb8	0.12405151
87	0xbbe52980	-0.0069934726
88	0xbda15f58	-0.078795135
89	0x3dade02c	0.08490023
90	0xbe3f9cba	-0.1871213
91	0x3d4a80f8	0.0494394
92	0xba537200	-0.00080659986
93	0x3d830148	0.06396729
94	0x3e071742	0.13192466
95	0xbe1def5e	-0.15423343
96	0x3e45ea30	0.19327617
97	0xbda8fe24	-0.082515985
98	0x3df075a0	0.11741185
99	0xbce89680	-0.028392076
100	0x3e4f11ae	0.20221588
101	0x3e59dce2	0.21275666
102	0xbde03a60	-0.10948634
103	0xbddfc9ac	-0.10927138
104	0xbd865770	-0.06559646
105	0xbe78566e	-0.2425172
106	0x3e5ad608	0.21370709
107	0x3d95e5d0	0.07319224
108	0xbe1d4938	-0.15359962
109	0x3e1232aa	0.1427714
110	0x3e22b5dc	0.15889686
111	0xbe4df72e	-0.20113823
112	0xbe6c29ea	-0.23062864
113	0x3dad2940	0.084551334
114	0x3e13b3a6	0.14423999
115	0x3e27e0f4	0.16394407
116	0xbccead50	-0.025229126
117	0x3e5a571c	0.21322292
118	0xbe533e0a	-0.20629135
119	0x3cfbe150	0.030747086
120	0x3e2f0f0a	0.1709558
121	0xbde04124	-0.109499246
122	0x3e14e200	0.14539337
123	0x3cb067c0	0.021533847
124	0xbb8f68c0	-0.004376501
125	0xbe47ed9c	-0.19524235
126	0xbe0dd7fa	-0.1385192
127	0x3d79f3e0	0.061023593

fc2.weight f4 [128, 128]
0	0x3b20fb20	0.0024563745
1	0xbd94be4a	-0.07262857
2	0xbd9fe2fb	-0.07806965
3	0xbb99d950	-0.004695095
4	0xbd51788c	-0.051140353
5	0xbd5d8c78	-0.05408904
6	0x3d9a5723	0.07536151
7	0xbdaa9cba	-0.083306745
8	0xbd839e1c	-0.06426641
9	0xbd9d4513	-0.076791905
10	0x3d8daecd	0.06918106
11	0xbd66b085	-0.056320686
12	0x3dadd4bf	0.08487844
13	0xbd8e5b4d	-0.06951008
14	0x3ccc96a4	0.024974175
15	0xbd841b84	-0.06450561
16	0xbd382dba	-0.044965483
17	0x3d9f1b31	0.07768858
18	0x3b6ee580	0.003645271
19	0x3d46aaba	0.04850266
20	0xbc9d1b70	-0.019178122
21	0x3d8b88c3	0.068131946
22	0x3d70ab26	0.05875697
23	0x3caaabf4	0.020833947
24	0x3ba8fe30	0.0051572546
25	0x3a106a80	0.0005509034
26	0x3d893b33	0.067007445
27	0x3d57c0aa	0.052673973
28	0xbb61d560	-0.0034459457
29	0xbd9241ab	-0.071414314
30	0xbd8ef73c	-0.0698075
31	0xbb4ffcc0	-0.0031736344
32	0x3ccd58e0	0.025066793
33	0xbda9c5ed	-0.082897045
34	0x3bb5b960	0.00554578
35	0x3dad69fd	0.08467481
36	0x3d2b3342	0.04179693
37	0xbd60ca13	-0.054880213
38	0x3daf72b9	0.085668035
39	0x3ccdf720	0.025142252
40	0x3d4330b6	0.047653876
41	0x3c6afdb8	0.014342718
42	0x3c64ff70	0.013976917
43	0x3d415a06	0.047204994
44	0x3d46079e	0.048347108
45	0x3d98dfdd	0.074645735
46	0xbda8420e	-0.08215724
47	0xbc81e69c	-0.015857033
48	0xbbac7860	-0.0052633733
49	0xbca666f8	-0.020312771
50	0x3d7e6186	0.062104724
51	0xbc366098	-0.011131428
52	0x3d0c4bc0	0.03425193
53	0x3d67f90e	0.056634
54	0x3cc67e2c	0.024230085
55	0xbcb579dc	-0.022152834
56	0x3beff070	0.0073223636
57	0xbd8b6a27	-0.06807356
58	0x3d05d2de	0.0326718
59	0xbdb382de	-0.08765195
60	0xbd74c729	-0.059760246
61	0xbd003af8	-0.031306237
62	0xbd3f69a6	-0.046731614
63	0xbda2ca8b	-0.07948788
64	0xbd9b7c69	-0.07592089
65	0x3d9d0ac9	0.07668073
66	0x3ccb9e80	0.024855852
67	0x3ce3c378	0.027803168
68	0xbd9c1374	-0.07620898
69	0xbd41c0ab	-0.047302883
70	0xbda8f688	-0.08250147
71	0xbd4caa8e	-0.04996734
72	0x3cb9b5e0	0.022669733
73	0x3d2b764a	0.041860856
74	0x3d068ef8	0.03285119
75	0xbb826750	-0.003979601
76	0xbc5b0e78	-0.013370149
77	0xbcab6fd8	-0.020927355
78	0x3da5ab5b	0.08089324
79	0xbd18e207	-0.03732493
80	0xbb54cb20	-0.0032469705
81	0xbd594f40	-0.053054094
82	0xbd14360e	-0.036184363
83	0xbaa88600	-0.0012857318
84	0x3d9e33c9	0.07724721
85	0x3d9b4261	0.0758102
86	0x3b5f81a0	0.0034104362
87	0xbc819b88	-0.015821233
88	0xbda1ca75	-0.07899944
89	0xbd03a85b	-0.03214298
90	0xbc07ff60	-0.008300632
91	0x3c72e598	0.014825247
92	0x3bf99000	0.007616043
93	0x3ccd8424	0.025087424
94	0xbd4451e1	-0.04792965
95	0xbda056c8	-0.07829052
96	0x3c29cd40	0.010363877
97	0xbd42e451	-0.04758102
98	0xbd83d369	-0.06436808
99	0xbd007e55	-0.03137048
100	0x3d7b4eae	0.06135433
101	0x3d93e945	0.07222227
102	0xbdabb073	-0.083832644
103	0xbd6d141a	-0.0578805
104	0x3cb4dc78	0.022077784
105	0xbcc6c558	-0.024264023
106	0x3d38280a	0.04496006
107	0x3d4800d2	0.048828907
108	0x3db4146d	0.087929584
109	0x3ca74250	0.020417362
110	0xbd9dc4ac	-0.07703528
111	0x3c4efea0	0.0126339495
112	0xbda5b4f8	-0.08091158
113	0x3d94d3d1	0.07266963
114	0x3d878337	0.06616824
115	0xbda3a4ed	-0.079904415
116	0xbdb22a5c	-0.08699486
117	0xbc845a3c	-0.016156308
118	0x3d8b7e0b	0.0681115
119	0xbc2c73d0	-0.010525659
120	0x3db203bb	0.08692118
121	0x3d3e593e	0.046471827
122	0xbdaecbba	-0.085349515
123	0xbcf3d730	-0.029765695
124	0x3c24dc60	0.010062307
125	0xbb2d3000	-0.0026426315
126	0x3d172886	0.03690388
127	0xbd6cf26a	-0.05784837
128	0xbcfd0f50	-0.03089109
129	0xbc095350	-0.00838168
130	0xbd6b3462	-0.057423003
131	0x3cf07aa8	0.029355362
132	0xbd8a6dd2	-0.06759228
133	0x3c6eb420	0.014569312
134	0xbb5ee240	-0.0034009367
135	0xbcd899b8	-0.026440486
136	0x3d6a3d0a	0.057187118
137	0x3c848f28	0.016181543
138	0x3c1bac10	0.009501472
139	0x3d2a6876	0.041603528
140	0xbc3af108	-0.011410005
141	0xbce32b56	-0.027730625
142	0xbcdb3246	-0.02675737
143	0x3d8b0e57	0.067898445
144	0x3d43612e	0.0477001
145	0xba9efec0	-0.0012130365
146	0xbd671e24	-0.05642523
147	0xbc94c624	-0.018160887
148	0x3cdf1a34	0.027234174
149	0xbd69dbcb	-0.057094377
150	0xbb59b160	-0.0033217296
151	0xbcd351c0	-0.025795817
152	0x3da523b5	0.08063451
153	0xbc667fc0	-0.014068544
154	0xbd7c0bca	-0.06153468
155	0xbc765d78	-0.015036933
156	0xbb79a480	-0.0038092434
157	0xbce2751e	-0.027643736
158	0x3db4660f	0.08808529
159	0xbd8caf26	-0.068693444
160	0x3c9c8a88	0.019109026
161	0x3d767e4a	0.060179032
162	0x3d9bb6af	0.076032035
163	0xbc46ed60	-0.012141556
164	0xbda7d48f	-0.08194839
165	0xbdad74b3	-0.08469524
166	0xbd88c101	-0.066774376
167	0x3d5bd5ea	0.0536708
168	0xbd911776	-0.07084553
169	0xbcab5100	-0.020912647
170	0x3c700360	0.014649242
171	0x3d63e48e	0.05563789
172	0xbc5449c8	-0.012957044
173	0xbcde8130	-0.02716121
174	0xbd9056ff	-0.07047843
175	0xbd9a4bf3	-0.075340174
176	0x3c583668	0.013196565
177	0x3cb3d218	0.021950766
178	0xbd2e798c	-0.042596385
179	0x3d5d663e	0.054052584
180	0xba66b000	-0.000880003
181	0x3d1ab282	0.037767895
182	0xbc33cd60	-0.010974258
183	0xbd86524c	-0.06558666
184	0x3d0cf63c	0.034414515
185	0xbd1aaa4d	-0.037760068
186	0xbd61f2e4	-0.05516328
187	0xbdb2d164	-0.08731344
188	0x3c3d2a78	0.01154577
189	0xbc2bd418	-0.010487579
190	0x3d443812	0.047905035
191	0x3c3d95d0	0.011571363
192	0xbc3ce4e0	-0.011529177
193	0x3d8475ed	0.06467805
194	0x3c9ff71c	0.01952701
195	0x3d1e42aa	0.038637795
196	0x3d8d8f97	0.06912153
197	0x3d08dbfa	0.03341291
198	0x3da2ff8d	0.07958899
199	0x3d98db3b	0.0746369
200	0xbd54c762	-0.05194796
201	0x3cb413e0	0.021982133
202	0x3acc7340	0.0015598312
203	0xbd25e2d2	-0.040499516
204	0x3c95c6e8	0.018283322
205	0x3d3d6afe	0.046244614
206	0xbd0681a0	-0.032838464
207	0xbcf34488	-0.029695764
208	0xbd3918a1	-0.045189504
209	0x3cc034b4	0.02346263
210	0x3d0bbb7e	0.034114353
211	0x3d87acdd	0.06624768
212	0xbd519b5c	-0.051173553
213	0xba62a900	-0.0008646399
214	0x3d98d0f9	0.07461733
215	0xbcd3f37c	-0.025872938
216	0x3d19e64e	0.03757315
217	0x3d1bd32a	0.03804318
218	0x3c8ba640	0.017047048
219	0xbd90dbed	-0.070731975
220	0x3d82a00b	0.06378182
221	0x3d605c6e	0.054775648
222	0x3c78f3c0	0.015194833
223	0xbd2cf460	-0.04222524
224	0xbd74af6b	-0.059737604
225	0xbd6aec24	-0.057354107
226	0x3c492058	0.012275778
227	0xbc8a21c4	-0.016861804
228	0xbd9dffe3	-0.07714822
229	0x3d48875a	0.048957206
230	0x3d59aa1a	0.053140737
231	0x3da54833	0.080704115
232	0xbd96fe90	-0.07372773
233	0x3daa757f	0.08323192
234	0x3af6d240	0.001883097
235	0x3d8a6fbd	0.06759594
236	0xbd527f78	-0.051391095
237	0xbbcfe900	-0.0063449144
238	0xbd286b07	-0.041117694
239	0x3c4e1620	0.012578517
240	0x3d6d6e5e	0.057966582
241	0xbd44777a	-0.047965504
242	0xbbee5a20	-0.0072739273
243	0xbcee70ae	-0.029106464
244	0xbca58624	-0.020205565
245	0x3c515970	0.012777671
246	0x3d986f03	0.07443049
247	0xbcd27e8c	-0.025695108
248	0x3da5faf9	0.0810451
249	0x3d706612	0.05869109
250	0xbdac4f29	-0.08413536
251	0x3d525bd6	0.051357113
252	0xbd1f821a	-0.038942434
253	0x3c8d70e8	0.017265752
254	0xbc62bf60	-0.013839573
255	0x3cc650b4	0.024208404

fc2.bias f4 [128]
0	0xbd117b45	-0.03551795
1	0x3d4ed07a	0.050491787
2	0x3d4bc872	0.049751706
3	0xbced97d2	-0.029003058
4	0xbd2087cc	-0.039192006
5	0xbd6cf5e5	-0.05785169
6	0xbc6fa120	-0.014625818
7	0x3db3ab39	0.087728925
8	0xbd0b077b	-0.03394268
9	0x3d8c32a7	0.06845599
10	0xbc0b0540	-0.008485138
11	0x3d5f91b6	0.05458232
12	0xbdb3a1a1	-0.08771063
13	0x3d320b72	0.043467946
14	0x3d0607e2	0.03272236
15	0xbcda0af2	-0.026616547
16	0x3d92003d	0.07128952
17	0xbd5b8385	-0.053592224
18	0xbd2ff423	-0.042957436
19	0x3d8434a1	0.06455351
20	0x3da108af	0.078629844
21	0xbd90e568	-0.07075006
22	0x3cbb5ba8	0.022870854
23	0xbcead500	-0.02866602
24	0xbd828aa9	-0.063741036
25	0xbc87a1f8	-0.016556725
26	0xbd9ba958	-0.07600659
27	0xbd8c926a	-0.06863864
28	0xbd0dcda5	-0.034619946
29	0x3d9b4a89	0.07582576
30	0xbd411f42	-0.04714895
31	0x3bd78990	0.006577678
32	0xbd991243	-0.07474186
33	0xbc83d124	-0.016090937
34	0x3c861674	0.016368128
35	0x3d922bc3	0.07137253
36	0x3d5f1286	0.054461025
37	0xbd6ff58f	-0.058583792
38	0xbc871474	-0.016489245
39	0xbd8bec21	-0.068321474
40	0xbcbdce48	-0.023169652
41	0x3d841b6f	0.06450545
42	0x3c8a74ec	0.016901456
43	0xbd6fdcca	-0.05856017
44	0xbd956f59	-0.072966285
45	0xbcc846b8	-0.024447784
46	0xbcb63fe8	-0.02224727
47	0x3db0722b	0.08615526
48	0xba9ae480	-0.0011817366
49	0xbd57b625	-0.05266394
50	0xbd244e39	-0.04011366
51	0xbdb3d8d9	-0.08781595
52	0x3c8901d4	0.016724505
53	0x3c348ec8	0.01102037
54	0xbd9e35af	-0.07725083
55	0x3d095c5a	0.03353534
56	0xbd914a75	-0.0709428
57	0x3a9dc380	0.0012036413
58	0x3d88adfd	0.06673811
59	0xbda1c9ab	-0.07899793
60	0x3d8164a7	0.06318026
61	0x3b6ea940	0.0036416799
62	0x3d8c046b	0.0683678
63	0x3d6706e6	0.056403063
64	0xbc0f5bd8	-0.008749925
65	0xbd386229	-0.045015488
66	0x3ccefc44	0.025266774
67	0x3c3d8b90	0.011568919
68	0xbc850bd0	-0.016240984
69	0x3a473100	0.0007598549
70	0x3ba16100	0.0049248934
71	0x3cd641e4	0.026154466
72	0xbd22abf8	-0.039714783
73	0xbced8e46	-0.028998505
74	0x3d5e7892	0.054314204
75	0xbd822957	-0.06355541
76	0xbd1fd368	-0.039019972
77	0xbd211680	-0.0393281
78	0x3c434c40	0.011920035
79	0xbd07e9b2	-0.033181854
80	0x3cd81bcc	0.026380442
81	0x3d3e200e	0.04641729
82	0xbc3de6b0	-0.011590645
83	0xbc2fbdc0	-0.010726392
84	0xbd61e731	-0.055152122
85	0x3d094d48	0.033520967
86	0xbdaf7d44	-0.085688144
87	0x3cbe0b50	0.023198754
88	0xbd30b897	-0.04314479
89	0xbcbde898	-0.023182198
90	0x3d5e1e46	0.05422809
91	0xbb817040	-0.003950149
92	0xbbd15740	-0.006388575
93	0xbdb438a8	-0.08799869
94	0x3d58c526	0.05292239
95	0x3d47adde	0.048749797
96	0x3d18cfb2	0.03730745
97	0x3d35e802	0.044410713
98	0x3d1cba26	0.038263462
99	0x3d828f7d	0.063750245
100	0xbda387fc	-0.07984921
101	0x3bbdf790	0.005797334
102	0xbd62b101	-0.055344585
103	0x3da8896b	0.082293354
104	0xbd025d65	-0.03182735
105	0x3d807289	0.06271846
106	0x3d755ee6	0.059904955
107	0x3ceebc10	0.02914241
108	0x3d7f4eca	0.062331
109	0x3b388060	0.002815269
110	0x3d9a491d	0.075334765
111	0x3cee9460	0.029123485
112	0xbcc0e74c	-0.023547791
113	0x3d9e202f	0.07720982
114	0x3d764212	0.060121603
115	0xbb95bdf0	-0.0045697615
116	0x3d8475e1	0.06467796
117	0xbb5888e0	-0.0033040568
118	0x3d4b1c96	0.04958781
119	0x3c981bb4	0.018567897
120	0xbc9639cc	-0.018338107
121	0xbd887cbc	-0.06664416
122	0xbd90a10e	-0.07061969
123	0x3d0b7a6a	0.03405229
124	0x3bdc47b0	0.006722413
125	0x3d8422cb	0.06451949
126	0xbd827907	-0.063707404
127	0x3d9f696b	0.07783779

fc3.weight f4 [2, 128]
0	0xbd0e841a	-0.03479395
1	0xbda1ac95	-0.078942455
2	0xbd636d21	-0.055523995
3	0xbbbb97c0	-0.005724877
4	0x3cf26838	0.029590711
5	0xbd93f578	-0.07224554
6	0x3d75858e	0.05994182
7	0x3da74f25	0.081693925
8	0xbcefe08e	-0.02928188
9	0x3d17bf8e	0.037047915
10	0xbdafcee2	-0.08584382
11	0x3d1c3d46	0.038144372
12	0xbb9da320	-0.004810706
13	0x3d17a952	0.03702671
14	0x3d74afd2	0.059737988
15	0x3d9d5219	0.076816745
16	0xbd0a12b3	-0.03370924
17	0x3d38473e	0.044989817
18	0x3d44c7da	0.048042156
19	0xbd18c027	-0.037292626
20	0xbc65cf68	-0.0140265
21	0x3d813ebd	0.063107945
22	0xbdacb823	-0.08433559
23	0xbd0c9134	-0.034318164
24	0xbd977003	-0.073944114
25	0xb9da9700	-0.00041692704
26	0x3dae8bfd	0.085227944
27	0xbc54eb98	-0.012995623
28	0xbd036410	-0.03207785
29	0x3d057922	0.032586224
30	0x3d7bf3c6	0.061511777
31	0x3da22dd1	0.07918895
32	0xbc415720	-0.011800557
33	0x3dac830f	0.08423435
34	0x3d9bdf07	0.076108985
35	0x3d053834	0.032524303
36	0x3b0c3bc0	0.0021397918
37	0x3d6add86	0.057340167
38	0x3b648980	0.0034871995
39	0x3d6497fa	0.055809
40	0xbc2ddff0	-0.010612473
41	0xbcda6524	-0.026659556
42	0x3d9417dd	0.07231114
43	0x3ced80c0	0.028992057
44	0x3d2dd226	0.04243674
45	0x3d035230	0.032060802
46	0xbccce6b4	-0.025012352
47	0x3d84654d	0.06464634
48	0x3d517402	0.051136024
49	0xbd682c58	-0.056682914
50	0xbd678455	-0.056522686
51	0xbd3bcb8f	-0.045848425
52	0x3c3795a0	0.011205107
53	0x3c9eb3d0	0.01937285
54	0x3c514010	0.012771621
55	0x3c8302cc	0.015992545
56	0xbd0c21ab	-0.034211796
57	0x3d1d0052	0.038330384
58	0x3d897269	0.06711275
59	0xbcc3c838	-0.023899183
60	0x3c68ab38	0.014200978
61	0xbda315a2	-0.079631105
62	0x3cdb2bd8	0.026754305
63	0xbdb49a2a	-0.08818467
64	0x3977fa00	0.00023648888
65	0xbd615c14	-0.055019453
66	0xbd62707b	-0.05528305
67	0xbcc250fc	-0.023720257
68	0x3d90c50b	0.07068833
69	0x3da9b4dd	0.0828645
70	0xbc9194cc	-0.017771147
71	0x3d54248e	0.051792674
72	0x3bcd4010	0.0062637404
73	0x3c7c4228	0.015396632
74	0xbd5090b4	-0.05091925
75	0xbdac93de	-0.08426641
76	0x3d09e1de	0.03366267
77	0xbd630836	-0.055427752
78	0x3d35d6c6	0.044394277
79	0x3d80e0d1	0.0629288
80	0x3d83c86d	0.064347126
81	0xbda613b9	-0.081092305
82	0x3cdf4df4	0.02725885
83	0xbb9d70a0	-0.0048046857
84	0x3c902e6c	0.01760026
85	0x3dafd0bf	0.08584737
86	0x3cb01d28	0.021498278
87	0xbcd1e964	-0.025623985
88	0xbd4176f9	-0.0472326
89	0x3bc13ba0	0.0058970004
90	0x3d134152	0.035950966
91	0x3c23bfb8	0.00999444
92	0xbd92084c	-0.07130489
93	0x3d8436c7	0.064557604
94	0xbd446202	-0.04794503
95	0x3da974c7	0.08274227
96	0x3c831288	0.016000047
97	0x3cdc85a4	0.026919194
98	0x3cc0c024	0.02352912
99	0x3c13c450	0.0090189725
100	0x3b791800	0.003800869
101	0x3d971f25	0.07378987
102	0xbd5ab008	-0.053390533
103	0x3d54246a	0.05179254
104	0x3dafb22b	0.08578905
105	0xbd02faf3	-0.031977605
106	0x3d15313e	0.036423914
107	0xbaaabc00	-0.0013025999
108	0x3d37d8ce	0.044884495
109	0xbdb27914	-0.087145
110	0xbcfe8810	-0.031070739
111	0xbd82d6ae	-0.06388603
112	0xbd7ad8bb	-0.061241847
113	0xbd05e79c	-0.032691583
114	0xbc43d150	-0.011951759
115	0x3d44fc06	0.04809191
116	0xbc781e10	-0.015143886
117	0x3bdf2d00	0.0068107843
118	0xbd618d9f	-0.0550667
119	0x3d8a9197	0.0676605
120	0xbd29183a	-0.04128287
121	0x3d5592ca	0.052141942
122	0xbce6c906	-0.028172027
123	0x3da786ed	0.08180032
124	0x3d5273a6	0.051379822
125	0xbd9bfcc6	-0.07616572
126	0x3da7b00b	0.081878744
127	0x3d0ae686	0.03391125
128	0x3bb69a30	0.00557258
129	0xba83fdc0	-0.001007013
130	0x3d733122	0.05937303
131	0x3d772182	0.06033469
132	0xbd85837c	-0.06519219
133	0x3d018b14	0.031626776
134	0x3da77651	0.08176864
135	0xbda3fcaa	-0.08007176
136	0xbd67f123	-0.05662645
137	0x3da987ff	0.08277892
138	0x3cb0275c	0.021503143
139	0x3ce38004	0.027771004
140	0xbd03280f	-0.032020625
141	0xbcb4157c	-0.0219829
142	0x3cea910c	0.028633617
143	0x3d515576	0.051106893
144	0x3d596ec2	0.053084143
145	0x3cba5604	0.022746094
146	0x3d865c07	0.065605216
147	0xbca05b6c	-0.019574843
148	0xbca3d040	-0.019996762
149	0x3d3ed512	0.04658992
150	0x3d8e92cb	0.06961592
151	0x3d3fec2e	0.046856098
152	0xbd65af3e	-0.056075327
153	0x3d96e51f	0.0736792
154	0x3d83d11b	0.06436368
155	0x3d80c877	0.06288236
156	0xbc4181d0	-0.011810735
157	0xbdb46300	-0.08807945
158	0xbda277b9	-0.079329915
159	0xbd5b9117	-0.053605165
160	0xbdb30c37	-0.08742564
161	0x3d64113a	0.05568049
162	0x3da3efef	0.08004748
163	0xbd9d87f9	-0.0769195
164	0xba711500	-0.00091965497
165	0xbd1b7042	-0.037948854
166	0x3b29f880	0.002593547
167	0xbbca5dd0	-0.006175734
168	0x3db05ef5	0.086118616
169	0x3d50d95e	0.050988548
170	0x3c8d44ac	0.01724466
171	0x3c9c14cc	0.019052885
172	0xbdadf041	-0.084930904
173	0xbdb47104	-0.088106185
174	0xbdac394b	-0.08409365
175	0xbd3b70eb	-0.045761984
176	0xbc9d4c88	-0.019201532
177	0x3d28145e	0.04103505
178	0xbd841b7b	-0.06450554
179	0x3d47f6b2	0.04881925
180	0xbb60efa0	-0.0034322515
181	0xbd530391	-0.051517073
182	0xbdaa2bca	-0.08309133
183	0xbce01798	-0.027355
184	0xbb8ea960	-0.004353687
185	0xbd54346d	-0.05180781
186	0xbd8920ff	-0.06695747
187	0x3d958d97	0.07302397
188	0x3863b000	5.428493e-05
189	0xbd8eade3	-0.0696676
190	0xbd090529	-0.033452187
191	0x3da05e27	0.07830458
192	0xbd9bdc83	-0.07610419
193	0x3c612410	0.013741508
194	0xbcc6a0cc	-0.024246596
195	0x3c8b4770	0.017001837
196	0x3d90c8f7	0.07069581
197	0xbcd2aca4	-0.025717087
198	0x3d9d9471	0.076943286
199	0x3d4e80a2	0.050415643
200	0xbd094179	-0.033509705
201	0x3c663ae8	0.01405213
202	0xbb82d900	-0.0039931536
203	0x3d815cab	0.06316503
204	0x3d68647e	0.05673646
205	0xbc23dc20	-0.010001212
206	0xbd59ceb7	-0.053175654
207	0xbda0d6fe	-0.078535065
208	0xbd774852	-0.060371704
209	0x3b4fd0c0	0.0031710118
210	0x3bb5cab0	0.005547844
211	0xbda72b51	-0.08162559
212	0x3d87f569	0.06638605
213	0x3b3f5c20	0.0029199198
214	0xbd33a179	-0.043855164
215	0x3d91646d	0.07099233
216	0xbd75e735	-0.06003495
217	0x3d9de977	0.077105455
218	0x3b513040	0.0031919628
219	0x3d049b14	0.032374457
220	0x3dab140f	0.08353435
221	0x3d289b52	0.04116375
222	0xbb7f9fe0	-0.0039005205
223	0xbda7ff8e	-0.0820304
224	0x3d9f6cef	0.07784449
225	0xbc4eef58	-0.012630306
226	0x3d8071e5	0.06271724
227	0xbd953be7	-0.07286816
228	0x3c7a8850	0.0152912885
229	0x3d70939a	0.058734514
230	0xbd8c0bc4	-0.068381816
231	0xbcf98d98	-0.030463025
232	0xbd2e131e	-0.0424987
233	0x3d480886	0.048836254
234	0x3d9bf473	0.07614984
235	0x3d123542	0.03569532
236	0x3d899d07	0.06719404
237	0xbc9d1854	-0.01917664
238	0x3d9b4319	0.07581157
239	0xbdae5d93	-0.085139416
240	0xbd70e238	-0.05880949
241	0x3d55573a	0.05208514
242	0xbd56683c	-0.0523455
243	0xbd948ed9	-0.072538085
244	0xbccc84a4	-0.024965592
245	0xbb813300	-0.0039428473
246	0x3c6b9258	0.014378153
247	0x3da5fed5	0.08105246
248	0xbc467588	-0.012112983
249	0x3da00ccb	0.0781494
250	0xbcf7305a	-0.030174423
251	0xbbb0b2b0	-0.005392395
252	0xbdb249b8	-0.08705467
253	0x3c9700c8	0.01843299
254	0x3d28cf5a	0.04121337
255	0xbd91c74b	-0.0711809

fc3.bias f4 [2]
0	0xbd7d3cb6	-0.061825477
1	0xbd836a77	-0.06416791

fc1.weight f4 [128, 16]
0	0xbde90ad4	-0.113790184
1	0xbe68015a	-0.22656766
2	0x3cdcb3c0	0.02694118
3	0xbd7a2718	-0.06107244
4	0x3e733db8	0.23754013
5	0xbd8d88d4	-0.069108635
6	0xbe2a6a2c	-0.16642064
7	0x3b7b6900	0.0038362145
8	0xbe1d123a	-0.15338984
9	0x3e1a0014	0.15039092
10	0xbe2c8682	-0.16848186
11	0xbdf507ac	-0.11964354
12	0x3e24e8e2	0.16104463
13	0xbe527a72	-0.20554522
14	0x3e1a905c	0.15094131
15	0xbe5e749c	-0.2172417
16	0xbe514252	-0.20435455
17	0x3e5574b2	0.20845297
18	0x3c3bf8a0	0.011472851
19	0x3ddb5e48	0.10711342
20	0x3da0f534	0.07859269
21	0x3e6abc70	0.22923446
22	0xbd954624	-0.07288769
23	0x3d3bac08	0.04581836
24	0x3b198a00	0.0023428202
25	0x3e5df8b4	0.21676904
26	0x3e6d26d0	0.23159337
27	0x3e1e2630	0.15444255
28	0x3e31c9ee	0.17362186
29	0xbdb12094	-0.08648792
30	0x3cd40a20	0.025883734
31	0xbdac46cc	-0.08411941
32	0x3e4a53dc	0.19758552
33	0xbde7a1b0	-0.11310136
34	0xbe302cc6	-0.1720458
35	0x3e2ab92e	0.16672203
36	0xbe768bde	-0.24076793
37	0x3e3d513e	0.18488023
38	0x3e118918	0.14212453
39	0x3d840eec	0.064481586
40	0xbc8b29a0	-0.016987622
41	0x3e0aa368	0.13538897
42	0xbe1c866c	-0.15285653
43	0x3e4d8908	0.20071805
44	0xbe017188	-0.12640965
45	0x3df0dcc0	0.11760855
46	0x3de60ef0	0.11233318
47	0xbc992980	-0.018696547
48	0x3e310682	0.17287639
49	0x3d89acbc	0.067223996
50	0xbc85ebf0	-0.016347855
51	0xbe2d8dce	-0.16948625
52	0x3d834620	0.0640986
53	0x3e6276ea	0.22115675
54	0x3dc81584	0.09769729
55	0xbd73e570	-0.05954498
56	0x3e208d8a	0.15678993
57	0xbe0556be	-0.13021371
58	0xbcef8ea0	-0.029242814
59	0x3e36b8e2	0.17843965
60	0x3cf058c0	0.029339194
61	0x3e40b7d4	0.18820125
62	0xbd7d78f0	-0.061882913
63	0xbdfb7b18	-0.12279338
64	0xbdd8212c	-0.10553202
65	0x3d8af0f0	0.067842364
66	0x3dd87044	0.10568288
67	0xbe711b8a	-0.23545662
68	0x3d902eb4	0.07040158
69	0x3df611f8	0.12015146
70	0xbe62a55a	-0.22133389
71	0xbe5806ce	-0.21096346
72	0xbe370844	-0.17874247
73	0x3e368c96	0.17827067
74	0xbd7ab9f8	-0.06121251
75	0xbe42d6a4	-0.19027191
76	0x3e30cc4a	0.1726543
77	0xbe7f9980	-0.249609
78	0xbe24ad36	-0.160817
79	0xbe60b1a8	-0.2194277
80	0x3de5d858	0.11222905
81	0xbe488302	-0.19581226
82	0xbd3ab740	-0.045584917
83	0x3d505fa8	0.050872475
84	0xbe4e5470	-0.20149398
85	0x3da3bca0	0.07994962
86	0xbe43f9e0	-0.19138288
87	0x3e718898	0.23587263
88	0x3e1f26cc	0.15542144
89	0x3e080ac8	0.13285363
90	0x3dfd2ba4	0.123618394
91	0x3e3219ec	0.17392701
92	0x3c48af60	0.012248844
93	0xbe0eecc0	-0.139575
94	0xbe5c214a	-0.21497074
95	0x3e202856	0.15640387
96	0x3e5240b0	0.20532489
97	0xbe09dfa6	-0.13464221
98	0xbe00353a	-0.12520304
99	0x3d9f9be8	0.07793409
100	0xbc935c20	-0.017988265
101	0x3c994bd0	0.018712908
102	0xbd604540	-0.054753542
103	0xbd1dea48	-0.038553506
104	0x3ddf453c	0.10901877
105	0xbe40b766	-0.18819961
106	0x3c90f4e0	0.01769489
107	0xbe6b7984	-0.22995573
108	0xbb7fc580	-0.0039027631
109	0x3e0cb06c	0.13739175
110	0xbd334170	-0.043763578
111	0x3e455796	0.19271693
112	0xbe2703c8	-0.16310036
113	0x3cd467c0	0.025928378
114	0x3d11f020	0.03562939
115	0xbde36450	-0.111031175
116	0x3e2323e8	0.15931666
117	0xbbaa0480	-0.0051885247
118	0x3d6155d0	0.055013478
119	0xbdd682cc	-0.10474166
120	0xbe55e2ce	-0.208873
121	0xbe61df8c	-0.22057933
122	0x3e0fdb4e	0.14048502
123	0xbbd26cc0	-0.0064216554
124	0x3d88ba0c	0.066761106
125	0x3e61fbf4	0.22068769
126	0xbc750560	-0.014954895
127	0xbe0232f2	-0.12714747
128	0x3e29ca8e	0.16581175
129	0x3e12290a	0.14273468
130	0x3cb327f0	0.02186963
131	0x3dc8f4f4	0.09812346
132	0x3e06ff32	0.13183287
133	0x3db15458	0.086586654
134	0x3d13df08	0.03610137
135	0xbc17aae0	-0.009257048
136	0x3db3cbac	0.08779082
137	0x3d982218	0.07428378
138	0x3dc5a00c	0.09649667
139	0xbb887a80	-0.0041649938
140	0x3e60fa34	0.21970445
141	0xbd924e8c	-0.07143888
142	0xbd59a858	-0.05313906
143	0x3d6e7248	0.058214456
144	0x3e5915e4	0.21199757
145	0x3e4d490e	0.200474
146	0xbd714ba8	-0.058910042
147	0x3de1b73c	0.11021277
148	0xbe54166e	-0.20711681
149	0xbe2dd8a8	-0.16977179
150	0x3d74e4b8	0.059788436
151	0x3d5cdb28	0.05391994
152	0xbd99e3cc	-0.07514152
153	0x3dddf458	0.108376205
154	0xbce35d50	-0.027754456
155	0x3cb847e0	0.02249521
156	0x3d509730	0.050925434
157	0xbdebc988	-0.115130484
158	0x3e07b188	0.13251317
159	0xbe65afe4	-0.22430378
160	0xbe7e9c88	-0.248644
161	0xbcacf460	-0.02111262
162	0x3cb84000	0.022491455
163	0xbd7326f8	-0.059363335
164	0xbd9992b8	-0.074986875
165	0xbe7c037e	-0.24610707
166	0xbe55539e	-0.20832679
167	0xbdf72e68	-0.12069398
168	0xbdbcdeb4	-0.09222165
169	0xbdc92ac0	-0.09822607
170	0xbe639f1e	-0.22228667
171	0xbe093360	-0.13398504
172	0x3e26939a	0.16267243
173	0x3c3a3f20	0.011367589
174	0xbc8039c0	-0.015652537
175	0xbe41bf8a	-0.18920723
176	0xbe2e7136	-0.17035374
177	0x3c0d5600	0.008626461
178	0x3e434c22	0.19072011
179	0xbddeca8c	-0.108784765
180	0x3c969550	0.018381745
181	0x3e585220	0.21125078
182	0xbe14e594	-0.14540702
183	0xbe4847ac	-0.1955859
184	0x3e0e54a0	0.1389947
185	0x3db70e3c	0.08938262
186	0x3e57404a	0.21020618
187	0xbe649494	-0.22322303
188	0xbc60bf20	-0.013717443
189	0xbcbd5620	-0.023112357
190	0xbd680fb0	-0.056655586
191	0xbe04c174	-0.12964422
192	0xbdd23678	-0.10264295
193	0x3e32329c	0.17402118
194	0xbd99423c	-0.07483336
195	0x3d6b13c0	0.057391882
196	0x3c559c40	0.013037741
197	0xbe6cf5a8	-0.23140585
198	0x3d760a60	0.060068488
199	0x3e5a4818	0.21316564
200	0x3e1290b4	0.14313012
201	0xbe676716	-0.22597918
202	0xbe1c2070	-0.15246749
203	0x3d988c24	0.07448605
204	0xbcc5a240	-0.024125218
205	0x3dc1fcc4	0.09472039
206	0x3e5ff506	0.21870813
207	0xbc24a1a0	-0.0100483
208	0x3d626fe8	0.055282503
209	0xbe579620	-0.21053362
210	0x3e1eda44	0.15512949
211	0x3cdc3f70	0.026885718
212	0xbc963760	-0.018336952
213	0x3d6c24c8	0.057652265
214	0x3d3a7ce0	0.045529246
215	0xbe3c589e	-0.1839318
216	0xbdc38ca0	-0.095483065
217	0x3e5ffbce	0.218734
218	0xbac00600	-0.0014650226
219	0x3db928bc	0.090409726
220	0xbc5c5b40	-0.01344949
221	0xbe4caf32	-0.19988707
222	0xbdbe7cc0	-0.09301138
223	0x3d7e5da8	0.062101036
224	0xbd1d1d58	-0.038358063
225	0xbdb33688	-0.087506354
226	0xbd8ff300	-0.070287704
227	0xbd563320	-0.05229485
228	0xbda521e0	-0.08063102
229	0xbdd289e8	-0.1028021
230	0xbc97f9a0	-0.018551648
231	0xbd84b3ec	-0.0647963
232	0x3e59bdc4	0.21263796
233	0xbd437e38	-0.047727793
234	0xbe23afc6	-0.15985021
235	0xbe68555e	-0.22688815
236	0x3e16b42e	0.1471717
237	0x3e11e658	0.14248025
238	0x3cc79460	0.024362743
239	0x3e01f6de	0.12691829
240	0x3da99980	0.08281231
241	0xbdd322a8	-0.103093445
242	0xbd8dfc00	-0.06932831
243	0x3ab1f100	0.0013575852
244	0xbd3ca8f0	-0.04605955
245	0x3c95f070	0.018303126
246	0xbe302c00	-0.17204285
247	0x3e6a56e8	0.22884715
248	0xbdc0909c	-0.09402582
249	0xbdca3514	-0.09873405
250	0x3ca7e130	0.02049312
251	0xbe1c8432	-0.15284804
252	0xbd7a8a30	-0.061166942
253	0xbdaef974	-0.08543673
254	0x3da2edfc	0.07955548
255	0x3bc2b580	0.0059420466

fc1.bias f4 [128]
0	0xbde74db4	-0.112941176
1	0xbc68bd80	-0.014205337
2	0x3dd44b2c	0.103659004
3	0x3e648758	0.22317255
4	0x3d9ea1f8	0.07745737
5	0xbdfed6a8	-0.12443286
6	0x3dfaa00c	0.12237558
7	0xbdcca13c	-0.099916905
8	0xbe777e30	-0.2416923
9	0xbcc032b0	-0.02346167
10	0xbd8c2410	-0.06842816
11	0xbe69f262	-0.22846368
12	0x3e62e0ce	0.22156069
13	0xbda361b0	-0.07977617
14	0x3d6451f0	0.055742204
15	0x3c99cea0	0.018775284
16	0x3e54b32c	0.20771474
17	0xbe31dff6	-0.1737059
18	0xbe0133ae	-0.1261737
19	0x3dd77060	0.10519481
20	0xbdb4a82c	-0.08821139
21	0xbddceaf8	-0.10787004
22	0xbd689b70	-0.05678886
23	0xbc241760	-0.010015339
24	0x3e556416	0.20838961
25	0x3e3a586e	0.18197796
26	0xbde0df04	-0.10980037
27	0xbe6e9d5e	-0.23302218
28	0x3e037bc6	0.12840185
29	0x3e4cfc32	0.2001808
30	0xbda063e8	-0.078315556
31	0xbc625c80	-0.013815999
32	0xbdf49150	-0.11941779
33	0xbe23a262	-0.15979913
34	0xbe0fd81c	-0.14047283
35	0x3e5d085c	0.2158522
36	0x3e35c1d2	0.17749718
37	0xbe1c157e	-0.15242574
38	0x3e63df22	0.22253087
39	0xbe17a0a2	-0.1480737
40	0x3e27549e	0.16340873
41	0x3dbeed94	0.09322658
42	0xbe05f1d2	-0.13080528
43	0x3d6d80c8	0.057984143
44	0xbe5f09b4	-0.21781045
45	0x3da7cc58	0.08193272
46	0xbdf44568	-0.11927301
47	0xbdf272fc	-0.11838338
48	0xbd5c5a88	-0.053797275
49	0xbe4f02f0	-0.20215964
50	0x3da1b434	0.07895699
51	0x3e580ae8	0.2109791
52	0xbe57cbda	-0.21073857
53	0x3dec2f94	0.11532512
54	0x3e07eb24	0.13273293
55	0xbdf16234	-0.11786309
56	0xbe0cb362	-0.13740304
57	0x3df26218	0.11835116
58	0xbde04ac8	-0.109517634
59	0xbd3cf498	-0.0461317
60	0x3d430650	0.047613442
61	0xbe5f2690	-0.21792054
62	0x3e3c623a	0.18396845
63	0xbd78bb90	-0.06072575
64	0x3e54329e	0.20722434
65	0x3e49146a	0.19636694
66	0xbe4d9e9a	-0.20080033
67	0x3e3a2428	0.18177855
68	0x3d8fd06c	0.07022175
69	0x3e2bf726	0.16793498
70	0xbe7c73c0	-0.2465353
71	0x3e4c3c18	0.19944799
72	0x3db98328	0.09058219
73	0xbe03e56e	-0.12880489
74	0x3e41d73c	0.18929762
75	0xbe72d0da	-0.23712483
76	0x3e6f2224	0.23352867
77	0xbe223ae4	-0.15842777
78	0x3e2172d4	0.1576646
79	0xbd4142f8	-0.047183007
80	0xbd0f16e8	-0.034933954
81	0xba979000	-0.0011563301
82	0x3db148e8	0.08656484
83	0x3e7ac32e	0.24488518
84	0x3df01920	0.11723542
85	0xbe66e8be	-0.22549722
86	0xbd3bae30	-0.045820415
87	0x3ca31150	0.019905716
88	0x3e0316ce	0.12801668
89	0xbe58fc6c	-0.21190041
90	0xbdb99870	-0.09062278
91	0x3e00d0a0	0.12579584
92	0xbdbe4b80	-0.09291744
93	0xbdf2815c	-0.118410796
94	0xbbe6a240	-0.0070383847
95	0x3d51e5e0	0.051244617
96	0xbe098e76	-0.13433251
97	0xbd7b3ab8	-0.061335295
98	0x3e4febba	0.20304766
99	0xbd337840	-0.04381585
100	0xbe60cecc	-0.21953887
101	0xbe7f8f58	-0.24957025
102	0x3e04d2d2	0.12971047
103	0x3e6b00e8	0.22949564
104	0xbe233a4c	-0.15940207
105	0xbdaf5c4c	-0.08562526
106	0x3d1ed4b8	0.038777083
107	0x3e30dd14	0.17271835
108	0x3e77ea0e	0.24210379
109	0x3e612c64	0.2198959
110	0x3d90e3a4	0.07074669
111	0xbdf6ad84	-0.12044814
112	0xbded0054	-0.11572328
113	0x3e23c28e	0.15992185
114	0x3e2534f2	0.16133478
115	0x3dfccba0	0.12343526
116	0x3e381b20	0.17979097
117	0xbb476e00	-0.0030430555
118	0xbe3049ec	-0.17215699
119	0x3d8d8ef8	0.06912035
120	0xbe44d8f4	-0.19223386
121	0xbc242120	-0.010017663
122	0xbdbf4944	-0.09340146
123	0x3e1725ea	0.14760557
124	0xbd19aac8	-0.037516385
125	0xbdc3de84	-0.09563926
126	0x3e16f06a	0.14740148
127	0x3de94568	0.11390191

fc2.weight f4 [128, 128]
0	0x3d2a0f6a	0.041518606
1	0x3ce43370	0.027856559
2	0xbd6ab584	-0.057302013
3	0x3d2ddd06	0.042447113
4	0x3d3e94ba	0.046528555
5	0x3d283a2a	0.041071095
6	0xbd9be903	-0.07612803
7	0xbdb411c0	-0.08792448
8	0x3c739048	0.014865942
9	0xbd1fc642	-0.039007433
10	0xbd9eee24	-0.077602655
11	0x3d21192e	0.039330654
12	0x3d21dc82	0.039516933
13	0xbcce76b4	-0.025203086
14	0xbd0ee1ba	-0.03488324
15	0x3c6074c8	0.013699718
16	0x3c3694f0	0.011143908
17	0x3d2ef3b2	0.042712875
18	0xbdab302c	-0.083587974
19	0xbc94de24	-0.018172331
20	0xbd7408e2	-0.059578784
21	0x3bb8d500	0.005640626
22	0xbd1b59b2	-0.037927337
23	0xbd90d9fe	-0.07072829
24	0x3d3fb4ae	0.04680317
25	0x3da306f1	0.07960308
26	0x3d0f4e80	0.034986973
27	0xbd120d74	-0.03565736
28	0x3d5e3ae6	0.05425539
29	0xbc0a32d0	-0.008434966
30	0x3d16d7f2	0.036827035
31	0xbcf21bb2	-0.029554222
32	0x3d51b962	0.051202185
33	0xbc17b910	-0.009260431
34	0x3d90a757	0.070631675
35	0xbd0d3e48	-0.034483224
36	0x3d5430ce	0.051804356
37	0x3d9eee87	0.07760339
38	0xbd7202c0	-0.059084654
39	0x3d3ff5f6	0.046865426
40	0x3d35a846	0.04434993
41	0xbd81ce46	-0.06338172
42	0xbce4ea06	-0.027943622
43	0xbd96e768	-0.07368356
44	0x3d9c569f	0.07633709
45	0xbd7512bc	-0.05983232
46	0x3c8f3e78	0.017485842
47	0x3d3561be	0.044282667
48	0xbd4b5a4b	-0.049646657
49	0xbd1c2e97	-0.03813037
50	0xbda596ef	-0.08085429
51	0xbcfe0716	-0.031009238
52	0xbdb02603	-0.08601
53	0x3d96965d	0.07352898
54	0x3db086cf	0.08619463
55	0x3c94aa10	0.018147498
56	0xbd9d25b4	-0.07673207
57	0xbc373e70	-0.01118432
58	0xbd79dd7c	-0.06100224
59	0x3c6f25e0	0.014596432
60	0x3d5eaaea	0.054362215
61	0xbcce0930	-0.025150865
62	0x3d95117d	0.07278726
63	0xbd38c27e	-0.045107357
64	0x3d2b7aca	0.041865148
65	0xbc8cff28	-0.017211512
66	0x3c7f4da0	0.015582472
67	0xbd84a348	-0.06476456
68	0xbd256610	-0.040380538
69	0x3da25bc1	0.07927657
70	0x3d83bb05	0.064321555
71	0x3d02f8b8	0.031975478
72	0x3da1f1a3	0.07907417
73	0xba809a40	-0.0009811595
74	0x3c6405c8	0.013917394
75	0x3d058b7a	0.03260372
76	0xbd5736a5	-0.052542347
77	0x3d671fde	0.056426875
78	0x3d16bfe2	0.036804087
79	0x3d01fae0	0.031733394
80	0x3b75fb40	0.003753379
81	0xbd1f34af	-0.038868602
82	0xbda88f35	-0.082304396
83	0x3d6c6dda	0.05772195
84	0x3c5ef850	0.013609007
85	0x3d51a09a	0.051178552
86	0x3d582ee6	0.0527791
87	0xbd6a9bb7	-0.057277407
88	0xbd9e58e1	-0.07731796
89	0x3c51a0b8	0.012794666
90	0x3d37015a	0.044679023
91	0x3d8e490d	0.06947527
92	0xbd460f77	-0.048354592
93	0x3d69ee2e	0.05711191
94	0xbd3b64e5	-0.045750517
95	0xbd19fb12	-0.037592955
96	0x3c6b2fa0	0.014354616
97	0xbcd73b3e	-0.026273366
98	0xbd770fdf	-0.06031787
99	0xbdb3191b	-0.08745023
100	0xbad7e100	-0.0016470253
101	0xbdaab623	-0.08335521
102	0x3d376cca	0.044781484
103	0xbd325681	-0.043539528
104	0x3c71e6b8	0.01476448
105	0xbd738ae6	-0.059458636
106	0xbcc45c60	-0.02396983
107	0xbc8e4dc8	-0.017371073
108	0x3d0739dc	0.033014163
109	0xbc971a20	-0.018445075
110	0x3ce6e63c	0.028185956
111	0xba327880	-0.0006808117
112	0xbd69e392	-0.057101794
113	0xbdaf4f56	-0.08560054
114	0x3c0a9e30	0.008460566
115	0x3d31f7be	0.043449156
116	0x3d77db1e	0.0605117
117	0xbda7d908	-0.08195692
118	0xbd976651	-0.07392562
119	0x3d9221fb	0.071353875
120	0x3d0e5c98	0.034756273
121	0xbd038bb8	-0.032115668
122	0xbd366514	-0.04452999
123	0x3d5e8366	0.05432453
124	0xbcc5486c	-0.024082385
125	0xbd305070	-0.04304546
126	0xbc9ff884	-0.019527681
127	0xbd46c20e	-0.04852491
128	0x3d2a6ca2	0.041607507
129	0x3d6a8422	0.057254918
130	0x3d0c76b8	0.034292907
131	0xbda83a14	-0.082142025
132	0x3dab46cf	0.08363115
133	0x3d9050b1	0.07046641
134	0xbd93c51c	-0.0721533
135	0xbd6a5af6	-0.057215653
136	0x3da190a5	0.07888917
137	0x3d5476b2	0.05187101
138	0x3d5f6492	0.05453927
139	0x3da9a5ed	0.08283601
140	0xbc3224b0	-0.010873005
141	0x3d83e44d	0.06440029
142	0x3d3720c6	0.04470899
143	0x3d0b9db0	0.03408593
144	0x3d011a5e	0.031519286
145	0xbd653876	-0.05596205
146	0xbcee561a	-0.02909379
147	0xbcea65ca	-0.02861299
148	0x3d41ebf2	0.047344156
149	0x3d850335	0.06494752
150	0xbd069e1c	-0.03286563
151	0xbd4f1e04	-0.050565735
152	0xbd45fd18	-0.048337072
153	0x3cd4d6d8	0.025981352
154	0x3d37a176	0.044831716
155	0xbdb0dd19	-0.08635921
156	0x3d0ecd8e	0.034864
157	0x3d27b15e	0.040940635
158	0xbd847d90	-0.06469262
159	0x3cba5cf0	0.022749394
160	0x3c49b050	0.012310103
161	0xbd96caf5	-0.0736293
162	0xbc34ea28	-0.011042155
163	0xbc86aa2c	-0.016438566
164	0xbd381aff	-0.04494762
165	0xbd95b5e1	-0.07310081
166	0xbcb2bbe4	-0.021818109
167	0x3d969f6f	0.07354628
168	0x3c809b34	0.015699007
169	0x3d6677ce	0.0562666
170	0x3d55e112	0.052216597
171	0x3ce3dce4	0.02781529
172	0x3cd96094	0.02653531
173	0x3d9232cf	0.07138597
174	0xbd7f6b83	-0.06235839
175	0xbd3ed6c2	-0.046591528
176	0xbcd20368	-0.02563639
177	0xbd93fea0	-0.072263
178	0x3d5f3862	0.05449713
179	0x3caba30c	0.02095177
180	0x3d07e89a	0.03318081
181	0xbc013808	-0.007886894
182	0xbd5f9a86	-0.054590724
183	0x3cde1498	0.02710943
184	0xbd2fc63e	-0.042913668
185	0xbd4dd528	-0.05025211
186	0x3c891200	0.016732216
187	0xbd9ee4c5	-0.07758478
188	0xbd3d1b8c	-0.04616885
189	0xbcd54afc	-0.026036732
190	0xbdab34cf	-0.08359682
191	0x3d4b0066	0.049560927
192	0x3d929131	0.07156599
193	0xbdb2f085	-0.08737282
194	0x3cd932b8	0.026513442
195	0x3d99b42b	0.075050674
196	0x3c39c448	0.011338301
197	0xbd1027ce	-0.03519421
198	0xbcc666ec	-0.024218999
199	0xbd7215ec	-0.059102938
200	0x3cefa6fc	0.029254429
201	0xbc5f1ed0	-0.013618186
202	0x3dac2541	0.08405543
203	0x3cdc0ffc	0.02686309
204	0xbdb26b63	-0.08711889
205	0x3da3a3cb	0.079902254
206	0xbd04d8c1	-0.032433275
207	0xbdb3e2b6	-0.08783476
208	0xbd89c21f	-0.06726479
209	0x3d9eed45	0.07760099
210	0xbaeee2c0	-0.0018225536
211	0xbd99837c	-0.07495782
212	0x39ae8e00	0.00033293664
213	0xbd6875cf	-0.056752976
214	0xbd877a11	-0.06615079
215	0x3d39a7ca	0.04532603
216	0xbc4d37f8	-0.012525551
217	0xbd0760df	-0.033051368
218	0xbbe7a580	-0.0070692897
219	0xbc2b38f0	-0.010450587
220	0x3d8cd49b	0.06876489
221	0xbdaf13ea	-0.0854872
222	0xbd8b435a	-0.06799956
223	0xbc8b3534	-0.016993143
224	0xbd374c86	-0.044750713
225	0xbcf5e7a4	-0.030017681
226	0xbc600340	-0.01367265
227	0xbcbd5920	-0.023113787
228	0x3d576656	0.05258783
229	0xbd01cf47	-0.031691816
230	0x3d4bad92	0.049726076
231	0xbc0b7548	-0.008511849
232	0x3d985d25	0.07439641
233	0xbc0bf4d8	-0.008542262
234	0xbcde9fe6	-0.027175855
235	0x3d8683cd	0.06568108
236	0x3d47a8ea	0.048745073
237	0x3dadf18b	0.08493336
238	0x3cd60c34	0.026128866
239	0x3d9a2969	0.075274296
240	0x3d8ef7a5	0.06980828
241	0x3dad5b7d	0.08464716
242	0x3d3c61c2	0.045991667
243	0xbd158772	-0.036506124
244	0xbd69c55d	-0.057072986
245	0xbd3c51cd	-0.04597645
246	0x3d245196	0.04011687
247	0xbd87d74d	-0.06632862
248	0x3d7ec322	0.062197812
249	0xbd0c140c	-0.034198806
250	0x3c414e10	0.011798397
251	0x3d80fab5	0.062978186
252	0x3c6d4ac0	0.014483154
253	0x3d009a9e	0.031397454
254	0xbd561eaa	-0.052275337
255	0x3bdad210	0.0066778734

fc2.bias f4 [128]
0	0xbd4d9bd8	-0.050197452
1	0xbbfd28c0	-0.007725805
2	0xbd768635	-0.060186584
3	0xbd447dbb	-0.04797147
4	0x3d40cdd6	0.0470713
5	0xbd9c810c	-0.07641801
6	0x3d693df6	0.056943856
7	0x3cf9939c	0.030465893
8	0x3d81db37	0.0634064
9	0x3c8807a4	0.016605206
10	0xbd70eeae	-0.058821373
11	0xbce0f102	-0.027458671
12	0xbd395710	-0.045249045
13	0x3d15dfae	0.03659027
14	0xbd497656	-0.04918512
15	0x3b9c40b0	0.0047684535
16	0x3d929ab7	0.07158416
17	0xbd1d7a06	-0.03844645
18	0xbdb492bb	-0.08817049
19	0xbd85a257	-0.065251045
20	0xbda32711	-0.07966436
21	0x3d9f847b	0.077889405
22	0x3d518072	0.051147886
23	0x3da50b65	0.08058814
24	0x3daaaed7	0.08334129
25	0x3d648e4a	0.05579976
26	0xbd945a72	-0.072438136
27	0x3d12dc1e	0.03585445
28	0x3d868783	0.065688156
29	0xbd668d54	-0.056287125
30	0xbd88361c	-0.066509455
31	0x3c4239a8	0.011854567
32	0xbd3d2958	-0.046182007
33	0x3d87c197	0.06628721
34	0xbcdc6ebe	-0.026908275
35	0x3d182dc6	0.037153028
36	0x3bdc0a10	0.0067150667
37	0x38fbbc00	0.000120036304
38	0xbd9726b0	-0.07380426
39	0x3c6202f8	0.013794653
40	0x3ca2f1a4	0.019890614
41	0xbd5d4dba	-0.054029204
42	0xbda35e6a	-0.079769924
43	0x3d23874a	0.039923944
44	0x3d4e664e	0.050390534
45	0xbd86f5e1	-0.065898664
46	0xbd5dffa1	-0.054198865
47	0xbc912138	-0.017716035
48	0x3d9bbad9	0.07603998
49	0x3c97e3d4	0.018541254
50	0x3db0f7eb	0.086410366
51	0xbd043e51	-0.032285992
52	0xbda609cd	-0.08107338
53	0xbc331038	-0.01092916
54	0xbd06ed75	-0.0329413
55	0x3be4dc50	0.006984271
56	0xbd397455	-0.04527696
57	0x3d7eda4e	0.06221991
58	0x3d0e6202	0.034761436
59	0xbda91759	-0.08256406
60	0x3ccfc3b4	0.025361873
61	0x3c9f2dc0	0.019430995
62	0x3d935447	0.07193809
63	0xbc785750	-0.015157536
64	0x3c233ff8	0.009963982
65	0x397ab400	0.00023908913
66	0x3d9bad9d	0.076014735
67	0xbd8ba291	-0.068181165
68	0xbcb854fc	-0.022501461
69	0xbdacd6c4	-0.08439401
70	0x3d230eea	0.039809145
71	0xbcde876a	-0.02716418
72	0xbd52e449	-0.05148724
73	0x3da0f9cb	0.07860144
74	0xbdabc1f7	-0.08386605
75	0xbd422c12	-0.04740531
76	0xbd1cdef5	-0.038298566
77	0xbd31bc06	-0.043392204
78	0x3cec6108	0.028854862
79	0x3da395cf	0.07987558
80	0xbd8b4519	-0.06800289
81	0xbd3f9d28	-0.046780735
82	0x3d3122fa	0.043246247
83	0xbd2a7e4f	-0.041624364
84	0x3d3983f6	0.045291863
85	0x3d9a5e53	0.07537522
86	0x3cc4d50c	0.02402737
87	0x3d109d7e	0.035306446
88	0x3d231c46	0.039821886
89	0xbd4cf761	-0.050040606
90	0x3cdcb678	0.026942477
91	0xbcedf5a6	-0.029047798
92	0x3d0df85c	0.034660682
93	0x3d303ed6	0.043028675
94	0xbba82d10	-0.005132325
95	0x3d4e805e	0.05041539
96	0x3ca7c370	0.020478934
97	0x3d05406a	0.032532133
98	0xbdb243b4	-0.087043196
99	0xbd13e56a	-0.03610746
100	0xbd28c3e4	-0.04120244
101	0x3d940613	0.07227721
102	0x3c6a6720	0.0143068135
103	0xbd92d346	-0.071692035
104	0x3d1a8af6	0.03773018
105	0x3da5724d	0.08078442
106	0xbbb8c2a0	-0.0056384355
107	0x3da32bb9	0.07967324
108	0x3ce00b88	0.027349249
109	0xbcacac3c	-0.021078221
110	0x3d9fe68d	0.07807646
111	0x3d7d7b9a	0.061885454
112	0x3d9faa25	0.07796124
113	0x3dad3fdf	0.08459448
114	0x3d9c19db	0.07622119
115	0xbd4282f5	-0.04748817
116	0x3d50ede2	0.051008113
117	0xbcfa3a10	-0.030545264
118	0xbbffad40	-0.0078026354
119	0xbc454498	-0.01204028
120	0xbd2e49d4	-0.042550877
121	0x3d80e07b	0.06292816
122	0xbc64f6e8	-0.013974883
123	0xbd8915ce	-0.06693612
124	0x3c8e0a2c	0.017338835
125	0xbd999723	-0.0749953
126	0x3d9ee773	0.07758989
127	0xbd620df3	-0.055189084
