customTrainer/results/AgentBall04/RollerBall.onnx (onnx, 76482 bytes, 6 tensors)

fc1.weight f4 [128, 16]
000000 98 14 33 3e 8c 1b 19 be 0c f0 8f 3d cc 17 2e be
       0.17488325 -0.14951915 0.07028207 -0.17001265
000010 60 a8 02 bd 24 94 06 be d8 79 f5 bd 50 15 9f bc
       -0.031898856 -0.13142449 -0.119861305 -0.019419342
000020 08 c9 aa 3d a0 af 72 be 10 23 4d be f8 19 6a 3d
       0.08339125 -0.23699808 -0.20032907 0.057153672
000030 56 bb 58 3e 10 e9 9d 3d c8 25 45 3d e0 42 61 3e
       0.21165213 0.07710469 0.048131734 0.21998167
000040 0c e0 88 bd 20 39 9e 3d d0 16 42 be 24 22 68 3e
       -0.066833586 0.077257395 -0.18954015 0.22669274
000050 28 9a 45 3d c6 31 2f 3e 30 f9 fb 3c e8 ef 1d be
       0.048242718 0.17108831 0.03075847 -0.15423548
000060 46 75 5a be 8c 89 af bd 00 70 6f 39 bc 77 94 3d
       -0.21333799 -0.08571157 0.0002283454 0.072494
000070 84 76 57 3e 88 d7 97 bd dc 85 14 3e dc a9 50 be
       0.21041304 -0.07414156 0.14504188 -0.20377296
000080 d4 97 ea bd 60 f8 14 3c 58 84 3e 3e 18 6f 68 3e
       -0.1145474 0.00909242 0.18605173 0.22698629
000090 78 df f2 3d be 9c 2e be 00 c2 08 3d 80 d2 cf bd
       0.118590295 -0.1705198 0.033388138 -0.101475716
0000a0 00 db 10 bb bc 42 40 3e c8 bc 1b 3d 6a be 19 be
       -0.002210319 0.18775457 0.038021833 -0.15014043
0000b0 d4 b7 0c 3e 00 72 da bb d8 24 7b be f8 eb 64 bd
       0.13742 -0.006666422 -0.24525774 -0.0558891
0000c0 f0 49 29 be 70 06 0b be 82 7a 06 3e 2e b9 7d be
       -0.16532111 -0.13576674 0.1313267 -0.24777672
0000d0 4c 8d da 3d 5e d0 62 be 1a 84 2b be 0a b1 10 be
       0.106714815 -0.22149798 -0.16749611 -0.14130035
0000e0 12 7a 20 3e 0c 34 6e be 40 7e 57 bd 58 63 21 3e
       0.15671566 -0.23262042 -0.052610636 0.15760553
0000f0 c8 2c ac 3d f0 ce 58 3e 18 3b 79 3d 36 d1 3d be
       0.08406979 0.2117269 0.06084737 -0.18536839
000100 74 e1 e1 3d 58 61 30 3d 24 82 b8 3d b0 5c 10 bd
       0.1102933 0.043061584 0.09009197 -0.035244644
000110 7c d9 73 be 80 4f f4 bd 8c 6b fa bd d0 9d a0 3d
       -0.23813432 -0.11929226 -0.12227544 0.078426
000120 08 58 2b bd b8 5e 4a 3e cc dc 2a 3e 90 fb 70 3d
       -0.041832 0.19762695 0.1668579 0.05883366
000130 6c c3 cd 3d 80 c0 c3 3c 00 33 ff bd 48 63 79 3d
       0.100470394 0.023895502 -0.12460899 0.060885698
000140 ec 66 f1 bd f0 a7 51 bd 72 52 69 3e 38 2d fe 3d
       -0.11787209 -0.05118555 0.22785357 0.124109685
000150 bc 6c f2 bd 3c 0f ac bd d0 64 e1 bc f2 ce 15 3e
       -0.11837146 -0.08401343 -0.027513891 0.14629725
000160 34 ce c0 bd 6a 03 7c 3e a0 d2 7c be b4 ac 66 be
       -0.0941433 0.24610677 -0.24689722 -0.22526819
000170 64 21 0f be cc 1d 9b 3d 68 df 06 bd 34 1f 92 3d
       -0.13977581 0.07574043 -0.0329279 0.07134858
000180 98 6c 3f bd 30 5c 7f bd 52 a5 7c 3e 20 ca be 3c
       -0.046734422 -0.062343776 0.2467244 0.02328974
000190 be b9 4c be ce 75 48 be 50 f2 44 3e 00 e1 d8 ba
       -0.1999273 -0.19576189 0.1923306 -0.0016546547
0001a0 e8 59 5e be b8 03 52 be 7a b3 60 be 06 f7 00 be
       -0.21713984 -0.20509231 -0.21943465 -0.12594232
0001b0 70 1a 6c 3e 6c a5 e9 bd 50 e8 51 bd 7c 25 c5 bd
       0.2305696 -0.11408505 -0.05124694 -0.0962629
0001c0 e0 99 79 bc bc 1d 11 3e 48 16 85 bd dc ce fd 3d
       -0.015234441 0.14171499 -0.064983904 0.12392971
0001d0 80 7b 16 bb 88 3c 4b 3e 40 c8 ae 3b 00 7b 8a ba
       -0.0022961795 0.1984731 0.0053339303 -0.0010565221
0001e0 1c f7 8f bd 76 b2 61 be 40 54 d0 3d fe d6 49 3e
       -0.07029554 -0.22040734 0.101723194 0.1971092
0001f0 86 a3 16 3e 10 16 23 3e 44 2e 04 be 90 c6 e4 3d
       0.14710817 0.15926385 -0.12908274 0.11170685
000200 bc eb d0 bd 44 51 94 bd 98 03 15 3d aa 6d 26 be
       -0.10201213 -0.07242063 0.03638038 -0.16252771
000210 e2 ea 13 3e ee 02 25 be cc 3c 0f 3e 30 b1 f7 bc
       0.1444507 -0.16114399 0.13988036 -0.030235857
000220 80 a8 60 bb 28 32 ee 3d 2c 2d 2c 3e 00 e0 d5 b8
       -0.0034280121 0.1163066 0.16814107 -0.00010198355
000230 56 e3 09 be 20 10 e8 3d 40 16 ff bd 2a 26 20 3e
       -0.13465628 0.113312006 -0.12455416 0.15639558
000240 a0 d4 cc 3c fc 5d 31 be 1a 6b 16 3e 12 b9 57 be
       0.025003731 -0.17321008 0.14689294 -0.21066692
000250 aa 0a 2f be 80 73 d1 3c f8 34 44 3e 8c 77 53 3e
       -0.17093912 0.02556777 0.19160831 0.20651072
000260 b6 4c 0d be e2 80 62 3e 08 21 40 bd 90 08 c1 bd
       -0.13798794 0.22119477 -0.0469065 -0.09425461
000270 a8 c2 23 3e 46 6f 41 be 10 0f 12 3d ba 5b 4a 3e
       0.15992224 -0.18890104 0.035658896 0.19761553
000280 8c 2d 33 3e 5c 5f ea bd a0 6d 75 be 64 3a 4d be
       0.17497844 -0.114439696 -0.239676 -0.20041806
000290 5e 51 39 be c0 ea b9 bd 88 66 bc bd 04 d8 23 be
       -0.18097445 -0.09077978 -0.09199244 -0.16000372
0002a0 7c 9e b3 bd b6 fe 12 be a4 c0 cc bd e0 f8 46 3e
       -0.08770463 -0.14354977 -0.09997681 0.19430876
0002b0 94 74 45 be b0 8f 57 bd 94 69 ea bd 20 ee 27 3c
       -0.19282752 -0.052627265 -0.11445919 0.0102496445
0002c0 bc 99 11 3e a0 2f 5d be 80 84 cf 3c 4c 36 b6 3d
       0.14218801 -0.21600199 0.025331736 0.08897075
0002d0 74 66 eb 3d c2 ee 70 be 16 f1 37 3e 3e 14 01 3e
       0.11494151 -0.23528579 0.1796306 0.12605378
0002e0 f2 e9 36 3e 08 0d 44 3e cc c3 b3 bd 24 af fc bd
       0.1786268 0.19145596 -0.0877758 -0.12338093
0002f0 cc 9c 1e be f0 6f 77 bd 96 5f 5a be a0 50 0d be
       -0.15489501 -0.060409486 -0.21325526 -0.13800287
000300 f4 bf 80 bd 0e 35 6a 3e c8 39 d3 3d a4 36 ac 3d
       -0.06286612 0.22871801 0.10313755 0.08408859
000310 b0 8c 95 3d 98 fd 55 3e 64 74 1e 3e 4c 10 4b be
       0.07302225 0.2089752 0.15474087 -0.19830436
000320 14 8f af bd 64 6c de bd ec 6a d3 3d 6e 00 48 be
       -0.08572212 -0.108605176 0.10323128 -0.19531414
000330 74 70 15 be 1a 7f 56 3e b2 51 6a be e0 43 56 be
       -0.14593679 0.20946923 -0.22882727 -0.2092433
000340 80 14 ee 3c 64 f1 ce 3d 8a af 44 be 00 d7 98 bd
       0.02906251 0.10104635 -0.19207588 -0.07462883
000350 a0 16 85 bc 72 cf 7c 3e a0 9f 1f bc 20 d1 22 bc
       -0.01624614 0.24688509 -0.009742647 -0.009937555
000360 30 04 f2 3c 64 53 3f 3e 2e df 45 be aa fe 65 3e
       0.029543012 0.18684155 -0.19323418 0.22460428
000370 b8 f8 bd bd 08 30 5d 3e 8a 1b 36 3e c0 2c 12 bc
       -0.09275955 0.21600354 0.17783943 -0.008921802
000380 80 02 7c 3b 80 78 b9 3d 68 5f 16 be 48 22 10 be
       0.0038453639 0.09056187 -0.14684832 -0.14075577
000390 4c 77 8c bd 18 c6 57 3d 18 99 0d be 30 2b 91 3d
       -0.068586916 0.05267915 -0.13827932 0.070883155
0003a0 6e dd 60 be b0 50 ae 3d 60 f2 bc 3c f4 af e7 bd
       -0.21959469 0.08511484 0.023064792 -0.11312857
0003b0 ba 9d 02 be 1c 64 6a be 2c bd 50 3e de fa 0f 3e
       -0.1275548 -0.22889751 0.20384663 0.14060542
0003c0 d0 52 a0 bd ec 49 1c 3e 6c f5 73 3e 88 57 67 3d
       -0.07828295 0.15262574 0.2382409 0.05647996
0003d0 80 ce 08 3b 58 ff 3e 3e 76 47 2f 3e 4e 74 1d be
       0.0020875037 0.18652093 0.17117104 -0.15376398
0003e0 78 b0 22 3d 54 d6 0e 3e 58 af 46 3e bc 75 c0 3d
       0.039719075 0.13948947 0.19402826 0.09397456
0003f0 ca 28 26 be c0 1f 74 bc 98 1d 71 bd 04 25 3a 3e
       -0.16226497 -0.014900148 -0.058866113 0.18178183

fc1.bias f4 [128]
000000 70 f8 87 3d d4 72 49 be da 59 2b 3e 9a 8e 6d be
       0.066391826 -0.1967271 0.16733494 -0.2319893
000010 10 9c 7f be e6 5f 1e 3e 88 2b 38 3d 6c 19 c7 bd
       -0.24961877 0.1546627 0.04496339 -0.09721646
000020 b2 f4 1c be 08 d1 69 3e ac 61 2a be 80 ec 4b be
       -0.15327719 0.22833645 -0.16638821 -0.19914436
000030 e8 fa 75 be a0 57 e2 bd a8 46 06 be 80 9d 7a 3e
       -0.24021494 -0.110518694 -0.1311289 0.24474144
000040 62 8b 4d 3e 60 03 31 3d 00 c6 95 3c 28 81 62 3e
       0.20072702 0.04321611 0.01828289 0.22119582
000050 10 74 7b 3e 14 55 67 3e 5a 84 3a 3e 78 cf 28 be
       0.24555993 0.22591048 0.1821455 -0.16485393
000060 08 2a 7f 3e e4 19 3b 3e 96 70 1d 3e 48 fe 0c 3d
       0.24918377 0.18271595 0.1537498 0.03442219
000070 7e 99 2b be 08 4d ba 3d 24 6b fd bd b8 15 b7 bd
       -0.16757771 0.09096724 -0.12373951 -0.089396894
000080 00 8a 42 bd 70 73 55 be 04 b5 79 3e aa e6 55 be
       -0.04749489 -0.20844817 0.24385458 -0.20888773
000090 e6 55 24 be a6 61 0f 3e 58 2b 95 bd 22 43 15 3e
       -0.16048393 0.14002094 -0.07283658 0.1457639
0000a0 10 24 30 bd 80 8d 0d 3c b0 ce 80 bc fe 84 1d 3e
       -0.043003142 0.008639693 -0.015723556 0.15382764
0000b0 c0 ad f4 3c f8 15 d4 3d e0 ec 2d 3d 8a bd 4a 3e
       0.029868007 0.10355753 0.04246223 0.19798866
0000c0 80 d9 2f bc 88 05 a0 bd 50 98 12 3e c2 79 5a be
       -0.010733008 -0.07813555 0.14315915 -0.2133551
0000d0 be 5a 16 be 4c c8 6d 3e 42 52 7d be b0 69 5f 3d
       -0.14683053 0.23220938 -0.2473841 0.05454415
0000e0 ca 4f 05 3e 1a f9 06 be 0a 76 2d be e0 ad 81 3d
       0.13018718 -0.13180962 -0.1693956 0.06331992
0000f0 c0 91 46 bd 50 f0 02 be 48 f1 58 3d 98 fc 00 be
       -0.04847884 -0.12786984 0.05296448 -0.12596357
000100 e0 92 28 be b0 ee 25 3d 40 d3 6d 3c 48 b0 87 3d
       -0.16462278 0.040510833 0.014515698 0.0662542
000110 40 81 a1 bc 68 3a 8f 3d 80 87 5a bd 80 d2 cc 3c
       -0.019714952 0.06993562 -0.05335188 0.025002718
000120 a8 e1 12 3e a4 d4 ea 3d 50 0e b4 bc 3c 59 0b be
       0.14343894 0.11466339 -0.021979481 -0.13608259
000130 48 03 5d 3e 92 29 66 be 18 c3 f1 3d 50 f1 7e 3d
       0.21583283 -0.22476795 0.11804789 0.062241852
000140 96 55 32 be 4e 6b 44 be f6 5a 09 3e 56 b6 01 be
       -0.17415461 -0.19181558 0.13413605 -0.12667212
000150 d6 c5 48 3e fc a6 19 3e 7c 51 dc 3d 16 3f 38 be
       0.19606718 0.15005106 0.107577294 -0.17992815
000160 e0 90 e4 bc d0 ec 70 3e 30 3e 20 3d 70 a8 85 bd
       -0.027901113 0.23527837 0.039121807 -0.065262675
000170 36 30 60 be 9c 02 14 3e 70 9e d7 bc 9c dd f5 bd
       -0.21893391 0.1445412 -0.026320666 -0.12005159
000180 7a 41 71 3e 0a da 4d 3e 80 57 d1 3c c0 ca 38 be
       0.23560134 0.20102707 0.025554419 -0.18046093
000190 b4 96 a9 bd d4 ed 3d 3e 46 0c 44 3e f0 58 6e be
       -0.082806975 0.18547755 0.19145307 -0.23276114
0001a0 66 18 3d be a0 1f 3c 3c b2 15 0a 3e a0 ac c1 bd
       -0.18466339 0.011482149 0.13484839 -0.09456754
0001b0 e6 b2 29 3e 98 d1 5b bd 24 4d df 3d 1a 11 69 3e
       0.1657215 -0.05366668 0.10903385 0.2276043
0001c0 c4 92 5a be 98 a4 f1 3d f8 7b 50 3e 68 35 44 be
       -0.21345049 0.11798972 0.2035979 -0.19160998
0001d0 40 fd 4a bd d0 74 29 be cc d2 cb 3d a0 ac f9 3c
       -0.049557924 -0.16548467 0.09952316 0.030477822
0001e0 5e ff 1d be 10 6c e6 bd a4 88 9a bd fc 8a d0 bd
       -0.15429446 -0.1125108 -0.075455934 -0.10182759
0001f0 c6 46 1a 3e 42 af 7f 3e 30 d5 75 be f6 a2 49 be
       0.1506606 0.249692 -0.24007106 -0.19691071

fc2.weight f4 [128, 128]
000000 ea b5 3e 3d 80 a2 d1 bb b3 c3 82 bd ac 5c 03 3d
       0.046560206 -0.0063975453 -0.06384983 0.0320708
000010 0b 9b 40 bd 36 3a 70 3d d2 d4 eb bc 80 3f 34 3b
       -0.04702286 0.058649264 -0.028788004 0.002750367
000020 e4 4b 84 bd b2 5a 1d 3d f8 23 4f 3c 26 4f 39 3d
       -0.064597875 0.038416572 0.012642853 0.045241497
000030 93 12 7c bd ba b4 3a 3d a4 d9 82 bc 18 9c 15 3c
       -0.06154115 0.04558251 -0.01597292 0.009131454
000040 16 2c 1d 3d 16 04 6b 3d 24 4a 87 bc a2 11 05 3d
       0.03837212 0.057376944 -0.016514845 0.03248752
000050 c8 f7 6b bc d9 3e 8d 3d d5 0c 81 3d 1b bf a3 3d
       -0.014402337 0.06896753 0.06301276 0.07995435
000060 12 d9 25 3d 92 28 a5 bd 90 83 a9 bd 6a af aa bd
       0.040490218 -0.08064379 -0.08277047 -0.08334239
000070 26 59 7f bd 02 1d 24 3d 00 a9 a4 b9 93 d3 a2 3d
       -0.062340878 0.040066727 -0.00031406432 0.07950511
000080 b9 79 91 bd 66 12 73 3d e4 a1 ac 3c 54 ef 14 bd
       -0.07103295 0.059343718 0.02107329 -0.036361054
000090 e4 aa a9 3c ed d8 1e bd 91 3e ab 3d 00 9a a7 3b
       0.02071137 -0.038781095 0.08361543 0.005114794
0000a0 7e 7a 4a 3d a0 5c 08 3b 86 0c 3a 3d 2c 66 bd 3c
       0.049433224 0.0020807162 0.0454221 0.023120008
0000b0 24 20 a8 bd 98 9b 4e bc a0 14 83 3b c0 c3 f2 3c
       -0.08209255 -0.012610339 0.0040002614 0.029634356
0000c0 c4 fb 8b 3c 07 5b 2d bd 8e 34 e1 bc e4 00 10 3d
       0.017087825 -0.04232314 -0.02749088 0.0351571
0000d0 07 98 74 bd c8 a1 7e bc f2 1a 5b 3d a8 13 e9 3c
       -0.059715297 -0.015541501 0.053492494 0.028451756
0000e0 9a aa 33 3d 33 cc b1 3d fb f8 0f bd f0 a4 b4 3b
       0.04386387 0.08681526 -0.035149556 0.005512826
0000f0 08 97 44 bc a0 b0 8c bd 8c 01 e7 3c 68 a1 0e bc
       -0.011998899 -0.06869626 0.02819898 -0.008705474
000100 a0 25 63 3b ce c3 42 3d 46 1a 5c 3d a5 28 3e bd
       0.0034659877 0.047550015 0.053735994 -0.04642548
000110 5e 29 4c 3d 32 86 1b 3d b2 5c 05 3d 98 80 5e 3c
       0.04984414 0.037969775 0.032559104 0.013580464
000120 18 08 69 3c e2 58 77 3d b0 34 fc 3c 58 41 25 3c
       0.014223121 0.0603875 0.030786842 0.01008638
000130 e4 87 a0 3c d0 88 9d bd 8b 00 a2 3d 8c 41 a8 3c
       0.019596048 -0.076921105 0.0791026 0.020539068
000140 85 95 aa 3d 00 4e 23 bc c0 35 d3 ba 92 71 5a bd
       0.083293 -0.009967327 -0.0016114041 -0.053330965
000150 e6 39 2f 3d 60 0e a5 bd 58 97 bc bc b6 54 27 3d
       0.042779826 -0.080593824 -0.023021385 0.04085227
000160 d0 fd 79 bc 5c b6 10 3d 70 32 82 bb 9b 65 b3 3d
       -0.0152582675 0.03533016 -0.003973298 0.08759614
000170 80 1d 3f 3a 8e 25 2b 3d c4 ed ea 3c 44 b1 86 3c
       0.00072904676 0.04178386 0.028677829 0.016441949
000180 c2 0c 0f 3d ce 16 5e 3d 89 70 b1 3d 51 00 25 bd
       0.034924276 0.054220967 0.086640425 -0.040283505
000190 bd 11 81 3d 19 e5 8b 3d 0c 13 99 3c ee d2 6a 3d
       0.063022114 0.06830806 0.01868584 0.057330064
0001a0 f0 20 87 3c c6 1a 45 3d 8a 49 1f 3d 6a 72 26 3d
       0.016495198 0.048121236 0.03888849 0.040636458
0001b0 28 44 d5 bc ff 16 54 bd f0 1f b6 3b e6 cc ed bc
       -0.026033476 -0.051779743 0.0055580065 -0.029028367
0001c0 14 f8 9c bd 10 91 92 bd f5 19 a9 3d 64 9c e6 3c
       -0.07664505 -0.07156575 0.08256904 0.028150745
0001d0 9b c2 10 bd 7e 3a 85 bd cd dc 3c bd 9e 93 33 3d
       -0.03534184 -0.06505297 -0.04610901 0.04384195
0001e0 d0 23 bd 3b 7f 23 4f bd 6b c6 99 bd ed fb 88 3d
       0.0057720914 -0.05057096 -0.07508548 0.06688676
0001f0 60 61 e3 bb 66 92 38 bd 40 dc d5 3c 12 61 6b 3d
       -0.0069390982 -0.04506149 0.026106 0.05746562
000200 d0 94 a2 bc b4 5c eb 3c 00 95 8a ba 00 31 a6 bd
       -0.01984635 0.028730728 -0.001057297 -0.08114815
000210 b6 6e 76 3d 79 b4 a2 bd d0 90 af bc 40 bd ff bc
       0.060164176 -0.07944579 -0.021431357 -0.031218171
000220 c0 e5 ee 3b 8c 5e cc 3c 1e 20 25 3d fa d6 1e 3d
       0.007290572 0.024947427 0.040313832 0.038779236
000230 d8 38 6c bd 18 d2 96 bd 40 bf d5 bb 80 06 30 ba
       -0.057671398 -0.07364291 -0.006523043 -0.0006714836
000240 74 44 86 bc fb 69 a3 3d 8c 53 8a 3c 00 63 d9 39
       -0.016390063 0.079791985 0.016885541 0.00041463226
000250 7e 84 70 3d 13 54 a6 3d 00 4b d0 b9 81 4f 8d bd
       0.058720104 0.08121505 -0.0003972873 -0.0689993
000260 16 15 7b bd 8c c3 85 bd a7 cf 85 3d bc f7 43 bd
       -0.061299406 -0.06531438 0.06533747 -0.04784368
000270 4a 1e 02 3d 66 c2 7a bd b5 d6 aa bd 6c ad 2a bd
       0.031767167 -0.06122055 -0.08341733 -0.041669294
000280 a0 b7 3b bb 6b d7 4b bd 0d 5c b1 3d 40 ba f2 3c
       -0.0028643385 -0.049765985 0.086601354 0.029629827
000290 10 f9 d6 bc e0 28 34 bc 86 2f 34 bd f2 3d 92 bd
       -0.02624181 -0.0109960735 -0.043990634 -0.071407214
0002a0 6b 72 8e 3d 60 37 7a bc 5e 3e 6e 3d 82 7c af bd
       0.06955417 -0.0152719915 0.058164947 -0.0856867
0002b0 dc 1a ed bc c9 18 47 bd 62 cf 17 bd ee b7 43 bd
       -0.028943472 -0.04860762 -0.03706301 -0.04778283
0002c0 c0 2c c7 3b 3b 6b 06 bd c6 bf a0 bd 40 c8 f4 bb
       0.0060783327 -0.032817107 -0.07849078 -0.0074701607
0002d0 92 29 65 3d ca e8 79 3d e0 23 3a bb 03 9e b4 bd
       0.055947848 0.06101302 -0.002840273 -0.08819201
0002e0 57 d0 b2 3d cf 2e 9e 3d cc f0 ec 3c 28 44 ef 3c
       0.08731144 0.07723772 0.028923415 0.029207304
0002f0 95 3e 56 bd 80 48 6a bd c0 81 41 bc 14 83 97 bc
       -0.052305777 -0.057198048 -0.01181072 -0.01849512
000300 28 cf 43 3c 1e 71 60 3d 97 b1 a2 bd 80 1c 0e bd
       0.011951245 0.054795377 -0.07944029 -0.03469515
000310 1f 37 a8 bd 0c 93 9e bc ab 15 97 3d 70 60 ab 3c
       -0.082136385 -0.019357227 0.0737718 0.020920008
000320 53 60 b4 3d 34 71 a8 bc 64 de 8a bc be e7 85 bd
       0.08807435 -0.020561792 -0.016951747 -0.06538342
000330 26 c6 66 3d 35 e1 8a bd c0 d6 8a 3b 74 25 44 bd
       0.056341313 -0.06781236 0.004237026 -0.04788728
000340 50 96 9d bd 80 f6 4b bb 41 1c b4 3d 21 ef a3 bd
       -0.076946855 -0.0031122267 0.087944515 -0.080045946
000350 37 bb 86 3d 0a 72 38 3d 00 a4 a3 bd d0 bd 9a bd
       0.06578677 0.04503063 -0.07990265 -0.07555735
000360 0d 40 8e 3d 44 e4 da 3c 69 e2 2e bd 51 4c ab 3d
       0.069458105 0.026720174 -0.04269639 0.083641656
000370 00 88 dc 3c 86 28 14 3d 22 44 44 bd e9 92 b0 3d
       0.026920319 0.03617146 -0.04791654 0.08621771
000380 5a ff 51 3d 76 6e 9d bd ee 7b aa bd e6 12 a9 bd
       0.051268913 -0.076870844 -0.08324419 -0.08255558
000390 ba 83 29 bd a0 db 39 bb f3 b4 88 3d f0 97 5a bc
       -0.04138539 -0.0028359666 0.06675138 -0.013341889
0003a0 d8 38 06 3c b5 4a 95 3d f3 b4 98 3d 45 d3 74 bd
       0.008192264 0.0728964 0.07456388 -0.059771795
0003b0 cc 82 86 bc a0 1e 7b bb 5d 3c 0c bd 46 2d 84 bd
       -0.01641979 -0.0038317814 -0.034237254 -0.06453948
0003c0 14 71 8a bc 68 66 98 bd dc d3 f0 3c d6 3c 27 3d
       -0.016899623 -0.074414074 0.029397897 0.040829502
0003d0 86 87 2e 3d 04 e2 f7 3c 99 90 99 3d aa 93 63 3d
       0.042609714 0.03025914 0.07498283 0.055560745
0003e0 fc 98 f3 3c 73 b8 96 3d 2d 00 1e bd 20 c3 a3 bb
       0.029736035 0.073594 -0.038574386 -0.004997626
0003f0 6a eb e5 bc ec 21 a9 bc 86 44 05 3d 00 8f 0a 3b
       -0.028066356 -0.020646058 0.032536052 0.0021142364

fc2.bias f4 [128]
000000 1b 41 9f 3d b8 57 32 bc 8f 17 9f 3d 28 c3 08 3c
       0.0777609 -0.010885172 0.07768165 0.00834731
000010 f0 46 96 3c 93 e6 80 3d d6 f5 33 3d aa ea 43 bd
       0.018344373 0.062939785 0.04393562 -0.047831215
000020 b6 15 37 3d b4 76 de 3c 04 28 95 bc 90 de 1b bc
       0.04469844 0.027156211 -0.018207557 -0.009513512
000030 d6 d1 62 3d 12 69 09 bd 97 10 81 bd f8 9a a8 3c
       0.055375896 -0.03354747 -0.063019924 0.020581707
000040 cc a2 0f 3d 88 4f c2 bc 09 01 51 bd 9d ab 2b bd
       0.035067365 -0.023719564 -0.051026378 -0.04191171
000050 dc fd 86 bc 62 42 42 3d 52 42 84 bd 6c 85 4e bd
       -0.016478471 0.04742659 -0.06457962 -0.05042021
000060 80 ce 78 bc 07 de 9d 3d 30 c2 f9 bb 62 5a 70 3d
       -0.015185952 0.07708364 -0.007622026 0.058679946
000070 f0 91 bf 3c 10 cc 6e bd 5f b0 52 bd 38 83 c1 bc
       0.023385018 -0.058300078 -0.05143773 -0.02362214
000080 e0 18 0a bb d8 7f 32 3c e9 61 01 bd 98 d4 15 bc
       -0.0021071956 0.010894738 -0.031587515 -0.009144925
000090 4e 84 29 3d 75 31 a7 3d c8 98 f0 3c a6 df 2c bd
       0.04138594 0.0816373 0.029369727 -0.042205475
0000a0 78 19 61 bd 32 b7 5c 3d ce 64 1f 3d b0 cc 1a bc
       -0.05495593 0.053885646 0.038914494 -0.009448215
0000b0 c8 b0 75 bc ba 93 56 3d d0 96 b1 bb 51 0b 8c 3d
       -0.014995761 0.052386977 -0.0054195896 0.06838096
0000c0 3c b3 62 bd 06 ad 76 3d d0 8d ca 3c 75 ca 9b bd
       -0.055346712 0.0602236 0.024725825 -0.07606975
0000d0 40 3e f4 3c d0 ba ee 3b dd 3b 8d 3d 70 3c 78 bd
       0.02981484 0.0072854534 0.06896184 -0.060604513
0000e0 52 c3 70 3d d1 18 ab bd c9 77 03 bd 40 a6 a2 3c
       0.058780022 -0.08354343 -0.032096658 0.019854665
0000f0 d9 72 b4 bd 6f c3 b3 3d 40 69 17 bd 20 3e b6 bc
       -0.08810968 0.087775104 -0.03696561 -0.02224642
000100 e3 e2 80 3d ad 63 83 3d 40 9f 5b bb ae 4d 69 3d
       0.06293275 0.06415496 -0.0033511668 0.056958847
000110 86 3a 87 bd 61 2d 80 3d 8e fa 0e bd b8 63 92 bd
       -0.06602959 0.06258655 -0.034906916 -0.07147926
000120 ec 1a 9a bd 7f 7d ac 3d 09 e2 a1 bd 40 40 db 3a
       -0.07524666 0.08422374 -0.07904441 0.0016727522
000130 d0 9c dd bc ec b7 1c bd a8 ef 12 bc 47 4a ab bd
       -0.027052313 -0.03826134 -0.008968271 -0.08363777
000140 5b 1a 9b bd 20 4a 90 bc 68 34 30 bc 82 69 b0 bd
       -0.07573386 -0.01761347 -0.010754682 -0.08613874
000150 13 11 88 3d ba 2a 3f bd 6a 2c 7d 3d 80 2d bd ba
       0.06643882 -0.046671607 0.061809935 -0.0014433116
000160 1a 4b 64 3d 82 b7 29 3d f8 9a cd 3c d0 bc 14 3c
       0.055735685 0.041434772 0.025098309 0.0090782195
000170 18 70 9f bd 7d 9d 28 bd a2 af 85 bd 00 b6 eb 39
       -0.07785052 -0.041165818 -0.0652764 0.00044958293
000180 f7 a9 83 3d b8 06 a6 bd 6f dc 9e 3d ce a0 84 bd
       0.064289026 -0.0810675 0.07756888 -0.064759836
000190 f5 d9 7c bd 1a 62 50 3d 4c 3c db 3c 0c d5 b2 bc
       -0.061731298 0.050874807 0.02676215 -0.021830104
0001a0 b9 8f a8 bd c7 68 ae 3d b5 04 ad 3d 96 7b 40 3d
       -0.08230538 0.085160784 0.084481634 0.04699286
0001b0 e8 d4 dc 3c 5c 20 91 bc 44 eb a0 3c c8 70 4d bc
       0.02695699 -0.017715625 0.019643433 -0.012539096
0001c0 d0 ed 08 bc 50 63 85 bd 80 6b 39 ba 38 e8 1e 3c
       -0.00835748 -0.06513083 -0.00070732087 0.00969892
0001d0 6c 37 82 3c 30 b5 3d 3c b0 3e 41 bc 18 66 4a bc
       0.015895568 0.011578843 -0.011794731 -0.012353443
0001e0 d6 48 86 bd fe 00 1d 3d 6d df b4 3d 02 f9 2a 3d
       -0.06556861 0.038331024 0.088316776 0.04174138
0001f0 a0 a9 60 bb 40 9e b1 bc 60 42 32 bb d8 91 86 bc
       -0.0034280792 -0.021681905 -0.0027200207 -0.016426966

fc3.weight f4 [2, 128]
000000 5a a0 7d 3d 8c 8f eb 3c c2 79 f4 bc 87 b0 9e 3d
       0.0619205 0.028754972 -0.029843215 0.07748514
000010 d2 89 54 3d 20 5e 98 3b 65 30 8b 3d 10 b8 6d bd
       0.05188925 0.0046498924 0.0679634 -0.058036864
000020 00 1e 31 bb 5e 6e 7a 3d b2 f3 17 3d bb c2 1e bd
       -0.0027025938 0.06114041 0.03709764 -0.03875993
000030 5e b4 31 bd 78 e8 3c bd 70 ab 2f bd 09 4e 05 bd
       -0.043384902 -0.046120137 -0.042888105 -0.032545123
000040 68 5c 25 bd a2 9d 43 3d 34 b5 a6 bc c0 f4 9c bb
       -0.04037133 0.047757752 -0.020350076 -0.0047899187
000050 94 d0 71 bd 04 92 b9 3c c1 c0 67 bd 48 f4 b4 3c
       -0.059036806 0.022652633 -0.05658031 0.022089139
000060 ce c7 5a bd 2f f0 0d bd 99 7b aa bd 28 16 91 bd
       -0.053413205 -0.034652885 -0.08324356 -0.07084304
000070 12 0f 83 bd 10 0f 0b 3c bc c4 97 3c 41 42 a6 3d
       -0.06399359 0.008487478 0.018526427 0.08118106
000080 2c 4e fe bc ba 4e 08 bd 9a 52 08 bd 88 83 78 3c
       -0.031043135 -0.033278205 -0.0332819 0.015168078
000090 de 64 37 3d a9 52 83 3d 3e 68 57 3d 08 bc 3c 3c
       0.04477393 0.064122505 0.052589647 0.0115194395
0000a0 a4 2e 98 3c d3 1d 5c bd 48 e7 af bc c4 ae a5 bc
       0.018576927 -0.05373938 -0.021472588 -0.020224936
0000b0 30 0c 0f bd 72 c9 45 3d ae 16 52 3d 9c f3 91 bd
       -0.034923732 0.048287816 0.05129116 -0.07126543
0000c0 ff 60 b4 bd 55 5b af 3d ce d8 13 3d 22 49 98 bd
       -0.08807563 0.08562342 0.036095433 -0.07435824
0000d0 f8 6c 87 bd 90 c2 19 3c 2a 59 59 3d e4 24 af bd
       -0.06612581 0.009384766 0.05306355 -0.08551958
0000e0 5a 82 4a bd 3c 9c 40 bd 9b d9 2c bd ec 14 87 bc
       -0.04944072 -0.047023997 -0.042199712 -0.016489469
0000f0 4a d1 41 3d b2 21 94 bd 91 c4 93 bd 88 8c 05 bc
       0.047318734 -0.07232989 -0.072152264 -0.008151181
000100 c1 4d 80 3d 42 c8 0a bd f0 a7 cc 3b 33 2f 94 3d
       0.062648304 -0.033882387 0.0062456056 0.07235565
000110 bd ff 92 3d f0 10 15 3d 10 60 92 bd e3 c3 93 3d
       0.071776845 0.036393106 -0.07147229 0.07215097
000120 14 67 12 3d 40 fa f4 bb 3e d4 58 3d a6 98 83 bd
       0.035742834 -0.007476121 0.052936785 -0.064256
000130 98 1f b3 3c a0 8b ed 3c 36 18 08 3d a0 c7 c3 bb
       0.021865651 0.028997242 0.033226214 -0.005974725
000140 a8 00 23 3c aa 73 56 3d ea 3f 71 3d aa d6 52 3d
       0.009948887 0.0523564 0.058898844 0.05147425
000150 46 34 5a bd 13 34 6b bd f4 94 46 bd 00 3f 50 3a
       -0.053272508 -0.05742271 -0.048481897 0.0007943958
000160 00 09 ca 39 c4 99 3b bd a0 2a e8 bb 46 3b b0 bd
       0.00038535148 -0.04580094 -0.0070851594 -0.086050555
000170 6b e0 82 3d a4 a8 97 bd dc 18 13 3d 50 7f db 3b
       0.063904606 -0.074052125 0.03591238 0.0066985264
000180 7a 79 69 3d cd 30 85 3d da 06 6c 3d 80 6a 6b ba
       0.057000615 0.06503449 0.05762372 -0.00089804083
000190 70 4a 28 bc d2 d9 45 3d 89 7c a3 bd 60 cd 74 3c
       -0.0102716535 0.048303433 -0.079827376 0.014941543
0001a0 09 5f 8d 3d f0 ed 1b 3c df 21 2d bd 95 dc a1 bd
       0.06902892 0.009517178 -0.04226863 -0.07903401
0001b0 1f 59 aa bd 78 0f 4d bc be d3 21 3d 60 51 90 3c
       -0.0831778 -0.012515895 0.039508574 0.017616928
0001c0 5f ef 0a bd f3 26 8c 3d d7 a8 84 3d 11 8e a4 3d
       -0.03391969 0.068433665 0.06477516 0.080349095
0001d0 14 15 1a bd e0 f5 8f 3c 70 c7 aa 3b 70 72 58 bc
       -0.037617758 0.017573297 0.005211763 -0.013210878
0001e0 b0 0a a9 bd 26 cd 8f bd 76 e9 58 3d 74 49 d3 3c
       -0.082539916 -0.07021551 0.05295702 0.025791861
0001f0 af f3 29 bd 36 d5 6c bd a0 da 0e 3c e8 f3 f0 bc
       -0.04149216 -0.05782052 0.008719116 -0.029413179
000200 ec 03 b3 3c 20 c9 82 bb 97 b7 2b bd 94 43 a4 bd
       0.021852456 -0.003991261 -0.04192313 -0.08020702
000210 e0 97 65 bc b0 e1 69 bc 4c 56 85 3c 17 d7 66 bd
       -0.014013261 -0.0142749995 0.016276501 -0.05635747
000220 ef e4 18 bd f3 92 9a bd c1 ef 8b bd 83 6e 06 bd
       -0.037327703 -0.075475596 -0.06832839 -0.032820236
000230 f8 bf ee bc cc 1f a7 bd 19 71 9b 3d ca dd 4e bd
       -0.029144272 -0.08160362 0.07589931 -0.050504483
000240 dd 1e 8d 3d ee f1 30 3d 83 95 ad bd dd 55 0e bd
       0.06890652 0.043199472 -0.08475783 -0.034749854
000250 cc bd 0a bd f8 ed 3c bc 3e 37 70 bd a8 28 30 bc
       -0.03387241 -0.011531346 -0.058646433 -0.010751881
000260 c6 cb 9a bd 3a 6f d4 bc fb 67 b4 3d e8 59 53 3c
       -0.07558398 -0.025931943 0.08808895 0.012899853
000270 17 8e ad 3d dc 05 f0 3c be ee ef bc b1 c6 b0 3d
       0.08474367 0.029299669 -0.029288646 0.086316474
000280 15 ac a0 3d 45 11 94 3d a6 64 29 3d 95 a9 ab bd
       0.07845322 0.072298564 0.04135575 -0.083819546
000290 9b 65 9f 3d d0 aa 4b 3c 55 00 b2 3d b4 2a f5 3c
       0.077830516 0.012430862 0.086914696 0.029927589
0002a0 00 0c 56 bd b0 2f 67 bd 92 4c 47 3d c5 54 8c bd
       -0.052257538 -0.056441963 0.048657008 -0.06852106
0002b0 40 dd 74 bb 48 03 f1 3c f4 83 d4 3c 92 df 6c 3d
       -0.003736332 0.02942051 0.025941826 0.0578304
0002c0 10 2d 7e 3c ca da 16 3d 02 53 7e bd 43 85 88 3d
       0.015513673 0.036829747 -0.06209088 0.06666043
0002d0 24 d3 08 3d 54 b6 bb bc a8 0b 5d bd 9e c6 6c 3d
       0.033404484 -0.02291409 -0.053966194 0.057806604
0002e0 03 62 96 3d 40 1b a7 ba 50 4c 1d bc 97 83 00 bd
       0.07342913 -0.001274921 -0.009600714 -0.031375494
0002f0 20 10 fe bb c2 ac 39 3d 72 20 21 bd 03 83 8b 3d
       -0.007753387 0.04533077 -0.039337583 0.06812098
000300 87 25 b2 3d e4 f9 a0 bc 1d bb 92 bd f3 3e 9a 3d
       0.08698564 -0.019650407 -0.07164595 0.07531538
000310 a4 ab fe bc 46 1a 22 3d 26 e9 1e 3d 2a 61 58 bd
       -0.031087704 0.039575838 0.038796566 -0.052827038
000320 16 14 5a 3d 38 e3 e3 3c 90 ef d5 3b 00 f3 56 3b
       0.05324181 0.027818307 0.006528802 0.0032798648
000330 e0 53 82 3b ec 22 91 3c 40 ce 9c bc e3 b8 b2 3d
       0.003977284 0.017716847 -0.019141316 0.087266706
000340 5a 48 6d 3d b9 3a 91 bd 51 84 5b bd 26 eb 4f 3d
       0.057930328 -0.070912786 -0.053592984 0.050761364
000350 d1 8d 55 bd 4e 20 84 bd bc cf 61 bd 8f 53 9c bd
       -0.0521372 -0.06451474 -0.05512975 -0.07633125
000360 b0 26 ac bc 80 f6 46 bb 9e db 61 3d ce 93 5b bd
       -0.021014541 -0.0030359328 0.055141084 -0.053607754
000370 a8 0b 0d bd 20 1d a7 bb ba 49 95 bd c2 0e 0e 3d
       -0.034434944 -0.0050999075 -0.07289453 0.034682043
000380 b1 40 b3 3d d2 00 0a bd 4c 67 30 bd 60 33 3d bb
       0.08752573 -0.03369219 -0.04306726 -0.0028869733
000390 30 4f 3d bd d0 14 97 bd 88 ba c9 bc c0 e2 b4 bd
       -0.046218097 -0.073770165 -0.024625078 -0.08832312
0003a0 c3 74 86 3d 34 63 aa bd 75 12 25 bd e8 8e c6 bc
       0.06565239 -0.08319703 -0.040300805 -0.024238065
0003b0 a5 90 8b 3d f0 03 93 3b 38 ec 4f 3c 86 48 7b 3d
       0.06814698 0.0044865534 0.012690596 0.06134846
0003c0 5d 15 92 bd 88 e3 93 bc 10 53 da 3c 57 8e 04 bd
       -0.07132981 -0.018052831 0.026650935 -0.03236231
0003d0 00 1a a3 3a 2a a4 30 bd 3a f4 1e 3d f0 42 8e bb
       0.0012443662 -0.04312531 0.03880713 -0.0043414757
0003e0 2c 46 d4 3c 52 02 70 bd 9e 06 9a bd 0d b0 00 bd
       0.025912367 -0.058595963 -0.075207934 -0.031417895
0003f0 56 15 dd bc 89 5b ae bd 44 a2 3c bd 35 a2 92 3d
       -0.026987713 -0.08513553 -0.046053186 0.07159845

fc3.bias f4 [2]
000000 c0 bb 9f bb a2 45 3e 3d
       -0.0048746765 0.046453126
