customTrainer/results/AgentBall01/RollerBall/RollerBall-499994.onnx (onnx, 76482 bytes, 6 tensors)

fc1.weight f4 [128, 16]
000000 ac 0a 29 be 40 da 9d bd dc f7 24 be 9a 2c 28 3e
       -0.16507977 -0.077076435 -0.16110176 0.16423264
000010 b4 fe 00 3e 40 05 ce bc 40 4c 29 3d 76 5f 44 be
       0.12597162 -0.025148988 0.041332483 -0.1917704
000020 80 f6 13 3e e0 a3 e6 bd b4 74 b9 bd 40 f8 f3 bd
       0.14449501 -0.112617254 -0.090554625 -0.11912584
000030 80 88 f2 bb 00 45 db 3c 14 8a 26 3e c2 96 52 be
       -0.007401526 0.0267663 0.1626361 -0.20565322
000040 28 76 7a be 40 63 22 3e d6 c2 6a be aa 02 02 3e
       -0.24459136 0.15858173 -0.22925887 0.12696329
000050 18 60 ee bd b8 da 34 be 94 1b 54 be 40 43 aa bb
       -0.11639422 -0.1766156 -0.20713645 -0.005196005
000060 d0 bd 5a bd f4 04 e6 3d e0 fe f5 3d b0 f9 6b bd
       -0.053403676 0.112314135 0.12011504 -0.057611167
000070 dc 16 4a be c0 57 99 bb e0 10 77 3d 5c ca 71 3e
       -0.19735283 -0.00467965 0.060318828 0.2361235
000080 50 0d d9 3d d6 39 1f be 24 d4 ef bd 08 48 86 bd
       0.10598242 -0.15549406 -0.117103845 -0.065567076
000090 04 2d f0 bd a8 7c a3 3d e0 c8 b6 bc 66 2a 37 be
       -0.11727336 0.07982761 -0.022312582 -0.17887267
0000a0 f2 b4 28 3e a0 10 1d bd 60 5e ae 3d f4 24 db bd
       0.16475275 -0.038345933 0.08514094 -0.107004076
0000b0 a4 ed 22 3e 7c fd 68 be 0e 91 0f 3e 54 7e c4 3d
       0.15910965 -0.22752947 0.14020178 0.09594408
0000c0 f0 de fa 3d 04 ab 41 3e 2a 97 2b 3e 08 3a 23 bd
       0.12249553 0.18912894 0.16756883 -0.039850265
0000d0 f0 27 ea 3c d6 d9 78 3e d2 ed 1e 3e 70 70 8a bc
       0.028583497 0.24301848 0.15520409 -0.016899318
0000e0 4c bf da 3d bc 76 43 be 6a c3 34 3e 9c 1a 06 be
       0.10681018 -0.19088262 0.1765267 -0.13096088
0000f0 24 64 96 3d 80 4d fe bc 94 a4 94 3d 02 8e 68 3e
       0.07343319 -0.031042814 0.07257953 0.22710422
000100 ca f5 26 be f4 3d 6a 3e 2a c8 0c 3e 06 92 32 3e
       -0.16304699 0.22875196 0.13748232 0.17438516
000110 ac 18 54 be d4 2d cc bd 04 f6 07 3e 54 a0 b5 bd
       -0.20712537 -0.099696785 0.13277441 -0.08868471
000120 56 09 43 3e 40 c9 eb 3d ac 29 ee 3d 80 46 be bd
       0.1904653 0.11512995 0.11629042 -0.092907906
000130 34 a6 33 3e f4 87 7b be 80 75 59 3b 76 5b 0c be
       0.1754387 -0.24563581 0.0033181608 -0.13706765
000140 62 e1 31 be fc de 98 3d 20 a0 a0 3c 28 a1 fe 3d
       -0.17371133 0.07464406 0.019607604 0.12433082
000150 00 32 e8 3d 16 f4 34 3e 94 55 89 3d c0 93 fe 3b
       0.11337662 0.17671236 0.06705776 0.007769078
000160 26 85 57 3e 9c ff 4a be 10 89 c3 bc 64 75 fa 3d
       0.21046886 -0.1982407 -0.023869067 0.12229422
000170 f0 88 16 3d 88 d8 f6 3d 30 ff 45 3d 64 0c a9 bd
       0.036751688 0.12053019 0.04833907 -0.082543164
000180 e0 07 54 bc 54 ac 99 3d 56 43 65 3e 86 6a 2f be
       -0.012941331 0.07503572 0.22388968 -0.17130479
000190 1a bb 08 be 7c 33 14 3e c0 52 61 bc fc 2d 87 bd
       -0.13352624 0.14472765 -0.013752639 -0.06600568
0001a0 80 09 18 3d 22 23 48 3e b8 b4 83 3d c0 38 3f 3e
       0.037118435 0.19544652 0.06430954 0.18673992
0001b0 0a 0b 31 be 58 63 43 bd 48 61 dc bd 52 35 16 be
       -0.17289367 -0.047702163 -0.107607424 -0.14668778
0001c0 02 04 5e 3e 54 1d 3b 3e 78 39 1c bd 60 de fc bd
       0.21681216 0.18272907 -0.038140744 -0.12347102
0001d0 a0 ed b8 bd 80 b9 8b bc 50 13 f7 3c 00 34 01 3b
       -0.09029698 -0.017056227 0.030160576 0.0019714832
0001e0 9c ab fc 3d a8 c1 f0 bd 50 ca 27 3e 60 0a 11 be
       0.123374194 -0.11755687 0.1638577 -0.14164114
0001f0 70 3b 65 3e a0 21 9d 3c 40 d7 8f bb d0 33 32 bd
       0.22385955 0.019181073 -0.0043896735 -0.043506444
000200 0a d0 4e be e4 a7 84 bd 26 8b 63 be dc eb 39 3e
       -0.20196548 -0.06477335 -0.2222105 0.1815638
000210 2e 61 7e be 9c 1c 2a 3e 20 13 58 be ea 9f 3f be
       -0.24841759 0.16612476 -0.21101046 -0.18713346
000220 2a bf 15 be 00 82 4e be 60 fc cd 3d be 76 5c 3e
       -0.14623705 -0.20166779 0.10057902 0.21529672
000230 50 0d 1d 3e fc 4b 9a bd 08 eb 3f 3d 4a 32 73 3e
       0.1533711 -0.07534024 0.046855003 0.23749653
000240 e8 40 08 bd 2c 93 81 bd 50 7d b8 bd ae b3 58 3e
       -0.033265024 -0.06326899 -0.090082765 0.21162292
000250 aa f0 4e 3e 60 99 5a bd 12 03 7f 3e dc 6f d3 3d
       0.20208994 -0.053368926 0.24903515 0.1032407
000260 ac 89 98 3d ea be 03 be 08 0e a4 bd 1c 51 16 3e
       0.07448134 -0.12865797 -0.08010489 0.14679378
000270 78 3f d8 3d ee 0c 4d be 50 a5 b2 bc 60 a1 56 bc
       0.10558981 -0.20024464 -0.021807343 -0.013099998
000280 30 1d 57 3e 2e aa 54 3e 00 84 4c ba 7c ff 7e 3e
       0.21007228 0.20768043 -0.0007801652 0.24902147
000290 00 67 d3 3c 4c f4 cd bd 82 32 74 3e 4c c9 c1 3d
       0.02580595 -0.100563616 0.23847392 0.094622225
0002a0 f0 28 3c be c6 1e 17 3e c8 61 89 3d 16 4c 62 be
       -0.18374991 0.14757833 0.067081034 -0.22099337
0002b0 a6 da 41 be fc 9d 60 be 58 29 9f 3d f8 c1 eb 3d
       -0.18931064 -0.21935266 0.077715576 0.11511606
0002c0 00 6e 27 3c 4a 3a 3a be d2 fc 5d 3e a6 86 18 3e
       0.010219097 -0.18186298 0.21678475 0.14895114
0002d0 ae 87 68 be ce fd 59 be ca d8 33 be 2c b4 16 be
       -0.22708008 -0.21288225 -0.17563167 -0.14717168
0002e0 b4 06 ca bd f8 54 bd 3d 90 69 9b bd c8 b2 7a 3e
       -0.0986456 0.09244722 -0.07588494 0.24482262
0002f0 20 89 fe bd 48 87 0a 3d 4e 11 4c 3e ec f7 8d 3d
       -0.12428498 0.03382042 0.19928476 0.06932053
000300 ca 41 1c be b8 95 4a bd e8 7e 27 bd 54 92 92 3d
       -0.15259472 -0.04945919 -0.04089251 0.07156816
000310 d8 5c f5 3d da 76 66 be 42 a9 0d 3e 10 f6 12 3e
       0.11980599 -0.22506276 0.13834098 0.14351678
000320 48 e6 d4 3d ac 5e 26 be 80 8e e5 bd d6 cf 65 be
       0.10395485 -0.16247052 -0.1120882 -0.22442564
000330 60 a0 2e 3d 34 bf b8 3d 3e 25 3d be 68 aa cc 3d
       0.042633414 0.09020844 -0.18471238 0.0999344
000340 ac 88 5d 3e e8 26 a1 3d fc 1c 56 3e 00 93 e0 bb
       0.21634167 0.07868749 0.20909494 -0.0068534613
000350 40 4e cc 3b 98 94 a9 3d 1e 39 2f 3e 88 bb 5c 3e
       0.006234914 0.08280295 0.17111632 0.21555912
000360 50 91 48 3d 10 4d ac bc 20 25 27 bd 80 9e 50 3e
       0.048966706 -0.02103284 -0.04080689 0.20372963
000370 d8 20 3f be 08 6b ed bd ea b8 40 be 78 ef 07 3e
       -0.18664873 -0.1159268 -0.18820539 0.13274944
000380 1a 23 1c be 30 4d aa 3c b8 73 9d bd b0 d5 68 3e
       -0.15247765 0.020788759 -0.07688087 0.22737765
000390 e0 b6 89 bd 60 76 e4 bd bc 7c 23 be 70 1a 3c be
       -0.06724334 -0.11155391 -0.15965551 -0.1836946
0003a0 e2 f9 60 be 80 7d 05 bb cc 1d 85 bd 3c 0b 96 bd
       -0.21970323 -0.0020368993 -0.06499824 -0.073263615
0003b0 a8 b6 5f 3d a8 d0 3f 3d 62 c9 47 be 5c 03 4d 3e
       0.054617554 0.04682985 -0.19510415 0.20020813
0003c0 ce 1a 1a be 10 72 9b bc 8c b0 cf bd bc 30 8a 3d
       -0.15049288 -0.018975288 -0.101410955 0.067475766
0003d0 36 e2 6a 3e 06 86 6b be a8 84 86 bd 00 05 7d bd
       0.22937855 -0.23000345 -0.06568271 -0.061772346
0003e0 3a cb 2e be 00 7c 7f 3e 0c 8f 81 bd 0a b3 1d 3e
       -0.17069712 0.24949646 -0.06326112 0.15400329
0003f0 90 4f 8c bd 10 35 a8 bd 70 24 b5 3d f0 1f 43 be
       -0.06851113 -0.08213246 0.088448405 -0.19055152

fc1.bias f4 [128]
000000 e8 97 47 3d a8 cb 22 3d f0 86 c8 3d 64 e3 ef 3d
       0.048728853 0.039745003 0.09791362 0.11713293
000010 d8 02 45 3d c0 95 0c 3c 00 8c f5 3b 18 51 62 be
       0.048098415 0.008580625 0.007493496 -0.22101247
000020 a6 7a 45 be fc 91 6b be 48 46 37 3d ee 40 7e 3e
       -0.19285068 -0.23004907 0.04474476 0.24829456
000030 e2 ac 23 3e ec 48 0b 3e ae ed 0f 3e b8 ae f4 3d
       0.15983918 0.13602036 0.14055511 0.119473875
000040 f0 f3 ad 3d ec 18 ba 3d 3a 26 43 3e 2a 8a 48 be
       0.08493793 0.09086785 0.19057551 -0.19583955
000050 e2 07 70 be 4c 7d e5 3d a0 5f 0d bc a8 6e 41 bd
       -0.23440507 0.11205539 -0.008628756 -0.04722467
000060 e8 32 02 3d 02 57 3c 3e 80 85 3f 3d 0a 29 7e be
       0.03178683 0.18392566 0.046758175 -0.24820343
000070 00 f3 9b bd 60 e6 36 bd 20 eb 4c bd d8 98 7e 3e
       -0.07614708 -0.044653296 -0.05002892 0.24862993
000080 b2 17 27 3e e0 3f 70 3c ba 1c 5e be 82 58 73 3e
       0.16317633 0.0146636665 -0.21690646 0.23764232
000090 9a 73 54 3e 50 8b 8e 3c ac a4 99 bd e0 fb c6 3d
       0.20747223 0.017400414 -0.07502112 0.0971601
0000a0 d0 1e 08 3d 88 0c 9d 3d 60 20 45 bd a4 21 cf bd
       0.03323251 0.07668406 -0.04812658 -0.10113838
0000b0 16 bd 1b 3e 7c 31 24 be de 34 1f be 04 47 a5 bd
       0.1520885 -0.16034502 -0.15547511 -0.08070186
0000c0 a2 61 69 3e 9a 61 33 be 80 11 4b 3e f8 fa aa 3d
       0.2279115 -0.17517701 0.19830894 0.0834865
0000d0 1c 52 7e 3e f0 a0 60 bd f6 8c 26 be a8 cf 25 3e
       0.2483601 -0.054840982 -0.1626471 0.16192496
0000e0 f8 1b 1c 3e 28 0e 04 be 5a d2 06 3e c4 c5 b5 3d
       0.15245044 -0.12896025 0.1316618 0.088756114
0000f0 94 78 25 3e 40 19 c0 bc 2a d7 1a be 60 e1 5d 3d
       0.16159278 -0.02344954 -0.15121141 0.054170012
000100 14 ad cc 3d cc 24 e0 3d 18 7f f1 bd 8c dc c9 3d
       0.099939495 0.109445184 -0.11791819 0.09856519
000110 d4 fe 15 be 64 8f 52 3e 70 98 be bd c0 54 72 bc
       -0.1464799 0.20562512 -0.09306419 -0.014790714
000120 32 5a 5f be 68 44 43 bd 56 62 2a 3e ba dc 06 3e
       -0.2181175 -0.04767266 0.16639075 0.13170138
000130 9e 99 60 be 9e 3f 01 3e 72 0b 0d 3e 20 a8 6f be
       -0.219336 0.12621924 0.13773897 -0.23403978
000140 a0 d3 80 bc 90 c1 28 be 16 f9 45 be fc 5b 61 be
       -0.01572591 -0.16480088 -0.193333 -0.22007746
000150 f0 a9 8a 3d 30 81 45 be b8 36 59 be 1c 4c a8 3d
       0.06770694 -0.19287562 -0.2121228 0.08217642
000160 e0 9a 55 be 28 9c 31 3e 4a d6 60 be f8 c3 28 bd
       -0.20859861 0.17344725 -0.21956745 -0.041202515
000170 30 94 99 3d 3a 80 69 be 56 46 4a be 18 bb 7c 3e
       0.07498968 -0.22802821 -0.19753394 0.24680746
000180 aa b0 6e be 88 8e 3c be 9c 3c c7 3d 54 2a c7 3d
       -0.2330958 -0.18413746 0.09728357 0.0972487
000190 88 82 16 bd 30 09 12 bd 34 fc 69 3e 90 74 bd bd
       -0.036745578 -0.035653293 0.22850114 -0.09250748
0001a0 c0 f5 b3 3c 42 c6 6b be 90 ba fb bd 08 f8 0e be
       0.021967769 -0.23024848 -0.12291443 -0.13961804
0001b0 00 6a d4 bd 08 ae 1c bd 08 c9 b4 bd 94 bb df bd
       -0.103717804 -0.038251907 -0.08827406 -0.109244496
0001c0 d8 2a ca bd 8c f6 a2 bd 82 7d 7e be c0 a4 c9 3b
       -0.09871453 -0.07957181 -0.24852565 0.006153673
0001d0 dc 59 75 3e f2 7e 37 3e 98 59 fa bd 08 3d 2d bd
       0.2396006 0.1791952 -0.1222412 -0.042294532
0001e0 20 65 51 3e 00 bb b9 3c 9c ad df 3d 2c 13 6f be
       0.20448732 0.022672176 0.10921785 -0.23347157
0001f0 58 5a 96 bd 88 3a da bd b0 bd ec bc ba c7 04 be
       -0.073414505 -0.10655695 -0.028899044 -0.12966815

fc2.weight f4 [128, 128]
000000 b4 bc 0c bd 7e e4 32 3d 7e 54 2d 3d a0 7c be 3c
       -0.03435965 0.04367494 0.042316906 0.023252785
000010 ce 47 30 3d a9 48 34 bd 9f 17 98 3d d2 6c e5 bc
       0.04303723 -0.044014607 0.0742638 -0.028005991
000020 1d 07 b0 3d 1e 48 7d 3d 9f 3c a1 3d 64 ca 65 bd
       0.08595107 0.061836354 0.07872891 -0.056101218
000030 0e d5 31 3d 13 f2 b2 3d 38 44 9c bc 49 dc af 3d
       0.043416075 0.08737578 -0.019075498 0.08586938
000040 aa 08 62 3d 56 0e 0a 3d 4c e4 ff bc d4 a6 21 bd
       0.055184044 0.033705078 -0.03123679 -0.03946574
000050 d8 e5 bb bc 54 23 a3 bd 40 ca 77 bb 80 2c 34 3a
       -0.022936746 -0.07965723 -0.003780976 0.0006873086
000060 d2 21 49 3d 30 5c 1a bd 88 5d 02 3d 7e fb 5d 3d
       0.04910452 -0.037685573 0.03182748 0.05419492
000070 aa 52 39 bd 77 b1 87 3d 5a a2 55 3d 9a 85 02 bd
       -0.04524485 0.066256456 0.052156784 -0.031865694
000080 a3 06 01 bd 5c 77 bc 3c 40 29 9c 3c 1c f6 9a bc
       -0.03150047 0.023006134 0.019062638 -0.018916182
000090 e7 6d 69 bd da 23 22 bd c8 30 9c bc 98 19 6c bc
       -0.056989577 -0.039584972 -0.01906623 -0.014410399
0000a0 06 f5 58 3d 1c d9 fb bc 2d b2 8c 3d d8 75 1c 3c
       0.052968048 -0.030743174 0.06869922 0.0095495805
0000b0 10 a7 fc bb 72 b6 57 3d 73 67 80 3d 00 fc d3 3b
       -0.007710345 0.052664228 0.062697314 0.0064692497
0000c0 ad 4d 91 3d 19 f6 81 3d 28 2d a9 3c a6 84 7a bd
       0.070948936 0.063457675 0.020651415 -0.06116166
0000d0 3a 10 4d 3d d3 8b ab 3d ac b7 c7 3c 52 b1 30 3d
       0.050064303 0.08376279 0.024379574 0.043137856
0000e0 c0 63 9c bb 40 32 2c bb 78 2b 44 bc 2f 64 2d bd
       -0.0047726333 -0.0026275069 -0.011973254 -0.04233187
0000f0 4c 36 c0 3c 9b 1a 5b bd 88 62 fd 3c cc d0 ba 3c
       0.02346339 -0.05349217 0.030930772 0.02280464
000100 41 e6 7c bd a8 25 81 bc 6c 89 e6 3c 40 b7 e4 3c
       -0.061743025 -0.015765026 0.0281417 0.027919412
000110 b8 ee 86 bc 38 10 0d 3c 3f 0a 9b bd 02 14 57 3d
       -0.016471252 0.008609824 -0.07570314 0.052509315
000120 e0 4d d2 bc 20 b6 ca bc e4 c0 4b bd fe bc 43 3d
       -0.0256719 -0.024745047 -0.0497445 0.04778766
000130 e0 bd f5 bb 65 67 98 bd 94 d3 0b 3d 30 2a 86 bd
       -0.0074994415 -0.07441596 0.034137323 -0.065510154
000140 e1 e6 a9 bd 5d e2 35 bd fd 0d 99 3d 8e a8 79 bd
       -0.0829599 -0.04440533 0.07473371 -0.060951762
000150 b0 60 cf 3b 68 6e 17 bc 56 64 3d 3d c0 cf c8 ba
       0.0063286647 -0.0092426315 0.046238266 -0.0015320703
000160 3d 52 a7 3d b4 cd e2 3c 9f 22 79 bd d2 f2 6d bd
       0.081699826 0.027685978 -0.060824033 -0.0580929
000170 40 e2 1c bd 06 a9 48 3d 94 40 dd 3c 90 6b dc bc
       -0.038301706 0.04898932 0.027008332 -0.026906759
000180 02 3d 49 3d c6 2a 77 bd 16 62 60 3d 68 87 97 bd
       0.049130447 -0.060343526 0.054781042 -0.073988736
000190 d8 19 3d 3c 06 28 1b 3d f2 44 a9 bd ae d4 aa bd
       0.011541806 0.037879966 -0.082651034 -0.08341347
0001a0 56 39 42 3d f5 8c 93 3d 50 c6 e9 3c fa 34 4b 3d
       0.04741796 0.0720462 0.028536946 0.04961107
0001b0 00 f0 71 3a 06 37 83 bd 11 0f 44 bd 8b 6b 05 bd
       0.0009229183 -0.06406979 -0.04786593 -0.032573264
0001c0 dd 55 9e 3d 69 b7 95 3d f0 b7 fc 3b 3a 40 7b 3d
       0.07731221 0.07310373 0.0077123567 0.061340548
0001d0 00 00 64 38 d0 d0 a4 3b 60 60 e8 bb 60 f4 5b bc
       5.4359436e-05 0.005029775 -0.007091567 -0.013424963
0001e0 18 a4 66 bc 9e 2e 42 3d af aa 9c 3d 30 27 93 bb
       -0.014077209 0.04740774 0.07649743 -0.0044907555
0001f0 6c e8 9d bd 1d 6d ab bd 42 49 76 3d 90 df fe bb
       -0.077103466 -0.08370421 0.060128458 -0.0077781156
000200 90 0b 79 bc 00 f7 b9 bb da e3 25 3d d5 67 b3 3d
       -0.015200511 -0.0056751966 0.0405005 0.08760039
000210 46 13 65 3d 55 fe 98 3d f6 2d 44 3d 11 de 00 bd
       0.055926584 0.07470385 0.047895394 -0.03146178
000220 79 e4 8f 3d 70 ad f1 3b 70 24 e4 bb 20 22 ae bb
       0.070259996 0.0073754117 -0.0069623515 -0.0053141266
000230 62 d4 44 3d 06 d2 27 3d 50 99 82 3c 00 2b 83 3c
       0.048054107 0.04097178 0.015942246 0.016011715
000240 70 23 86 bd fc 51 a8 bc 5d 62 8a 3d 08 cb 26 bc
       -0.06549728 -0.020546906 0.067570426 -0.010180242
000250 de 3c 3b bd ad 9c 9c 3d 18 78 25 bd e4 33 af 3c
       -0.045712344 0.07647071 -0.040397733 0.021387048
000260 2c 81 06 3d 06 5c 26 3d ce 0a 85 bd 70 e1 89 bc
       0.03283803 0.040615104 -0.064962015 -0.01683113
000270 7a b3 20 3d f4 a5 eb 3c e2 4e 39 3d 00 de 77 3b
       0.039233662 0.028765656 0.045241244 0.0037821531
000280 b7 12 a4 3d f3 90 b2 3d fe 0f 32 3d 0f 02 b2 bd
       0.08011382 0.08719053 0.043472283 -0.08691799
000290 70 2a 26 bc d8 9f be 3c b0 43 c8 bc b9 25 2a bd
       -0.010141954 0.023269579 -0.024446338 -0.04153988
0002a0 d8 fb 93 bc a3 53 83 3d 00 39 d8 bc 35 80 88 bd
       -0.018064424 0.06412437 -0.026394367 -0.066650786
0002b0 44 63 8d bd 12 58 18 3d c2 cc 58 3d 70 c2 c2 bb
       -0.06903699 0.037193365 0.052929647 -0.005943589
0002c0 b6 e5 16 3d 91 61 66 bd f4 dc 45 bd 7d f6 a2 3d
       0.036840163 -0.05624539 -0.04830642 0.0795717
0002d0 71 a9 8d bd 43 e1 99 3d 89 45 79 bd c0 83 58 3b
       -0.06917084 0.075136684 -0.06085733 0.0033037513
0002e0 49 48 a9 3d d0 97 83 bb e0 f0 a2 3c 47 b4 a7 3d
       0.082657404 -0.0040159 0.019890249 0.08188682
0002f0 76 6c 7b 3d 18 81 ad bd d6 5a 37 3d 00 a5 92 bc
       0.061382733 -0.08471888 0.044764362 -0.017900944
000300 70 a5 ac 3b 6b a5 a6 3d 76 0d 75 bd d3 14 92 3d
       0.005268745 0.0813702 -0.05982729 0.07132878
000310 00 51 a9 3a 60 da 3a bb 1b 2c 59 bd 69 da 94 bd
       0.0012917817 -0.002851151 -0.053020578 -0.07268221
000320 55 1b 87 3d 90 42 9e 3b 00 56 05 3c e0 2b 15 3c
       0.0659701 0.004829712 0.00813818 0.009104699
000330 00 81 1c 3b 2e 42 3e 3d 83 07 ac bd 68 35 80 bc
       0.00238806 0.046449833 -0.0839987 -0.015650466
000340 b8 5a b0 bd da 4e 25 3d 6e d4 71 3d 40 3f 8d ba
       -0.08611053 0.0403584 0.05904048 -0.0010776296
000350 7e 4d 65 3d 23 89 94 3d 3e 22 90 bd 5a 03 12 3d
       0.055982105 0.07252719 -0.07037781 0.035647728
000360 64 8a b9 3c 50 f6 91 bd 46 7d 9b bd 67 f6 5b bd
       0.022648998 -0.071270585 -0.075922534 -0.053701784
000370 8e dd 07 bd 5a 84 4e 3d f6 49 d6 bc 8a 81 6e 3d
       -0.033170275 0.05041919 -0.026158314 0.058229007
000380 ee 40 83 bd 2a e6 38 3d 7e 55 1c 3d b0 09 f9 3b
       -0.06408869 0.045141377 0.03816747 0.007600032
000390 f1 af 9e 3d 3f 05 80 3d 6e 03 7d 3d 4a ac 12 3d
       0.07748402 0.062510006 0.06177085 0.03580884
0003a0 70 60 d9 bc 88 5c 3c bc d4 c5 82 bd e0 d4 10 3c
       -0.026535243 -0.011496671 -0.06385389 0.008839816
0003b0 b2 0b 76 3d 9e 96 55 3d a0 d5 61 bb 29 0c a2 3d
       0.060069747 0.052145593 -0.0034459606 0.079124756
0003c0 93 17 8b 3d 87 d9 a0 3d 43 20 72 bd fe 78 0d bd
       0.06791606 0.0785399 -0.0591128 -0.034539215
0003d0 48 1c 1a 3c 6a 40 4c 3d e9 2b 86 3d 8b a8 a5 3d
       0.009406157 0.049866118 0.06551344 0.08088788
0003e0 1f ea ac bd 8f 49 0b bd cb 52 ab bd 50 13 8d bd
       -0.084430926 -0.034005698 -0.08365401 -0.06888449
0003f0 90 29 85 bd f4 9a d5 bc bf c6 86 3d e9 59 90 3d
       -0.06502068 -0.026074864 0.065808766 0.07048399

fc2.bias f4 [128]
000000 60 5e 0f bc 93 b0 af 3d c7 db 22 bd 26 5f 05 bd
       -0.008750528 0.08578601 -0.039760377 -0.032561444
000010 20 be 1f 3b f5 a1 93 3d d0 e8 bd 3c 8e 39 3b bd
       0.0024374798 0.07208625 0.023182303 -0.045709185
000020 c8 3b 9d 3c 3c 49 8d bd 0c 5b 12 3d 14 ec 0a 3d
       0.019193545 -0.06898734 0.03573136 0.033916548
000030 4e 23 00 3d ee 6b 73 3d 4d 86 ab 3d d3 76 9d 3d
       0.03128367 0.0594291 0.08375225 0.076886795
000040 2c 69 ea 3c 60 19 cd 3c 23 b0 9a 3d dc 7e 9c bd
       0.028614603 0.025036514 0.07553127 -0.07641384
000050 6f 48 ad 3d a2 ee 8f bd 40 20 1e 3b 86 12 3e 3d
       0.08461081 -0.070279375 0.002412811 0.046404384
000060 86 3f 37 3d 78 fe 2b bc 38 55 95 bc 06 a5 27 3d
       0.044738315 -0.010497682 -0.018229112 0.040928863
000070 17 53 a9 3d 04 92 9f bd 19 35 87 3d 2a 77 21 3d
       0.08267801 -0.07791522 0.066019244 0.039420284
000080 50 6c b8 3b 6a cc d8 bc 58 7a 19 3c d4 ce 31 bd
       0.005628146 -0.02646466 0.009367548 -0.043410137
000090 13 51 9c 3d 40 59 48 bc a6 cc 78 3d 6b cf a9 3d
       0.07632651 -0.01222831 0.060742043 0.08291515
0000a0 6a 39 2e 3d 68 34 a6 3c bd b1 b2 bd ea 1e 32 3d
       0.042535223 0.020288661 -0.08725307 0.043486513
0000b0 3e c0 aa bd 80 2d 29 ba a0 34 8a 3c 82 38 60 bd
       -0.083374485 -0.00064536184 0.016870797 -0.05474139
0000c0 c3 1d ae bd 28 cd 14 3d 32 8d 0e bd 9d 9b 98 3d
       -0.0850177 0.036328465 -0.034802623 0.07451556
0000d0 2e 93 79 3d fc db fb bc 13 95 84 3d db 2c 31 bd
       0.060931377 -0.030744545 0.06473746 -0.043255668
0000e0 43 a8 15 bd ea cc 7f bd cd 66 64 bd f7 a7 91 bd
       -0.03653742 -0.06245128 -0.0557621 -0.07112115
0000f0 20 77 32 bc 7b 19 9d bd 70 73 02 3d 5a e6 07 3d
       -0.010892659 -0.07670876 0.03184837 0.033178665
000100 66 9d fc bc c4 a7 a8 3c d0 26 85 bb 22 80 0d 3d
       -0.030836772 0.02058781 -0.0040634647 0.034546025
000110 28 ff 7e bd ad c8 a8 3d 5a db 2d 3d 90 48 34 bc
       -0.062255055 0.08241401 0.042445518 -0.011003628
000120 9c 4c 20 bd 42 b5 2c 3d 90 ca c9 3b 3e 09 06 3d
       -0.03913556 0.04216505 0.0061581805 0.032723658
000130 c3 e4 13 bd 62 ef 08 3d 39 1b 46 bd 89 67 4a bd
       -0.036106836 0.03343142 -0.048365805 -0.049415145
000140 ff 12 89 bd 6d 8c 5b bd f0 49 d9 bb 19 c6 a1 3d
       -0.06693076 -0.053600717 -0.0066311285 0.07899112
000150 70 66 7c bc f5 88 98 3d f0 01 ca 3c 10 a9 98 3b
       -0.015405282 0.074479975 0.024659127 0.0046588257
000160 90 2e 46 3c a0 51 77 bc a8 13 1c bc 48 b6 60 bc
       0.012096062 -0.0150951445 -0.009526171 -0.013715334
000170 68 3c e5 bc d0 43 93 3c 99 a1 95 3d 6f 06 08 bd
       -0.027982906 0.017976671 0.07306213 -0.03320926
000180 79 0a ab 3d 66 38 07 3d 52 8c 1a 3d e8 99 61 bc
       0.08351607 0.03301277 0.037731476 -0.013769604
000190 b1 af 03 bd 92 84 8a bd c3 9e 96 3d 72 e0 a9 bd
       -0.032149974 -0.06763567 0.073545 -0.08294763
0001a0 94 7c 9e bc 6e 26 00 bd 4d 8e ab 3d cc a5 81 bd
       -0.019346513 -0.03128665 0.08376751 -0.06330451
0001b0 de ff da bc da 96 72 3d 68 f9 7f bc a8 89 98 bc
       -0.026733335 0.059225895 -0.015623428 -0.018620327
0001c0 b8 69 2e bc 46 a5 4e 3d c8 53 cf 3c 61 f4 82 bd
       -0.0106453225 0.050450586 0.025308505 -0.06394268
0001d0 ac b7 22 bd 9b 3b b0 3d 02 bc 7c 3d 46 8b 4e 3d
       -0.039725944 0.08605119 0.061702736 0.05042579
0001e0 97 3d ac 3d 57 d2 81 3d c8 37 1c bc fc cd ad 3c
       0.08410185 0.06338947 -0.009534784 0.021216385
0001f0 00 c2 5b 3b d0 6f a5 bb 8e ed 48 3d 46 e5 48 3d
       0.003353238 -0.0050487295 0.049054675 0.049046777

fc3.weight f4 [2, 128]
000000 c6 6c 25 3d 35 01 9e 3d e6 66 69 3d d9 4f 83 3d
       0.040386938 0.07715074 0.056982897 0.06411714
000010 a2 04 15 3d 36 d7 6a bd 79 3e 87 3d 1c 8c ab bd
       0.03638137 -0.057334147 0.066037126 -0.08376333
000020 4b 04 a4 bd 70 ce fc 3c 70 58 cd 3c c8 d9 28 bd
       -0.08008631 0.030860156 0.025066584 -0.041223317
000030 62 11 72 3d c0 15 98 ba a8 68 af bd 81 f7 92 bd
       0.05909861 -0.0011603162 -0.085648835 -0.07176114
000040 3e aa 3c 3d bf 09 82 bd d7 17 27 bd d2 72 70 3d
       0.046060793 -0.06349515 -0.04079422 0.05870325
000050 b1 18 8a bd 2d 56 29 bd f8 20 3f bc 25 d9 9c 3d
       -0.06742991 -0.04134195 -0.011665575 0.076586045
000060 d9 0a 18 bd 00 79 59 bc 82 d1 1c 3d d1 9c 0c bd
       -0.03711972 -0.013273478 0.03828574 -0.03432924
000070 11 16 3d bd 7f f4 30 bd ec c1 f4 3c 8e 0b 22 bd
       -0.046163622 -0.04320192 0.029877625 -0.0395618
000080 22 68 7f bd 2b c1 8e bd 34 45 84 bc 6d de a6 3d
       -0.06235517 -0.069704376 -0.01614628 0.08147893
000090 02 4e 06 3d 84 d2 e1 3c ca 9e 58 3d ba 6d 8d bd
       0.032789238 0.027566202 0.052885808 -0.06905694
0000a0 d0 a8 15 bd 10 24 b1 bd d2 1f 4f 3d 68 c5 94 3c
       -0.036537945 -0.086494565 0.050567456 0.018160537
0000b0 9b 67 a8 3d 04 c7 22 bd f7 16 8f bd 5a 26 00 3d
       0.08222886 -0.039740577 -0.06986802 0.031286575
0000c0 84 10 7d bd 60 f6 d8 bc f1 4a 92 3d 34 77 8d bd
       -0.06178333 -0.026484668 0.071432 -0.06907502
0000d0 3f fc 9d 3d b4 8d 8f 3c c8 4a d6 3c 70 11 c4 3c
       0.07714128 0.017523624 0.026158705 0.023934096
0000e0 a8 50 26 bc 37 fe 8a bd 38 37 23 bc aa 4f af bd
       -0.010151066 -0.06786769 -0.009961896 -0.085601166
0000f0 99 f7 8c 3d 03 3d 8e 3d 52 f7 0b bd e8 cd a0 bc
       0.06883163 0.06945231 -0.03417141 -0.019629434
000100 b0 0e 46 bc ef b4 08 bd 2a 6b 58 3d 0e 9e 38 bd
       -0.012088463 -0.033375677 0.052836575 -0.045072608
000110 6b e4 95 3d 60 e8 77 3b d1 81 01 bd 01 bd a5 bd
       0.07318958 0.0037827715 -0.031617943 -0.0809269
000120 8d 86 ad 3d 56 d9 6d 3d 8a da ae bd f8 03 5e bc
       0.08472929 0.058068596 -0.08537777 -0.013550751
000130 53 b3 8c bd cb f5 9e 3d d1 57 91 3d e0 2f 01 bc
       -0.06870141 0.07761725 0.07096828 -0.007884949
000140 68 a9 85 3c a6 20 54 3d 8a ef 26 3d cc 9f e2 3c
       0.01631613 0.05178895 0.040755786 0.027664088
000150 98 58 46 3c 80 26 88 bb 6c 85 82 3c d0 76 5e 3c
       0.012106083 -0.00415498 0.015932761 0.013578132
000160 8d bf ac bd 7a 01 44 3d 48 cf 36 bc 22 b3 17 bd
       -0.08434973 0.04785297 -0.011157818 -0.03703607
000170 28 15 8e bc a7 6e 93 bd 61 7b 9c 3d 60 72 6c 3c
       -0.017344072 -0.0719884 0.0764072 0.014431566
000180 30 90 b3 bc 89 54 5a bd e0 85 11 3c 38 11 58 bc
       -0.02191934 -0.053303275 0.008882016 -0.013187699
000190 8e c2 29 3d a5 de b2 3d 40 f5 b7 ba 7e ad 24 3d
       0.041445307 0.08733872 -0.0014034882 0.040204518
0001a0 cb e9 12 bd 5e ac 97 bd 20 b5 bd 3b ad 13 a7 3d
       -0.035867494 -0.07405923 0.005789414 0.0815805
0001b0 ba c1 3a 3d 53 f8 68 bd 88 f2 c6 3c be 8c 48 3d
       0.04559491 -0.056877445 0.02428557 0.048962347
0001c0 3e 04 a2 bd fe 60 4d 3d c0 aa e3 bb 00 b7 25 3b
       -0.079109654 0.050141327 -0.006947845 0.0025286078
0001d0 7f 32 ad 3d 8a 10 78 3d ef 8d 38 bd 9e 14 42 3d
       0.08456897 0.060562648 -0.045057233 0.047382943
0001e0 b2 6c 0f 3d 05 7e a1 3d 08 9b ba 3c 80 fd 06 3a
       0.03501577 0.078853644 0.022779003 0.0005149469
0001f0 20 3c 90 3b 5b b3 aa 3d c0 73 64 bd 8b ae b2 bd
       0.0044016987 0.083349906 -0.05577445 -0.08724698
000200 30 03 3e 3c 39 a8 1a bd a0 7f ab bd e0 da 29 3b
       0.01159744 -0.037758086 -0.08373952 0.0025917813
000210 c6 66 0b 3d d0 01 d3 bb d2 ed 17 bd 60 5e 78 3c
       0.03403356 -0.006439425 -0.037092037 0.0151592195
000220 76 e4 2f bd 20 c6 5f bb 23 ac 80 3d b4 f9 e6 3c
       -0.042942487 -0.0034145191 0.062828325 0.02819524
000230 69 70 98 3d 36 32 3b 3d 1f 09 84 3d ba 37 1b 3d
       0.074433155 0.04570218 0.06447052 0.037894942
000240 83 a5 84 3d 16 ed 26 3d c2 9f d7 bc eb 1e ad bd
       0.06476881 0.040753447 -0.026321296 -0.08453163
000250 18 42 26 bc 57 87 b3 bd dc 52 db bc 6b 26 9c 3d
       -0.010147594 -0.087660484 -0.026772909 0.07624515
000260 ad 2d 92 3d f0 a7 87 3c 5f 31 97 3d b8 15 98 bc
       0.07137618 0.016559571 0.07382464 -0.018565044
000270 b6 e9 43 3d b3 d1 89 3d 8d 00 82 3d 80 3f bd 3b
       0.047830306 0.0672945 0.06347761 0.005775392
000280 16 1f 5d 3d 00 96 fb 39 25 3c 12 bd 58 b9 bf 3c
       0.053984724 0.0004798621 -0.03570189 0.023403808
000290 47 98 b1 3d b8 87 59 bc 82 9d 6e bd 7f 91 2f bd
       0.08671623 -0.013276987 -0.05825568 -0.042863365
0002a0 64 aa f9 3c 56 36 fc bc 7f 92 b4 3d 58 af b4 bc
       0.030476756 -0.030787628 0.088170044 -0.022056267
0002b0 76 e7 34 3d 7a a9 e0 bc fe 1d 67 3d 44 15 09 3d
       0.04416605 -0.027424563 0.056425087 0.033467546
0002c0 13 66 85 3d f6 1a 19 3d ef 0b ad bd 30 17 e1 bb
       0.0651361 0.037379228 -0.08449542 -0.0068692192
0002d0 1d 87 89 3d 58 bc 5f bc c0 92 1b 3b d4 7f c2 3c
       0.06715224 -0.0136557445 0.0023738593 0.023742594
0002e0 c0 bb ae 3b cf b4 8d 3d b8 5f a8 bc 3f 59 aa bd
       0.00533244 0.06919252 -0.020553455 -0.083178036
0002f0 97 b2 a6 bd 02 07 34 bd 00 fe 0f b9 fc fd da 3c
       -0.08139532 -0.043951996 -0.00013732165 0.026732437
000300 d8 d6 75 bc 8c af f2 3c 1c 5e ca bc bf 89 94 3d
       -0.015004836 0.029624723 -0.024703078 0.072528355
000310 24 c5 ad bd e8 a5 f8 3c 48 91 ec 3c 30 18 75 bc
       -0.08484867 0.030352548 0.02887787 -0.01495938
000320 56 23 0a 3d 27 75 b1 bd e5 87 ad bd c8 e2 04 bc
       0.033725105 -0.08664923 -0.084731854 -0.0081107095
000330 80 ac 54 ba 17 ab 6b bd 1a d4 5a 3d 6e d6 44 bd
       -0.00081128627 -0.05753621 0.053424932 -0.04805606
000340 b4 84 a1 bc 5c ff d0 bc 20 0b 09 bb 80 7e 4b 3c
       -0.019716598 -0.02551239 -0.0020911172 0.012420297
000350 a3 ee 99 3d 58 2a cc bc 60 5c 03 3d 4e 26 68 3d
       0.075162195 -0.024922535 0.032070518 0.056677155
000360 16 8a 9a bd 3f e4 4b bd 94 e1 8a bc 30 d1 5d 3c
       -0.07545869 -0.04977822 -0.016953267 0.013538644
000370 60 63 9a bb 5b 06 a6 bd 1a 4a 61 bd 36 c7 6c 3d
       -0.0047115535 -0.08106681 -0.05500231 0.05780717
000380 d8 8a dd 3c 12 36 61 bd e6 1c 09 3d 6a ba b2 bd
       0.027043745 -0.054983206 0.033474825 -0.08726962
000390 86 74 55 3d cf 1b 9c 3d 30 72 25 bc 14 3a 90 bd
       0.05211308 0.076224916 -0.010098025 -0.070423275
0003a0 78 df 48 bc 5f 13 8d 3d 90 f7 ea 3b 68 9a aa bc
       -0.01226031 0.0688846 0.007170625 -0.02082558
0003b0 e5 6e 91 bd 64 57 d2 bc 54 39 44 bd 08 cd 01 bc
       -0.071012296 -0.025676437 -0.047906235 -0.007922418
0003c0 aa cd 05 3d 96 9d e9 bc 1d 00 2c bd 34 a3 a5 3c
       0.03266684 -0.028517526 -0.041992296 0.020219423
0003d0 65 83 83 3d e0 09 a5 3c e8 f5 8f bd e5 e7 92 3d
       0.06421546 0.02014631 -0.07029325 0.071731366
0003e0 4e 1d 94 bd 06 7f 0d 3d a0 e6 97 bb 60 0a 63 bb
       -0.07232152 0.034544967 -0.004635647 -0.0034643635
0003f0 bd 9f 2b bd 08 63 c8 3c 8e a5 56 3d ac 99 93 bc
       -0.041900385 0.024461284 0.05240398 -0.018017612

fc3.bias f4 [2]
000000 cf a7 06 bd 98 a6 e3 3c
       -0.03287488 0.027789399
