CooperativeAgentBall/Assets/Models/RollerBall48.onnx (onnx, 83374 bytes, 8 tensors)

network_body._body_endoder.seq_layers.0.weight f4 [128, 16]
0	0x3e3e8836	0.18606648
1	0x3e73e43e	0.23817536
2	0xbe359910	-0.1773417
3	0x3e38bf10	0.18041635
4	0x3e9c9994	0.3058592
5	0xbb8fa62e	-0.004383824
6	0x3e6ca5d4	0.23110133
7	0x3a95222b	0.0011377981
8	0x3c1ab9ea	0.009443739
9	0xbd5b1295	-0.053484518
10	0x3e287687	0.16451465
11	0xbe4f357b	-0.20235245
12	0x3e367d59	0.17821254
13	0x3f1de4cc	0.6167724
14	0xbd02c277	-0.031923737
15	0xbdc607ed	-0.096694805
16	0x3eb4a4df	0.35282037
17	0xbec4f257	-0.3846614
18	0x3e900551	0.28129056
19	0x3f24fa0e	0.64444053
20	0x3a3b1212	0.00071361766
21	0x3e3f9c87	0.18712054
22	0xbebbb669	-0.36662605
23	0xbae5c557	-0.0017530125
24	0xbe8516d3	-0.25993976
25	0xbd5c07a2	-0.053718217
26	0xbea29568	-0.31754613
27	0xbd03be76	-0.03216406
28	0xbd879bc1	-0.066215046
29	0x3ec4b0c3	0.38416108
30	0xbd9ac768	-0.07557565
31	0xbdc65cda	-0.09685679
32	0x3d0cddeb	0.034391325
33	0xbe2101a9	-0.1572329
34	0xbeb7b824	-0.35882676
35	0xbda5005c	-0.08056709
36	0xbdd784dc	-0.10523388
37	0xbf06816f	-0.5254125
38	0xbf15277b	-0.5826337
39	0xbeb2bb01	-0.34908298
40	0x3e0da7a9	0.13833489
41	0x3b4c6816	0.003118997
42	0xbe8b632b	-0.27224097
43	0x3dbced98	0.09225005
44	0xbde9b741	-0.11411906
45	0x3dd3f85d	0.10350106
46	0xbe62dd9a	-0.22154847
47	0xbe82635a	-0.25466424
48	0xbe8c9305	-0.27455917
49	0xbf08e8fc	-0.53480506
50	0xbea1b2cb	-0.3158172
51	0xbe27b1a5	-0.1637636
52	0xbf687f8f	-0.9081964
53	0x3d28039b	0.041019063
54	0x3eb10315	0.34572664
55	0x3e87e77a	0.2654379
56	0xbec26781	-0.37969592
57	0xbe07d40c	-0.13264483
58	0x3d957487	0.072976165
59	0x3ee861ab	0.45387015
60	0x3dd20a8a	0.102559164
61	0x3e2f3f2b	0.1711394
62	0x3f14f977	0.58193153
63	0xbedbda41	-0.42939952
64	0xbe8f3b64	-0.27975
65	0x3eabdd7a	0.3356741
66	0x3e52e44e	0.20594904
67	0xbefdd364	-0.4957534
68	0x3da45818	0.08024615
69	0x3ca91673	0.020640587
70	0x3ed538ce	0.416449
71	0x3e9e1f93	0.30883464
72	0x3e7ccd1a	0.24687615
73	0x3e9229f6	0.2854764
74	0x3ed37760	0.41302013
75	0xbe6d7296	-0.23188242
76	0x3e00ea82	0.12589458
77	0x3ec9bb39	0.39400652
78	0x3cf32125	0.02967889
79	0xbdefad46	-0.11702971
80	0xbecece7e	-0.40391916
81	0x3eb64eee	0.35607094
82	0x3ebc8a6e	0.36824363
83	0xbc454156	-0.012039503
84	0xbcea27a3	-0.028583353
85	0x3e49d44e	0.19709894
86	0xbd979096	-0.074006245
87	0xbe0c36de	-0.13692805
88	0x3d230ced	0.03980725
89	0x3d875cd0	0.066094995
90	0x3e61cd33	0.22050934
91	0x3e804e26	0.25059623
92	0x3eccd4cd	0.40006104
93	0xbdcaccd9	-0.09902353
94	0xbd598e62	-0.053114302
95	0xbdda8295	-0.10669438
96	0x3da6a39c	0.08136675
97	0x3dab6648	0.08369118
98	0xbe302060	-0.1719985
99	0xbe6be835	-0.23037799
100	0xbd9e6ac0	-0.07735205
101	0x3e87f998	0.26557612
102	0x3e2cb0bc	0.16864294
103	0xbe92ada0	-0.2864809
104	0xbea0025d	-0.31251803
105	0xbdb983ba	-0.09058328
106	0x3e05830d	0.13038273
107	0xbe78e9db	-0.24307959
108	0xbda7f950	-0.082018495
109	0x3efa1c6e	0.48849815
110	0x3e1d7b66	0.15379104
111	0xbe35e078	-0.1776141
112	0x3e648eae	0.22320053
113	0xbecc055c	-0.3984784
114	0x3e861d12	0.26194054
115	0xbcd361be	-0.025803443
116	0x3e0191a5	0.12653215
117	0x3ea85c11	0.3288274
118	0xbe888668	-0.26665044
119	0xbe4bc8f2	-0.19900873
120	0x3e4cd9e4	0.20004994
121	0xbe15b51c	-0.14619869
122	0x3e23b3fc	0.15986627
123	0x3c82e166	0.015976619
124	0x3d27c168	0.04095593
125	0xbdead3f4	-0.11466208
126	0xbf0fa044	-0.5610392
127	0x3e8ea8fe	0.27863306
128	0x3d161350	0.03663951
129	0xbe31f44c	-0.17378348
130	0x3d5cb2de	0.05388152
131	0xbcd083ed	-0.025453532
132	0x3dbcc49d	0.092171885
133	0xbf22c00e	-0.635743
134	0xbd5f7a7a	-0.054560162
135	0xbf232044	-0.6372111
136	0xbe6c61d4	-0.23084193
137	0xbd4c0724	-0.049811497
138	0x3d39407f	0.045227524
139	0xbe689f87	-0.22717105
140	0xbdb331bd	-0.08749721
141	0xbe81588e	-0.25262874
142	0xbdc1f223	-0.09470012
143	0xbec94b7e	-0.39315408
144	0x3e6a57e7	0.22885095
145	0xbb5dfd48	-0.0033872891
146	0x3be2d4b1	0.0069223274
147	0x3f11f609	0.57016045
148	0xbee5166e	-0.44743675
149	0xbd22b943	-0.03972746
150	0xbec98e8b	-0.39366564
151	0xbe73def2	-0.23815516
152	0x3df305a7	0.118663125
153	0xbc7776be	-0.015103994
154	0xbd9c7878	-0.07640165
155	0xbe40702c	-0.1879279
156	0x3c501dad	0.012702388
157	0xbe7839c7	-0.2424079
158	0xbe981918	-0.29706645
159	0xbeb63331	-0.3558593
160	0xbebec238	-0.37257552
161	0x3ee7a2ea	0.4524148
162	0xbde98ffb	-0.11404415
163	0xbe0698b2	-0.13144186
164	0x3e61db32	0.22056273
165	0xbefeb310	-0.4974599
166	0x3e63c1df	0.22241925
167	0xbebef8a0	-0.3729906
168	0x3ecc2fac	0.3988012
169	0x3e31b62f	0.17354654
170	0x3e35d3b0	0.17756534
171	0xbda60d2d	-0.08107982
172	0xbde53373	-0.11191454
173	0x3da96deb	0.08272918
174	0x3e462d0a	0.19353119
175	0xbe84cfc5	-0.25939766
176	0xbe1f885d	-0.15579362
177	0xbe097327	-0.13422833
178	0x3e68dd55	0.22740681
179	0x3e1f87e7	0.15579186
180	0x3be67c77	0.0070338803
181	0xbd3ab6ba	-0.045584418
182	0xbe2eb40b	-0.17060868
183	0x3e49d20b	0.19709031
184	0xbb899256	-0.004198353
185	0xbe8dc11a	-0.27686387
186	0x3ba93c70	0.0051646754
187	0xbe01786a	-0.1264359
188	0x3f2501a3	0.6445562
189	0x3dfc4363	0.123175405
190	0x3db13c0a	0.0865403
191	0xbe049e40	-0.12950993
192	0xbd29896b	-0.041390818
193	0xbdf32adf	-0.118734114
194	0x3f111312	0.56669724
195	0x3f3ed096	0.74537027
196	0xbdfdb69f	-0.12388348
197	0xbe0e3ae9	-0.1388966
198	0x3d07723d	0.03306793
199	0xbe90a136	-0.28247994
200	0x3ea4dab9	0.32198122
201	0xbeaba58e	-0.33524746
202	0xbe059bac	-0.13047665
203	0x3db13559	0.086527534
204	0x3f0cfef3	0.5507652
205	0xbca2dd9b	-0.01988106
206	0x3ec9f643	0.39445695
207	0x3e84fa3d	0.25972167
208	0x3d5c99ac	0.05385749
209	0xbe0417f1	-0.12899758
210	0x3cfd6fb4	0.030937053
211	0xbe3a5f64	-0.18200451
212	0xbea1274a	-0.31475288
213	0xbdf50aef	-0.11964976
214	0xbf00a59d	-0.50252706
215	0x3dd8d3cc	0.10587272
216	0xbe137dfa	-0.14403525
217	0x3d9b3cee	0.07579981
218	0x3ea4b433	0.3216873
219	0x3d353227	0.044237282
220	0xbef66fe9	-0.48132256
221	0xbdf1ada4	-0.118006974
222	0x3cee682d	0.02910241
223	0xbd110838	-0.03540823
224	0x3ea8aa17	0.32942268
225	0x3e48466e	0.19558117
226	0xbe37d53e	-0.17952439
227	0x3e0b83f7	0.1362456
228	0xbd379eac	-0.044829056
229	0xbe7cd282	-0.24689677
230	0x3e5d26ae	0.21596786
231	0x3e5e9723	0.21737342
232	0x3f14bbb8	0.58098936
233	0xbe9d7d8c	-0.30759847
234	0xbc89e468	-0.016832545
235	0xbe846da4	-0.258649
236	0xbf05c983	-0.5226061
237	0x3eb8d70c	0.36101568
238	0x3e87ef2f	0.2654967
239	0xbe96f991	-0.2948728
240	0x3da62bad	0.08113799
241	0xbdd54d6b	-0.10415157
242	0x3e4907ee	0.19631931
243	0xbec5e5b7	-0.3865182
244	0xbcb9b61f	-0.02266985
245	0x3e94dc08	0.2907412
246	0x3cf82883	0.030292755
247	0xbdce5a9c	-0.10075876
248	0x3e7564bb	0.23964207
249	0xbda11516	-0.0786535
250	0x3e87a43b	0.26492485
251	0x3db7bd06	0.089716
252	0x3e53eb63	0.20695262
253	0x3db9b4bb	0.09067675
254	0xbc571eab	-0.01312987
255	0x3db47909	0.08812148

network_body._body_endoder.seq_layers.0.bias f4 [128]
0	0x3e0699ad	0.1314456
1	0x3cdcaa1f	0.026936589
2	0xbc8ab34d	-0.0169312
3	0xbe8275fa	-0.25480634
4	0xbd8f9688	-0.070111334
5	0xbd1815e8	-0.037130266
6	0xbdd3ec1b	-0.10347768
7	0xbce4e97e	-0.027943369
8	0xbdb8a1e3	-0.090152524
9	0x3d2acbc5	0.041698236
10	0xbd497891	-0.049187247
11	0x3cf45e6f	0.029830186
12	0xbcc1e1ee	-0.023667302
13	0xbc6d3375	-0.0144776
14	0xbc5bf90f	-0.013426079
15	0xbd333df5	-0.04376026
16	0xbc829ea5	-0.015944788
17	0x3c978ddb	0.01850026
18	0x3cf54fb0	0.029945225
19	0xbc747590	-0.014920607
20	0x3d6272bc	0.0552852
21	0xbdc4baaa	-0.09605916
22	0x3d3f4a33	0.04670162
23	0xbdf643ac	-0.12024626
24	0xbd269fd8	-0.040679783
25	0x3d917407	0.071022086
26	0x3c2555d2	0.010091262
27	0xbd80df23	-0.0629256
28	0xbd0824d5	-0.03323825
29	0xbdb69f4e	-0.08917104
30	0x3b63ab73	0.0034739643
31	0x3bfdb23a	0.0077421935
32	0x3d4e5277	0.050371613
33	0xbd11d1a9	-0.035600338
34	0xbc5e5fe4	-0.013572667
35	0x3c9a5a30	0.018841833
36	0xbd674649	-0.056463514
37	0xbcf9d33a	-0.030496228
38	0x3d9bcbe7	0.07607251
39	0xbd94209d	-0.07232783
40	0x3bed99be	0.0072509935
41	0xbdbe9816	-0.09306352
42	0xbd1b0940	-0.03785062
43	0x3d6fcd42	0.05854536
44	0xbba5141d	-0.005037798
45	0x3c76c9bf	0.015062748
46	0xbd27e572	-0.0409903
47	0x3c390f0d	0.011295092
48	0xbce80909	-0.02832462
49	0x3d1f52ea	0.038897432
50	0xbde6226f	-0.112370364
51	0x3d540c86	0.051769756
52	0x3d1f591a	0.038903333
53	0x3dc5b5db	0.09653827
54	0x3d7fb836	0.062431537
55	0x3cd592ed	0.026071036
56	0x3cf5bbd0	0.029996783
57	0xbd071ba3	-0.03298534
58	0xbd4e8cb9	-0.050427172
59	0xbda084f7	-0.07837861
60	0x3d0f4614	0.03497894
61	0xbc855c24	-0.016279288
62	0x3d27b71f	0.040946122
63	0x3c516448	0.012780257
64	0x3db22cfa	0.08699985
65	0x3c409b3f	0.011755764
66	0xbc8a6c74	-0.016897418
67	0xbbb1ba71	-0.005423837
68	0xbd57e17f	-0.052705284
69	0xbdf24034	-0.11828652
70	0xbc3a3388	-0.011364825
71	0xbdfef753	-0.12449517
72	0x3c10ec7a	0.008845443
73	0xbc18bee0	-0.009322852
74	0xbc0ca089	-0.008583196
75	0xbd877cdf	-0.06615614
76	0x3d4f952c	0.05067937
77	0xbc95bc92	-0.018278394
78	0xbddf40ff	-0.10901069
79	0x3bae4393	0.005318114
80	0x3d7ca4ce	0.061680607
81	0xbda64aff	-0.08119773
82	0xbcc2678f	-0.023731021
83	0xbd636cdc	-0.05552374
84	0x3cbad6f0	0.022807568
85	0xbe0bccf5	-0.13652404
86	0xbce3510e	-0.02774861
87	0xbd4ecc27	-0.050487664
88	0x3b8d8657	0.004318993
89	0x3c995efa	0.018722046
90	0x3d66737b	0.056262475
91	0xbc6ca012	-0.014442461
92	0xbcb156aa	-0.02164777
93	0xbca4ddc8	-0.020125285
94	0x3d84fc1d	0.06493399
95	0xbbae3bc4	-0.005317183
96	0xbd687db0	-0.05676049
97	0xbca09882	-0.019603971
98	0xbca45745	-0.020061145
99	0xbe514bb7	-0.20439039
100	0xbd044bee	-0.032298975
101	0xbd5bef83	-0.053695213
102	0xba484ff9	-0.00076413114
103	0x3b12d71c	0.0022406047
104	0xbd351a49	-0.04421452
105	0xbd483246	-0.04887607
106	0x3d0cbf98	0.034362406
107	0xbe6ebec6	-0.23314962
108	0xbcd369f0	-0.02580735
109	0xbd00d453	-0.03145249
110	0xbd2aba30	-0.04168147
111	0xbc7b18b8	-0.015325718
112	0xbc145754	-0.009054024
113	0x3d8c4f96	0.06851117
114	0xbcfa8dd0	-0.0305852
115	0x3c3029c8	0.010752149
116	0xbd9d7009	-0.07687385
117	0xba6f6449	-0.000913207
118	0xbd7a16b8	-0.061056823
119	0xbbcacaa1	-0.006188706
120	0xbdc417c2	-0.09574844
121	0xbd0165cc	-0.03159122
122	0x3d9c6768	0.07636911
123	0xbcc27c4d	-0.023740912
124	0x3ce0de33	0.027449703
125	0x3d2a79d6	0.041620098
126	0xbc5dcb03	-0.013537171
127	0x3d242b90	0.040080607

network_body._body_endoder.seq_layers.2.weight f4 [128, 128]
0	0xbe212cff	-0.15739821
1	0xbce403d4	-0.027833857
2	0x3d7cc154	0.06170781
3	0x3d4733fe	0.048633568
4	0xbe35f9d7	-0.17771088
5	0xbe8bb507	-0.2728655
6	0xbdf93ce6	-0.121698186
7	0xbd3e731d	-0.0464965
8	0x3d9a4f69	0.075346775
9	0xbe2351d0	-0.15949178
10	0x3ba28fab	0.004960974
11	0xbe0744fe	-0.13209912
12	0x3d1c562c	0.038168117
13	0x3a0fb5dd	0.0005482117
14	0x3df64103	0.12024119
15	0xbe879296	-0.26479024
16	0xbe22aa52	-0.15885285
17	0xbe408881	-0.18802072
18	0xbdb0e4b5	-0.086373724
19	0xbceb3fe8	-0.028716996
20	0x3d1c2f9e	0.03813135
21	0xbbf7612a	-0.0075494247
22	0xbe9f90f8	-0.3116529
23	0xbc87f5f9	-0.016596781
24	0xbdec9751	-0.11552299
25	0xbc515acb	-0.012777994
26	0xbe149dbe	-0.14513299
27	0xbbfe9f5b	-0.0077704615
28	0xbdf3f26c	-0.11911473
29	0x3d77d759	0.060508106
30	0x3da696a6	0.08134203
31	0xbdef7fbe	-0.11694287
32	0x3c901b60	0.017591178
33	0xbb9bd209	-0.0047552628
34	0xbe34af83	-0.17645077
35	0xbe156b1d	-0.14591642
36	0xbe618753	-0.22024278
37	0x3e0f9f37	0.1402558
38	0xbbc70ffa	-0.0060749026
39	0xbe0c987c	-0.13730043
40	0x3c0454f7	0.008076898
41	0x3de5c4a4	0.11219147
42	0xbdb97576	-0.09055607
43	0x3c20fbc4	0.009825651
44	0x3db64c38	0.08901256
45	0xbdbed684	-0.09318259
46	0xbe0da95c	-0.13834137
47	0x3c3711bb	0.011173661
48	0xbe1589fe	-0.14603421
49	0xbe3b58de	-0.18295619
50	0xbcd7f3cf	-0.026361374
51	0xbd5c05a3	-0.053716313
52	0x3b8b8219	0.004257452
53	0xbdb4246b	-0.08796009
54	0x3dfd98dc	0.12382671
55	0x3dff3fa3	0.124633096
56	0x3cc3a6e6	0.023883294
57	0x3d07d2fb	0.03316019
58	0xbe1a2eae	-0.1505687
59	0x3b04521c	0.0020190543
60	0xbe36e1b1	-0.17859532
61	0x3dfe14b4	0.124062926
62	0xbdd8e793	-0.10591044
63	0x3e1693f2	0.14704874
64	0xbe4d5f65	-0.20055921
65	0xbda8d979	-0.082446046
66	0x3e277f7e	0.16357228
67	0x3debf530	0.11521375
68	0xbdcc27b5	-0.09968511
69	0x3e35e301	0.17762376
70	0xbdb35762	-0.08756901
71	0x3e122ff5	0.14276107
72	0xbe08eadc	-0.13370842
73	0xbdaae05c	-0.083435744
74	0xbded6e0a	-0.11593254
75	0x3e44f8d3	0.19235544
76	0xbdb18945	-0.0866876
77	0xbd96f3de	-0.07370733
78	0x3d055377	0.0325503
79	0x3e109c5e	0.1412215
80	0xbe6086cb	-0.2192642
81	0xbdb934b5	-0.09043256
82	0x3dc855d7	0.09781998
83	0x3dc8b392	0.09799875
84	0x3bb017e3	0.0053739413
85	0xbda45b82	-0.08025266
86	0x3d87c15b	0.066286765
87	0xbdb21e12	-0.08697142
88	0xbd548588	-0.051885158
89	0xbe87efe8	-0.2655022
90	0xbe03cdc5	-0.12871464
91	0xbea495e3	-0.32145604
92	0xbda4ea6f	-0.08052527
93	0xbe378dd1	-0.17925192
94	0xbe531126	-0.2061201
95	0x3d5205da	0.05127511
96	0x3cf41871	0.02979681
97	0xbd62278e	-0.055213504
98	0x3d189baa	0.037257828
99	0x3e08d0f4	0.1336096
100	0xbe04cbb0	-0.12968326
101	0x3cf012f7	0.029305918
102	0x3c6102da	0.01373359
103	0xbdc0549b	-0.09391137
104	0x3dcf4036	0.10119669
105	0x3df07d66	0.11742668
106	0x3d21c237	0.03949186
107	0x3dbdb149	0.0926233
108	0xbce6f485	-0.028192768
109	0xbdebc40a	-0.11512001
110	0xbe1c82ed	-0.15284319
111	0xbdb13cc3	-0.086541675
112	0xbdf374ae	-0.11887489
113	0xbd6e49db	-0.058175903
114	0x3d81f4ee	0.06345545
115	0xbd67517d	-0.056474198
116	0xbe190767	-0.1494423
117	0xbdf03764	-0.11729315
118	0xbdbe268e	-0.092846975
119	0x3e55f612	0.2089465
120	0x3e25a0ed	0.1617467
121	0xbe09a250	-0.13440824
122	0x3de35e2f	0.111019485
123	0xbe246abc	-0.16056341
124	0xbdbe7321	-0.09299303
125	0x3d83f89a	0.06443901
126	0xbe43a5f6	-0.19106278
127	0xbc7b426b	-0.0153356595
128	0xbd3096d7	-0.043112602
129	0xbe010f72	-0.12603548
130	0x3cf9371a	0.030421782
131	0x3d4dde50	0.05026084
132	0xbd8e9f35	-0.0696396
133	0xbe2ff2ec	-0.17182511
134	0xbe49abf1	-0.19694497
135	0x3d9b92e2	0.07596375
136	0xbc5c4f8f	-0.013446703
137	0xbda5bdc0	-0.080928326
138	0xbd192a5f	-0.037393924
139	0xbe898720	-0.26860905
140	0xbe327ee5	-0.17431219
141	0x3e0befb1	0.13665654
142	0x3e2d6e2b	0.16936557
143	0xbdefc806	-0.11708073
144	0x3c1946d8	0.009355269
145	0xbe137749	-0.14400972
146	0xbdc69d17	-0.09697931
147	0xbd46d13b	-0.04853938
148	0x3c99435b	0.018708875
149	0xbd56f243	-0.052477133
150	0xbe907e74	-0.28221476
151	0xbc56987d	-0.0130978795
152	0xbd95a108	-0.07306105
153	0x3db4e4f2	0.0883273
154	0xbdac9d42	-0.08428432
155	0xbbcce484	-0.006252827
156	0xbd8b49b2	-0.06801166
157	0xbd25d3e2	-0.04048527
158	0x3e05873c	0.13039869
159	0xbdd2a1eb	-0.1028479
160	0xbdd14d8c	-0.10219869
161	0x3e267766	0.16256484
162	0xbe2b4347	-0.16724883
163	0xbe5c6929	-0.2152449
164	0xbe44b5c5	-0.19209965
165	0x3d83ec48	0.064415514
166	0xbea93d69	-0.33054665
167	0x3d9cf672	0.07664193
168	0xbde9a47d	-0.11408327
169	0x3e406370	0.18787932
170	0xbd85a73d	-0.06526039
171	0x3ccb92ab	0.02485021
172	0x3d685d75	0.056729753
173	0xbdb45a1f	-0.08806252
174	0xbe075520	-0.13216066
175	0x3c9ddffa	0.01927184
176	0xbce3a6f2	-0.027789567
177	0xbd30a4e5	-0.043126006
178	0xbe19b9d9	-0.15012302
179	0xbd60f40a	-0.054920234
180	0xbd774b95	-0.060374815
181	0x3bbb4160	0.0057145804
182	0x3caac1a2	0.020844284
183	0xbd9078fe	-0.070543274
184	0xbdcb657d	-0.09931467
185	0x3cec69a9	0.028858976
186	0xbe01a549	-0.12660708
187	0x3e4083b4	0.18800241
188	0xbd528d71	-0.05140442
189	0x3c377283	0.011196735
190	0xbd28c28d	-0.041201163
191	0xbe5df9a4	-0.21677262
192	0xbe832c3d	-0.2561969
193	0x3d3cd98d	0.04610591
194	0x3e2de9ba	0.16983691
195	0xbe0a9931	-0.13535
196	0x3bcecc91	0.0063110073
197	0x3c055d75	0.008139958
198	0xbe0e1dd6	-0.13878569
199	0xbd6448bf	-0.05573344
200	0xbe122576	-0.14272103
201	0x3e2e36be	0.1701307
202	0xbe3e7ead	-0.1860301
203	0xbd51792b	-0.051140945
204	0xbe03fd9f	-0.12889718
205	0xbe37c503	-0.17946248
206	0xbcc2d220	-0.023781836
207	0x3da9e33c	0.08295295
208	0x3d2f4c60	0.042797446
209	0xbc94bb1d	-0.018155629
210	0xbe45d2ec	-0.19318742
211	0x3df360e1	0.118837126
212	0x3db20cb0	0.08693826
213	0x3b3bac19	0.0028636514
214	0xbd1e761d	-0.03868686
215	0x3bb4705a	0.0055065574
216	0xbdc3da84	-0.09563163
217	0xbe8cce74	-0.2750126
218	0xbb59bd4c	-0.0033224402
219	0xbe18714e	-0.14886972
220	0xbd633fbd	-0.055480707
221	0x3ce98c95	0.028509418
222	0xbd9972c8	-0.07492596
223	0x3d64fa97	0.055903044
224	0x3d3716e4	0.044699565
225	0x3dfbf310	0.1230222
226	0x3e828bd5	0.25497308
227	0x3d5afd9a	0.05346451
228	0xbdd76165	-0.105166234
229	0x3d8a121f	0.067417376
230	0x3d90a3ba	0.07062478
231	0xbe10c9b1	-0.14139439
232	0x3b646fbf	0.0034856645
233	0xbe0f5d1f	-0.14000367
234	0x3d5cd729	0.05391613
235	0xbdad0786	-0.084487006
236	0xbe145fff	-0.14489745
237	0x3dfccde7	0.1234396
238	0xbdfb59fe	-0.12273024
239	0x3d98bc48	0.07457787
240	0xbde63523	-0.11240604
241	0xbd446540	-0.047948122
242	0xbda456ea	-0.0802439
243	0xbd9aad4e	-0.075525865
244	0x3b3e6748	0.002905326
245	0xbd0a6b8c	-0.03379397
246	0xbd394010	-0.04522711
247	0x3e0d1417	0.13777195
248	0xbd9c33b9	-0.07627053
249	0xbe0bf901	-0.13669206
250	0xbb890286	-0.004181209
251	0xbe672cfa	-0.22575751
252	0xbdb5e357	-0.08881252
253	0xbe16acfc	-0.14714426
254	0xbe349e48	-0.17638505
255	0xbdae02a6	-0.08496599

network_body._body_endoder.seq_layers.2.bias f4 [128]
0	0xbd336062	-0.04379309
1	0x3c7a5afb	0.0152804805
2	0x3cce1a84	0.025159128
3	0xbc1f6115	-0.009727736
4	0xbd7eeea8	-0.06223932
5	0x3cf203a8	0.029542759
6	0x3a07830a	0.00051693677
7	0xbd636170	-0.055512846
8	0xbd2d8780	-0.04236555
9	0x3d3ca686	0.046057247
10	0x3d2b2043	0.041778814
11	0x3cd3566e	0.025798049
12	0xbd04f4b7	-0.03245994
13	0x3b75e879	0.0037522598
14	0xbb880d87	-0.004152003
15	0xbd83eae8	-0.06441289
16	0xbd42d9fa	-0.04757116
17	0xbd980c9c	-0.0742428
18	0x3c99adf1	0.0187597
19	0x3d2817d8	0.041038364
20	0xbcb700ad	-0.02233919
21	0x3c03e816	0.008050939
22	0x3b648803	0.0034871108
23	0xbd8f9c52	-0.070122376
24	0xbd716f31	-0.05894393
25	0xbcf8ffd0	-0.030395418
26	0x3c7d7471	0.015469656
27	0xbc1ca98d	-0.009561908
28	0x3b751b6c	0.0037400378
29	0xbbd05256	-0.0063574715
30	0xba486279	-0.0007644068
31	0xbcf59933	-0.029980278
32	0xbb90dfd0	-0.004421212
33	0xbd5350fe	-0.051590912
34	0xbc34fd88	-0.011046775
35	0xbc550bb6	-0.01300328
36	0xbd766414	-0.060154036
37	0xbdae3c95	-0.08507649
38	0xbd2241b7	-0.03961345
39	0xbe016bd3	-0.12638788
40	0x3cfb1719	0.030650662
41	0xbbacd180	-0.005273998
42	0xbcfeb3df	-0.031091629
43	0xbcc85114	-0.024452724
44	0xbd36e8a5	-0.04465546
45	0x3d0a0dc5	0.033704538
46	0x3a5d1e3a	0.0008434985
47	0x3b6e225b	0.0036336395
48	0xbb637f5a	-0.0034713359
49	0xbd4dc9ca	-0.05024127
50	0xbc9dd6f3	-0.019267535
51	0xbdaa2f77	-0.083098345
52	0x3d7d46fc	0.061835274
53	0xbdb24b13	-0.087057255
54	0xbd7d3cbf	-0.06182551
55	0xbddfe787	-0.10932832
56	0x3c7af71a	0.015317703
57	0xbc845120	-0.016151965
58	0xbd0fb127	-0.035081055
59	0x3d095275	0.033525903
60	0xbc8e3580	-0.017359495
61	0xbc1fdb51	-0.009756879
62	0x3c27a2e8	0.010231711
63	0xbc81688a	-0.015796918
64	0x3d152f46	0.036422037
65	0x3cd222a8	0.025651291
66	0xbc7de1c5	-0.015495722
67	0xbc96e5d3	-0.018420136
68	0x3c029744	0.007970635
69	0x3cbea81f	0.023273526
70	0x3d3b5a1b	0.04574023
71	0xbc97a112	-0.018509421
72	0xbc1d38cd	-0.009596062
73	0xbcd8fb53	-0.026487028
74	0x3d23823a	0.039919116
75	0xbcea4ae2	-0.02860016
76	0xbcb6b88a	-0.022304792
77	0xbcfa9d46	-0.030592572
78	0xbd93661b	-0.071972094
79	0xbd1a4ece	-0.03767281
80	0xbd497081	-0.049179558
81	0x3d1f7258	0.038927406
82	0xbaebb297	-0.0017982301
83	0xbc30a18e	-0.010780705
84	0xbbd13ec9	-0.0063856584
85	0xbd795040	-0.060867548
86	0xb9ce0db8	-0.00039301603
87	0xbd90575e	-0.07047914
88	0xbba8044a	-0.0051274644
89	0xbd63848f	-0.05554634
90	0xbda6e922	-0.08149935
91	0xbd7cebda	-0.061748363
92	0x3cb737c7	0.022365464
93	0xbcb082cd	-0.021546746
94	0x3d8d7bd5	0.06908385
95	0xbdbddde8	-0.09270841
96	0x3a42c04b	0.00074291666
97	0xbd91ad81	-0.07113171
98	0xbc992056	-0.018692177
99	0x3b30d59e	0.0026982795
100	0x3cb0617d	0.021530861
101	0xbc05d464	-0.008168314
102	0xbca539cd	-0.020169163
103	0x3c5279c5	0.012846415
104	0xbd8aa7ee	-0.06770311
105	0xbc73904b	-0.014865945
106	0xbd03753d	-0.03209423
107	0xbc364822	-0.011125596
108	0x3d80e4e3	0.06293657
109	0xbcba614d	-0.022751475
110	0x3d2d1540	0.042256594
111	0xbd872b45	-0.0660005
112	0xbc4a8b3a	-0.012362296
113	0xbd702b31	-0.05863494
114	0xbbe77e82	-0.0070646415
115	0xbd78daf3	-0.06075568
116	0x3bdfbe15	0.0068280795
117	0xbc0d6b43	-0.00863153
118	0x3c31a1b3	0.010841775
119	0x3c880f1e	0.016608771
120	0xbd5e6d73	-0.054303598
121	0x3c469a71	0.012121783
122	0xbd2d2ecb	-0.042280953
123	0x3c8fe42c	0.017564856
124	0xbced048d	-0.028932834
125	0x3cabfa86	0.020993482
126	0x3bb30fb9	0.005464521
127	0xbc77e573	-0.015130389

action_model._continuous_distribution.log_sigma f4 [1, 2]
0	0xbe805d4f	-0.2507119
1	0xbed9f8a9	-0.42572525

action_model._continuous_distribution.mu.weight f4 [2, 128]
0	0xbb2c6f8c	-0.0026311604
1	0xbb96e412	-0.004604825
2	0xbde0125a	-0.10941
3	0xbce56fc5	-0.028007397
4	0x3d601038	0.054702967
5	0x3d3d9182	0.046281345
6	0x3add8583	0.0016900752
7	0x3cea9499	0.02863531
8	0xba9b62c6	-0.0011854998
9	0xbdc81c43	-0.097710155
10	0x3d8b95d1	0.068156846
11	0x3bddea9d	0.006772353
12	0x3daa77ed	0.08323655
13	0x3c481260	0.012211412
14	0x3def50ee	0.11685358
15	0x3cd5c683	0.026095634
16	0x3c9a90bc	0.018867843
17	0xbda0da21	-0.07854105
18	0x3dfc094d	0.123064615
19	0x3db2ad7d	0.087244965
20	0x3de7125d	0.112827994
21	0xbd8e88f2	-0.06959714
22	0x3d8429e9	0.06453306
23	0x3da654df	0.081216566
24	0xbd3c181e	-0.045921437
25	0xbd9b53cf	-0.075843446
26	0x3decb5bf	0.11558103
27	0xbca5e5a0	-0.020251095
28	0x3c605583	0.013692263
29	0x3dbdf593	0.09275355
30	0x3d313bc4	0.043269888
31	0x3dff00e7	0.12451344
32	0xbca630b5	-0.020286897
33	0x3ddcb8a1	0.10777403
34	0x3d7b64e4	0.061375514
35	0x3de739e0	0.11290336
36	0x3dd27bea	0.10277541
37	0xbd1f8e9b	-0.03895436
38	0xbd40c212	-0.04706008
39	0xbd2ca1b6	-0.042146407
40	0x3ce19257	0.0275356
41	0x3d0eeaca	0.03489188
42	0xbcce104b	-0.025154253
43	0x3d9a01f8	0.07519907
44	0xbd2e3144	-0.042527452
45	0x3d263dee	0.040586405
46	0xbc9ef145	-0.019402156
47	0x3d9a0c3c	0.07521865
48	0x3d8a1905	0.06743053
49	0xbc185abc	-0.0092989765
50	0x3e03f70e	0.12887213
51	0xbd6834bd	-0.05669092
52	0xbdcc3b66	-0.09972267
53	0x3da65d6e	0.08123289
54	0xbcfa61f7	-0.030564291
55	0x3d17eb94	0.0370899
56	0xbd47a896	-0.04874476
57	0xbc506177	-0.01271855
58	0x3d6b7cd7	0.057492103
59	0xbdafd5fc	-0.08585736
60	0xbd8e2e96	-0.06942479
61	0xbdaaa8ee	-0.08333002
62	0x3dd09889	0.10185344
63	0x3ddbef6d	0.10739026
64	0x3d097e4c	0.03356771
65	0xbd9e2aff	-0.077230446
66	0xbbae9ed3	-0.005328992
67	0xbda070b6	-0.07833998
68	0x3dc52bc6	0.0962749
69	0xbd0f09d2	-0.034921475
70	0x3d5aa31c	0.05337821
71	0xbdbf0b55	-0.09328333
72	0xbd17b407	-0.03703692
73	0x3dad8db0	0.0847429
74	0x3d88fe4f	0.066891305
75	0xbc05b1b6	-0.008160045
76	0x3deaa896	0.114579365
77	0x3d8761de	0.066104636
78	0xbdf33210	-0.11874783
79	0x3d51f06e	0.051254682
80	0x3cfe8ef1	0.03107402
81	0x3d026353	0.031833004
82	0xbd0c0a6f	-0.034189638
83	0x3e0fd60b	0.14046495
84	0x3dd27706	0.10276608
85	0x3d476b9c	0.04868661
86	0xbd478f6e	-0.04872077
87	0x3da0b5bb	0.07847162
88	0x3d02526c	0.031816885
89	0x3dc925ec	0.09821686
90	0x3c68ac6c	0.014201265
91	0x3cdc8a49	0.026921408
92	0x3bff5615	0.007792244
93	0x3d4b122f	0.049577888
94	0xbd61ea77	-0.055155244
95	0x3d8c0d18	0.06838435
96	0xbd9ec556	-0.077524826
97	0x3cc527de	0.024066862
98	0x3cabf5f1	0.020991297
99	0x3d47586e	0.048668317
100	0x3da7e876	0.08198635
101	0x3d2b0270	0.04175037
102	0xbd02b1f6	-0.031907998
103	0x3cc15ffc	0.02360534
104	0x3d54447e	0.05182313
105	0x3de21834	0.11039773
106	0x3dc52730	0.09626615
107	0xbd735a49	-0.059412275
108	0xbde6dac9	-0.11272199
109	0x3d76a343	0.060214292
110	0x3d630f33	0.055434417
111	0x3ccc58e7	0.024944736
112	0x3c2295fb	0.009923453
113	0xbc1962e8	-0.00936196
114	0x3dda7aa8	0.10667926
115	0x3d877e8b	0.06615933
116	0x3ddc5532	0.10758437
117	0xbc8ad877	-0.016948922
118	0x3dbfdc1c	0.093681544
119	0xbd9ca6c1	-0.07648993
120	0x3d28dc8b	0.04122595
121	0xbd3afee1	-0.045653228
122	0x3da35b23	0.07976367
123	0x3d52e07d	0.05148362
124	0xbc5a0ba1	-0.013308437
125	0xbba20707	-0.0049446854
126	0xbc6b0b93	-0.014346021
127	0xbd9f27ab	-0.07771238
128	0xbd7751be	-0.06038069
129	0xbdf4f215	-0.11960236
130	0x3d5ea06a	0.0543522
131	0x3d393806	0.045219444
132	0x3c517c70	0.012786016
133	0xbdae7a34	-0.08519402
134	0xbd29369e	-0.041311853
135	0xbd1e5b9d	-0.038661588
136	0x3d65b309	0.056078944
137	0xbd5cc396	-0.053897463
138	0x3de7249d	0.1128628
139	0x3d6d7e19	0.057981584
140	0xbd1c790b	-0.038201373
141	0xbda0c45c	-0.078499526
142	0x3d7fe78a	0.062476672
143	0xbcd23676	-0.025660735
144	0xbd96f251	-0.07370437
145	0x3ca373f3	0.01995275
146	0xbd767cdc	-0.06017767
147	0xbd8619ee	-0.065479144
148	0xbda20ae8	-0.079122365
149	0x3d004dc8	0.031324178
150	0x3d455978	0.048181027
151	0xbcbe879d	-0.023258025
152	0xbd5b83ca	-0.05359248
153	0xbd40524d	-0.04695349
154	0x3d32a39e	0.04361307
155	0x3d61eca5	0.055157322
156	0x3da835ac	0.08213362
157	0x3d86d5c4	0.06583741
158	0x3d02ae0b	0.03190426
159	0xbc88f8a6	-0.016720127
160	0x3cd22dfd	0.025656695
161	0xbd0fe567	-0.035130884
162	0xbd17dba4	-0.0370747
163	0x3bb01416	0.005373488
164	0xbcaade72	-0.020858023
165	0x3d3d39dd	0.04619776
166	0x3b4f78d7	0.003165772
167	0xbc5e0441	-0.013550819
168	0x3db5e04e	0.08880673
169	0x3d63a2ae	0.055575065
170	0x3ca6f38e	0.020379808
171	0xbd8fa6a8	-0.07014209
172	0xbd767a4d	-0.06017523
173	0x3d6963f5	0.056980092
174	0xbd9052bd	-0.07047031
175	0x3d828c9c	0.06374475
176	0x3d43cac0	0.04780078
177	0xbd90957f	-0.07059764
178	0xbd29c3fa	-0.041446663
179	0x3ca7d84f	0.020488886
180	0xbaae0c3b	-0.0013278791
181	0xbcc1973d	-0.023631686
182	0x3bef6a0a	0.007306342
183	0xbd0af975	-0.033929307
184	0x3db8b764	0.09019354
185	0x3dee8c0e	0.11647807
186	0x3d8f5f73	0.07000627
187	0x3da191bb	0.07889124
188	0xbd7f179f	-0.062278386
189	0x3d3923d5	0.045200188
190	0xbd401ed4	-0.0469044
191	0xbb1d2375	-0.0023977433
192	0xbdcc5906	-0.099779174
193	0xbd1289dd	-0.035776008
194	0xbdb79175	-0.089632906
195	0xbc68d4eb	-0.01421092
196	0xbd7a25b2	-0.061071105
197	0x3db503d6	0.08838622
198	0xbdfebd9d	-0.124385096
199	0x3caae18a	0.020859499
200	0x3d84e650	0.06489241
201	0x3d058e12	0.032606192
202	0xbdd58a6e	-0.10426794
203	0xbd4262a0	-0.047457337
204	0x3c0669c9	0.008203932
205	0xbd8cfe9e	-0.06884502
206	0x3c70f9f4	0.014708031
207	0xbd71de7f	-0.05905008
208	0xbd40d036	-0.047073565
209	0x3db4257c	0.08796212
210	0x3d807c25	0.06273679
211	0x3d1afd02	0.037838943
212	0x3c6e0c27	0.0145292645
213	0xbd6620c7	-0.056183603
214	0xbdaa1902	-0.08305551
215	0xbc476762	-0.0121706445
216	0x3ce08657	0.027407808
217	0xbca948da	-0.020664621
218	0xbd135fee	-0.035980158
219	0xbd68539a	-0.056720354
220	0x3d8f218f	0.06988823
221	0xbe023765	-0.12716444
222	0x3d884656	0.066540405
223	0xbd83cfc4	-0.064361125
224	0x3c895f1f	0.01676899
225	0xbd146bcd	-0.03623562
226	0xbddb9c0a	-0.107231215
227	0x3d524fc5	0.051345605
228	0x3d95712c	0.072969764
229	0x3c6a4df4	0.014300812
230	0x3d499957	0.049218502
231	0x3d6dd79f	0.05806696
232	0xbcd875f6	-0.026423436
233	0x3d50b0a1	0.050949696
234	0x3d3f58d4	0.046715572
235	0xbc4479f0	-0.011991963
236	0x3d5fd8cf	0.054650124
237	0x3cfdf86b	0.031002244
238	0xbdae82a8	-0.085210145
239	0xbd08c21f	-0.033388253
240	0xbe01f42b	-0.12690799
241	0xbd51f5c5	-0.051259775
242	0x3d09d611	0.033651415
243	0xbcb3484d	-0.021885062
244	0xbd9bf450	-0.07614958
245	0xbdaf5399	-0.08560867
246	0xbd33929c	-0.04384099
247	0xbc9d15e2	-0.019175474
248	0xbd4d1764	-0.050071135
249	0x3d9bf241	0.07614566
250	0xbc452710	-0.012033239
251	0x3d8c60c6	0.068543956
252	0x3d973075	0.07382289
253	0x3dd87054	0.105683
254	0x3d4cdf43	0.050017606
255	0xbcb85b28	-0.022504404

action_model._continuous_distribution.mu.bias f4 [2]
0	0xbc7b1d5c	-0.015326824
1	0x3d7d57ea	0.06185142

action_model._discrete_distribution.branches.0.weight f4 [1, 128]
0	0xba9e8e23	-0.0012096803
1	0x3ca194bf	0.019724248
2	0x3c81d7b3	0.015849924
3	0x3c1438f4	0.009046782
4	0x3c4ebdf8	0.012618534
5	0xbc4f4ba0	-0.012652308
6	0x3c5bb2cb	0.013409327
7	0x3a71ccb2	0.00092239224
8	0xbafbe31f	-0.0019217468
9	0xbc243676	-0.01002275
10	0xb8046e36	-3.1573894e-05
11	0xb9fa9cef	-0.0004780064
12	0xbc1babd7	-0.009501419
13	0x3b2b2709	0.0026115796
14	0xbc68a3cf	-0.014199211
15	0xbcaa2a0f	-0.020772008
16	0x38fd4efb	0.00012078691
17	0x3b74f5a0	0.003737785
18	0x3c1285d8	0.008943044
19	0xbb85ae73	-0.004079634
20	0x3c64f86f	0.013975247
21	0x3cb33ed8	0.021880552
22	0xbb88aa07	-0.0041706595
23	0x3c726447	0.014794416
24	0x3c0752bf	0.008259474
25	0x3b84d469	0.0040536416
26	0xba7e238f	-0.00096946297
27	0xbb4e23bb	-0.0031454402
28	0x3c79c6d2	0.015245156
29	0x3b2916dc	0.0025800979
30	0xbb7fec08	-0.0039050598
31	0xb8a3fa37	-7.819052e-05
32	0x3bd0bf17	0.006370436
33	0x3b99429b	0.0046771294
34	0x3c01bc43	0.00791842
35	0x3bb730d7	0.005590539
36	0x3b925cbf	0.0044666226
37	0xbc39e869	-0.011346915
38	0xbbd1e688	-0.0064056553
39	0xbc1adbe9	-0.009451845
40	0xbbdf5b05	-0.0068162703
41	0x3be7d512	0.0070749605
42	0xbbca68ae	-0.0061770296
43	0x3ae12712	0.0017177782
44	0x3c894519	0.016756581
45	0xbb63405a	-0.0034675808
46	0x3bc44a76	0.0059903217
47	0xbbd3f648	-0.006468568
48	0x3b864f0b	0.004098778
49	0xbb84213e	-0.004032283
50	0x3c8c0f3d	0.01709711
51	0x3b51765a	0.0031961412
52	0x3ac496b4	0.0014998526
53	0x398c9fd0	0.0002682195
54	0x3b15e7f3	0.0022873848
55	0xbb013837	-0.0019717345
56	0x3a6aa52d	0.0008951005
57	0xba0e454e	-0.00054271973
58	0xbc4f196b	-0.012640337
59	0x3aa02e5f	0.0012220851
60	0xbc2da614	-0.010598678
61	0xbc6b971d	-0.01437929
62	0x3bf22a15	0.0073902705
63	0xbb88d1b3	-0.0041753887
64	0xbb152300	-0.0022756457
65	0xbc87483f	-0.016513942
66	0x3ab89f9b	0.0014085652
67	0xbbcf9b52	-0.0063356543
68	0x3c922d9e	0.017844018
69	0xbbd795bf	-0.0065791304
70	0xbbfc2927	-0.0076953354
71	0x3c7feb22	0.015620025
72	0x398c11df	0.00026716196
73	0x3b3d3e51	0.0028876255
74	0x3c06ab87	0.008219606
75	0x3c9c5b8d	0.019086624
76	0x3c10afb0	0.00883095
77	0x3c007f6a	0.007842878
78	0xbc77c597	-0.015122793
79	0x3bf875d0	0.0075824037
80	0x3a23d7f3	0.00062501355
81	0x3c3e37cf	0.0116099855
82	0x3bf83f72	0.0075759226
83	0x3b5df13d	0.0033865713
84	0x3c552b0b	0.0130107505
85	0x3b1ffe5b	0.0024413082
86	0xbc3fe244	-0.011711661
87	0xb9ad64ff	-0.0003307238
88	0x3c318454	0.010834772
89	0x3c54852b	0.012971203
90	0x3be20f7f	0.00689882
91	0xbb88b5ac	-0.0041720476
92	0x3c0d13d1	0.008610682
93	0xbbbb102f	-0.0057087163
94	0xbc30b2f0	-0.0107848495
95	0x3c1f8c3a	0.009738022
96	0x3c237002	0.009975435
97	0xbae80c12	-0.0017703793
98	0xbb8b850f	-0.004257805
99	0xbc60b1c8	-0.013714261
100	0xbc1f6608	-0.009728916
101	0x39bfc499	0.00036576836
102	0x3c533a03	0.012892249
103	0x3c353962	0.011061044
104	0xbc2b48b7	-0.010454348
105	0xbc11af21	-0.008891852
106	0xbb8f6087	-0.0043755206
107	0x39967159	0.0002869468
108	0xbc4f2557	-0.01264318
109	0x3aa09b87	0.0012253382
110	0x3c1b0c1d	0.009463337
111	0x3ca6a223	0.020340985
112	0x3b41ac7a	0.0029552267
113	0x3caeecb3	0.021353101
114	0xbc2c4c13	-0.010516184
115	0xbbe6e74b	-0.0070466152
116	0x3b1faa6a	0.002436305
117	0x3bd11d60	0.0063816756
118	0xbb8f4523	-0.0043722554
119	0x3aec72aa	0.0018039544
120	0x3b93e417	0.0045132744
121	0xbb269163	-0.0025416247
122	0x3b60ac9b	0.0034282568
123	0xbba04e8d	-0.0048921765
124	0xbbbab1a3	-0.0056974455
125	0x3c27df07	0.010246045
126	0xbb473fa1	-0.0030402916
127	0x3add2a92	0.0016873649
