CooperativeAgentBall/Assets/Models/RollerBall89.onnx (onnx, 76482 bytes, 6 tensors)

fc1.weight f4 [128, 16]
-0.19983959 -0.24020794 0.14190438 0.23271307 0.04259059 0.075986296 -0.0016236305 -0.2195966
-0.20299563 0.22129554 -0.07886234 0.03466156 0.14124563 0.01002869 -0.078692794 -0.22955713
-0.19123247 0.21545038 0.007959485 0.15293062 -0.050769925 0.1272909 0.2381025 0.15518227
-0.02424109 0.13048849 0.24915767 -0.17188096 0.19754335 0.24389786 0.024493068 0.22511005
0.037373483 0.0282152 0.16388464 0.15084493 -0.21615914 -0.06199214 0.055478156 0.08708295
0.24584934 0.2276578 -0.14063472 0.13312098 0.23253044 0.06495184 -0.12221491 -0.056542218
0.07302034 -0.11356583 0.17916727 0.19970173 0.21052739 -0.10344675 0.01742202 0.21172073
-0.08299261 0.092291504 -0.2160821 0.020206809 -0.22686905 0.13946667 -0.14593935 0.18029344
-0.015872866 -0.22374159 -0.043120503 0.02822715 0.18176204 -0.04975888 0.20423266 0.22189158
-0.24397787 -0.07464257 0.009154767 0.0280433 0.003688693 0.1623939 -0.09833729 0.08576292
0.09360054 -0.15090775 0.12871054 0.1851196 -0.23157758 0.034225464 0.21405822 -0.08243361
-0.074700326 -0.1352655 0.031419843 -0.08158353 -0.06630653 -0.12907133 -0.16766721 0.10085523
0.13016045 -0.17601097 -0.04410425 -0.007980019 0.16396064 -0.010703415 -0.09147194 0.11798501
-0.22968358 -0.22359487 0.14201277 0.13565841 0.0050568283 -0.1747554 -0.024647534 -0.09294456
-0.034106642 -0.082707286 0.09823039 -0.23231462 -0.19861919 0.010604858 0.20354193 -0.071490616
0.20996693 0.021911561 0.07346353 -0.05477178 0.053279072 -0.18219578 0.04791695 -0.0230833
0.025532007 -0.21163294 0.045656472 0.21732989 0.023846924 -0.0024290383 0.22931686 0.031808645
0.012809932 0.10591921 -0.10302439 -0.19629973 0.22412416 0.08968285 -0.02688557 -0.034797132
-0.019140154 -0.00059992075 -0.22093764 -0.14596713 0.15739211 0.08851504 0.13498932 0.20986855
0.01903817 -0.042632163 0.11401251 0.18282348 0.022531986 0.22175744 -0.034110516 0.010350406
0.15850282 -0.20421451 0.18670711 0.058870494 -0.17190486 0.008512288 0.091400295 -0.17069384
-0.043118685 -0.16620016 0.16463307 -0.15560919 0.10257429 -0.22403592 -0.12416628 0.027604163
-0.061097264 0.07822338 -0.17736343 -0.23400053 0.006584674 -0.19091704 -0.20174405 0.09534475
-0.15694302 -0.13902643 -0.21728519 -0.22001892 -0.24753031 -0.23806676 0.2106114 0.13235149
-0.17363721 0.16695917 -0.01267612 0.14387295 -0.14470658 -0.07923329 -0.015848994 -0.23994622
-0.21509442 -0.049614787 -0.077195585 -0.113290876 -0.15147808 0.24552378 0.1258944 -0.0022951365
-0.08488178 -0.24335086 -0.024267077 0.023290187 0.04529336 0.106007814 -0.21766704 -0.13549444
0.12856668 -0.15633813 -0.086283594 -0.12162092 0.026474655 -0.12410289 -0.13340619 0.1499708
0.0009702444 0.012741834 0.23082301 -0.23951393 -0.033382446 0.086609334 0.19327664 -0.090246975
0.10754171 0.10609722 0.202519 -0.109757155 -0.22003394 -0.021743476 0.066862375 0.22129133
-0.04565841 0.073115736 -0.225795 0.025960833 -0.1281139 0.094519645 0.2198458 -0.0043137968
0.07199782 0.02845174 -0.2066401 -0.23415029 0.083384246 -0.1335254 -0.23482004 -0.0048123896
00000000: c0a2 4cbe 12f9 75be 624f 113e 564c 6e3e
00000010: 7873 2e3d b49e 9b3d 00d0 d4ba eedd 60be
00000020: 16de 4fbe 4c9b 623e 9482 a1bd 48f9 0d3d
00000030: b2a2 103e 604f 243c b029 a1bd 0611 6bbe
00000040: 72d2 43be 069f 5c3e 8068 023c d899 1c3e
00000050: 20f4 4fbd 8c58 023e 24d1 733e 1ae8 1e3e
00000060: 4095 c6bc c69e 053e 3023 7f3e 9001 30be
00000070: ce48 4a3e 5cc0 793e b0a5 c83c 4083 663e
00000080: f014 193d 9023 e73c 60d1 273e 1877 1a3e
00000090: d258 5dbe 78eb 7dbd 103d 633d 8c58 b23d
000000a0: eebf 7b3e 201f 693e 8c02 10be de50 083e
000000b0: 761c 6e3e 7805 853d d04b fabd d098 67bd
000000c0: b08b 953d 3495 e8bd a077 373e 9c7e 4c3e
000000d0: 7e94 573e e4db d3bd a0b8 8e3c 52cd 583e
000000e0: 08f8 a9bd 5403 bd3d a044 5dbe c088 a53c
000000f0: 5c50 68be 5ad0 0e3e 2071 15be d89e 383e
00000100: d007 82bc 841c 65be 209f 30bd a03c e73c
00000110: d41f 3a3e f8cf 4bbd 5e22 513e 8c37 633e
00000120: 56d5 79be 34de 98bd e0fd 153c 10bb e53c
00000130: 00be 713b 964a 263e 1065 c9bd 78a4 af3d
00000140: a4b1 bf3d 9087 1abe b2cc 033e fe8f 3d3e
00000150: ac22 6dbe 0030 0c3d 1432 5b3e f4d2 a8bd
00000160: 7cfc 98bd 0a83 0abe 18b2 003d 4415 a7bd
00000170: b8cb 87bd 462b 04be f4b0 2bbe 308d ce3d
00000180: c848 053e 383c 34be a8a6 34bd a0be 02bc
00000190: 4ce5 273e 605d 2fbc a455 bbbd 20a2 f13d
000001a0: 2c32 6bbe 0ef6 64be cc6b 113e 0aea 0a3e
000001b0: c0b3 a53b 14f3 32be a0e9 c9bc b859 bebd
000001c0: 68b3 0bbd 7062 a9bd 042d c93d e2e3 6dbe
000001d0: d462 4bbe 00c0 2d3c 4c6d 503e ac69 92bd
000001e0: 9201 573e e07f b33c 0c74 963d 6058 60bd
000001f0: 283b 5a3d 8891 3abe 9044 443d 3019 bdbc
00000200: 8028 d13c 4eb6 58be 4802 3b3d ba8b 5e3e
00000210: a05a c33c 8030 1fbb 0ad2 6a3e c849 023d
00000220: c0e0 513c 2cec d83d 74fe d2bd cc02 49be
00000230: ce80 653e a4ab b73d 203f dcbc 7087 0ebd
00000240: d0cb 9cbc 0044 1dba 7a3d 62be 6878 15be
00000250: 662b 213e 6047 b53d a43a 0a3e c8e7 563e
00000260: f0f5 9b3c 109f 2ebd 647f e93d 1436 3b3e
00000270: 0095 b83c 6214 633e 78b7 0bbd c094 293c
00000280: 904e 223e 9c1d 51be 2630 3f3e 3022 713d
00000290: d407 30be 2077 0b3c 1430 bb3d 5eca 2ebe
000002a0: 389d 30bd 6030 2abe 9295 283e 0458 1fbe
000002b0: 7812 d23d ac69 65be e44a febd 2022 e23c
000002c0: 2041 7abd 9433 a03d c29e 35be d69d 6fbe
000002d0: 40c4 d73b c27f 43be fe95 4ebe 1c44 c33d
000002e0: acb5 20be f25c 0ebe 0280 5ebe a44c 61be
000002f0: 9678 7dbe c6c7 73be 84aa 573e 2687 073e
00000300: f4cd 31be 58f7 2a3e 80af 4fbc 6e53 133e
00000310: f62d 14be 1045 a2bd c0d5 81bc 76b4 75be
00000320: b641 5cbe e038 4bbd b818 9ebd 0c05 e8bd
00000330: 121d 1bbe 966a 7b3e 76ea 003e 006a 16bb
00000340: 80d6 adbd f830 79be c0cb c6bc 10cb be3c
00000350: 8885 393d a01a d93d 1ce4 5ebe 0ebf 0abe
00000360: fca6 033e 1a17 20be 74b5 b0bd 6414 f9bd
00000370: 60e1 d83c a829 febd a29b 08be f291 193e
00000380: 0058 7e3a 20c3 503c de5c 6c3e 2443 75be
00000390: 08bc 08bd 3c60 b13d 50ea 453e 68d3 b8bd
000003a0: d43e dc3d 8049 d93d 2461 4f3e 5cc8 e0bd
000003b0: 9450 61be 601f b2bc 24ef 883d 329a 623e
000003c0: 5004 3bbd b4bd 953d ce36 67be d0ab d43c
000003d0: 4a30 03be 8493 c13d 421f 613e c05a 8dbb
000003e0: 9873 933d a013 e93c 7699 53be 18c5 6fbe
000003f0: 5cc5 aa3d e2ba 08be aa74 70be 40b1 9dbb

fc1.bias f4 [128]
-0.036001265 -0.055629432 0.045976102 -0.02695027 -0.16190982 -0.09484053 -0.20225239 0.13198203
0.2124857 0.092736155 -0.23197779 -0.13998154 0.0418953 0.06994808 -0.21350574 0.1642046
0.04245618 -0.22380683 -0.19985688 -0.16345614 0.23475656 0.010801256 0.13200662 -0.23172724
0.16262206 0.23072934 -0.17553177 0.1659953 0.18035114 -0.09005949 -0.13432372 0.21165907
0.21036696 -0.18255812 0.039817393 0.074697256 -0.18527418 -0.17726785 0.02493745 -0.10319647
-0.14541352 -0.07358134 -0.13279009 -0.09473789 0.16396314 -0.18308765 0.105745345 -0.22628716
-0.09727213 0.19034338 -0.08307183 0.19205612 0.17308834 0.118168 -0.05949822 -0.21707508
-0.031165391 -0.07824224 0.16291228 -0.15132275 -0.16909266 0.19086236 0.20524275 0.019961566
-0.04459995 0.1723058 -0.04690054 0.04487008 -0.09817502 0.14302194 0.20338878 0.21624714
0.056754142 -0.12379122 0.026935011 0.24799636 -0.07355294 -0.06846729 0.115385264 0.022860944
-0.19189364 0.17856234 0.09572998 -0.04310614 -0.05706963 -0.16263434 0.21243516 -0.19392136
0.0507029 -0.1287188 0.11416891 0.06662026 -0.12670809 0.015313864 -0.10690373 -0.026323587
-0.18497375 0.14635032 0.060978293 -0.19407454 0.16091204 0.024400681 -0.07147446 -0.10069543
-0.22627383 -0.21601889 0.22980449 0.0087578 0.07096708 -0.0034410954 0.16353646 0.10220361
-0.015754372 0.16755652 0.031756878 0.20213103 -0.14639693 0.18648374 -0.14812323 0.0009364784
0.14193597 0.1151613 0.03255084 -0.2000759 -0.027057648 0.15665543 -0.08464387 -0.08217615
00000000: 1076 13bd b0db 63bd 7051 3c3d d0c6 dcbc
00000010: b0cb 25be c03b c2bd 401b 4fbe 4c26 073e
00000020: da95 593e 74ec bd3d 968b 6dbe 5257 0fbe
00000030: 689a 2b3d f040 8f3d 40a1 5abe 4025 283e
00000040: 88e6 2d3d 9e2d 65be 48a7 4cbe 0c61 27be
00000050: 0664 703e c0f7 303c be2c 073e e849 6dbe
00000060: 6686 263e 5044 6c3e 9abe 33be acfa 293e
00000070: f8ad 383e 1c71 b8bd 288c 09be 28bd 583e
00000080: 706a 573e 84f0 3abe 9017 233d e0fa 983d
00000090: 84b8 3dbe b485 35be a049 cc3c ac58 d3bd
000000a0: 48e7 14be d0b1 96bd 20fa 07be f005 c2bd
000000b0: f4e5 273e 547b 3bbe 0491 d83d d2b7 67be
000000c0: 9c36 c7bd 60e9 423e 9021 aabd 5caa 443e
000000d0: 123e 313e 1002 f23d 68b4 73bd ee48 5ebe
000000e0: 904e ffbc 783d a0bd 7ad2 263e 5af4 1abe
000000f0: a026 2dbe 6c71 433e 282b 523e 7086 a33c
00000100: 70ae 36bd ee70 303e c81a 40bd b0c9 373d
00000110: fc0f c9bd 5874 123e 2645 503e e46f 5d3e
00000120: 0877 683d 4086 fdbd d0a6 dc3c c2f2 7d3e
00000130: eca2 96bd 9438 8cbd 1c4f ec3d e046 bb3c
00000140: c47f 44be 0cd9 363e 140e c43d 1090 30bd
00000150: d8c1 69bd 9e89 26be 9a88 593e 5293 46be
00000160: d8ad 4f3d dcce 03be 64d1 e93d 3470 883d
00000170: c4bf 01be 00e7 7a3c 58f0 dabd 90a4 d7bc
00000180: c269 3dbe dcdc 153e 60c4 793d 7abb 46be
00000190: 20c6 243e f0e3 c73c 3461 92bd 6839 cebd
000001a0: 54b4 67be 0e34 5dbe de51 6b3e e07c 0f3c
000001b0: 3057 913d 0084 61bb 1a76 273e 2050 d13d
000001c0: 500f 81bc f093 2b3e 8013 023d 70fb 4e3e
000001d0: 14e9 15be 98f5 3e3e 9ead 17be 007e 753a
000001e0: aa57 113e b0d9 eb3d 0854 053d b2e0 4cbe
000001f0: 00a8 ddbc 486a 203e c459 adbd f84b a8bd

fc2.weight f4 [128, 128]
-0.0014530346 -0.062237777 0.010212526 -0.048172373 -0.05517077 0.029192433 0.08108055 0.018741637
-0.082274735 0.00013968349 -0.015290432 -0.07766703 0.017455488 -0.062969424 -0.06392451 0.0063604414
0.06616273 0.060368158 0.08234427 -0.0116512105 -0.0674022 0.06563937 -0.035963822 0.044333093
-0.06756445 -0.06476984 0.087651126 0.031506203 0.050692715 -0.04772314 0.04068535 0.00038465112
-0.057808787 -0.02937515 -0.026174478 -0.02634219 0.05597026 -0.032442812 0.013999447 0.07275062
0.010861076 0.07235669 0.042242654 -0.032322872 -0.034124594 -0.033084255 -0.062105656 -0.072676815
0.032736257 0.013190448 0.03763143 -0.019022614 -0.011941813 -0.040722746 -0.062056303 0.07374599
0.071101405 0.009792611 0.019110084 0.031985782 -0.04169476 -0.0042492673 -0.014865845 0.048879854
-0.07318927 -0.02924243 0.073776 -0.04613606 0.045341857 -0.027450517 -0.047840137 -0.0055096895
0.07050755 -0.013207212 -0.037302624 0.008765236 -0.083733924 -0.06374852 -0.07771214 0.067206286
-0.06393461 -0.04455199 0.007839471 -0.036575202 0.0820707 -0.07562329 0.033459894 -0.028779436
0.08465754 0.0023580864 0.069174476 0.059819452 -0.030871555 0.022262663 0.028528176 0.081583895
0.08364234 -0.0026856586 -0.05510219 -0.04760063 -0.07052697 0.085331894 0.08756044 -0.01671695
-0.02845262 0.047086842 0.009540327 -0.05952046 0.020589158 0.041558288 -0.006323695 -0.004299335
0.06973701 0.04640407 -0.048249386 -0.08516176 0.0827749 0.06720825 0.051010124 -0.058062445
-0.026292816 0.035973966 -0.017665483 0.014910743 -0.07575353 -0.07771216 -0.045961697 -0.008614816
0.0076487586 0.07953327 0.039419897 -0.079048365 0.07019397 0.0040774345 0.08679972 -0.070908196
0.06936436 -0.009765826 -0.031656235 0.03189639 -0.03172548 -0.05720283 0.03695529 -0.011942267
0.0820922 0.019535378 0.05079522 -0.03279446 -0.017070256 0.06699587 0.04514634 0.087260194
0.03306491 0.08665041 -0.08155824 0.03375516 0.08118371 -0.05927342 -0.026883293 0.027789779
-0.083345905 0.026482575 0.0082380995 -0.037966914 0.07868009 -0.03423741 -0.080757156 0.07662176
-0.06049478 0.08128052 -0.047770187 0.08207122 -0.081812486 -0.011202507 -0.048935115 -0.023928992
-0.008989587 0.05589325 -0.04012479 0.011399604 -0.01700601 0.017508745 -0.063979864 0.063503675
-0.010365434 -0.071158685 -0.063858524 0.047211356 -0.07607853 0.07874132 -0.051162113 0.034325205
-0.07575503 0.07532471 -0.06331715 0.05569824 -0.025678828 0.08107292 0.009577945 0.01947318
-0.08460258 -0.07115548 0.02473177 0.004142642 0.03315539 -0.08316412 0.008408278 -0.008170702
-0.066313125 0.07562824 0.02031514 -0.017349325 -0.025295578 0.042735524 0.051553868 -0.083530836
-0.0043554977 0.08592076 0.062578104 -0.065041445 -0.032481268 -0.06800559 -0.08571427 0.0027583763
0.012736745 0.063156165 0.007423766 -0.06172327 0.05570153 -0.030569047 -0.060583144 -0.047860958
-0.08686365 0.011264041 -0.075165555 -0.0039660633 0.013188288 -0.065422244 -0.009155877 0.022044137
-0.03107018 -0.0826198 -0.037960622 0.008500278 0.045072578 -0.014273629 0.02024386 0.050082035
0.02442199 -0.01762437 0.049963318 0.054375477 0.04940676 -0.08024622 0.003093034 -0.037573967
00000000: c073 beba 0aed 7ebd 7052 273c 6550 45bd
00000010: bffa 61bd f824 ef3c 8f0d a63d 1088 993c
00000020: a87f a8bd 0078 1239 b884 7abc e40f 9fbd
00000030: d0fe 8e3c 1df6 80bd daea 82bd 406b d03b
00000040: 5380 873d 9a44 773d 1da4 a83d b8e4 3ebc
00000050: 2a0a 8abd ef6d 863d cd4e 13bd 9e96 353d
00000060: 3b5f 8abd 0da6 84bd 6f82 b33d a60c 013d
00000070: 2aa3 4f3d 5779 43bd aea5 263d 00ab c939
00000080: e8c8 6cbd 28a4 f0bc dc6b d6bc 94cb d7bc
00000090: 1241 653d c1e2 04bd f05d 653c 47fe 943d
000000a0: a8f2 313c bf2f 943d a206 2d3d fd64 04bd
000000b0: 3bc6 0bbd 5b83 07bd 8062 7ebd 95d7 94bd
000000c0: 7416 063d c01c 583c 6a23 1a3d 50d5 9bbc
000000d0: 98a7 43bc e5cc 26bd c02e 7ebd 2308 973d
000000e0: 9d9d 913d 3071 203c c08c 9c3c 8603 033d
000000f0: 20c8 2abd 703d 8bbb e08f 73bc 3e36 483d
00000100: 42e4 95bd d28d efbc df17 973d 2af9 3cbd
00000110: 62b8 393d e8df e0bc 05f4 43bd a08a b4bb
00000120: 4366 903d 1063 58bc a3ca 18bd 109c 0f3c
00000130: b17c abbd 968e 82bd 8b27 9fbd 73a3 893d
00000140: 26f0 82bd 267c 36bd 2071 003c e1cf 15bd
00000150: af14 a83d 62e0 9abd 3e0d 093d dac2 ebbc
00000160: ef60 ad3d 208a 1a3b 59ab 8d3d 3e05 753d
00000170: 58e6 fcbc 3060 b63c ecb3 e93c 7515 a73d
00000180: ad4c ab3d e001 30bb d5b2 61bd e1f8 42bd
00000190: 7270 90bd 7dc2 ae3d e352 b33d fcf1 88bc
000001a0: 7815 e9bc 22de 403d 084f 1c3c bacb 73bd
000001b0: 98aa a83c 0639 2a3d 0037 cfbb 70e1 8cbb
000001c0: 47d2 8e3d 3212 3e3d 26a1 45bd 4a69 aebd
000001d0: e385 a93d 7ba4 893d feef 503d e3d2 6dbd
000001e0: 0864 d7bc 7059 133d 34b7 90bc 304c 743c
000001f0: ab24 9bbd 8e27 9fbd 5542 3cbd 2825 0dbc
00000200: 70a2 fa3b 57e2 a23d c276 213d 1ce4 a1bd
00000210: dbc1 8f3d 009c 853b 0dc4 b13d 5138 91bd
00000220: e70e 8e3d d800 20bc f8a9 01bd caa5 023d
00000230: 94f2 01bd 844d 6abd 6e5e 173d 80a9 43bc
00000240: f51f a83d a808 a03c a60e 503d 7c53 06bd
00000250: ecd6 8bbc 2135 893d 5eeb 383d 79b5 b23d
00000260: 126f 073d c575 b13d 0208 a7bd da42 0a3d
00000270: a543 a63d b0c8 72bd 5a3a dcbc 64a7 e33c
00000280: 42b1 aabd fcf1 d83c 18f9 063c 3283 1bbd
00000290: 0723 a13d 873c 0cbd 0264 a5bd dfeb 9c3d
000002a0: 60c9 77bd 6776 a63d acaa 43bd f514 a83d
000002b0: 4e8d a7bd b88a 37bc 3070 48bd bc06 c4bc
000002c0: 1049 13bc 52f0 643d e459 24bd 68c5 3a3c
000002d0: 3050 8bbc 806e 8f3c e007 83bd 370e 823d
000002e0: c8d3 29bc a5bb 91bd 42c8 82bd b260 413d
000002f0: 0fcf 9bbd 2143 a13d 5d8f 51bd 9698 0c3d
00000300: 7425 9bbd d743 9a3d 6cac 81bd d623 643d
00000310: 685c d2bc 8f09 a63d d0ec 1c3c 3886 9f3c
00000320: 1e44 adbd f7b9 91bd 489a ca3c 00bf 873b
00000330: f2cd 073d f351 aabd e0c2 093c 68de 05bc
00000340: 2dcf 87bd fbe2 9a3d f06b a63c 2c20 8ebc
00000350: ac38 cfbc 720b 2f3d 262a 533d 3712 abbd
00000360: 90b8 8ebb 39f7 af3d f328 803d 7334 85bd
00000370: 140b 05bd 8446 8bbd f78a afbd e0c5 343b
00000380: c8ad 503c 0558 813d 1043 f33b 8ad1 7cbd
00000390: 4a27 643d f06b fabc 0826 78bd da09 44bd
000003a0: 92e5 b1bd d08c 383c 66f0 99bd c0f5 81bb
000003b0: b013 583c 19fc 85bd 8802 16bc e895 b43c
000003c0: e486 febc 9234 a9bd 997c 1bbd c044 0b3c
000003d0: 069e 383d f0db 69bc 74d6 a53c d222 4d3d
000003e0: a010 c83c fc60 90bc 56a6 4c3d d2b8 5e3d
000003f0: be5e 4a3d 2158 a4bd 80b4 4a3b 29e7 19bd

fc2.bias f4 [128]
0.008253425 0.080304496 0.033490725 0.00735946 0.045737617 0.01878795 0.079223834 -0.026005112
0.07356248 -0.035714764 -0.029370736 -0.052709162 0.004577704 -0.08527873 0.043514885 -0.07271407
-0.01919423 -0.06279096 -0.084656306 0.086043574 0.061634146 0.06382959 -0.034904353 0.047584273
0.08167403 0.013966136 0.03983047 -0.0052771717 -0.049724787 -0.013224594 -0.055072937 -0.0007301718
0.07958897 0.05894629 0.03898651 0.027081817 0.046496995 0.0040556565 -0.024450757 0.079288386
-0.0148898065 -0.07462682 -0.086880565 0.0839384 0.073018424 -0.020753182 0.067827575 0.04956106
0.023985505 0.003983885 -0.022937916 0.032861613 -0.0805761 0.08450132 -0.00934834 0.08442005
-0.04637739 0.032315455 0.052733816 0.0850387 0.07794651 -0.06754555 -0.06708319 0.009892024
0.024633557 -0.031290293 0.035192415 -0.05701027 -0.025375806 -0.03440007 -0.049711302 0.06637753
-0.02849108 0.061287306 -0.058202364 0.046625234 -0.07788178 -0.012061015 -0.0020851642 -0.048352372
0.085522495 -0.012518428 0.0383515 -0.07359969 0.085950755 0.04286962 -0.04523007 0.036049657
0.08505388 -0.08213493 -0.054585088 -0.07475774 -0.016061902 -0.06323837 0.08776266 -0.003176026
0.029169172 -0.07590906 0.07518817 -0.052303407 0.08764013 -0.07540964 -0.038544692 -0.071747735
0.07781971 -0.04385687 0.040279813 -0.06080336 0.028896637 0.03432259 0.029520303 0.03420043
0.085534 -0.0088298395 -0.014739081 0.04874564 0.014948465 0.071739145 0.0064846724 0.015335888
0.058803447 0.04605625 0.014823243 -0.02837348 -0.07226714 0.008835405 0.0060996786 0.06081245
00000000: 6039 073c af76 a43d 922d 093d a027 f13b
00000010: 5e57 3b3d 30e9 993c 1b40 a23d ac08 d5bc
00000020: eda7 963d a549 12bd e69a f0bc 90e5 57bd
00000030: 9000 963b 9da6 aebd aa3c 323d 1deb 94bd
00000040: 383d 9dbc 8c98 80bd 4960 adbd 9d37 b03d
00000050: 1674 7c3d 17b9 823d def7 0ebd bae7 423d
00000060: b744 a73d 38d2 643c 4625 233d 20ec acbb
00000070: 38ac 4bbd f8ab 58bc 2994 61bd 0069 3fba
00000080: 8bff a23d aa71 713d 52b0 1f3d b0da dd3c
00000090: a273 3e3d 50e5 843b f44c c8bc f361 a23d
000000a0: 60f4 73bc f2d5 98bd 70ee b1bd e5e7 ab3d
000000b0: af8a 953d 9402 aabc 2fe9 8a3d 8a00 4b3d
000000c0: 407d c43c 408b 823b 4ce8 bbbc e699 063d
000000d0: 1505 a5bd 070f ad3d c829 19bc 6be4 ac3d
000000e0: 38f6 3dbd 365d 043d 6aff 573d c528 ae3d
000000f0: 6ba2 9f3d 5255 8abd e962 89bd 2812 223c
00000100: 50cc c93c 402a 00bd ec25 103d 9a83 69bd
00000110: ece0 cfbc 16e7 0cbd 149e 4bbd f1f0 873d
00000120: 2066 e9bc 6608 7b3d 9a65 6ebd 1afa 3e3d
00000130: 7c80 9fbd 909b 45bc 40a7 08bb 230d 46bd
00000140: 6b26 af3d 181a 4dbc 7616 1d3d 6fbb 96bd
00000150: f306 b03d 0e98 2f3d 2a43 39bd cea8 133d
00000160: bb30 ae3d 5c36 a8bd 9d94 5fbd 961a 99bd
00000170: 4094 83bc 1e83 81bd e9bc b33d e024 50bb
00000180: 30f4 ee3c 3676 9bbd 41fc 993d 193c 56bd
00000190: ab7c b33d 5f70 9abd 0ae1 1dbd 7af0 92bd
000001a0: f15f 9f3d 43a3 33bd 72fc 243d f20c 79bd
000001b0: a4b8 ec3c d895 0c3d 90d4 f13c c015 0c3d
000001c0: 732c af3d 08ab 10bc 307c 71bc 82a9 473d
000001d0: 68ea 743c f9eb 923d 607d d43b 6043 7b3c
000001e0: e2db 703d 7aa5 3c3d 30dd 723c 806f e8bc
000001f0: cb00 94bd 60c2 103c d0df c73b 7a16 793d

fc3.weight f4 [2, 128]
0.035626017 0.0608572 -0.06579517 -0.04332855 -0.026494794 0.072496094 -0.07853939 -0.0713021
-0.021189876 -0.0150638 -0.025650382 0.0038368031 -0.059173457 -0.04239289 -0.0037599131 -0.062429998
0.03203664 0.083201624 -0.06420992 0.05788178 -0.023063473 -0.0024184883 -0.07341294 0.031001411
0.017204143 0.07485708 -0.0816398 0.045644127 0.0708373 -0.07566226 -0.059934683 0.02863574
0.06581614 0.01960016 0.0608915 -0.027934004 0.006179288 0.08085563 0.06695571 -0.021227323
-0.053141337 -0.02240412 -0.004588157 -0.024767287 -0.041051336 -0.041700996 -0.027643315 0.008506425
-0.06305654 0.017559402 0.084766544 0.043629937 0.02987095 0.0024897084 0.015086815 0.00074240565
-0.032980077 0.03128782 -0.033205394 -0.026936937 0.019737504 0.053738393 0.020448469 0.053570397
-0.02300696 0.031011231 0.030922227 0.019541577 0.016586639 0.0516276 0.034039542 -0.057610262
0.06674711 0.024965256 -0.08445354 -0.03694379 0.083328046 0.061181046 0.0014321804 -0.05130971
0.07732881 0.08567224 -0.055470593 -0.017751314 -0.05302047 -0.0599079 -0.025399618 -0.073736005
-0.038276482 -0.062388264 -0.06603443 0.06404256 0.04237158 0.039325275 0.08350841 0.06870646
0.024918735 0.021839887 0.007441342 0.013454482 -0.023378864 -0.044680938 0.014704876 0.00081599504
-0.0872255 0.040990315 -0.073822774 0.07037423 -0.07829979 -0.036867693 0.074634425 -0.07170433
-0.030934818 -0.045506332 -0.017605662 -0.02615564 0.009800702 -0.08360449 0.035454594 0.04979814
0.01657983 -0.0033183768 0.08553662 -0.03670019 -0.031702984 -0.034630578 -0.05386635 0.05266232
-0.0035930425 -0.08506211 -0.04423204 -0.00899145 -0.067725524 0.030246489 -0.046465468 0.060364135
-0.015518069 0.0738034 -0.049167152 -0.014812604 -0.014382914 0.08104447 -0.08390555 -0.054839212
0.017950237 -0.07533874 0.06788508 0.057016335 0.08160625 0.010641001 -0.06469855 -0.05382103
-0.0065357015 0.03830599 0.043051817 -0.08265048 -0.0085787475 0.06872318 -0.069281474 0.039298393
-0.06282726 -0.011656374 -0.031944435 0.07570682 -0.0632744 0.027401708 0.045606785 0.01394169
0.01667612 -0.05562715 0.03254742 -0.087618664 -0.049149062 0.055023886 0.013056174 -0.08036465
-0.050717313 -0.016963929 0.08780014 0.080489 0.030742824 0.081431486 0.032441482 0.033564746
-0.020027265 0.046330355 -0.025428362 0.009127714 0.021574877 0.046162046 0.048008673 -0.007876232
0.07983551 0.044328056 0.04486712 0.05069723 -0.055732675 -0.06209825 0.023725502 -0.032271914
-0.05272185 0.041593768 0.055518202 0.041831814 -0.0272374 0.031070575 0.08120262 -0.0201438
-0.08327673 -0.011722915 0.06944873 0.05373945 0.059354194 -0.06991564 0.033059545 -0.07840454
0.05772046 -0.059706204 0.03984394 0.03544931 -0.03538545 -0.028968245 -0.0120585635 -0.032598406
-0.04623405 0.0016065761 0.06942447 0.08717338 0.065049164 -0.023267843 0.082482316 0.054633893
0.046162553 -0.056978356 0.048086785 -0.00700251 -0.042545147 -0.040036924 0.05120047 -0.018680438
-0.06395584 0.087294094 0.042795412 0.0022671968 0.08817511 0.009491183 0.079296194 0.038875706
-0.0690515 0.02078949 0.048083194 0.07701593 0.023764879 -0.043974653 -0.05328742 -0.04842734
00000000: 96ec 113d 6645 793d 9ebf 86bd 4779 31bd
00000010: 9c0b d9bc d578 943d 42d9 a0bd d606 92bd
00000020: 6496 adbc 28ce 76bc c020 d2bc e072 7b3b
00000030: de5f 72bd 2ba4 2dbd e068 76bb 99b6 7fbd
00000040: da38 033d 9d65 aa3d 7e80 83bd 7215 6d3d
00000050: 9cef bcbc 807f 1ebb 8659 96bd acf6 fd3c
00000060: b4ef 8c3c ab4e 993d c432 a7bd 56f5 3a3d
00000070: 2513 913d d1f4 9abd 127e 75bd 8095 ea3c
00000080: 9dca 863d 8490 a03c 5e69 793d dad5 e4bc
00000090: a07b ca3b a397 a53d 1320 893d ece4 adbc
000000a0: bbaa 59bd d888 b7bc 4058 96bb c4e4 cabc
000000b0: 7225 28bd aace 2abd 3c74 e2bc 885e 0b3c
000000c0: ca23 81bd bcd8 8f3c 159a ad3d 4eb5 323d
000000d0: ecb3 f43c 602a 233b b02e 773c 009e 423a
000000e0: 1e16 07bd a827 003d 6102 08bd daaa dcbc
000000f0: 8cb0 a13c ca1c 5c3d 8c83 a73c a26c 5b3d
00000100: 1879 bcbc 440b fe3c 9c50 fd3c a815 a03c
00000110: b4e0 873c 7677 533d 0c6d 0b3d bdf8 6bbd
00000120: b5b2 883d f083 cc3c faf5 acbd 5f52 17bd
00000130: e5a7 aa3d fa98 7a3d 00b8 bb3a 212a 52bd
00000140: 915e 9e3d ed74 af3d 2235 63bd 346b 91bc
00000150: fe2b 59bd fc61 75bd dc12 d0bc e702 97bd
00000160: cdc7 1cbd d68a 7fbd 0f3d 87bd bf28 833d
00000170: d28d 2d3d 8a13 213d 7506 ab3d f9b5 8c3d
00000180: 6022 cc3c 90e9 b23c 80d6 f33b 3070 5c3c
00000190: 0885 bfbc 5c03 37bd b8ec 703c 80e8 553a
000001a0: 48a3 b2bd 76e5 273d 6530 97bd 5d20 903d
000001b0: a45b a0bd 9402 17bd efd9 983d b8d9 92bd
000001c0: 046b fdbc d964 3abd c039 90bc 5a44 d6bc
000001d0: 2093 203c d538 abbd d638 113d 22f9 4b3d
000001e0: 6cd2 873c 2079 59bb d32d af3d f052 16bd
000001f0: fdda 01bd cbd8 0dbd f6a2 5cbd 72b4 573d
00000200: 4079 6bbb 0b35 aebd a82c 35bd e050 13bc
00000210: aeb3 8abd 7cc7 f73c 9352 3ebd 6240 773d
00000220: 803f 7ebc 3d26 973d 7f63 49bd 90b0 72bc
00000230: 50a6 6bbc a5fa a53d acd6 abbd 159f 60bd
00000240: 600c 933c 334b 9abd 5507 8b3d f689 693d
00000250: 2d21 a73d 9857 2e3c ac80 84bd 7173 5cbd
00000260: 7029 d6bb bee6 1c3d 1a57 303d a844 a9bd
00000270: e08d 0cbc bdbe 8c3d 72e3 8dbd 5af7 203d
00000280: 94ab 80bd 60fa 3ebc 2bd8 02bd 2d0c 9b3d
00000290: 0296 81bd 8c79 e03c 2ece 3a3d b06b 643c
000002a0: 5c9c 883c 4bd9 63bd 7250 053d 6a71 b3bd
000002b0: 8750 49bd ba60 613d 90e9 553c 3996 a4bd
000002c0: f5bc 4fbd f0f7 8abc 8fd0 b33d 6bd7 a43d
000002d0: 60d8 fb3c 8dc5 a63d 5ce1 043d 307b 093d
000002e0: 3810 a4bc e6c4 3d3d 244f d0bc 688c 153c
000002f0: ccbd b03c 6a14 3d3d bea4 443d 500b 01bc
00000300: cd80 a33d 5691 353d 96c6 373d e6a7 4f3d
00000310: f247 64bd bc5a 7ebd fc5b c23c 8e2f 04bd
00000320: def2 57bd 3a5e 2a3d 0e67 633d d657 2b3d
00000330: f820 dfbc b887 fe3c 8f4d a63d 9c04 a5bc
00000340: fd8c aabd 7811 40bc 233b 8e3d e61d 5c3d
00000350: 621d 733d ee2f 8fbd 7269 073d 8f92 a0bd
00000360: 4a6c 6c3d 7e8e 74bd 6633 233d 4c33 113d
00000370: 55f0 10bd d04e edbc 4891 45bc e885 05bd
00000380: ea5f 3dbd c093 d23a 6b2e 8e3d f587 b23d
00000390: 7f38 853d 349c bebc 7dec a83d cac7 5f3d
000003a0: f214 3d3d 2362 69bd a6f6 443d 5075 e5bb
000003b0: d243 2ebd c2fd 23bd 96b7 513d b807 99bc
000003c0: 48fb 82bd 3fc7 b23d 3e4a 2f3d 4095 143b
000003d0: 2795 b43d e880 1b3c 0b66 a23d 223c 1f3d
000003e0: df6a 8dbd b84e aa3c e2f2 443d 87ba 9d3d
000003f0: 90ae c23c c41e 34bd e943 5abd bf5b 46bd

fc3.bias f4 [2]
0.056682847 0.041117035
00000000: 462c 683d 566a 283d
